model/unicycle-ensemble-FC3-100-8/epoch_100.pth (torch, 47077 bytes, 6 tensors)

fc.0.weight f4 [100, 6]
000000 b9 2f 1c be cd 22 b8 be 13 ee 55 be 41 58 7a 3e
       -0.1525258 -0.3596405 -0.208916 0.24447729
000010 ff 8a 46 be 4c 0d 21 be 51 ba 29 bc 0c 94 50 3b
       -0.1938896 -0.15727729 -0.010359363 0.0031826524
000020 02 91 3b be 61 45 ff be cf e0 b0 3e 91 7e eb bc
       -0.18317035 -0.4985762 0.34546515 -0.028746875
000030 49 b9 bd 3c 20 9e 39 3e db 33 11 3e f4 e5 ac 3e
       0.02315964 0.18126726 0.14179938 0.3376919
000040 cf 87 d4 3e 4d 5f 3e 3e e0 c7 bf bc 91 9f 6d be
       0.41509864 0.18591042 -0.023410738 -0.23205401
000050 bc 90 c1 be 46 9d a9 be a1 ab df be a1 8d 57 3e
       -0.37805736 -0.33127803 -0.4368563 0.21050121
000060 b5 cf cc 3e 4f 1f c5 be f6 77 ba 3e f9 35 b9 3d
       0.40002218 -0.3850045 0.36419648 0.090434976
000070 d7 0b db bc 8a 61 69 be cb 29 2b 3d 31 fa 49 bc
       -0.026739044 -0.22791114 0.041787904 -0.012327717
000080 b6 fd 10 bf ba cf 64 3f da dc bd bd 6c 11 51 3d
       -0.5663713 0.89379466 -0.0927064 0.051042005
000090 3e ce 4d 3d e6 b4 be bd 19 3a 7e be a9 5a 32 3f
       0.050245516 -0.093118474 -0.2482685 0.69669586
0000a0 2c ff b0 3e 9f fa 88 3e 9b 34 d8 3c 1f 48 82 be
       0.3456968 0.2675371 0.026392272 -0.2544565
0000b0 1a af 6f ba d9 df fe bb c5 df ba 3e 0f 05 dd 3e
       -0.00091432186 -0.0077781496 0.36498848 0.43167922
0000c0 56 9d db bd 5d 86 84 3d 90 6b cc 3e fd 0a 08 3f
       -0.10723369 0.0647094 0.39925814 0.53141767
0000d0 d6 3a e9 3b 8b 3a 5c be 6b 57 92 bd 91 26 dd bd
       0.0071176095 -0.21506707 -0.0714558 -0.107983716
0000e0 12 e1 e3 3e 36 f8 ec 3e d8 2b 9a be 08 91 01 3d
       0.44507653 0.4628312 -0.30111575 0.031632453
0000f0 64 37 fa bd cd cb c0 be ae 5c fe bd 97 bc c2 be
       -0.12217596 -0.37655488 -0.12420021 -0.38034508
000100 e5 a1 20 3e 9c 1a 7e 3e cf 2c 8e be 0d bf a5 be
       0.15686758 0.24814838 -0.2776856 -0.32372323
000110 41 80 9a 3c de 3a 7c 3e 86 3f d6 3d c5 75 9a 3e
       0.018859984 0.24631831 0.10461335 0.30167976
000120 86 b8 5d 3e 48 29 bf be 02 96 d3 be b3 01 de be
       0.21652421 -0.37336183 -0.41325384 -0.4336067
000130 d3 df 4d be c3 34 8c 3e 5f 62 c7 be 6c 7a 25 3e
       -0.20104913 0.27384004 -0.3894224 0.16159981
000140 c3 9a be bd 62 50 01 3e 3c 58 43 3e e4 79 97 bd
       -0.09306862 0.1262832 0.19076627 -0.07396296
000150 de 4c ae 3e 88 d0 7f be 0e 79 d3 3e 26 d4 b3 be
       0.3404302 -0.24981892 0.41303295 -0.35122794
000160 38 ec 97 3d 28 ce e1 3e 04 78 f5 3b eb 68 8c be
       0.07418102 0.44102597 0.0074911136 -0.27423796
000170 db 92 d5 be 31 c1 b8 be 3d f2 e6 be fc 8a 4b be
       -0.41713604 -0.36084893 -0.45106688 -0.19877237
000180 78 53 3e bc 8e bb e7 3d 95 d5 2e bf c0 22 34 bf
       -0.01161658 0.1131507 -0.6829465 -0.70365524
000190 bd 11 03 3e 61 4b 90 3e 63 62 8d be 0e 24 bd 3e
       0.12799735 0.2818251 -0.27614126 0.3694157
0001a0 58 74 11 3d 05 39 10 3d c5 e4 c7 3e 6e 49 ba be
       0.035511345 0.035210628 0.39041725 -0.36384147
0001b0 f0 af 3b bd 6f d9 6a 3e f6 bf de 3e 21 cc 35 3e
       -0.045822084 0.22934507 0.4350583 0.1775365
0001c0 74 22 e3 3e fb c9 2c be 5c 3f 4f 3d 48 1f 87 3c
       0.44362223 -0.16873924 0.050597534 0.016494408
0001d0 ed 19 a3 3e 0a 79 0a bf 80 b5 bb be 4b 48 dd bd
       0.31855717 -0.5409094 -0.3666191 -0.108048044
0001e0 46 ef 9b 3e 8f 1b a2 be 57 ce f3 bc c3 47 84 3e
       0.3045599 -0.3166165 -0.029761476 0.25836
0001f0 54 2d d6 3e e7 d8 56 3e a3 97 8c 3e 48 8f ab 3d
       0.41831458 0.20981179 0.2745944 0.08376938
000200 bd da a8 be 01 52 03 3f c0 db 23 3e 63 61 ec 3e
       -0.32979384 0.51297003 0.16001797 0.4616805
000210 04 22 37 be db 2a b7 be 55 ae c2 be a5 32 1c 3e
       -0.1788407 -0.35774884 -0.3802363 0.15253694
000220 5d 6f bd bd 44 ae 44 3d d3 d6 ca 3e 73 c1 39 3e
       -0.092497565 0.048017755 0.39617023 0.18140201
000230 0b c9 08 3e 03 86 0c be 63 44 3c 3d 4c 56 9b bc
       0.13357942 -0.13722996 0.045963656 -0.018962048
000240 8e 32 88 3e 94 6b f8 3b c2 84 2b bf a4 60 d5 be
       0.2660107 0.0075811837 -0.6699945 -0.41675293
000250 c5 ea bd be 26 50 f0 be 4e fe 03 bd 03 1e 44 3d
       -0.37093177 -0.46936148 -0.032224946 0.047880184
000260 41 d6 05 bf bc 21 48 bf 5c be 47 bd 84 cc 42 bb
       -0.5228005 -0.78176475 -0.048765525 -0.0029723952
000270 c6 8f 82 be fa 13 27 be cb 5c fd be 81 40 d5 bd
       -0.25500315 -0.16316214 -0.49484858 -0.10412694
000280 7c c8 41 be fe a0 ee bd 10 77 1b be ec 42 8b 3c
       -0.18924135 -0.116518006 -0.15182137 0.016999684
000290 48 2c 4d 3e 69 9d 20 3e 66 c8 27 3e 81 a7 9f 3e
       0.20036423 0.15685047 0.1638504 0.31182483
0002a0 dd f5 9b be 4f dd 52 be d1 9a c8 3e 49 de b7 3d
       -0.30461016 -0.20592235 0.39180616 0.089779444
0002b0 67 9a 8e be 23 b1 eb 3e cc c7 42 3e 5d a4 5b be
       -0.27852175 0.46033582 0.19021529 -0.21449418
0002c0 da f5 bc be e8 0a 26 3f 3e 41 dd 3d 56 f9 40 be
       -0.3690632 0.6486039 0.108034596 -0.18845114
0002d0 48 d8 86 3e cc e0 0e be e5 14 d9 bc 15 02 58 be
       0.26336884 -0.1395294 -0.026499221 -0.21094544
0002e0 e7 4f c9 be ea 71 9a 3e bb 42 8d bd f5 db 7c 3e
       -0.39318773 0.30165035 -0.068974935 0.24693282
0002f0 41 14 53 bf 36 4a 3e 3f eb d9 98 3d 4e 50 e8 3d
       -0.8245278 0.74331987 0.074634396 0.11343442
000300 6d 2e 3c 3e 8b 7f 84 be 28 21 61 3e a4 5b fd be
       0.18377085 -0.25878558 0.21985304 -0.4948398
000310 7f a7 bc 3e 51 d2 df 3e 46 fe f7 3c 2c 00 a9 be
       0.3684654 0.43715146 0.030272614 -0.33007944
000320 84 f0 3d 3e 23 26 a8 3d af 39 e7 bd f0 45 b7 3e
       0.1854878 0.08210399 -0.11290299 0.35795546
000330 03 7c 52 3e 9d 52 dd 3d 8f 9d 3a 3e eb e0 59 bb
       0.20555119 0.10806773 0.18224166 -0.0033245634
000340 6c 50 8d 3e aa d0 bf be 22 c0 81 3e 37 2f 4e 3e
       0.2760042 -0.37463886 0.25341898 0.20135199
000350 9d a8 7b bd 58 84 a4 3e 6f 90 8c 3e 0d e6 c4 3e
       -0.0614401 0.3213222 0.27453944 0.38456765
000360 3d da 16 3d f6 07 20 bd b5 4b 01 3f fe 26 38 3f
       0.036829222 -0.039070092 0.50506145 0.719345
000370 43 bf 72 3e 04 2b 57 3d 6f 3f 0c 3e fb c7 ed 3d
       0.23705773 0.052531257 0.13696073 0.11610409
000380 42 46 bd be 98 53 80 3e e3 d4 31 3e f5 ce ce be
       -0.36967665 0.25063777 0.17366366 -0.4039227
000390 c6 ca 43 3d 84 cd b0 be f6 3b f1 be a4 a5 cb 3e
       0.0478008 -0.34531796 -0.4711606 0.3977481
0003a0 27 c9 a3 3e 45 0c 53 3e ac 30 64 3e 55 5d c5 bd
       0.31989405 0.20610149 0.22284192 -0.09636942
0003b0 cc d2 43 3d 71 94 6a 3f 37 c0 94 be 3a 99 83 3e
       0.047808453 0.91632754 -0.29052898 0.2570284
0003c0 0c 66 3d 3e 6c a3 67 be 2a 7b 3e bd 9a fd db 3e
       0.18495959 -0.22620934 -0.046504177 0.4296692
0003d0 f4 ce ce 3c 8a cc eb 3e f4 c8 72 be 89 ee 98 bd
       0.025245167 0.46054488 -0.2370947 -0.07467372
0003e0 39 de a5 3e 72 43 0c be 01 da 17 3e 80 8d d7 be
       0.32396105 -0.13697603 0.14829256 -0.42100143
0003f0 c2 a3 24 be f8 b3 f9 3d 61 e5 e0 be 93 65 e7 be
       -0.16078094 0.121925294 -0.43925002 -0.45194682

fc.0.bias f4 [100]
000000 62 85 77 3e d9 f5 be 39 32 81 b4 3e 10 67 c0 be
       0.24171975 0.00036422795 0.35254818 -0.3757863
000010 9a 74 0c 3e 97 da 73 3d c1 e7 cb bc 58 d9 af be
       0.13716355 0.059534635 -0.024890782 -0.34345508
000020 09 89 a1 3d db ce e1 3d 49 19 b2 3e 32 60 66 3e
       0.078874655 0.11025783 0.34784916 0.22497633
000030 18 69 01 bf 35 50 e7 3d cd 68 a7 3b d9 b7 3b 3e
       -0.50550985 0.11294595 0.005108929 0.18331851
000040 5d f6 e4 3e 94 a4 90 3c ec 25 99 3e 4a 7f 12 3f
       0.4471921 0.017656602 0.29911745 0.5722548
000050 f1 c8 eb 3e 94 2e 1f 3f 9d 18 0f bf c8 44 43 3f
       0.46051744 0.6218045 -0.5589693 0.76276827
000060 e5 5c 99 bd 84 9e 5a 3d 3d b6 ba be 3c d5 5e 3e
       -0.07488421 0.05337383 -0.36467162 0.2176103
000070 70 58 aa 3e f0 e1 cd be ce 2d b7 be db cb 83 bd
       0.33270597 -0.4021144 -0.35777134 -0.06435367
000080 a8 77 40 bd e4 03 25 3f 9e 29 a5 bd bc 96 4f 3e
       -0.046989113 0.6445906 -0.080645785 0.20272344
000090 f9 eb a9 3e d2 e9 06 3f 4b 25 11 bf fe fc fb bd
       0.33187845 0.5270053 -0.5669753 -0.12304114
0000a0 67 c2 09 3e 7d 10 29 3f fc 0c 2e be e6 3c 3f be
       0.13453065 0.66040784 -0.1699714 -0.18675575
0000b0 f3 55 45 3e 09 d4 9b be 73 93 6a be 0f 60 be be
       0.19271068 -0.30435207 -0.2290781 -0.37182662
0000c0 65 74 1e bd 34 60 30 be 93 68 98 3e 14 93 1f 3f
       -0.03868522 -0.17224199 0.29767284 0.623338
0000d0 7a ed cf bd 63 52 ab be 0c a7 21 3e a0 e5 fc bc
       -0.10152717 -0.33461294 0.1578638 -0.030871212
0000e0 c3 d6 9a 3e 14 51 a7 be 89 50 23 3c 32 00 5a 3e
       0.30241975 -0.32679045 0.009967932 0.21289137
0000f0 5f 17 07 3f e7 1c 6d be 47 2a 4a 3c fb 6a 8d be
       0.52770036 -0.23155557 0.012339181 -0.27620682
000100 b1 8b f1 3e 79 66 a9 3c 70 25 8c 3d 2a d9 68 bd
       0.4717689 0.020678746 0.06843078 -0.05684773
000110 ff 2c 38 be 8e d8 be 3e 82 12 4f 3e 62 20 42 3d
       -0.17985915 0.37274593 0.20221904 0.047394164
000120 13 73 9c be 5b b7 aa 3e 34 91 c1 bc 52 45 ff be
       -0.30556545 0.33343014 -0.023628809 -0.49857575
000130 50 29 59 3e 45 99 44 be 24 25 9a 3c 24 bc c4 3d
       0.21207166 -0.19199093 0.018816538 0.096061975
000140 2f d1 dc bd 0b a9 a9 be d5 03 28 be 9f ab b0 be
       -0.10782086 -0.33136782 -0.16407712 -0.34505937
000150 86 f6 1f be 7b fd 8b 3e 8b a7 5e 3e d8 92 47 3e
       -0.15621385 0.27341828 0.217436 0.1948961
000160 ac 8e a7 3d b6 72 bd bd 88 35 12 be b6 93 3c 3f
       0.081815094 -0.09250395 -0.14278233 0.7366289
000170 19 65 ac be 20 b4 04 be c6 39 80 3a 4a a7 8d 3f
       -0.3367088 -0.12959337 0.0009782843 1.1066678
000180 04 c8 17 3e 62 d9 12 3f 2c 74 88 bc 63 88 15 bf
       0.14822394 0.5736295 -0.016656958 -0.58411235

fc.1.weight f4 [100, 100]
000000 f9 07 cb 3d 0c c3 68 bd d1 16 db bd 81 3d df 3c
       0.0991363 -0.056826636 -0.10697711 0.027251007
000010 1a 97 0d bd d2 e8 55 3d 40 73 2c bc 6e 5b b1 bd
       -0.03456793 0.052223988 -0.010525525 -0.08660017
000020 35 54 eb bc 2d 4f 1d 3d e2 b6 01 bc f7 d3 ac 3d
       -0.028726676 0.038405586 -0.007917138 0.084388666
000030 88 4e d0 3b fb cc 0a bd c2 d6 20 3d 6d 6f d5 3d
       0.006357018 -0.03388689 0.03926731 0.104216434
000040 b2 8b 9b bd f5 b6 99 3d e0 3b 50 3d 42 e5 40 3c
       -0.07595004 0.075055994 0.05083835 0.011773409
000050 bc c5 9b bd ec c2 07 3d 9b b5 a7 3c 38 65 02 bd
       -0.07606074 0.033144876 0.020472338 -0.03183481
000060 92 22 47 3d aa 08 34 3d b6 ce 30 bd 8e 25 e0 bd
       0.048616953 0.043953575 -0.043165885 -0.10944663
000070 01 34 87 bc 4f 93 0e bd 96 4d ce 3b 08 7f 12 3d
       -0.01650429 -0.034808453 0.00629587 0.035765678
000080 d2 2d 51 3b 47 46 36 3c c7 2b 15 3d 28 9e c7 bd
       0.003191818 0.011125154 0.036418702 -0.09746963
000090 6b 22 94 bd 54 d1 ba bd 65 7b e3 3c 8a 1f 4f bd
       -0.07233127 -0.091219574 0.0277688 -0.050567187
0000a0 e4 72 16 3d fc db c7 3d a3 de 09 3d 77 e7 14 3c
       0.036730662 0.097587556 0.03365959 0.009088389
0000b0 ad 44 43 3d 1f 7c 05 bc c4 56 e1 3d 04 65 8c 3d
       0.047672916 -0.008147269 0.11002877 0.06855205
0000c0 8a 27 cb 3d fb 6c e0 bc 97 21 2f 3c e6 7b 94 3c
       0.09919651 -0.027395716 0.010689161 0.018125486
0000d0 5a fb 52 3c 74 53 a0 3d bb 4c 4c 3d 22 aa 9d bc
       0.01287731 0.078284174 0.049877863 -0.019246165
0000e0 b4 13 3e bd 77 6e 83 3d 50 16 91 3d 03 81 9d 3d
       -0.04640551 0.06417554 0.07084334 0.07690623
0000f0 8c 03 aa 3d 3b c6 68 3d 29 2c df 3c 4e 89 9d bc
       0.08301458 0.056829672 0.027242737 -0.019230511
000100 6a 3a 59 bd dd 99 85 3c 9b 9c 6f 3d 99 37 0c bd
       -0.053034224 0.01630872 0.05849896 -0.03423271
000110 13 09 d4 3c 70 e1 03 3e d9 04 ad bd 7a b6 4b bd
       0.025883233 0.12878966 -0.0844819 -0.04973457
000120 a3 da 70 3d 29 a7 e4 3d 1b 90 cb 3c 78 92 b6 3d
       0.05880226 0.11164696 0.024848988 0.089146554
000130 b4 a5 3f 3c 78 5c bf 3d ab 51 84 bd 31 38 c9 3d
       0.011697222 0.09343809 -0.064608894 0.09825171
000140 3e f1 d3 3c d6 f4 a1 3b 74 0f 8a bd 8d ee 74 bd
       0.02587187 0.004942517 -0.06741229 -0.059797812
000150 63 6d 43 3d ab 7f b2 3c 03 bb 40 3d fa 66 3f 3d
       0.04771174 0.021789392 0.04705335 0.046729065
000160 f6 da b5 3c 79 9a 9c 3d bc 22 dc bb 4d e2 4d bd
       0.022199135 0.07646651 -0.006718008 -0.050264645
000170 07 4f 4f 3d 4a 16 07 3d f3 50 5a bc c9 0e 5c 3c
       0.050612476 0.03298024 -0.013324964 0.013431259
000180 a0 d8 c9 bb bc 46 98 3d a9 ee f1 3b 04 c7 0b 3d
       -0.006159857 0.074353665 0.007383187 0.034125343
000190 02 97 76 bd 85 d9 9e 3b 9c 0c cb bd 97 fa 4e bd
       -0.060202606 0.0048477077 -0.099145144 -0.05053195
0001a0 4b 0f e7 3d 45 eb d3 bd 1b da a7 bd 8f 2b ce bd
       0.11282214 -0.103476085 -0.08195897 -0.10066902
0001b0 59 22 aa bc 26 5b 8c 3d 5b 22 3f 3d 6f 8a 5f 3d
       -0.020768331 0.06853323 0.046663623 0.05457538
0001c0 d1 03 6f bd 51 65 7c 3c 29 a1 48 bc a2 37 a2 3c
       -0.05835325 0.015405015 -0.012245455 0.019801918
0001d0 b7 30 cf 3d b8 e8 7e bd c4 08 d4 bc c2 55 34 3e
       0.101167135 -0.062233657 -0.025883086 0.17610839
0001e0 52 da 19 bd f3 6f be bd a9 52 9f 3d a7 76 f4 3c
       -0.037561722 -0.09298696 0.07779438 0.029841734
0001f0 d3 44 e7 3d 5e d2 81 3e 49 04 04 bd ad 55 58 bb
       0.11292424 0.2535581 -0.03223065 -0.003301005
000200 44 6f fa bc 92 79 6a 3d be 15 87 bd d8 48 2f 3d
       -0.030570634 0.057244845 -0.06595944 0.04279408
000210 63 63 9a 3d 07 5f 50 3c 0c 34 45 3d 14 f9 c1 bd
       0.07538488 0.012717969 0.04814534 -0.09471336
000220 a3 e0 3d bd 5f ea e5 bc 93 bc b1 bd 5c ff 89 3c
       -0.04635681 -0.028065858 -0.08678546 0.016845398
000230 06 4a 93 3d a2 09 42 3d 51 38 ff 3d c1 f0 07 3e
       0.07191853 0.047372468 0.124619134 0.13275434
000240 eb b7 27 bd a6 61 72 bd a9 0c c6 3d 05 13 e7 bc
       -0.040946882 -0.059175156 0.096703835 -0.028207311
000250 54 c8 66 38 a4 89 28 3c 3e 5f 46 3c 6f fb a6 3c
       5.5022843e-05 0.010286722 0.012107668 0.020383565
000260 80 f5 e2 bb 66 3e 91 bc d9 f4 81 3d 20 14 c5 bc
       -0.0069262385 -0.01772995 0.06345529 -0.024057448
000270 eb 17 90 bd 14 e7 8f bd 7e fb 41 bc e9 29 9e 3d
       -0.07035812 -0.070264965 -0.011839746 0.077228375
000280 98 e6 22 3d d0 ae a4 bd c9 bf 73 3d c7 76 26 ba
       0.039770693 -0.08041155 0.059509072 -0.00063500967
000290 2c 0e b4 3d d9 e9 02 3e 0b c1 83 bc 80 39 3e bd
       0.087917656 0.12784518 -0.016083261 -0.046441555
0002a0 28 07 2d bb b1 7c 08 bd a8 73 2a 3d 36 86 f9 bd
       -0.002640197 -0.03332204 0.041614205 -0.12183802
0002b0 74 f9 8b 3d a7 64 00 3e 26 1a 8b 3d 82 de ba 3d
       0.06834689 0.12538396 0.06792097 0.09124471
0002c0 35 41 c8 bc f0 6d 8d bd c4 fa 58 bd 82 ef e1 3d
       -0.024445156 -0.069057345 -0.052973524 0.110320106
0002d0 8c 38 9e 3d 13 1e a4 bd 46 87 5b bd be 62 c7 3c
       0.07725629 -0.08013549 -0.053595804 0.024339076
0002e0 74 4b 45 bc 55 91 26 be a2 87 fa 3d b0 45 02 3c
       -0.012041915 -0.16266377 0.12232901 0.007951185
0002f0 c5 80 ee 3c 74 31 1b bc 44 b2 38 be e2 b2 34 3c
       0.029114136 -0.00947224 -0.18036753 0.011028977
000300 06 32 94 3b 4c a2 a2 bb 8c 5a 9c 3e c4 45 3b 3c
       0.004522565 -0.004963195 0.30537832 0.011430208
000310 3b 4c aa bd 5e f3 be 3b 95 3b 5e 3b ad 27 26 3e
       -0.08315321 0.0058273515 0.0033910025 0.16226073
000320 f7 ed 88 3b c1 91 71 3d 54 2d 14 3e 28 6e 62 bd
       0.0041787582 0.058976892 0.14470416 -0.055280834
000330 09 a1 3c 3c 1c dd 1d 3e cd 4d c7 3d 93 80 17 bd
       0.011513003 0.15416378 0.09731636 -0.036987852
000340 8d db da 3d eb 9a 13 3d 52 18 f7 3d 53 5c f0 3d
       0.10686407 0.036036413 0.120651856 0.117363594
000350 26 67 d4 3c 0f 1a 0a 3e c6 c7 54 3d a3 08 33 bd
       0.025928091 0.13486503 0.05194833 -0.04370941
000360 0e d1 49 3d 23 b1 fe ba eb 29 44 3c 49 9a 40 3d
       0.049271636 -0.0019431453 0.011972885 0.047022138
000370 06 1a b4 ba 3a 96 76 3d 56 54 49 3d e1 eb 7c 3d
       -0.0013740666 0.06020186 0.049152695 0.06174839
000380 8c 2f 3b 3d 16 39 77 bd f0 f1 0d 3d 48 35 ed 3d
       0.04569964 -0.060357176 0.034654558 0.11582428
000390 46 e5 fd 3d ec 48 c1 3d db 7e 31 3d 8f 4d e7 3d
       0.12397246 0.09437737 0.04333387 0.1129409
0003a0 b6 f7 43 3d 63 60 4b 3d 9d b5 98 bd 44 b3 f6 3c
       0.047843657 0.04965247 -0.07456515 0.030114777
0003b0 f9 76 be 3d ac bd 67 bd 7d 6c be 3d f8 ba b7 3d
       0.09300036 -0.05657737 0.09298036 0.08971208
0003c0 7d a2 3f bd 1b f4 56 3d 29 c2 a8 3d 8d a5 84 3b
       -0.04678582 0.05247889 0.08240158 0.0040480555
0003d0 94 c4 82 3d c1 f1 26 bd 53 ba b0 bd bd 0c 43 bc
       0.063851506 -0.0407579 -0.086292885 -0.0119048925
0003e0 ec 5d 58 bd f9 e5 48 bd e2 1c f8 bc a9 b9 de bd
       -0.052823946 -0.049047444 -0.03028721 -0.108752556
0003f0 98 09 77 bd 05 01 3e bd 20 51 e2 bb 3d 6f da bb
       -0.060311884 -0.04638769 -0.0069066435 -0.0066660927

fc.1.bias f4 [100]
000000 29 55 07 3c b4 1d 83 3d 4e 85 97 3c cc 77 1f 3e
       0.00826005 0.0640215 0.018496182 0.15573043
000010 02 5b 10 3d cf 8c cf 3d 31 ca 3f 3c 6a 66 b3 3c
       0.03524304 0.10134279 0.011705921 0.02189942
000020 61 5e 30 3e b9 97 fe 3d ce 96 50 3e 42 70 c9 bd
       0.17223503 0.124312826 0.20370027 -0.098358646
000030 44 9c 35 3d 66 a6 f0 3a 0e b5 c9 3d 15 13 a1 3d
       0.04433848 0.0018360137 0.098489866 0.07864968
000040 93 cd 36 3d ac 67 f1 bd fa f0 df 3c 23 15 b4 3c
       0.044629645 -0.11787352 0.027336586 0.021982735
000050 f0 3b 95 3d cc 0d e0 bc 07 e4 26 bf d8 10 3f 3c
       0.07286823 -0.027350329 -0.6519169 0.011661731
000060 8c 9c ac bc a3 85 81 3e 21 78 40 3e 81 7e e8 3d
       -0.021070741 0.2529727 0.18795826 0.11352254
000070 61 d7 03 3c 62 f3 09 3e be 35 17 3d 11 18 86 be
       0.008046956 0.1347175 0.036916487 -0.26190236
000080 14 d8 0a be fd 88 af be 28 6e 0b 3e cf 79 63 3d
       -0.1355899 -0.342842 0.1361624 0.055536088
000090 f5 87 7e 3e c3 a8 92 3d 6d 95 3c bd e9 b1 46 bb
       0.24856551 0.07161095 -0.04604094 -0.0030318445
0000a0 8a 8b 8c 3d eb ee 60 bd 28 24 ca bd 81 90 86 3d
       0.068625525 -0.05491535 -0.098701775 0.06570531
0000b0 a6 a4 7c bc ef 3f 06 3d a8 62 58 bd 1f 84 81 3d
       -0.015420115 0.032775816 -0.05282846 0.06324028
0000c0 83 76 5f 3d 31 ed a0 be 52 2a e3 3d f3 af eb bb
       0.05455638 -0.31430963 0.11092056 -0.0071926056
0000d0 ad e6 a6 3e 84 d0 95 3d 72 e3 0c 3e a2 a0 56 3d
       0.32597867 0.07315162 0.13758639 0.052399285
0000e0 1f 2c 23 be 6d f1 89 bb 04 a3 03 bd 0f f2 30 3e
       -0.159348 -0.0042096884 -0.032137886 0.17279838
0000f0 65 b8 8a 3e 19 81 83 bc a4 c0 43 3d 38 75 33 3d
       0.27093807 -0.01605277 0.04779114 0.04381296
000100 d5 5f a3 3d 94 0b be 3d 07 4b 4b bc 74 f5 77 3d
       0.07977263 0.09279552 -0.012408025 0.060536817
000110 2b a4 2b 3e ce 26 5a 3d 42 22 c3 bd c5 24 17 bd
       0.16761844 0.053259663 -0.095280185 -0.0369003
000120 a4 27 15 3e cc 7b c0 bc 61 ba fa 3a 4c 68 6e 3d
       0.14565903 -0.023496531 0.0019129032 0.058204934
000130 91 88 75 3d 01 45 9b 3e c4 26 6d bd d5 72 3d 3d
       0.059944693 0.30326083 -0.057898298 0.04625209
000140 2b 04 1f 3d f5 d3 55 3e 2d 26 cb 3c dd 15 f5 bd
       0.038822334 0.20881636 0.024798477 -0.11967061
000150 6a 85 11 3e d1 40 f0 bc 47 e3 8b b6 47 36 ee 3d
       0.1421105 -0.029327782 -4.1689814e-06 0.11631446
000160 4c 2a 40 bd 1d 0b ce 3d a2 52 af 3d a1 3b c1 be
       -0.046915337 0.100607134 0.08560683 -0.37740806
000170 59 82 68 bc a3 3c a2 3d 7c 00 38 3c 41 c1 42 3e
       -0.014191234 0.07921722 0.011230584 0.19019033
000180 e5 c5 ea 3b db f1 ce 3d 11 1f 29 bd 34 c7 03 bd
       0.007164704 0.10104724 -0.041289393 -0.032172397

fc.2.weight f4 [4, 100]
000000 01 8c 74 3d 24 e9 8b 3b eb 13 19 3d 52 c6 68 3d
       0.05970383 0.004269736 0.03737251 0.056829758
000010 08 ac b0 bd ce 6c 3e 3c 05 7a c8 be 99 3c c0 bd
       -0.08626562 0.011622621 -0.39155594 -0.09386558
000020 cf 69 f4 bc 6c 1b 5d bd 4a 54 2f be a4 a6 8e 3e
       -0.02983561 -0.05398123 -0.17121997 0.27861512
000030 0f 8c 1b 3d a3 97 9e 3d fc 26 3e bd bf 66 78 bc
       0.037975367 0.07743766 -0.046423897 -0.015161215
000040 fc 05 bf 3b 30 48 fc 3d ec d7 8e 3a 3e 3d 49 3d
       0.005829571 0.12318456 0.001089809 0.04913067
000050 ab 0a b3 bd c3 bd 51 be 4e 09 21 3e 83 10 a3 3b
       -0.08742269 -0.20482545 0.15726206 0.0049763336
000060 eb f7 05 3e b3 86 16 3e 05 72 0a 3e 8d 73 ce 3d
       0.13082854 0.14699821 0.13520057 0.10080633
000070 33 40 b5 bd 30 fb c9 bb 57 8f a9 3c d7 c7 48 be
       -0.08850136 -0.006163977 0.020698233 -0.19607483
000080 db 18 0e 3d 70 1b 43 3e c7 57 27 bc 65 06 9b bd
       0.034691673 0.19053435 -0.010213799 -0.07569579
000090 c3 73 ec bd 29 b8 7a 3d e7 c5 bc bc 76 ef a5 bd
       -0.11545517 0.061210785 -0.023043586 -0.08102314
0000a0 3f 23 ce bc a0 bb 54 3c f6 27 47 bb 8d 0d 25 bd
       -0.025163291 0.012984186 -0.0030388809 -0.040296126
0000b0 8a f3 f5 3c 2c f5 97 3d 13 8c fe bd 5f 74 86 3c
       0.030023355 0.0741981 -0.12429061 0.016412912
0000c0 7c 2b e2 3d dc bd b4 be b0 d1 54 bd e5 84 61 3c
       0.1104345 -0.353011 -0.051957786 0.013764595
0000d0 e2 69 b0 be 35 5e 14 be d3 80 e3 bc 1d 69 39 be
       -0.34455782 -0.14489062 -0.02777139 -0.18106504
0000e0 8b f6 73 3d 7e 6d 0a bd d5 63 24 3d 2e cc 8f be
       0.059561294 -0.033795826 0.04013427 -0.28085464
0000f0 8c ff 08 3e f8 1d 14 bd 4c e9 16 be f7 8e b3 3c
       0.13378733 -0.036161393 -0.14737433 0.021918757
000100 1f 96 01 bd 41 7c 97 bd f2 bf 85 3e ad f7 75 bd
       -0.031637307 -0.073967464 0.26123005 -0.060050655
000110 41 77 59 3e 81 95 c5 bd b0 83 8a 3d 7a ad d0 3c
       0.21236898 -0.09647656 0.06763399 0.025473345
000120 73 a1 30 3e 69 24 e0 3d 9c c2 a7 bd fd ea e1 3c
       0.17249088 0.10944445 -0.08191416 0.027577871
000130 09 eb ca 3d dc 0a 8e 3e b0 e4 71 bc 2e 65 6e 3d
       0.09908111 0.2774266 -0.014763996 0.05820196
000140 dc 98 8d bc 8a 83 da bd df 62 dc bc c1 00 b4 3d
       -0.017284803 -0.1066962 -0.026902614 0.08789206
000150 e3 ce 69 bb 81 67 10 3d ce ab 74 3d 44 94 89 bd
       -0.0035676293 0.03525496 0.05973416 -0.067177325
000160 bd 36 d0 3c a9 3b 9b bb 04 7c f5 bc f4 69 b0 3e
       0.025416726 -0.0047373367 -0.029966362 0.34455836
000170 97 95 9c bc a7 45 cc 3c 2a 8a 5e 3d 06 12 a0 bd
       -0.019114299 0.024935557 0.054330982 -0.07815938
000180 07 72 f4 3d ed 32 1a bd 39 e8 80 bc 88 3f 0d bd
       0.119358115 -0.037646223 -0.015735732 -0.034484416
000190 b9 b5 7b bd 34 ab 8c 3d 56 ce 19 bd c2 9d 59 be
       -0.0614526 0.06868592 -0.037550293 -0.21251586
0001a0 bd b7 b9 3d 0a bd 3c 3d bf dc ee bc ab ca a4 3c
       0.090682484 0.04607872 -0.029157994 0.02011617
0001b0 42 8d 8e 3d 4c 9a 9b bd e2 81 e7 bd de f6 ca bb
       0.069605365 -0.07597789 -0.1130407 -0.0061939796
0001c0 9e 86 39 bd 5c c6 9a bc 3c 0a 33 bd 27 ce a4 3d
       -0.045294397 -0.018893413 -0.043710932 0.08047133
0001d0 4d 3d 11 bd 64 3b 09 bd de 6b 37 3c ee a9 b0 3c
       -0.03545885 -0.033503905 0.011195151 0.021565404
0001e0 5a de fe 3c c2 6f c5 3d c0 53 b9 be 1d 61 db 3c
       0.031111885 0.09640457 -0.3619671 0.026779706
0001f0 0a f4 c6 bd c8 24 59 3e b7 6e 5e be ce 21 7c 3d
       -0.097145155 0.21205437 -0.21721922 0.061555676
000200 aa ff 1c 3a b0 03 a9 3d 28 e5 de 3d bb aa 6e bd
       0.00059890246 0.082526565 0.10883552 -0.05826829
000210 69 3e 9b bd a1 3e d7 bd 42 c5 19 be b1 47 0b bd
       -0.07580263 -0.105099924 -0.15016654 -0.034003917
000220 9b 2b cb 3d 00 1d e7 bd 4d bd 2a 3d 21 2c a8 3d
       0.099204265 -0.11284828 0.041684438 0.08211542
000230 cb 01 d2 3d f2 8b 06 3d 16 87 b4 bc 70 20 b9 be
       0.10254248 0.032848306 -0.02203707 -0.3615756
000240 82 f7 a5 bd b4 61 0c bc 1b 1f bb bd f3 95 a8 bd
       -0.08103849 -0.008568216 -0.09136792 -0.082317255
000250 f2 00 21 3e 5c 2e 91 3e 6f 80 31 3d 80 53 25 be
       0.15723017 0.28355682 0.043335374 -0.16145134
000260 0b e3 ab bc c7 01 ca bd 96 72 60 3c 16 57 13 be
       -0.020982286 -0.0986362 0.013699194 -0.1438869
000270 ba 17 95 bd e0 af 99 bd 56 32 fa 3c 05 aa 17 be
       -0.07279916 -0.075042486 0.03054158 -0.14810951
000280 cd f2 17 be 55 f7 3f 3d e1 43 99 3d 34 64 27 3e
       -0.14838715 0.046866734 0.0748365 0.16346818
000290 3a 97 db 3b 29 cb b0 bd b2 16 64 3c 9a a4 0d be
       0.006701377 -0.086325 0.013921427 -0.13832322
0002a0 6d 76 e3 bd 3a 03 e3 3d 9a f6 b9 3d 9b 01 5c 3d
       -0.11106572 0.110846 0.09080239 0.05371247
0002b0 1f 96 87 3d 94 aa 01 3e 9e 22 b7 3d 16 9f 81 3d
       0.0662043 0.12662727 0.089421496 0.06329171
0002c0 42 bc 2a bd 9c 25 4e 3e 9c 74 38 3c 2d 45 20 bd
       -0.041683443 0.20131534 0.011258271 -0.03912847
0002d0 00 51 ad 3c 58 12 e1 3c d6 0d ac bd 24 1a 15 bd
       0.021156788 0.027474567 -0.084010765 -0.036401883
0002e0 88 18 86 3d 67 7f 04 3e 60 4a 70 3a f8 f2 08 3d
       0.06547648 0.12939225 0.0009166356 0.033434838
0002f0 ee ee 18 bd b7 fd b0 bc 87 fc 16 3d 6f bb 43 3d
       -0.037337236 -0.021605356 0.036861923 0.047786172
000300 89 1c bd 3d 23 6d 2d 3d 72 b8 ec 3c a9 5d 0a be
       0.09233958 0.04234041 0.028896544 -0.13512291
000310 b0 fd a7 3d 2e fe c1 3d 3b b9 67 bd 35 2c ce 3c
       0.08202684 0.09472309 -0.056573134 0.025167564
000320 7a 10 ab bd 3d 93 00 3c 7e e5 a8 3d 21 d8 8a bd
       -0.08352752 0.007847604 0.08246897 -0.067795046
000330 ff 50 32 bd 13 66 44 3d fd b2 38 3c 47 17 c3 3d
       -0.043534275 0.047948908 0.011273143 0.09525924
000340 76 b5 30 3d c4 c2 93 bd c5 be 12 3d b4 0c b5 bd
       0.043141805 -0.07214883 0.035826463 -0.088403136
000350 81 2a 1b bd 4b 31 fc 3d ce 95 c2 bd e4 6c dd 3d
       -0.03788233 0.123140894 -0.09501229 0.10811785
000360 94 ea 5a 3d 9d 09 42 bd a9 0b 54 bd 83 f5 0f be
       0.053446367 -0.04737245 -0.051768932 -0.14058499
000370 4f f8 da 3c 7a 52 30 3d ff e0 be bc 1a a4 a7 bd
       0.02672973 0.043047406 -0.023300646 -0.08185597
000380 b1 f9 c3 bd 60 ff 85 bc ae fa 76 bd e1 cb 92 3d
       -0.09569109 -0.016357124 -0.06029766 0.07167793
000390 d3 07 90 bd e9 18 c0 3d a5 9e e7 bd 2b e7 6b bd
       -0.07032742 0.09379751 -0.11309556 -0.057593506
0003a0 8c 69 0c 3d 34 e2 d5 bc 7b 4c 14 3e 03 72 be 3d
       0.034280345 -0.026108839 0.144823 0.0929909
0003b0 9c 3c 1d bd 90 cc a3 bd bb b2 8d 3d aa 28 68 bd
       -0.03838788 -0.079980016 0.06918856 -0.056679405
0003c0 0b 83 dd bc 36 c7 be bd fb da 4f bd 57 24 b7 3c
       -0.027040025 -0.0931534 -0.050745945 0.022356195
0003d0 77 4b a8 3d 9d d4 da 3d dd c6 e5 3d 5d 6c 84 bd
       0.08217519 0.10685084 0.11219571 -0.06465981
0003e0 37 25 f7 3b 7c 24 92 3c bd 99 5f bd 52 ac cc bd
       0.007542278 0.017839663 -0.054589976 -0.09993805
0003f0 77 22 fa bc 5d 0e 65 3d e7 d2 9f 3d 87 ee 43 bd
       -0.030534012 0.0559219 0.07803898 -0.0478349

fc.2.bias f4 [4]
000000 ef 4d f6 ba a4 83 82 bb b6 1c e5 39 e5 f7 2f bd
       -0.0018791537 -0.003982978 0.00043699675 -0.04296102
