model/unicycle-ensemble-FC3-100-5/epoch_900.pth (torch, 47077 bytes, 6 tensors)

fc.0.weight f4 [100, 6]
00000000: 2927 87be c81c 95bb 0cbc 813e 7e68 0abf
00000010: 2d1e c3be ccc4 a9be 42ec b5be bdee 55be
00000020: a76f 0ebf f4d2 38be 0454 173c aa52 f4bd
00000030: 629b e7bb 3269 d9ba e7a9 4abe 2151 673f
00000040: 7524 02bd 218c 623d 365a 493d 1f45 9f3e
00000050: 345b 933e a47d ec3d 231f 88be 7226 69bd
00000060: ff80 203d e281 82be b8cb 0e3e 60ca 003f
00000070: 795b cfbc a655 9c3d ef00 5f3d 4736 9fbe
00000080: db3c e23e e013 153d 1080 18be b461 2f3e
00000090: 7854 8b3e 91c6 ac3d 3000 04bf a704 b73e
000000a0: 407c 823e d4d9 16be 78d8 b0be 1be1 3dbd
000000b0: 088e 7ebd 17cd d8be 55e3 053f d2a7 d4be
000000c0: 7103 793c ba73 fcbd ab01 04bd 3603 7b3f
000000d0: c35b 9dbd dab8 6cbc 9ba0 25be b2a9 d4bc
000000e0: edda 623d ab56 09bf e79d 8bbd dc63 ff3d
000000f0: 605d 1dbb c179 39bb e76b a03e 0a02 d9be
00000100: 3465 c93c 525e a5bc 11c0 fdbc 08de 23bc
00000110: dce3 343e 9d00 1e3e d56e 833d 0fd0 cabd
00000120: 41f5 183e 831d 683e 7f13 a6bd 986b edbe
00000130: f5fb 6c3e b1ad 293e 3269 f73a fca2 243e
00000140: 7b6c 0cbf 9be4 773f d12a 81bd bb2d 2c3e
00000150: 9b2c ad3e 1020 22bd ef98 423e e588 113f
00000160: 54fd e9be a623 fb3e 20ca 25bc 9131 d6bb
00000170: c552 833e d34d 17bf ba8c eb3c f7ea fabc
00000180: fd7f 583e 3aa4 5fbe 7d41 ddbe 553c 893e
00000190: 99e1 193e f9d3 803d dbc9 28be 84df 6bbe
000001a0: 1931 3bbe cc12 c93b cfd2 cbbe 10bb bdbe
000001b0: 60cb adbe 657d 323d 8631 30be 9014 12bf
000001c0: b3ab e93e 9f74 fcbe c48b a13d 9e2a 4dbe
000001d0: a152 4bbf 8f85 a23f de63 f8bd ef2d 063e
000001e0: 79dd cebd fd8e d93a 72b8 b63e 7984 5e3f
000001f0: b9f1 853e da6e 27bd 60cc 9f3e f4fc 60be
00000200: a591 00be b152 09bf a254 d33d 20b4 09be
00000210: 24af a63c 1288 dfbc 8396 26bf 6793 6ebf
00000220: f179 90bd 8505 4bbd 2909 643e ac88 31be
00000230: 2bb0 aabd 4966 5b3f ea80 013e 0d2c 03be
00000240: b8e9 953d 4f96 533e b95e 65bf 9f77 d4be
00000250: b0d2 a8bd 0a51 cdbd 8fb0 3e3e 8e82 253e
00000260: f6d5 1fbe 5d83 46be 8a55 83be d3dc 01bf
00000270: d7ca 733d 7881 15be 3f9d 8d3e 908e 983f
00000280: 9332 1bbd d56f 4dbd e243 843e 3dad 603c
00000290: 017a 873e 586e 2fbf 1c10 d83e 9570 aebe
000002a0: 4f73 3dbe 2fc1 03be 89e2 f8bd a11b 15bd
000002b0: d886 8c3e f8b0 053f c159 f4bd 71fb 5abe
000002c0: 55e3 6b3d efb3 a1bd 4012 d1be ed4f 6d3e
000002d0: 22dc 1cbe b09f 17be a47c 09bd 770d b73f
000002e0: 11f3 a6ba 081c 443d 5068 093e d9ae 763e
000002f0: 5439 76bd d9f8 af3d feae e93e beac 84be
00000300: 3eb9 39be 54ce 09be 0570 45bf f0e6 dc3e
00000310: 1b84 99bc 6297 99bd f340 3c3c d142 1abe
00000320: 7b53 993d 1772 16be 6fbc d73e 608b 333d
00000330: 6ae9 acbd cfa3 99be cf3d 4c3f cae6 48bd
00000340: a9c8 6b3a 8249 a63d 6ab4 203e da37 27be
00000350: e952 f9bd 5db5 d33e 267e 523e 9e12 20be
00000360: 7de8 76be 0eed 35be 1389 7fbe b593 b5be
00000370: e795 ba3e 3480 393f 51ee 4c3e fcdb 113e
00000380: bbaa e3bd cc59 3dbf 1c8d 78be b23a a43e
00000390: 17b5 33be f67c 82be 55c9 83bd e1a4 553b
000003a0: 33f3 c5be 9520 a7be dc1c 4e3d 4ea1 463d
000003b0: e257 54bf d4b1 2b3f cc00 54bd 9d7f 66bc
000003c0: 163c 1b3e e2e5 003e 7a9e e1be b077 183f
000003d0: b0da 0c3d 23bb 5abd c577 4cbe c534 2f3e
000003e0: cca1 64bd 9355 293f 8ccc 063d 7ea3 893d
000003f0: a8d2 0d3e 450d 23be 1317 bebe dc24 273e
-0.26397064 -0.00455055 0.2533878 -0.5406569 -0.3810896 -0.33157957 -0.35531813 -0.20891853
-0.5563912 -0.18049222 0.0092363395 -0.119298294 -0.0070680836 -0.0016587137 -0.19791375 0.9035817
-0.03177305 0.05530942 0.049158297 0.31107423 0.2878052 0.115474015 -0.26586255 -0.05692143
0.03918552 -0.25489718 0.139449 0.503088 -0.025312172 0.07633524 0.05444425 -0.31096098
0.44187054 0.036395907 -0.14892602 0.17127115 0.27212882 0.08436311 -0.51562786 0.35745737
0.2548542 -0.14731532 -0.34540153 -0.046357255 -0.06214717 -0.4234397 0.52300006 -0.41534287
0.015198574 -0.123267606 -0.032228153 0.98051775 -0.07683518 -0.014448369 -0.16174547 -0.025959823
0.055384565 -0.5364787 -0.06817227 0.124702185 -0.0024011955 -0.002830133 0.31332323 -0.42384368
0.02458439 -0.020186577 -0.030975373 -0.010001667 0.17665046 0.15429921 0.06417624 -0.09902965
0.14937307 0.22667508 -0.08109187 -0.4637115 0.23142989 0.16570164 0.0018875955 0.16077799
-0.5485303 0.968332 -0.06306995 0.1681432 0.33823094 -0.03958136 0.19003652 0.5684951
-0.45701087 0.49050635 -0.010118991 -0.0065366705 0.25649086 -0.59103125 0.028753627 -0.030629618
0.21142574 -0.21839991 -0.43214026 0.26803842 0.15027465 0.062904306 -0.16483252 -0.23034483
-0.18280448 0.006136274 -0.39809272 -0.3705678 -0.33944225 0.043576617 -0.17206392 -0.57062626
0.4563881 -0.49307725 0.07887986 -0.20035788 -0.79422957 1.2697009 -0.12128423 0.1310346
-0.10100836 0.00165984 0.35687596 0.8692089 0.26160982 -0.0408772 0.31210613 -0.21971494
-0.12555559 -0.536418 0.10318877 -0.13447618 0.020347185 -0.027286563 -0.6507341 -0.9319367
-0.070545085 -0.04956581 0.2226912 -0.17337292 -0.083343826 0.8570295 0.12646833 -0.12809773
0.07319969 0.20662807 -0.8959766 -0.41497514 -0.082433105 -0.100252226 0.1862204 0.16163084
-0.15608963 -0.19386049 -0.256512 -0.50727576 0.059519615 -0.1460017 0.27659032 1.1918507
-0.03789003 -0.05015548 0.2583304 0.013713178 0.2646027 -0.68527746 0.4219979 -0.34070268
-0.18501018 -0.12866662 -0.12152583 -0.036403302 0.27446628 0.5222316 -0.11931182 -0.2138498
0.057589848 -0.07895648 -0.40834236 0.2317502 -0.15318349 -0.1480701 -0.033566132 1.4300984
-0.0012737234 0.047878295 0.13418698 0.24090137 -0.060113266 0.08592386 0.4564132 -0.25913042
-0.1813707 -0.13457614 -0.77124053 0.4314494 -0.01873975 -0.07499577 0.0114900945 -0.15064551
0.07486626 -0.1469196 0.4213595 0.04383409 -0.08442958 -0.3000779 0.7978181 -0.049048223
0.0008994439 0.08119489 0.15693823 -0.163299 -0.12174017 0.41349307 0.20555934 -0.15632102
-0.24112125 -0.1776621 -0.24954633 -0.35464254 0.3644249 0.7246125 0.20012785 0.14244074
-0.11116549 -0.73965144 -0.24272579 0.3207603 -0.17549549 -0.25485963 -0.064348854 0.0032599496
-0.3866211 -0.32642046 0.05032049 0.048493676 -0.829466 0.6706822 -0.051758572 -0.014068511
0.1515964 0.12587693 -0.4406622 0.5955763 0.034388244 -0.053401124 -0.19967563 0.17109974
-0.055818364 0.661462 0.032909915 0.06720637 0.1384989 -0.1592303 -0.3712698 0.16322654

fc.0.bias f4 [100]
00000000: 815c 27bf 5c5e e13d 5700 a43f 5176 acbe
00000010: b009 563f 4b1a fe3e 920f a0be f1d9 9dbe
00000020: 0bb7 36bf fefc 883f b63d a83f eede a93f
00000030: 003f 28bf b0b4 e4be 764d 9abd 515b 91bf
00000040: 355b da3e e420 e03d e6a6 993d 9240 efbd
00000050: f9f8 a6be 0faa 87bf 4501 6cbf 6821 87bf
00000060: 2d2e 0fbf 57dc bd3e 04ac 0e3d 413a cb3a
00000070: 70b4 f73e 6075 6c3d 4e86 36bf 3213 81bd
00000080: ad62 dfbf da72 c4bd 69d6 edbe c8bc dfbe
00000090: 1740 82bc e391 64be e073 92bc c556 fc3f
000000a0: f929 89be ba25 66be f938 bc3e e6b1 11c0
000000b0: fd5f e33e 251f 0abe 4e04 3bbe 3ece 7ebf
000000c0: f872 01bf 8bea 883f 9343 afbd 94df 27bb
000000d0: 2297 843c 6d51 833f f6b0 18bf 8b9c 113f
000000e0: 75f4 c9bf 266c 093f 5ce6 ac3e 7ed5 79be
000000f0: 4804 8dbf 4192 833d da4c 133e 5ec2 963e
00000100: 4dcc 1a3f 0b42 903e 0a6b f93e 6ea1 893e
00000110: 302d 823e 14a8 89bf 7a8e dabb 68b9 183f
00000120: f4fe 7e3e c64e 783f de63 713f 3482 bfbd
00000130: a344 833f 5223 0abf ad5a 893e a3d4 84bf
00000140: 53bd 943e 5f4b 323f 71fb c13e ee72 563f
00000150: 79d4 333f e862 45be b5b8 813e d97a 0ebf
00000160: c9c1 81bf 76f7 a4bc 5f43 09bd f453 723e
00000170: 95fb a93e 7c08 b63e 13d8 d0be a24e 52be
00000180: 1e7d 813d 3699 ce3d e088 2d3f f33b b2be
-0.65375525 0.11004326 1.2812604 -0.33684018 0.8360853 0.49629435 -0.3126188 -0.3083034
-0.7137305 1.0702207 1.3143833 1.3271158 -0.6572113 -0.44669104 -0.07534306 -1.1355993
0.4264771 0.109437734 0.075025365 -0.11682238 -0.32611826 -1.0598773 -0.9218944 -1.055707
-0.55929834 0.37082168 0.034832016 0.0015505032 0.4837985 0.057729125 -0.7129868 -0.06302489
-1.7451988 -0.09592219 -0.46452644 -0.43698716 -0.015899701 -0.22321276 -0.01787752 1.971398
-0.26789835 -0.22475329 0.36762217 -2.276483 0.4440917 -0.13488443 -0.18263361 -0.9953345
-0.50566053 1.0696577 -0.08557811 -0.002561544 0.016185347 1.0259224 -0.5964502 0.5687949
-1.5777727 0.53680646 0.337695 -0.24397847 -1.1016932 0.0642438 0.14384785 0.29445165
0.6046799 0.28175387 0.48714477 0.26880974 0.254251 -1.0754418 -0.0066698166 0.5965791
0.24901944 0.969952 0.9429301 -0.09351006 1.0255321 -0.53960145 0.26826993 -1.0377392
0.29050693 0.6964626 0.37887147 0.8376912 0.7024608 -0.19276011 0.25336233 -0.556562
-1.0137264 -0.02013753 -0.033511516 0.23664838 0.33199754 0.35553348 -0.40789852 -0.20537809
0.06322692 0.100878164 0.6778698 -0.34811363

fc.1.weight f4 [100, 100]
00000000: b27a 2d3e 4381 fc3c 48a6 4d3d 6757 ca3c
00000010: 6a0d 60bb 3608 0fbd a2c6 313d ec39 aeba
00000020: 6695 b3bd 056a 643d ef47 22bd 2bc7 1f3e
00000030: 4b58 2bbd 1ae4 64ba 995f 703d 8340 0ebe
00000040: 4ffa ff3c fb57 f23d c4e4 583d 4e9b 213b
00000050: 9d75 fb3d 2588 92bd 5df9 603b caf8 463d
00000060: cc41 223d 4577 353e 5852 c2bd f9ee 733d
00000070: 4293 90bd 9aba 363d 09b9 b3bc 881a 6e3d
00000080: 3f9a 6cbc 16fb 95bd 3e60 c7bc 1e68 de3c
00000090: 43c3 01be c51b 4e3a b2b2 6bbd 7fcc 6cbc
000000a0: 263e 633d 618b 13bd e572 483d 7501 833d
000000b0: f0ac 05bd af66 f83d 1382 e63c ad43 e83d
000000c0: 992c d23d bdb0 0fbd 509f 4cbd eb0c d63b
000000d0: 9df9 363e 5418 8ebc e6c3 bdbb ee98 f23d
000000e0: 9024 91bd 7e23 37bc f8b2 c43c fb19 a1bd
000000f0: d123 5a3d 21a5 573d 8970 cfbd 142e e03d
00000100: d84a 9d3d 4595 ba3c bd02 0f3e f55d 0f3e
00000110: a406 5e3d 5b7c a4bc 9b7f 383d 3e26 ca3c
00000120: f0a2 ad39 3e37 2a3e b47a 153e 18be 893d
00000130: 86f5 233a e3ca 42bd 05a0 b4ba 8c6f e23c
00000140: 190a 823d a47d 013e 4c2f 013e 83d0 0d3e
00000150: 01b9 47bd 0f1b a63d 5bc3 43bc 4548 1d3e
00000160: 3022 a73d 1762 c1bd db0d afbd 5441 b93d
00000170: 4dac d23d c2e2 ed3c 11e7 bdbd b5b6 80bd
00000180: f3fb 063e a66b 163d 34b5 f9bd df0b 893d
00000190: 6cec 1dbe 1580 aabb 3d34 d8bd 7c01 75bc
000001a0: ed95 ffbc 828a 883d 7b1a ab3d 9421 1bbd
000001b0: 4a35 073d 94c0 c43d 17d2 543e 5363 483e
000001c0: b0cc c33d fd81 a3be 1b48 71bc 8fa2 08bf
000001d0: 521e bc3d e2aa 1b3d dc35 89bc e514 d9bd
000001e0: a20d abbd 66c6 93bd 5ca5 9e3e ee64 fbbd
000001f0: c0d0 9cbb 2585 753d 6975 b53d e9eb 34bc
00000200: e9e0 5d3d 650e d73b 8010 c5bd f6f4 b3bc
00000210: 08cf 1abd 9778 af3d 5ddc 24bd 3c13 13bc
00000220: d606 263d c5c6 d93c 9f48 acbd 75ae 413e
00000230: 4d46 a3be 7967 12be 21fe 063d bf76 b4bd
00000240: edf2 fc3c fbe4 2ebf 4f19 27bd b2b3 7d3e
00000250: 309e 1abe 1707 503e f5f7 5c3d 6bc4 62bd
00000260: 7d36 40bd d598 18bd 0ab6 31bd bcfb ac3d
00000270: 597d 213d e6da 953d f4fc 063d e0ef 893d
00000280: 15bc 1b3d af25 b83d aa18 a8bd 1ca4 703c
00000290: b545 ad3d 42b6 cdbc f7a3 89bc f7b9 dc3d
000002a0: d611 9d3d 87d9 993d 4c2a 1b3d 0e34 223d
000002b0: 0f6e 913d c110 bc3d a780 fb3d a5dd 81bb
000002c0: ee7a 733d 42be 83bd 35d6 023c 3072 fbbc
000002d0: 2f65 7f3d fbc6 db3d fa31 483d 6502 a13d
000002e0: 9d6d ff3c b50c 1b3d 2988 50bc 2e3f 7ebd
000002f0: 5f70 723d b79e 403d 0538 ba3d 492f 1dbc
00000300: 5e5d 4dbd c0b5 e739 d72d e33c 2fc1 37bd
00000310: 2442 663d 4f39 5e3c cef1 73bd f587 b2bc
00000320: 163d af3d b5e3 913d 6783 173e 9009 a7bc
00000330: d93a f1bc 14d0 693d 24e6 c1b9 7415 4dbc
00000340: 0bf9 0dbe 47bf 61bc e086 053d 593b ab3d
00000350: a183 ecbb 8396 1fbd e1e3 4c3d 967d 383c
00000360: 040d 433a 92ab 5d3d 6fb4 443d 5b75 b8bd
00000370: 6b7b 95bd 8647 dcbc d2a5 143e 4a9c bbbd
00000380: 4f13 5c3c 2aba 17bc bd69 0dbe 32b0 ac3d
00000390: 300f a7bc 954d cd3d f8b2 a5be 8b67 59bd
000003a0: 2f29 8abd 6d31 80bd e36d d5bb fa42 abbd
000003b0: 4af7 e73d 1e7f a63d 07c6 f23d 5776 083e
000003c0: 84e8 053c df91 a2bd 409b 8cbc 36d8 27bd
000003d0: d8e5 583c 869b 573e ae48 44be 923b 21bd
000003e0: 84ea 383e 25b8 143e 4f89 853d 803a aa3b
000003f0: ceac b1bd ac41 653d f3bf 013e 243e 263c
0.16941336 0.030823356 0.050207406 0.02469988 -0.0034187683 -0.03491994 0.04340232 -0.0013292409
-0.0876873 0.05576517 -0.039619382 0.1560332 -0.04183225 -0.00087314995 0.05868492 -0.13891797
0.031247286 0.11833187 0.052952543 0.002465922 0.12278292 -0.07154874 0.003432832 0.048577107
0.03961353 0.17721279 -0.09488362 0.059554074 -0.07059337 0.04461155 -0.021938818 0.05813077
-0.014441072 -0.073232815 -0.024337884 0.027149256 -0.12672143 0.00078624143 -0.057543464 -0.014453053
0.05547919 -0.036021594 0.048937697 0.06396762 -0.03263563 0.1212896 0.028138196 0.11341033
0.102624126 -0.03508066 -0.04995662 0.0065323017 0.17868657 -0.017345585 -0.005791175 0.11845575
-0.07087052 -0.011177896 0.02401112 -0.078662835 0.053256813 0.052647714 -0.10128886 0.10946289
0.07680291 0.022776255 0.13965888 0.14000686 0.05420555 -0.020078829 0.04504357 0.024676438
0.0003311853 0.16622636 0.14597589 0.06725711 0.00062545424 -0.04755677 -0.00137806 0.02764108
0.06349582 0.12645584 0.12615699 0.13849072 -0.048760418 0.0811063 -0.011948432 0.153596
0.081608176 -0.09442537 -0.085475646 0.090456635 0.1028677 0.02903879 -0.09272588 -0.062848486
0.13182048 0.036723755 -0.12192765 0.06691717 -0.15422219 -0.005203257 -0.10556839 -0.014953967
-0.03119942 0.06667043 0.0835466 -0.03787382 0.033009805 0.09607044 0.20783268 0.19569139
0.095605254 -0.3193511 -0.014726664 -0.53373045 0.09185471 0.038004763 -0.016749315 -0.105996884
-0.0835221 -0.07215576 0.30985534 -0.1227511 -0.004785627 0.05994143 0.08860285 -0.0110425735
0.05416957 0.0065629953 -0.09622288 -0.021967392 -0.037795097 0.085679226 -0.040249217 -0.008976754
0.040533863 0.026584039 -0.08412289 0.18914206 -0.31889573 -0.14297284 0.0329572 -0.088117115
0.030877555 -0.68318146 -0.04079562 0.2477558 -0.15099406 0.20315205 0.053947408 -0.0553631
-0.046926964 -0.037255127 -0.043386497 0.08446452 0.03942618 0.07317142 0.03295608 0.06735206
0.038021166 0.089915626 -0.08207829 0.014687564 0.08460561 -0.025111321 -0.016801817 0.107776575
0.076694176 0.07512193 0.037882134 0.039600424 0.0710107 0.09182883 0.12280398 -0.0039631897
0.059443407 -0.06432773 0.007985641 -0.030694097 0.062352356 0.10731312 0.048875786 0.07861785
0.031180197 0.037853915 -0.012727776 -0.06207197 0.059189197 0.047026362 0.09092716 -0.009593793
-0.05013787 0.00044195168 0.02773182 -0.04486197 0.05621542 0.013563468 -0.059556775 -0.021793345
0.08556573 0.0712351 0.1479622 -0.020390302 -0.029447006 0.057083204 -0.00036983297 -0.012517322
-0.13864534 -0.013778514 0.03259933 0.08360929 -0.00721784 -0.0389619 0.05002201 0.011260411
0.0007440599 0.0541187 0.048023637 -0.09006759 -0.07298931 -0.026889574 0.1451638 -0.09160669
0.013432338 -0.009260694 -0.13809867 0.08432044 -0.020392984 0.10024563 -0.32363105 -0.053077262
-0.067461364 -0.06259427 -0.0065133437 -0.08362384 0.113264635 0.081297144 0.11854177 0.13326393
0.008173112 -0.07937979 -0.017163873 -0.04097768 0.013238393 0.21055421 -0.1916835 -0.03936345
0.1805821 0.1452337 0.0652033 0.005194962 -0.08675538 0.055970833 0.12670879 0.010146651

fc.1.bias f4 [100]
00000000: 3d44 e03d c21c 883e a83a 033e ccdd a4ba
00000010: 1e10 563c 83ec 3ebe 3826 e2bd 06a5 78bc
00000020: f58d 173d b1a3 603e 3291 123e 075f d2bd
00000030: 5ed3 e7be b001 4e3c 7421 14bd 59ad 263d
00000040: 40dd a33e 6325 0b3d c072 ffbe 9276 b53d
00000050: 29c8 c03c d21a 54bc fd31 473e 11cb 333d
00000060: f8a3 9bbd ea47 683e cb84 663e fae0 dc3d
00000070: 72d2 053e 2eba 033e 6629 753e 1adf 28bb
00000080: 802c 12be 07f0 bd3d ef8a a8be 6ae8 793b
00000090: 8cbe 533e ce46 78bd 8d21 573e 5338 19be
000000a0: 43ff dd3d 8209 1d3e b214 b53d 0378 c7be
000000b0: affc 5e3e a270 6b3e 80c7 663d d073 fa3c
000000c0: 8f5a 16bf 9135 c6bd 3a31 133d 93dd a03d
000000d0: 57e2 d73c 667e 6f3d 3605 b43d 0154 48bd
000000e0: 1ab2 55be ba35 813d 4fe5 ad3d d809 e63d
000000f0: 3010 23bf 39e3 09be 5bfb 5ebb 7670 203e
00000100: 7cca e53b e617 2d3e e8b8 ec3d 64cc 11be
00000110: eb97 423e fcad 873d 59bf 183d fde7 cb3d
00000120: e94b e03d 152b 023e 7889 40be cc4a f6ba
00000130: 31d7 53bd 40dd c03d 1eab 733d b5bb 4d3d
00000140: e426 8f3e 3087 52bd c1d0 92bd d64b 8bbe
00000150: ff95 b63d 66ff 0f3d 9efc 08be 8d1a 813e
00000160: 5290 bebd 6cc2 d1be fa1c 113f 5941 d33d
00000170: 4cce a03c 7f81 c03c a829 cabd 5dbd 85be
00000180: 8738 c8bc de0a 01bd 1270 c63e 8b63 2e3e
0.109505154 0.2658444 0.12815344 -0.0012578308 0.013065366 -0.1864491 -0.11042446 -0.015176063
0.037000615 0.21937443 0.143132 -0.10272031 -0.45278448 0.0125736445 -0.036164716 0.04069266
0.32004738 0.0339712 -0.49892235 0.08860506 0.023532944 -0.012945848 0.19452663 0.04389483
-0.07599634 0.22683683 0.22511594 0.107850984 0.1306856 0.1286399 0.23941574 -0.0025767745
-0.14274788 0.09274297 -0.32918498 0.0038132914 0.20678157 -0.0606144 0.21008892 -0.14962892
0.10839703 0.15335658 0.08841838 -0.3895875 0.21776079 0.22992185 0.0563426 0.030572802
-0.5873193 -0.09678186 0.035935618 0.07854762 0.026353044 0.058470152 0.087900564 -0.048908237
-0.20868722 0.06309076 0.08491003 0.11232346 -0.63696575 -0.13465585 -0.0034024331 0.156679
0.0070126634 0.16903648 0.115587056 -0.14238125 0.19003265 0.06624982 0.03729186 0.09956358
0.10951979 0.12711747 -0.1880244 -0.0018790602 -0.051718894 0.094172 0.059489362 0.05022784
0.2795936 -0.051398456 -0.07168723 -0.27206296 0.08915328 0.035155676 -0.13377616 0.2521557
-0.09304871 -0.40968645 0.5668484 0.103151985 0.01962962 0.023499249 -0.098712265 -0.26121035
-0.024441017 -0.031504504 0.38757378 0.1703016

fc.2.weight f4 [4, 100]
00000000: aea7 c3bc 617f b63e 26ac 40be 055c 763d
00000010: dcf3 42bd 9faf 763e 058e 9c3d d573 2dbc
00000020: 4036 e23c 7369 5e3d 5ac3 6dbd a10e 113e
00000030: db38 c2be dc9b 15bd abf4 2e3e 0b6e 57bd
00000040: edba c63e f65e afbb 7597 dc3c c1fb c83e
00000050: 65f9 de3d 762a 0e3d 9021 8fbd 8fea 3c3d
00000060: b837 943d f631 99bd 1407 203e 8069 c4bd
00000070: ba3b 8abd 57f6 0cbe a9c4 b3bd f1a8 05be
00000080: c5ae 9dbe 4ffe 2ebd 51bf 9dbe 4926 19bd
00000090: 0ce4 b4be 7705 c03d cbfd babd 5fee 6d3d
000000a0: deaf 003d 39a0 77bd a1cd 7cbe 5043 a7bf
000000b0: b85d c6bd 6671 67be d767 4fbd 67cb 22bd
000000c0: 1312 163d dde9 c4bd fe6d 6dbc afb9 25bd
000000d0: fdf0 ebb9 3f57 a0bd a4e6 7bbd 5d38 b43d
000000e0: fb09 f33d d829 c3bc 69bf 1bbe ed70 3a3c
000000f0: 9966 ba3e ede9 7bbc 5a14 133e 6fab a3bd
00000100: c880 ab3d 4718 cbbd 0312 463c 5904 8cbe
00000110: 47d2 d3bc bf89 543c 32ae 7bbd f8e6 b0bc
00000120: f2e8 05be 8139 003e 5f2d b63e d37a c13c
00000130: e3cc 343d 14fe 9fbd 0428 34bc 87ab 673c
00000140: d9dd 7dbe 6730 623c 965f 113e 7bd8 553e
00000150: 8e58 9e3d 534e 97bc bf48 cf3d 5d63 4a3e
00000160: dd96 373e 2b1f ad3c eb6b 0b3e 4d23 d9ba
00000170: 8d36 c43d b29a 85bd feee 74bd c12a 9c3e
00000180: 99ad 503d 9d5e 80bc 30c5 55be 6054 bfbd
00000190: 8732 41bd 2737 6ebd 3aa3 8cbd f94f 773c
000001a0: d690 e73d 86e5 8ebd 3427 1ebd f47d 633d
000001b0: 308f 60bd 994e b53d 3459 8c3d a73e 813e
000001c0: 5099 1a3d c609 a5bc 06db 983d 9122 8cbc
000001d0: 56f2 5abe a7ef 07bd 06cd 37bf f8d2 253e
000001e0: ec07 803e eeb9 493d 8121 1bbd 2e62 bc3d
000001f0: 29f7 a9bd 4eb9 1d3b 1630 5a3e 554b c33b
00000200: c488 013d ce26 f1bd 185f c93e dbd5 b9bd
00000210: ad86 c7bd 54b8 a7bc 266b 133d 620a 93bd
00000220: fe0e 99be 9ecf adbc 69a1 7d3d 7672 2bbd
00000230: 60ac 72bd ef5d 723d 8474 58be ef47 133f
00000240: 9345 af3d 3f22 e0be a922 98bd 1ad2 06bd
00000250: 5e01 17bf 252b 273e edf7 1bbd 6ec8 5d3e
00000260: 8d2d 22bd 452f cc3d b733 fb3d e3b5 e3bc
00000270: b4d4 01bc 0a44 c6bc 3ad3 903d bb3a ad3d
00000280: 9b94 653e 38af 8abd 49a0 b73d 75a9 00be
00000290: 5ab6 133e 738e 843e fc55 c3bc d1a2 c8be
000002a0: d69a 1dbc bced 37bd eebf 38bc c336 77bd
000002b0: a95f dfbd 4af2 213e 2780 b03d 199f 8f3d
000002c0: dc42 c7bd a38c 2bbd 208a 7b3c 3dba 3abd
000002d0: 194b 6fbe d345 2f3d d6aa f73d c36b 24bc
000002e0: 7f83 e13c 88cb 9d3d 310b 21bc c79a d1be
000002f0: fa95 bf3d ca4a a7be 32a2 bbbe abbd 57bd
00000300: 6d0a babd 5376 223d 7fd1 c33d 91a9 e43c
00000310: 142d 883d 0525 d13d d823 9c3e 6aca 16bc
00000320: 96d7 94bd ccb3 91bc 7d06 0dbd ae2f c83d
00000330: 11f3 35bd 2575 f838 e0ae d6bc 396a 5b3d
00000340: 6418 e83c 27d0 c93d 9e10 1ebc 984d 3639
00000350: bc4a 1a3b 94e8 2c3e b813 3d3c d1c0 ba3d
00000360: a1c8 b43b 3bf3 e8bd 4ac9 67bb 61a5 1d3a
00000370: 895d e33c acd5 803c 5546 ccbd ec3f 873d
00000380: 67a6 ac3c 273b a2bd 2c4f 353c d280 cbbd
00000390: 55f6 b83d 199b 0c3c ebbe 4b3c 3423 803b
000003a0: cfaa a8bc a1cd edbd 5dd6 ee3b a487 233d
000003b0: 1f71 82bc c4d8 743a 2dc8 25be 26f2 91bd
000003c0: d4a5 223e 1bd1 58be 44e4 96bb c74e 2abc
000003d0: 87ed a1bd d599 96bb 52bd 02be 6576 193e
000003e0: 2059 11bc 955d f23b 88fb 103e d328 573c
000003f0: 7b10 90bc 16ee 7a3d 8ee4 8b3c 2828 41bd
-0.023883667 0.35644057 -0.1881567 0.06014635 -0.047595844 0.24090432 0.076442756 -0.010586699
0.027613759 0.054299783 -0.05804763 0.14165737 -0.37934002 -0.036525592 0.17085521 -0.05259518
0.38814488 -0.0053518964 0.02692769 0.39254573 0.10887412 0.034708463 -0.069888234 0.04612213
0.0723719 -0.074802324 0.156277 -0.09590435 -0.06749673 -0.13765846 -0.08777744 -0.13052727
-0.307974 -0.042722996 -0.30810025 -0.037390027 -0.35330236 0.09376042 -0.091304384 0.058088657
0.03141772 -0.060455535 -0.24687816 -1.3067417 -0.09685844 -0.22601852 -0.05063614 -0.03974476
0.03663833 -0.096149184 -0.014491556 -0.040460285 -0.00045002243 -0.07829141 -0.061499253 0.08799813
0.11867138 -0.023823664 -0.15209736 0.011379463 0.364064 -0.0153755965 0.14363232 -0.07991683
0.083741724 -0.0991674 0.012089255 -0.27347067 -0.025857104 0.012972294 -0.061445422 -0.02159451
-0.13077143 0.12521936 0.3558149 0.023618137 0.044140708 -0.078121334 -0.010995869 0.014140016
-0.2479166 0.013805485 0.1419662 0.20883362 0.07731734 -0.018469965 0.10121297 0.19764467
0.17928644 0.021133026 0.13615386 -0.0016566307 0.09580717 -0.065236464 -0.059798233 0.3050137
0.050946806 -0.015670115 -0.20876002 -0.09342265 -0.047167327 -0.058158066 -0.068670705 0.015094751
0.11306922 -0.06977372 -0.038611606 0.05554004 -0.054824054 0.08852882 0.06852952 0.25243112
0.037743866 -0.020146262 0.074636504 -0.017106326 -0.21381506 -0.033187535 -0.71797216 0.1619376
0.25006044 0.049249582 -0.03787375 0.09198414 -0.08299095 0.002406675 0.21307406 0.005959908
0.03162457 -0.117749795 0.39330363 -0.09073993 -0.09742484 -0.020473637 0.035990857 -0.07179715
-0.2989425 -0.021217164 0.06192151 -0.041857205 -0.05924642 0.059171613 -0.21138197 0.57531637
0.08558192 -0.43776128 -0.07428486 -0.032915212 -0.5898646 0.16325052 -0.038078237 0.21658489
-0.03959422 0.099699534 0.12265723 -0.027796691 -0.0079242475 -0.024202365 0.07071538 0.084584676
0.2241997 -0.067717016 0.08966119 -0.12564643 0.1442503 0.2588993 -0.023844711 -0.3918672
-0.009619435 -0.044904456 -0.011276228 -0.06035496 -0.109069176 0.15815082 0.08618193 0.07012767
-0.09729549 -0.04188217 0.015352756 -0.045587767 -0.23368491 0.0427912 0.12093131 -0.010035458
0.027528523 0.07704836 -0.009829328 -0.40938398 0.09354778 -0.32674247 -0.36647183 -0.052671116
-0.0908402 0.039663624 0.095614426 0.027912887 0.06649223 0.10212139 0.30496097 -0.009203533
-0.07267682 -0.01778593 -0.034430016 0.09774719 -0.04442126 0.000118473814 -0.026206434 0.0535681
0.028331943 0.09854155 -0.0096475165 0.00017385778 0.002354308 0.16885597 0.011540346 0.09118808
0.005517081 -0.113745175 -0.003536778 0.0006013718 0.027754562 0.015726887 -0.09974352 0.06603989
0.02107544 -0.07921439 0.011066239 -0.0993668 0.09031359 0.0085819 0.012435655 0.0039104465
-0.02058926 -0.11611486 0.0072887377 0.03992428 -0.015923081 0.0009340162 -0.16189642 -0.07126264
0.15883571 -0.21173517 -0.004604848 -0.010394759 -0.07906633 -0.004595975 -0.12767532 0.1498657
-0.008871347 0.0073964098 0.14158452 0.013132292 -0.017585983 0.061262213 0.017076757 -0.047157437

fc.2.bias f4 [4]
00000000: e9aa 19be c299 323c 4a84 8cba d1d3 18bd
-0.15006603 0.0109009165 -0.0010720578 -0.03731138
