model/unicycle-ensemble-FC3-100-5/epoch_800.pth (torch, 47077 bytes, 6 tensors)

fc.0.weight f4 [100, 6]
0	0xbe86bfae	-0.26318115
1	0xbb970ed4	-0.004609922
2	0x3e83a080	0.2570839
3	0xbf06a2f2	-0.52592385
4	0xbec3109f	-0.38098618
5	0xbeb0720d	-0.34462014
6	0xbeb5d159	-0.35511282
7	0xbe5ed990	-0.21762681
8	0xbf09794a	-0.537007
9	0xbe416bef	-0.1888883
10	0x3d464747	0.04840782
11	0xbdab49ee	-0.0836371
12	0xbbe307ea	-0.0069284337
13	0xbb17c2c7	-0.0023156868
14	0xbe3f6e0b	-0.18694322
15	0x3f6081d7	0.8769812
16	0xbd11220a	-0.035432853
17	0x3d767573	0.060170602
18	0x3d4d2e8f	0.05009323
19	0x3e9cd42a	0.30630618
20	0x3e8f5c98	0.2800033
21	0x3de03fb8	0.109496534
22	0xbe8ea096	-0.27856892
23	0xbd239e57	-0.039945927
24	0x3d3a886b	0.045540255
25	0xbe84b4ae	-0.25919098
26	0x3e06eace	0.13175508
27	0x3ef142d0	0.47121286
28	0xbcdfbff7	-0.027313216
29	0x3dc2a960	0.09504962
30	0x3d7eff31	0.06225509
31	0xbea20551	-0.3164468
32	0x3ee3efbc	0.4451884
33	0x3cf1933c	0.029489152
34	0xbe296e96	-0.16546091
35	0x3e63806c	0.22216958
36	0x3e8a4c75	0.27011457
37	0x3da7314b	0.08163699
38	0xbf027487	-0.50959057
39	0x3ebb22a3	0.36549863
40	0x3ea042cd	0.31300965
41	0xbe55c1be	-0.20874688
42	0xbeb39b10	-0.3507924
43	0xbd3b9f95	-0.045806486
44	0xbd82a175	-0.06378452
45	0xbedbb13f	-0.42908666
46	0x3f04d27f	0.5188369
47	0xbed235e8	-0.41056752
48	0x3ca724f7	0.020403368
49	0xbe027d52	-0.12743118
50	0xbd3feea7	-0.046858456
51	0x3f781488	0.9690633
52	0xbdc6b276	-0.097020075
53	0x3c3fa0d1	0.011696056
54	0xbe27b133	-0.1637619
55	0xbcea50ba	-0.028602947
56	0x3dc578f0	0.096422076
57	0xbf064239	-0.524448
58	0xbd85b062	-0.06527783
59	0x3e1c3bca	0.15257183
60	0xba762aea	-0.000939055
61	0xbb7f6c7d	-0.0038974576
62	0x3eacc9bf	0.3374767
63	0xbed5a826	-0.4172985
64	0x3ce3ce45	0.027808318
65	0xbc936c75	-0.017996052
66	0xbd17ede6	-0.037092112
67	0xbb87c554	-0.0041433964
68	0x3e30c534	0.17262727
69	0x3e1dd026	0.15411434
70	0x3d856702	0.06513788
71	0xbdfadf78	-0.122496545
72	0x3e09f23d	0.13471313
73	0x3e7642d8	0.24048936
74	0xbda3e41d	-0.080024935
75	0xbee162fd	-0.44020835
76	0x3e745dab	0.23863856
77	0x3e3815a1	0.17977001
78	0x3b931ab4	0.0044892672
79	0x3e3050ff	0.17218398
80	0xbf112b42	-0.5670663
81	0x3f75dcae	0.96039855
82	0xbd602ed4	-0.05473216
83	0x3e2f45fe	0.17116544
84	0x3ead52a1	0.33852103
85	0xbd182680	-0.03714609
86	0x3e547e51	0.20751311
87	0x3f125183	0.57155627
88	0xbeeb7e5e	-0.45994848
89	0x3f013f0d	0.5048683
90	0xbc416200	-0.01180315
91	0xbbebfbc2	-0.0072016427
92	0x3e8f6b5f	0.28011605
93	0xbf1b043e	-0.6055335
94	0x3cfd34a9	0.0309089
95	0xbcf0857c	-0.029360525
96	0x3e5a537d	0.21320911
97	0xbe680e33	-0.22661667
98	0xbeddc79b	-0.4331635
99	0x3e8de30b	0.27712283
100	0x3e2c4fb7	0.16827284
101	0x3dc2d9bc	0.09514186
102	0xbe232277	-0.15931116
103	0xbe6d9416	-0.23201022
104	0xbe461117	-0.19342457
105	0x3c7a433a	0.015274817
106	0xbecaf214	-0.39637816
107	0xbebf838f	-0.3740506
108	0xbead0d61	-0.3379927
109	0x3d2ada7d	0.041712273
110	0xbe32b08a	-0.17450157
111	0xbf11c055	-0.569341
112	0x3eeb65dc	0.4597615
113	0xbf00e0ed	-0.5034321
114	0x3da0d7ac	0.07853636
115	0xbe50a0c8	-0.20373833
116	0xbf4c4679	-0.7979503
117	0x3fa0511c	1.2524753
118	0xbe0e5705	-0.13900383
119	0x3e067ae6	0.1313282
120	0xbdd85f64	-0.10565069
121	0x3bac7f21	0.0052641784
122	0x3ec3bf14	0.3823172
123	0x3f5d11ed	0.8635548
124	0x3e89c414	0.26907408
125	0xbd481e29	-0.048856888
126	0x3e9fef0d	0.3123707
127	0xbe65a29d	-0.22425313
128	0xbdfa8abe	-0.12233494
129	0xbf0c43ae	-0.5479077
130	0x3dedd933	0.11613693
131	0xbe15a210	-0.14612603
132	0x3c9dd59f	0.019266902
133	0xbcdeff07	-0.027221216
134	0xbf2a022b	-0.6640956
135	0xbf6b506e	-0.919196
136	0xbd9bff33	-0.07617035
137	0xbd37323d	-0.044725645
138	0x3e7365dc	0.23769325
139	0xbe31f757	-0.17379509
140	0xbd951682	-0.07279684
141	0x3f585d55	0.84517413
142	0x3e130cc0	0.14360332
143	0xbe22a5d4	-0.15883571
144	0x3d8d2530	0.068918586
145	0x3e62d223	0.22150473
146	0xbf66e030	-0.9018583
147	0xbeecb6b8	-0.46233153
148	0xbdaf32c0	-0.08554602
149	0xbe070132	-0.1318405
150	0x3e3cbb51	0.1843083
151	0x3e29177b	0.16512863
152	0xbe075efd	-0.13219829
153	0xbe3569fd	-0.17716213
154	0xbe82672f	-0.25469348
155	0xbeffef4e	-0.49987262
156	0x3d8ae0c7	0.06781154
157	0xbe17046d	-0.14747782
158	0x3e8df24a	0.27723914
159	0x3f968fe0	1.1762657
160	0xbd5a6738	-0.053321093
161	0xbdfe3d9b	-0.12414094
162	0x3e842c39	0.2581499
163	0x3c635dbf	0.013877331
164	0x3e86ffc8	0.2636702
165	0xbf2e5c16	-0.6810926
166	0x3ee46cdb	0.446143
167	0xbeb3d3d4	-0.3512255
168	0xbe3fc01a	-0.18725625
169	0xbe05154e	-0.12996408
170	0xbe0427a0	-0.1290574
171	0xbd0c99eb	-0.034326475
172	0x3e8e92f0	0.2784648
173	0x3f03f444	0.51544595
174	0xbdee2072	-0.11627282
175	0xbe5e511b	-0.21710627
176	0x3d90af0a	0.07064636
177	0xbd9bbbd0	-0.07604182
178	0xbed097a1	-0.40740684
179	0x3e645d4e	0.22301218
180	0xbe1f0432	-0.15528944
181	0xbe18de2a	-0.14928499
182	0xbcccabce	-0.024984267
183	0x3fb4577c	1.4089198
184	0xbb51d66f	-0.0032018682
185	0x3d773aed	0.06035893
186	0x3e0711f3	0.13190441
187	0x3e7d65e4	0.247459
188	0xbda5108c	-0.08059797
189	0x3dab49f3	0.08363714
190	0x3eec702c	0.4617933
191	0xbe7cd994	-0.24692374
192	0xbe413212	-0.18866757
193	0xbe10bdeb	-0.14134948
194	0xbf3f7bba	-0.74798167
195	0x3edc81f8	0.43067908
196	0xbb81c0c4	-0.003959747
197	0xbda403f7	-0.08008569
198	0x3c4aa4d7	0.012368402
199	0xbe1f9513	-0.15584211
200	0x3d8ac199	0.06775207
201	0xbe2579fe	-0.16159818
202	0x3eda2d0e	0.426125
203	0x3d5e7934	0.054314807
204	0xbd9b3b50	-0.07579672
205	0xbe9b15f9	-0.302902
206	0x3f4c61c1	0.7983666
207	0xbd88ba9b	-0.06676217
208	0xbd8430c6	-0.06454615
209	0x3dd1b40e	0.10239421
210	0x3e1e4295	0.15455087
211	0xbe2e2fb8	-0.17010391
212	0xbdf317e4	-0.11869791
213	0x3ed45fef	0.41479442
214	0x3e5b385e	0.21408221
215	0xbe12693b	-0.14297955
216	0xbe759474	-0.23982412
217	0xbe38a988	-0.18033421
218	0xbe839698	-0.2570083
219	0xbeb3e333	-0.35134277
220	0x3ebe9704	0.3722459
221	0x3f380734	0.7188599
222	0x3e4ba67f	0.19887732
223	0x3e102e00	0.14080048
224	0xbdee7a0c	-0.11644372
225	0xbf39cdfd	-0.7257994
226	0xbe804734	-0.25054324
227	0x3ea7499f	0.32673356
228	0xbe344b21	-0.17606784
229	0xbe8681e7	-0.26270983
230	0xbcf8864e	-0.030337479
231	0x3ca89a90	0.020581514
232	0xbec92635	-0.39286962
233	0xbeaba5af	-0.33524844
234	0x3d50a7f9	0.05094144
235	0x3d4710a3	0.04859985
236	0xbf54ae58	-0.8307853
237	0x3f25b5b1	0.64730364
238	0xbd68ab06	-0.056803726
239	0xbcfb0666	-0.0306427
240	0x3e21bfbd	0.15795799
241	0x3e0108a9	0.1260096
242	0xbed829be	-0.42219347
243	0x3f18266b	0.5943362
244	0x3d52ace3	0.05143441
245	0xbda7f88e	-0.08201705
246	0xbe4bda03	-0.19907384
247	0x3e2fff37	0.171872
248	0xbda7a7dc	-0.081863135
249	0x3f296049	0.66162544
250	0x3d16c4cf	0.036808785
251	0x3db3e665	0.08784179
252	0x3e178e97	0.14800487
253	0xbe2f494a	-0.17117801
254	0xbebbebc0	-0.367033
255	0x3e3c7013	0.18402128

fc.0.bias f4 [100]
0	0xbf2464d4	-0.6421635
1	0x3df6e525	0.120554246
2	0x3fa16f03	1.2612003
3	0xbeae1043	-0.33996782
4	0x3f54f132	0.83180535
5	0x3f03f7b8	0.51549864
6	0xbea63b13	-0.32466945
7	0xbea7ebb9	-0.3279703
8	0xbf335672	-0.7005378
9	0x3f853e95	1.0409724
10	0x3fa72e89	1.3061076
11	0x3fa5d2ee	1.2954996
12	0xbf205899	-0.6263519
13	0xbee0053e	-0.43754
14	0xbda01bf7	-0.07817834
15	0xbf8b2da0	-1.0873299
16	0x3ed15f6a	0.40893108
17	0x3deb255e	0.114817366
18	0x3d9d2dd4	0.07674757
19	0xbe00d546	-0.12581357
20	0xbeae6aa0	-0.34065723
21	0xbf8574a7	-1.0426224
22	0xbf6b6ce2	-0.91963017
23	0xbf82f9d9	-1.0232497
24	0xbf04547c	-0.5169141
25	0x3ec9a064	0.3938018
26	0x3cb75a7d	0.022382015
27	0xba31f546	-0.0006788563
28	0x3ef80762	0.48443133
29	0x3d82fd36	0.063959524
30	0xbf374b7f	-0.7159957
31	0xbd7b4ce4	-0.061352625
32	0xbfd7b97b	-1.6853479
33	0xbddc87a3	-0.10768058
34	0xbed6bf94	-0.41943038
35	0xbedba094	-0.4289595
36	0xbc85184a	-0.016246933
37	0xbe5fe993	-0.21866445
38	0xbcccbadd	-0.024991447
39	0x3ff0a3be	1.879997
40	0xbe852433	-0.2600418
41	0xbe51063c	-0.20412534
42	0x3ecc9790	0.39959383
43	0xc00d7719	-2.2103941
44	0x3ee47165	0.44617763
45	0xbe0cc060	-0.1374526
46	0xbe33fa2a	-0.17575899
47	0xbf7454b7	-0.95441765
48	0xbefbbfc5	-0.49169746
49	0x3f85cbd3	1.0452827
50	0xbdb56b66	-0.08858375
51	0xbaed2517	-0.0018092719
52	0x3c66b76f	0.01408182
53	0x3f85ad9f	1.044361
54	0xbf19d825	-0.60095435
55	0x3f0fd133	0.5617859
56	0xbfc2f3ab	-1.5230612
57	0x3f0a5e08	0.5404973
58	0x3ea17f85	0.31542602
59	0xbe65c66e	-0.22438976
60	0xbf88dbd5	-1.0692087
61	0x3d7faade	0.06241881
62	0x3e11d5b9	0.14241685
63	0x3e898acb	0.26863703
64	0x3f18fefe	0.5976409
65	0x3e927121	0.28601936
66	0x3eef79f0	0.46772718
67	0x3e8b1665	0.27165523
68	0x3e6b3437	0.22969137
69	0xbf861558	-1.0475264
70	0xbb636b7e	-0.0034701522
71	0x3f16b995	0.58876926
72	0x3e8e5b95	0.27804247
73	0x3f6c0a23	0.9220297
74	0x3f5f6396	0.8726133
75	0xbd8c9ba2	-0.06865622
76	0x3f7e9af3	0.99455184
77	0xbf0dbd82	-0.5536729
78	0x3e8bbf86	0.27294558
79	0xbf81a6b3	-1.0128998
80	0x3e92b499	0.2865341
81	0x3f2ce935	0.67543346
82	0x3eca82a6	0.39552802
83	0x3f535386	0.8254932
84	0x3f3dfa6d	0.74210244
85	0xbe505121	-0.20343448
86	0x3e7a7194	0.24457389
87	0xbf0c3f91	-0.54784495
88	0xbf7a9de8	-0.97897196
89	0xbc563776	-0.013074746
90	0xbd13490a	-0.035958327
91	0x3e769f79	0.24084271
92	0x3eae240e	0.34011883
93	0x3eab2f63	0.3343459
94	0xbec0ebaa	-0.37679797
95	0xbe537f78	-0.20654094
96	0x3d212047	0.039337423
97	0x3dbc65a2	0.091990724
98	0x3f2ca5bc	0.6744039
99	0xbebe8175	-0.37208143

fc.1.weight f4 [100, 100]
0	0x3e2bf461	0.16792442
1	0x3cf881f2	0.0303354
2	0x3d45dbc3	0.048305284
3	0x3cbdd9b0	0.02317509
4	0xbbb05941	-0.0053817336
5	0xbd117b36	-0.035517894
6	0x3d3a11fa	0.0454273
7	0xbaa09dc0	-0.0012254044
8	0xbdb5bf38	-0.08874363
9	0x3d509fb8	0.05093357
10	0xbd2bc4de	-0.041935794
11	0x3e197afb	0.1498832
12	0xbd2be02a	-0.041961826
13	0xba9ba864	-0.0011875746
14	0x3d764178	0.06012103
15	0xbdfb9719	-0.12284679
16	0x3cf85961	0.030316057
17	0x3df1049c	0.11768457
18	0x3d52f855	0.05150636
19	0x3b6c485a	0.0036053867
20	0x3df8b1a6	0.12143259
21	0xbd928625	-0.07154492
22	0x3c0ea0e5	0.008705352
23	0x3d4d1bc9	0.050075326
24	0x3d1ec9fc	0.038766846
25	0x3e2ff0d5	0.17181714
26	0xbdc0cb6a	-0.09413798
27	0x3d744908	0.05963996
28	0xbd8fdd70	-0.07024658
29	0x3d3791ac	0.044816658
30	0xbca3f5f2	-0.020014737
31	0x3d6bde2f	0.057584938
32	0xbc230750	-0.009950474
33	0xbd94a699	-0.072583385
34	0xbcc14729	-0.023593502
35	0x3ce3eab6	0.02782188
36	0xbe036e5f	-0.12835072
37	0x3ac536ce	0.001504624
38	0xbd6c9f93	-0.05776937
39	0xbc8eb407	-0.017419828
40	0x3d6e4ad5	0.058176834
41	0xbd177920	-0.03698075
42	0x3d48f4ed	0.049061704
43	0x3d85e078	0.06536955
44	0xbcf84cbb	-0.030310025
45	0x3df8aba7	0.12142115
46	0x3ce46e71	0.027884694
47	0x3de340f2	0.11096372
48	0x3dd359c4	0.10319856
49	0xbd122e6c	-0.035688803
50	0xbd61e068	-0.05514565
51	0x3c063d7b	0.008193369
52	0x3e2e0a7e	0.1699619
53	0xbc88e812	-0.016712222
54	0xbb9dbcd1	-0.0048137684
55	0x3df1640a	0.11786659
56	0xbd9207d7	-0.071304016
57	0xbc73dc73	-0.014884102
58	0x3cbea784	0.023273237
59	0xbda22fcd	-0.079192735
60	0x3d5ebbff	0.054378506
61	0x3d54dbf3	0.051967572
62	0xbdcd1359	-0.10013456
63	0x3de33389	0.11093814
64	0x3d9cbc18	0.076530635
65	0x3cacfb1d	0.021115834
66	0x3e0d375f	0.13790654
67	0x3e0bec39	0.1366433
68	0x3d5b7fae	0.05358856
69	0xbc8db244	-0.017296918
70	0x3d348846	0.044075273
71	0x3cb57207	0.022149099
72	0x3a4579a2	0.00075330783
73	0x3e281374	0.16413671
74	0x3e13f7a2	0.14449933
75	0x3d8f58bd	0.06999347
76	0xbae9af67	-0.0017828763
77	0xbd52e938	-0.051491946
78	0xba021e21	-0.0004963596
79	0x3ced1614	0.028941192
80	0x3d841f16	0.06451242
81	0x3dff757d	0.12473581
82	0x3e010267	0.12598573
83	0x3e0c07d1	0.13674857
84	0xbd51bb1b	-0.05120383
85	0x3da0bc44	0.07848409
86	0xbc3c7ac8	-0.011503883
87	0x3e1a2a60	0.15055227
88	0x3daeeede	0.08541654
89	0xbdbfefb7	-0.09371894
90	0xbda7d547	-0.08194976
91	0x3db841d8	0.08996934
92	0x3dd1887e	0.10231112
93	0x3cef8ea5	0.029242823
94	0xbdbabc37	-0.091179304
95	0xbd82eb25	-0.063925065
96	0x3e048105	0.12939842
97	0x3d1c6298	0.038179964
98	0xbdfa8eee	-0.12234293
99	0x3d8b32de	0.067968115
100	0xbe1d0948	-0.15335572
101	0xbba89433	-0.00514462
102	0xbde35085	-0.11099342
103	0xbc5dc5bd	-0.013535914
104	0xbd094db6	-0.033521377
105	0x3d872fdd	0.06600926
106	0x3db1ec9d	0.086877085
107	0xbd27c1fc	-0.040956482
108	0x3d0f6c4d	0.035015393
109	0x3dbda842	0.09260608
110	0x3e4ea4df	0.20180081
111	0x3e3dfb6b	0.1855294
112	0x3dd0cdc3	0.10195496
113	0xbea17f0b	-0.3154224
114	0xbc811fca	-0.015762229
115	0xbf036422	-0.51324666
116	0x3dbee423	0.093208574
117	0x3d2079c6	0.039178632
118	0xbc8d8bc5	-0.017278561
119	0xbdd496a9	-0.10380299
120	0xbd9177da	-0.07102938
121	0xbd90dda4	-0.070735246
122	0x3e9da858	0.307925
123	0xbdf5d4cc	-0.120034784
124	0x399015a8	0.00027481955
125	0x3d81696a	0.06318934
126	0x3db760b3	0.08953991
127	0xbc0d3c9e	-0.008620409
128	0x3d569978	0.052392453
129	0x3ba5a3b3	0.005054915
130	0xbdb04b1b	-0.08608075
131	0xbcc84c9e	-0.024450596
132	0xbcf05192	-0.02933577
133	0x3db01417	0.08597582
134	0xbd1f79a1	-0.038934354
135	0xbbee0cc4	-0.0072647054
136	0x3d297c51	0.041378323
137	0x3ce3c200	0.027802467
138	0xbdaae5d0	-0.083446145
139	0x3e3c1ea1	0.18371059
140	0xbea0c68d	-0.31401482
141	0xbe0db8f5	-0.13840087
142	0x3d0a7c23	0.033809792
143	0xbdae48ce	-0.0850998
144	0x3d03d32d	0.032183815
145	0xbf291ccc	-0.66059566
146	0xbd00a44d	-0.03140669
147	0x3e7cfff7	0.24707018
148	0xbe110ea1	-0.14165737
149	0x3e4ce0d1	0.20007636
150	0x3d696864	0.05698432
151	0xbd6b51c3	-0.05745102
152	0xbd44f25f	-0.048082706
153	0xbd2414c4	-0.040058866
154	0xbd2a10ff	-0.041520115
155	0x3dafaa36	0.08577387
156	0x3d241aeb	0.040064733
157	0x3d943abd	0.07237766
158	0x3d046182	0.032319553
159	0x3d8aa6db	0.067701064
160	0x3d2ca2d6	0.04214748
161	0x3dbbf954	0.09178415
162	0xbda326da	-0.07966395
163	0x3c93c43d	0.01803791
164	0x3db1bc5e	0.08678506
165	0xbcc5b108	-0.024132267
166	0xbc859696	-0.016307157
167	0x3de25a6e	0.11052404
168	0x3da1f5f3	0.07908239
169	0x3d99bdaa	0.07506879
170	0x3d1f163e	0.03883957
171	0x3d1c3671	0.038137857
172	0x3d932a8f	0.07185852
173	0x3db48397	0.08814161
174	0x3df52767	0.11970406
175	0xbb58781d	-0.0033030577
176	0x3d6d5719	0.05794439
177	0xbd7d7e7a	-0.061888196
178	0x3bdba196	0.006702612
179	0xbce6afd2	-0.02816001
180	0x3d6f183f	0.058372732
181	0x3dd14e82	0.10220052
182	0x3d4d7785	0.05016281
183	0x3d97125d	0.073765494
184	0x3cf94efc	0.03043317
185	0x3d3569a4	0.0442902
186	0xbc84d557	-0.01621501
187	0xbd80a94a	-0.06282289
188	0x3d72853c	0.059209093
189	0x3d554930	0.05207175
190	0x3dc3abf6	0.09554283
191	0xbc53dbc4	-0.012930814
192	0xbd498e3c	-0.04920791
193	0xba35ab07	-0.0006930087
194	0x3cecf251	0.02892414
195	0xbd26acb6	-0.040692054
196	0x3d47e950	0.04880649
197	0x3c7fc0ff	0.015609979
198	0xbd71e8cc	-0.059059903
199	0xbc8fd109	-0.01755573
200	0x3db1aed0	0.08675921
201	0x3d8bb8ca	0.06822355
202	0x3e126b61	0.14298774
203	0xbc00645f	-0.00783643
204	0xbcdbf117	-0.026848359
205	0x3d6e72fb	0.058215123
206	0x3c3fb05a	0.01169976
207	0xbc5a97ea	-0.013341883
208	0xbe0ad137	-0.13556372
209	0xbc0fd990	-0.008779898
210	0x3cedfac7	0.029050244
211	0x3da0711a	0.078340724
212	0xbc0c0b08	-0.008547552
213	0xbd2919f4	-0.041284516
214	0x3d6d8f8b	0.05799822
215	0x3c11d539	0.008900934
216	0x3a2ff2ae	0.00067118823
217	0x3d5e1da2	0.05422748
218	0x3d41de4b	0.047331136
219	0xbdb9be2f	-0.09069478
220	0xbdac0559	-0.083994575
221	0xbcd81f5f	-0.026382146
222	0x3e183b4f	0.14866374
223	0xbdb987ca	-0.09059103
224	0x3c11c0b8	0.008896045
225	0xbbc68834	-0.006058717
226	0xbe093a25	-0.13401087
227	0x3dad7e0e	0.08471309
228	0xbcc3492d	-0.023838604
229	0x3dd0e2b6	0.10199492
230	0xbeaa056e	-0.33207268
231	0xbd590e6c	-0.05299227
232	0xbd994085	-0.07483009
233	0xbd831299	-0.064000316
234	0xbc020849	-0.007936546
235	0xbda7a8a8	-0.081864655
236	0x3ddff7dc	0.10935947
237	0x3dabf5b5	0.08396474
238	0x3df3c234	0.11902276
239	0x3e047724	0.12936074
240	0xb9d7af85	-0.00041138768
241	0xbda1aee9	-0.078946896
242	0xbc889658	-0.016673252
243	0xbd1c690b	-0.038186114
244	0x3ca0cdd3	0.019629395
245	0x3e56196f	0.2090814
246	0xbe398a93	-0.18119268
247	0xbd2ab803	-0.041679394
248	0x3e3671a0	0.17816782
249	0x3e10b040	0.14129734
250	0x3d7840b6	0.06060859
251	0x3c9bbe0d	0.019011522
252	0xbda3874f	-0.079847924
253	0x3d613547	0.05498245
254	0x3e024633	0.12722091
255	0x3c1ba2a5	0.009499227

fc.1.bias f4 [100]
0	0x3dd37567	0.10325127
1	0x3e83ad46	0.25718135
2	0x3e003477	0.12520014
3	0xbac00820	-0.0014650859
4	0x3c63dc90	0.013907567
5	0xbe46043f	-0.19337557
6	0xbdea79c4	-0.11449006
7	0xbc63a097	-0.013893268
8	0x3d0dc3db	0.03461061
9	0x3e5cd787	0.21566592
10	0x3e120cfb	0.14262764
11	0xbdc63641	-0.09678317
12	0xbee709a2	-0.45124537
13	0x3c39c25f	0.011337846
14	0xbcd8a381	-0.026445152
15	0x3d23bb25	0.039973397
16	0x3ea48773	0.3213459
17	0x3cfeb5cd	0.031092549
18	0xbefe47b5	-0.49664083
19	0x3db97636	0.0905575
20	0x3cbee5c1	0.023302915
21	0xbc541ad2	-0.012945848
22	0x3e43afdd	0.19110055
23	0x3d3c3e83	0.045958053
24	0xbda64020	-0.081176996
25	0x3e67a681	0.2262211
26	0x3e669015	0.225159
27	0x3dda0f77	0.10647481
28	0x3e05d59a	0.13069764
29	0x3e004e1f	0.12529801
30	0x3e7ab428	0.24482787
31	0x3bc8e1ed	0.006130448
32	0xbe0bba89	-0.13645376
33	0x3db6eae0	0.089315176
34	0xbea6182b	-0.32440314
35	0x3b4317bb	0.0029768783
36	0x3e52346a	0.20527807
37	0xbd80fba4	-0.06297997
38	0x3e555628	0.20833647
39	0xbe1ee1f2	-0.15515879
40	0x3dd7b6f3	0.10532942
41	0x3e1c852a	0.15285173
42	0x3dbb26ec	0.09138283
43	0xbec09565	-0.3761398
44	0x3e607f5f	0.21923588
45	0x3e680ba4	0.2266069
46	0x3d536c01	0.051616672
47	0x3ce0076a	0.027347285
48	0xbf162fcd	-0.5866669
49	0xbdc43ade	-0.095815405
50	0x3d09c049	0.033630643
51	0x3d9523df	0.072822325
52	0x3cb27dd5	0.021788517
53	0x3d6cc779	0.05780742
54	0x3db8e2a5	0.09027604
55	0xbd4c06bc	-0.04981111
56	0xbe53c117	-0.20679127
57	0x3d7460be	0.059662573
58	0x3db126b5	0.08649961
59	0x3de9eeca	0.114224985
60	0xbf226767	-0.6343903
61	0xbe09e576	-0.13466439
62	0xb9ffebec	-0.00048813166
63	0x3e1c7a2d	0.15280981
64	0x3c3c2ba3	0.011485013
65	0x3e1e31d1	0.15448691
66	0x3de53db7	0.11193412
67	0xbe1349be	-0.14383599
68	0x3e3e6b4e	0.18595621
69	0x3d7d45bd	0.061834086
70	0x3d18bf59	0.03729186
71	0x3dc5a3b6	0.09650366
72	0x3ddb06a6	0.106946275
73	0x3e05a2c1	0.13050367
74	0xbe4a53d5	-0.19758542
75	0xb9d3558c	-0.00040308794
76	0xbd70562b	-0.058675926
77	0x3dbb766c	0.091534466
78	0x3d6fff50	0.058593094
79	0x3d3a9c7e	0.0455594
80	0x3e8cfde1	0.27537444
81	0xbd4c019a	-0.049806215
82	0xbd8b9560	-0.068156004
83	0xbe91dae8	-0.28487325
84	0x3db67d8d	0.08910666
85	0x3d1c9e0a	0.038236655
86	0xbe0949f6	-0.1340712
87	0x3e7e8327	0.24854718
88	0xbdc2c97b	-0.095110856
89	0xbece0e40	-0.40245247
90	0x3f105d0d	0.56391984
91	0x3dc6a5f3	0.09699621
92	0x3c3e60f6	0.011619797
93	0x3cb015ba	0.021494735
94	0xbdbc4555	-0.091929115
95	0xbe86826d	-0.26271382
96	0xbccd2d4f	-0.025046019
97	0xbce4d497	-0.027933402
98	0x3ec6a6ed	0.3879923
99	0x3e28eb9d	0.1649613

fc.2.weight f4 [4, 100]
0	0xbccac5bd	-0.024752492
1	0x3eb45039	0.35217455
2	0xbe3dbcca	-0.18529049
3	0x3d7d1e9e	0.061796777
4	0xbd3de30e	-0.046359114
5	0x3e6d6c29	0.23185791
6	0x3da07493	0.07834735
7	0xbc2f6f97	-0.010707757
8	0x3cd6b292	0.026208196
9	0x3d67578f	0.056479987
10	0xbd6eaed0	-0.058272183
11	0x3e1166b6	0.14199337
12	0xbec197bc	-0.37811077
13	0xbd191bdd	-0.037380088
14	0x3e2104c7	0.15724479
15	0xbd5e2df6	-0.05424305
16	0x3ecadd60	0.3962202
17	0xbbcc896f	-0.0062419693
18	0x3ce9ce26	0.028540682
19	0x3eca7606	0.3954317
20	0x3de2db16	0.110769436
21	0x3d0e2a76	0.034708463
22	0xbd946ba9	-0.07247097
23	0x3d3e275d	0.04642426
24	0x3d9787a8	0.07398921
25	0xbd9bca24	-0.07606915
26	0x3e19de85	0.1502629
27	0xbdc8af13	-0.09799018
28	0xbd8c8ac9	-0.06862409
29	0xbe0bf223	-0.13666587
30	0xbdaf2a4a	-0.08552988
31	0xbde9d250	-0.11417067
32	0xbe9c0eee	-0.3048014
33	0xbd3409d4	-0.043954685
34	0xbea120cd	-0.31470338
35	0xbd23133b	-0.03981326
36	0xbebb80f4	-0.3662182
37	0x3dca469c	0.09876749
38	0xbdbd3580	-0.0923872
39	0x3d730f1e	0.05934059
40	0x3d0113fd	0.031513203
41	0xbd7d3551	-0.061818425
42	0xbe67b9af	-0.22629426
43	0xbf964965	-1.1741148
44	0xbdcac031	-0.09899939
45	0xbe60fa76	-0.21970543
46	0xbd52ef8f	-0.051497992
47	0xbd24060b	-0.040044826
48	0x3d1f6a0a	0.038919486
49	0xbdc46853	-0.09590211
50	0xbc6dec1c	-0.014521625
51	0xbd05fb8c	-0.032710597
52	0xbb4127e2	-0.0029473235
53	0xbda144c5	-0.07874445
54	0xbd6de0f6	-0.058075868
55	0x3db535c7	0.08848148
56	0x3df958d2	0.12175144
57	0xbcd27932	-0.025692556
58	0xbe1c09c2	-0.15238097
59	0x3c45f8b8	0.012083225
60	0x3eb78a47	0.35847685
61	0xbc358ff1	-0.011081682
62	0x3e0cb517	0.13740955
63	0xbda58a80	-0.080830574
64	0x3dad4ff8	0.084625185
65	0xbdb8b689	-0.09019191
66	0x3c4faf76	0.0126761105
67	0xbe8982b5	-0.26857534
68	0xbcddd0fa	-0.027077187
69	0x3c5d6022	0.013511689
70	0xbd7bae32	-0.061445422
71	0xbcba2a45	-0.022725234
72	0xbe037300	-0.12836838
73	0x3dffe12f	0.12494122
74	0x3eaee5cc	0.34159696
75	0x3ccdb642	0.025111321
76	0x3d34e109	0.044159923
77	0xbda3d29b	-0.07999154
78	0xbc479f0c	-0.012183916
79	0x3c5bef05	0.013423686
80	0xbe7fe4d1	-0.2498963
81	0x3c68fe6d	0.014220816
82	0x3e096b57	0.13419853
83	0x3e46d2f5	0.19416411
84	0x3da2d6a3	0.07951095
85	0xbc802305	-0.015641699
86	0x3dcd361a	0.10020085
87	0x3e4ca580	0.19985008
88	0x3e3b13f9	0.18269338
89	0x3cf8b959	0.030361818
90	0x3e093ba0	0.13401651
91	0xbb1ed47f	-0.0024235544
92	0x3dc50b97	0.09621351
93	0xbd8869ec	-0.06660828
94	0xbd6f14b4	-0.058369353
95	0x3e98a331	0.29812005
96	0x3d5262e2	0.051363833
97	0xbc812b0c	-0.015767597
98	0xbe5e8ae1	-0.21732666
99	0xbdc02278	-0.093815744
100	0xbd40dcf7	-0.04708573
101	0xbd664103	-0.056214344
102	0xbd92e810	-0.07173169
103	0x3c7531a6	0.01496545
104	0x3de7cdee	0.11318575
105	0xbd80e180	-0.06293011
106	0xbd0a193f	-0.033715483
107	0x3d6a7465	0.05723991
108	0xbd62d601	-0.05537987
109	0x3db0d704	0.08634761
110	0x3d8b2670	0.06794441
111	0x3e7e7d77	0.24852549
112	0x3d02b787	0.031913307
113	0xbcac23fd	-0.021013254
114	0x3d9ad504	0.07560161
115	0xbc8bc86b	-0.01706334
116	0xbe5c45be	-0.2151098
117	0xbd0964d6	-0.03354343
118	0xbf344a42	-0.7042581
119	0x3e27830f	0.16358589
120	0x3e7f45fc	0.2492904
121	0x3d49b9ee	0.049249582
122	0xbd148cf8	-0.03626725
123	0x3dbd4c12	0.09243025
124	0xbdaa898a	-0.08327015
125	0x3afb4ac2	0.001917206
126	0x3e58489b	0.21121447
127	0x3bd0ec95	0.006375859
128	0x3d0299d7	0.031884994
129	0xbde8f7de	-0.11375402
130	0x3ecc2efe	0.39879602
131	0xbdc7cda7	-0.09756022
132	0xbdf2ccd4	-0.11855474
133	0xbcaeac17	-0.021322293
134	0x3cd8b55b	0.026453665
135	0xbd9c34ed	-0.07627282
136	0xbea1d46e	-0.31607383
137	0xbccb09b0	-0.024784893
138	0x3d80c920	0.062883615
139	0xbd261d92	-0.040555544
140	0xbd738dc3	-0.059461366
141	0x3d77db81	0.06051207
142	0xbe410b29	-0.18851914
143	0x3f056df0	0.52120876
144	0x3db176c9	0.086652346
145	0xbee1008b	-0.43945727
146	0xbd9a9bda	-0.075492576
147	0xbd0761af	-0.033052143
148	0xbf0ccdf1	-0.5500174
149	0x3e26bf0c	0.16283816
150	0xbd1e40b5	-0.03863593
151	0x3e571b40	0.21006489
152	0xbd1de467	-0.0385479
153	0x3dc8ab5d	0.0979831
154	0x3df83e05	0.12121204
155	0xbce852ce	-0.028359797
156	0xbbdd4363	-0.006752418
157	0xbccefdb8	-0.025267467
158	0x3d905bdb	0.0704877
159	0x3dad5cea	0.084649876
160	0x3e62cea2	0.22149137
161	0xbd82012b	-0.06347879
162	0x3db259e7	0.08708554
163	0xbe00fedb	-0.1259722
164	0x3e10bc9c	0.14134449
165	0x3e75cb28	0.24003279
166	0xbcc2a065	-0.023758123
167	0xbec6e1fd	-0.3884429
168	0xbc1ef611	-0.0097022215
169	0xbd42a6f6	-0.047522508
170	0xbc38bfee	-0.011276228
171	0xbd79e6b8	-0.061011046
172	0xbde2779b	-0.11057969
173	0x3e1ffe71	0.15624405
174	0x3dc3a65f	0.09553217
175	0x3d8ffb49	0.07030351
176	0xbdc70d47	-0.09719329
177	0xbd2c577b	-0.042075615
178	0x3c85104a	0.016243119
179	0xbd3cb9ef	-0.046075758
180	0xbe6e32a3	-0.23261504
181	0x3d2f251b	0.042759996
182	0x3de58278	0.112065256
183	0xbcd1c1b4	-0.02560506
184	0x3ce63e32	0.028105829
185	0x3d99bada	0.07506342
186	0xbbea72fc	-0.0071548205
187	0xbed18a97	-0.40926048
188	0x3dbb8bfd	0.0915756
189	0xbe96d12f	-0.2945647
190	0xbebb4b9e	-0.3658113
191	0xbd588689	-0.052862678
192	0xbdb89c2d	-0.09014163
193	0x3d236eee	0.039900713
194	0x3dc367a5	0.09541253
195	0x3d10b5d8	0.03532967
196	0x3d87b5ed	0.066264965
197	0x3dd3dd64	0.10344961
198	0x3e9e31dc	0.30897415
199	0xbbbf32ef	-0.005834929
200	0xbd9242af	-0.07141625
201	0xbcaaa7bb	-0.020831933
202	0xbd256d02	-0.04038716
203	0x3dc56ade	0.09639524
204	0xbd476959	-0.04868445
205	0x3b196db4	0.0023411335
206	0xbccf9001	-0.025337221
207	0x3d5c6e1c	0.053815946
208	0x3cefcef7	0.029273493
209	0x3dcff9ee	0.10155092
210	0xbc0bd26f	-0.008534058
211	0x3a8af901	0.0010602773
212	0x3b4794b0	0.0030453615
213	0x3e296aa1	0.16544582
214	0x3c5044d6	0.012711724
215	0x3db8f4e4	0.09031084
216	0x3b9621b9	0.004581657
217	0xbde4ccac	-0.111718506
218	0x3b2c8e14	0.0026329802
219	0x3a9fe245	0.0012198171
220	0x3ce476b6	0.027888637
221	0x3c80d5ac	0.015726887
222	0xbdc9c2b8	-0.09851593
223	0x3d857566	0.065165326
224	0x3cbbbf43	0.02291835
225	0xbd9ef22c	-0.07761034
226	0x3c27dbc3	0.010245266
227	0xbdc7da4e	-0.09758435
228	0x3db52525	0.088449754
229	0x3bddd026	0.006769198
230	0x3c312363	0.0108116595
231	0x3b7b98cc	0.0038390635
232	0xbcc18309	-0.023622053
233	0xbdedade4	-0.11605433
234	0x3c08642b	0.008324663
235	0x3d2eba7d	0.042658318
236	0xbc96b5a1	-0.018397154
237	0x3b95314f	0.004552997
238	0xbe238335	-0.1596802
239	0xbd9e8173	-0.07739534
240	0x3e2163c3	0.15760712
241	0xbe539f62	-0.20666268
242	0xbb8a40e2	-0.0042191604
243	0xbc0ac9dd	-0.0084709795
244	0xbd9f7011	-0.07785047
245	0xbb8b7dda	-0.004256946
246	0xbe014cc9	-0.12626947
247	0x3e173427	0.14765988
248	0xbc001ab3	-0.007818866
249	0x3bcad678	0.0061901174
250	0x3e0e550c	0.1389963
251	0x3c89613e	0.016770002
252	0xbcb9f361	-0.02269906
253	0x3d84a28d	0.064763166
254	0x3ca21896	0.019787114
255	0xbd3f7ecb	-0.04675178

fc.2.bias f4 [4]
0	0xbe18d480	-0.14924812
1	0x3c6723cb	0.014107655
2	0xb8d6ae82	-0.0001023682
3	0xbd14e1fa	-0.03634832
