model/ant-FC2-100/epoch_0.pth (torch, 227585 bytes, 2 tensors)

out.weight f4 [113, 500]
0.026644474 -0.021981701 -0.032414228 0.012525139 -0.03895435 -0.054252334 0.034086253 0.02531762
0.009835091 0.03260997 0.02602724 -0.0040247557 -0.0077671343 -0.035602365 -0.0038361447 -0.050407376
0.011945232 -0.024500027 -0.008357345 -0.0008281823 -0.053277306 -0.0480239 -0.020777795 -0.029060477
0.021933243 -0.009437502 0.0030299127 -0.019776478 -0.03809149 0.019139152 -0.022079092 -0.038477097
-0.008519787 -0.04479553 0.011144334 -0.0016419161 0.0017477972 0.0044027306 -0.020323172 -0.008633273
-0.05402406 -0.029288724 -0.009855488 -0.029445648 -0.0030480712 -0.046542324 -0.047898613 -0.010354046
0.021061376 0.00038541388 -0.015109163 -0.025534539 0.031652465 0.006909133 0.014645742 -0.0045959298
-0.03782889 0.02530592 0.0016347021 -0.007854722 -0.030594733 0.0015084613 -0.032225292 0.02001523
0.02076599 -0.044631988 -0.009588035 0.024778146 0.014645639 0.02241514 -0.008462804 -0.024377292
-0.00080483593 -0.005467275 -0.03432102 0.0023262743 -0.0044451472 0.017376013 0.0169916 -0.027107859
0.018686097 0.0051276684 -0.024208907 0.0033445302 0.016411439 0.01654882 -0.040538214 0.021192644
-0.047070507 0.018737452 -0.022271998 -0.010243067 0.0024695313 0.029830143 0.001519464 -0.011009182
0.0042766174 0.009967479 -0.031911068 -0.051152777 -0.006768089 0.008464175 -0.03559843 -0.030019112
-0.030689944 0.028843476 -0.04359362 -0.013060172 -0.015885515 -0.03515113 -0.04676412 -0.006552421
-0.027572878 0.00427292 -0.011454032 0.031378403 -0.05438889 -0.023185804 -0.053955816 -0.012639861
-0.0010640603 -0.005419339 0.022139817 -0.017377809 -0.0125625385 0.02434352 0.03175971 -0.020631228
-0.022321144 0.008637635 0.02115732 0.024401866 -0.037443582 0.012592345 -0.002206686 0.016563248
-0.054167293 -0.019909158 0.032644555 -0.044532817 0.011979857 0.018304873 -0.04832284 -0.04695429
-0.022940114 0.00078326464 0.011786832 0.029778268 -0.016284136 -0.015691848 0.030341595 0.031525366
-0.023132209 -0.045543667 -0.041852076 0.027627671 0.013660027 -0.0046831253 0.034507476 -0.04158226
-0.038000625 0.0223651 0.013386769 0.023986576 -0.02872824 0.027711678 -0.031267557 0.0110611385
-0.013064522 -0.045078523 -0.03441761 0.027503308 -0.03585584 0.015202189 0.020952772 0.023613734
0.01703845 0.017720856 0.023849767 0.01345442 0.027973747 -0.002882176 -0.016563267 -0.028222358
-0.009700213 -0.015278651 0.0022424525 -0.029721659 -0.002872114 0.012462288 0.016794907 -0.028248461
-0.02098372 -0.008242364 0.0146674095 -0.004383743 -0.02221356 0.019497713 -0.040730238 0.010444676
-0.053861383 -0.03260685 0.021967415 -0.013638742 0.0082375035 -0.027093016 0.032802355 0.03095314
-0.0033347243 0.004055525 -0.009263982 -0.0496009 0.029155884 -0.03322638 -0.000554719 0.025914624
-0.018095534 -0.040330816 -0.023093887 -0.024680045 -0.0021972205 -0.042468794 -0.035091393 0.02865367
-0.038621087 -0.043424137 -0.023792114 -0.021726092 0.003997788 -0.015693579 -0.014805686 -0.03500808
-0.05411344 -0.02691945 0.0019053267 0.021413665 -0.020533826 -0.04620383 -0.011622562 0.027510427
-0.025183968 -0.00854595 0.016410068 -0.03931842 -0.036414683 0.033599213 0.013955939 -0.051066272
-0.010775896 0.017669667 0.032793194 -0.047392458 0.016264252 -0.01222243 0.023793451 -0.008422408
00000000: 8345 da3c f812 b4bc c8c4 04bd 3e36 4d3c
00000010: 998e 1fbd b237 5ebd 079e 0b3d e666 cf3c
00000020: 5d23 213c 0892 053d 1437 d53c 19e2 83bb
00000030: 7283 febb c9d3 11bd d467 7bbb f777 4ebd
00000040: efb5 433c 48b4 c8bc 3fed 08bc 601a 59ba
00000050: 4e39 5abd b5b4 44bd 3236 aabc 3d10 eebc
00000060: 58ad b33c c19f 1abc 8091 463b 4802 a2bc
00000070: d205 1cbd b6c9 9c3c 36df b4bc 299a 1dbd
00000080: 9496 0bbc 857b 37bd ba96 363c 9035 d7ba
00000090: 5816 e53a c844 903b c87c a6bc 9272 0dbc
000000a0: 5548 5dbd e8ee efbc ea78 21bc 0038 f1bc
000000b0: 26c2 47bb 2aa3 3ebd 5631 44bd 04a4 29bc
000000c0: e888 ac3c 6011 ca39 6c8c 77bc cf2d d1bc
000000d0: 04a6 013d 0266 e23b b2f4 6f3c 7499 96bb
000000e0: 77f2 1abd 5c4e cf3c 8043 d63a 18b1 00bc
000000f0: cea1 fabc 90b7 c53a abfe 03bd fbf6 a33c
00000100: 701d aa3c 08d0 36bd 2217 1dbc 8afb ca3c
00000110: 43f4 6f3c f59f b73c 93a7 0abc e3b2 c7bc
00000120: a0fb 52ba d426 b3bb 3394 0cbd 6874 183b
00000130: 99a8 91bb 2458 8e3c f831 8b3c 4d11 debc
00000140: 9613 993c 0006 a83b c251 c6bc e82f 5b3b
00000150: 4871 863c 6491 873c 660b 26bd 329c ad3c
00000160: 01cd 40bd 497f 993c c473 b6bc 89d2 27bc
00000170: dcd7 213b 585e f43c c028 c73a db5f 34bc
00000180: de22 8c3b a34e 233c 2eb5 02bd 9385 51bd
00000190: d8c6 ddbb 53ad 0a3c a9cf 11bd a4ea f5bc
000001a0: 7a69 fbbc 2749 ec3c 398f 32bd 55fa 55bc
000001b0: 5722 82bc a2fa 0fbd bc8b 3fbd b1b5 d6bb
000001c0: 84e0 e1bc da03 8c3b b1a9 3bbc a486 003d
000001d0: e2c6 5ebd 28f0 bdbc c600 5dbd 6b17 4fbc
000001e0: f077 8bba b694 b1bb 905e b53c e85b 8ebc
000001f0: 1bd3 4dbc 106c c73c 7816 023d d202 a9bc
00000200: d5da b6bc de84 0d3c 1e52 ad3c 6ce6 c73c
00000210: 715e 19bd 1f50 4e3c 0c9e 10bb a6af 873c
00000220: 86de 5dbd 8818 a3bc 4cb6 053d 0b68 36bd
00000230: 2a47 443c 1af4 953c 2cee 45bd 2453 40bd
00000240: e8ec bbbc 0054 4d3a 8e1d 413c 8ef1 f33c
00000250: 4f66 85bc 318c 80bc f08e f83c be20 013d
00000260: c27f bdbc ff8b 3abd 156d 2bbd 6d53 e23c
00000270: 4ece 5f3c e774 99bb b657 0d3d 2952 2abd
00000280: 8ba6 1bbd 0437 b73c 2e54 5b3c 7f7f c43c
00000290: 7c57 ebbc 9a03 e33c 6912 00bd c739 353c
000002a0: 940c 56bc 42a4 38bd 7bf9 0cbd 9e4e e13c
000002b0: 93dd 12bd 9a12 793c 26a5 ab3c 9771 c13c
000002c0: 3894 8b3c 542b 913c 9660 c33c ed6f 5c3c
000002d0: 3329 e53c e4e2 3cbb b0af 87bc 9332 e7bc
000002e0: a4ed 1ebc 4f53 7abc 1cf6 123b d67a f3bc
000002f0: 143a 3cbb a02e 4c3c 7995 893c 5169 e7bc
00000300: 0de6 abbc fb0a 07bc 934f 703c 80a5 8fbb
00000310: 36f9 b5bc abb9 9f3c c0d4 26bd 2520 2b3c
00000320: c19d 5cbd c38e 05bd 02f5 b33c 0875 5fbc
00000330: 98f6 063c 2cf2 ddbc c35b 063d 7191 fd3c
00000340: 648b 5abb 36e4 843b f5c7 17bc 502a 4bbd
00000350: 52d8 ee3c 6218 08bd 906a 11ba e84a d43c
00000360: 163d 94bc ed31 25bd 642f bdbc ce2d cabc
00000370: 3eff 0fbb c2f3 2dbd febb 0fbd 1abb ea3c
00000380: 2531 1ebd 82dd 31bd aee7 c2bc ebfa b1bc
00000390: e0ff 823b d28f 80bc 8c93 72bc a264 0fbd
000003a0: 0ea6 5dbd 2e86 dcbc 28bc f93a b66b af3c
000003b0: 8e36 a8bc 3a40 3dbd 8f6c 3ebc 8c5d e13c
000003c0: 9c4e cebc 5004 0cbc 686e 863c 5a0c 21bd
000003d0: 9027 15bd 549f 093d 73a7 643c de2a 51bd
000003e0: 628d 30bc fabf 903c 2852 063d 981e 42bd
000003f0: 9c3c 853c 9640 48bc 7cea c23c 24fe 09bc

out.bias f4 [113]
-0.053998128 -0.008645909 0.02718474 -0.02351622 -0.025814075 0.025678834 -0.008451191 0.029997379
-0.0029126173 -0.0024819332 -0.02010671 0.0058511253 -0.018692065 0.020377519 -0.036003664 -0.03207098
-0.0048265643 -0.007701421 -0.051205862 0.018623741 0.011452846 -0.031954803 0.010628961 -0.051647976
0.00065344945 -0.020589165 -0.01527098 -0.0009829691 -0.028884526 0.021542408 -0.014370513 -0.002330062
-0.008140574 -0.02385586 0.017018761 -0.006356389 0.019413646 0.021202726 -0.033178084 0.023361843
0.006862747 0.023302622 -0.016285803 -0.03078199 -0.019643348 0.05135691 0.0262227 -0.031257436
-0.0016143899 0.024555247 0.0026711682 -0.00666508 -0.0032421588 0.014592599 0.01141105 0.016718555
-0.015007844 -0.007843326 -0.0136519335 -0.012681052 0.052982245 0.008036504 -0.016329067 -0.050002202
-0.022011496 0.019409474 -0.016839609 -0.012629819 -0.04829011 0.046274424 -0.00967026 0.017820679
-0.054246776 -0.008345746 0.0063673873 -0.020393541 0.029941566 0.024147632 0.015010981 -0.019798782
0.020798204 0.024775919 0.043364763 -0.007855168 0.032737315 0.007572042 0.030721791 -0.030919038
0.05206216 -0.0026382026 -0.01839111 -0.05020601 -0.0106921 -0.027640326 0.029605702 0.018800505
-0.030621804 -0.018821526 -0.04316779 -0.008208385 -0.03343705 0.009881947 0.0008299025 0.0050480766
0.0075137187 0.027862929 0.04129421 0.052386176 0.00830274 0.029615471 -0.012906805 0.00071292
-0.042091127
00000000: 242d 5dbd 92a7 0dbc 88b2 de3c 16a5 c0bc
00000010: 0a78 d3bc 6b5c d23c dd76 0abc 10bd f53c
00000020: 9ce1 3ebb eea7 22bb d4b6 a4bc ccba bf3b
00000030: 1a20 99bc c1ee a63c 9478 13bd dc5c 03bd
00000040: 2828 9ebb 345c fcbb 3dbd 51bd d190 983c
00000050: b8a4 3b3c 0ae3 02bd 1825 2e3c d48c 53bd
00000060: 404c 2b3a 9caa a8bc 2233 7abc f8d6 80ba
00000070: 3e9f ecbc b479 b03c 4d72 6bbc f4b3 18bb
00000080: 0b60 05bc 5d6d c3bc ee6a 8b3c 4149 d0bb
00000090: 5e09 9f3c 57b1 ad3c bee5 07bd 5661 bf3c
000000a0: e5e0 e03b 24e5 be3c ce69 85bc 832a fcbc
000000b0: 16eb a0bc a05b 523d fdd0 d63c cc07 00bd
000000c0: f099 d3ba 1628 c93c c40e 2f3b be66 dabb
000000d0: 667a 54bb cc15 6f3c 6af5 3a3c 5af5 883c
000000e0: 76e3 75bc 4b81 00bc 5cac 5fbc 30c4 4fbc
000000f0: e903 593d 8aab 033c 89c4 85bc 1ccf 4cbd
00000100: 7451 b4bc 9e00 9f3c 38f3 89bc 4ded 4ebc
00000110: dacb 45bd 408a 3d3d 0370 1ebc acfc 913c
00000120: de31 5ebd 99bc 08bc 84a5 d03b 5b10 a7bc
00000130: 0448 f53c 41d1 c53c 9ef0 753c 0e31 a2bc
00000140: ff60 aa3c def6 ca3c 409f 313d f6b2 00bc
00000150: 9017 063d e41e f83b 44ac fb3c ec49 fdbc
00000160: 223f 553d b2e5 2cbb f4a8 96bc d1a4 4dbd
00000170: eb2d 2fbc f76d e2bc a887 f23c 8403 9a3c
00000180: 94da fabc 9a2f 9abc b5d0 30bd 767c 06bc
00000190: 4af5 08bd e4e7 213c d08d 593a 566a a53b
000001a0: a435 f63b cc40 e43c 1e24 293d e392 563d
000001b0: 3708 083c 259c f23c 1077 53bc 40e3 3a3a
000001c0: bf67 2cbd
