model/unicycle-FC2-100-rk4-so/epoch_660.pth (torch, 6099 bytes, 4 tensors)

fc.0.weight f4 [100, 6]
0.24966031 0.16661058 0.113283046 0.36655253 0.5034178 -0.22932565 -0.09363489 -0.23489909
-0.16652034 -0.15501879 0.099712655 0.19081312 -0.1057796 0.26540232 0.025269834 0.30277747
-0.27373505 0.24474464 0.054544102 -0.18346901 0.02087209 -0.25744808 0.24980351 0.2751713
-0.2153128 0.28714788 0.014102658 -0.28079686 0.3115086 -0.33997363 -0.12990792 -0.35743293
0.29960904 1.060869 -0.09166779 0.07475178 0.08630536 0.04493742 1.606206 -0.48322755
0.12486687 0.023341814 0.31090578 -0.1083212 -0.09828591 -0.09991639 -0.34034508 0.1566846
3.955047e-06 0.005712875 0.07041805 0.3907315 0.017170765 0.0016977726 -0.37282783 -0.1592219
-0.064020716 -0.43706733 -0.37584752 -0.047089614 0.0153870825 0.2897833 0.050310235 -0.32147086
-0.16555604 -0.17423368 -0.022663938 0.02818817 0.6556951 1.2283539 0.07314998 0.058314864
-0.26662645 -0.1449573 0.07404997 0.302781 0.42593753 -0.31531072 0.13925274 -0.20010741
-0.29229707 -0.51485777 -0.15495335 0.03493341 0.25040627 0.18772043 0.20605074 -0.4456982
-0.20533906 0.25764364 -0.12824437 0.37269223 0.344303 -0.026528865 0.43645844 -0.23609084
-0.19726953 -0.018841062 0.2472285 -0.46951398 0.267635 -0.503014 -0.03969416 0.14371623
0.86873513 1.525495 0.06411894 0.080109015 0.21146284 0.03716359 -0.38564014 0.63526785
-0.37960467 -0.22518687 -0.12737532 -0.10569782 -0.48478252 -0.4766133 0.06017852 -0.012298158
-0.039583717 0.11697697 -0.6178244 0.33498365 0.027401192 0.1308255 -0.23973455 -0.298773
-0.27119097 0.40759385 -0.05424288 0.52527326 -0.06057695 0.085264035 -0.4181132 0.3581142
-0.2630027 -0.33115563 0.010556177 0.027370103 -0.6088743 1.5631144 -0.092628144 0.08363629
-0.12804684 0.18967044 0.40200344 -1.3726871 0.023140304 -0.0733682 -0.17258625 -0.124561176
-0.14640519 -0.16801748 0.3197225 -0.5770763 0.25351927 0.013234006 -0.4445161 0.49537274
0.49783292 -0.40086776 0.13055865 -0.30661145 -0.1775602 -0.18733999 0.3695593 0.22075169
-0.19879855 -0.1375538 0.37487087 -0.19804546 -0.44663167 0.38304994 -0.30103004 0.100370266
-0.60612106 0.10887663 0.13093548 -0.101568386 0.00853044 -0.06369811 0.5421811 -1.036848
-0.12560554 -0.36281785 -0.24140456 -0.1552938 0.24527279 0.27712542 0.5849572 -0.30674803
0.19896562 -0.22417153 0.052429862 0.28653336 -0.25662416 0.2966233 0.17574811 -0.11995742
-0.86368865 0.25283355 -0.41685873 -0.31104833 -0.02294271 -0.0122778565 -0.2865523 0.38324466
0.14202967 0.39918047 -0.0028781642 -0.012137701 -0.54528713 -1.4544778 -0.03286444 -0.079498775
-0.17413281 0.07100898 0.75500995 -0.29244515 0.35012755 0.24927285 0.19897836 -0.2662127
0.12762594 -0.06351044 0.15258542 -0.22761376 0.15672818 -0.12962414 0.5385404 -0.14741471
0.59597826 -0.19916628 0.31478643 0.20313196 0.53944016 0.18191281 0.5752094 0.53699356
-0.04510631 0.117409416 -0.5835801 0.2948485 0.0029286102 0.11269693 -0.19284669 0.11140041
0.52389365 0.0991034 -0.17430966 -0.53992575 0.057383716 -0.18267368 0.117348395 -0.33436957
00000000: f4a6 7f3e f79b 2a3e f100 e83d c6ac bb3e
00000010: fddf 003f 58d4 6abe a6c3 bfbd 6389 70be
00000020: 4f84 2abe 3fbd 1ebe 2636 cc3d 8464 433e
00000030: faa2 d8bd d0e2 873e af02 cf3c a605 9b3e
00000040: 0027 8cbe 579e 7a3e a369 5f3d 4ddf 3bbe
00000050: f2fb aa3c 3cd0 83be 7ecc 7f3e 41e3 8c3e
00000060: f57a 5cbe 0c05 933e d60e 673c 9bc4 8fbe
00000070: 0e7e 9f3e 0611 aebe 9506 05be 7301 b7be
00000080: 5b66 993e 8eca 873f 53bc bbbd 7617 993d
00000090: ddc0 b03d 4d10 383d 2998 cd3f 9a69 f7be
000000a0: 34ba ff3d 5537 bf3c 0b2f 9f3e 81d7 ddbd
000000b0: 204a c9bd f7a0 ccbd b641 aebe ee71 203e
000000c0: 98b5 8436 1233 bb3b 5737 903d f60d c83e
000000d0: b4a9 8c3c cc87 de3a 4ae3 bebe 110b 23be
000000e0: 4b1d 83bd 4ac7 dfbe 166f c0be 0ae1 40bd
000000f0: 1a1a 7c3c 7a5e 943e 1b12 4e3d d497 a4be
00000100: 8687 29be 506a 32be b9a9 b9bc e1ea e63c
00000110: a2db 273f b33a 9d3f a8cf 953d 91db 6e3d
00000120: 4383 88be b06f 14be 83a7 973d 1c06 9b3e
00000130: 7c14 da3e 6870 a1be 4598 0e3e f5e8 4cbe
00000140: f6a7 95be b8cd 03bf 17ac 1ebe 5616 0f3d
00000150: 4035 803e c939 403e f7fe 523e 8e32 e4be
00000160: 6744 52be dee9 833e 7e52 03be 84d1 be3e
00000170: 7c48 b03e 1053 d9bc 7b77 df3e ccc1 71be
00000180: 0601 4abe 9258 9abc 7829 7d3e 2364 f0be
00000190: 7407 893e 87c5 00bf 5896 22bd 592a 133e
000001a0: 6d65 5e3f 6c43 c33f ca50 833d 3210 a43d
000001b0: b789 583e d938 183d a072 c5be eaa0 223f
000001c0: 8b5b c2be 6397 66be ad6e 02be 1978 d8bd
000001d0: 6a35 f8be a906 f4be c07d 763d 377e 49bc
000001e0: 8922 22bd 9f91 ef3d bd29 1ebf fa82 ab3e
000001f0: 7778 e03c 1ff7 053e f97c 75be c6f8 98be
00000200: 8bd9 8abe 24b0 d03e c82d 5ebd 4f78 063f
00000210: 891f 78bd e99e ae3d ef12 d6be bf5a b73e
00000220: 4aa8 86be 3b8d a9be d1f3 2c3c 4437 e03c
00000230: 30df 1bbf 2214 c83f d3b3 bdbd 8149 ab3d
00000240: b61e 03be f838 423e 65d3 cd3e 36b4 afbf
00000250: bc90 bd3c 1142 96bd 73ba 30be ee19 ffbd
00000260: 3eeb 15be c60c 2cbe abb2 a33e 46bb 13bf
00000270: 47cd 813e 72d3 583c 9d97 e3be 7fa1 fd3e
00000280: f5e3 fe3e 8a3e cdbe 2bb1 053e 2dfc 9cbe
00000290: 57d2 35be 0ed6 3fbe e036 bd3e bb0c 623e
000002a0: d991 4bbe e7da 0cbe 13ef bf3e 6ecc 4abe
000002b0: e8ac e4be 1f1f c43e 9c20 9abe ed8e cd3d
000002c0: c02a 1bbf b6fa de3d f313 063e 1603 d0bd
000002d0: 42c3 0b3c 2874 82bd 61cc 0a3f 6fb7 84bf
000002e0: bd9e 00be 43c3 b9be c232 77be 5705 1fbe
000002f0: ca28 7b3e 62e3 8d3e c1bf 153f 140e 9dbe
00000300: a5bd 4b3e 398d 65be b2c0 563d 80b4 923e
00000310: 3e64 83be 02df 973e 50f7 333e 3cac f5bd
00000320: b31a 5dbf 6673 813e 826e d5be ba41 9fbe
00000330: 5af2 bbbc 1029 49bc fcb6 92be a538 c43e
00000340: 3a70 113e 6261 cc3e 959f 3cbb 35dd 46bc
00000350: f097 0bbf 542c babf dd9c 06bd 41d0 a2bd
00000360: df4f 32be 286d 913d 5548 413f 5fbb 95be
00000370: eb43 b33e 6241 7f3e fcc0 4b3e 084d 88be
00000380: 60b0 023e c311 82bd 5a3f 1c3e 9513 69be
00000390: 5a7d 203e 31bc 04be c9dd 093f e2f3 16be
000003a0: 0892 183f 3ff2 4bbe b02b a13e d301 503e
000003b0: c018 0a3f 5a47 3a3e ec40 133f 6978 093f
000003c0: 65c1 38bd 5974 f03d 8165 15bf 62f6 963e
000003d0: eded 3f3b a6cd e63d 9a79 45be e625 e43d
000003e0: e51d 063f b9f6 ca3d 3b7e 32be 9338 0abf
000003f0: 300b 6b3d cf0e 3bbe 5b54 f03d 7d32 abbe

fc.0.bias f4 [100]
0.070377335 -1.1792272 -0.40092614 0.046311278 -0.060208816 0.46833855 0.9346898 0.29811853
1.2552534 0.5489304 0.11749165 -1.2820321 -0.0654327 -0.25585896 -0.29247326 -0.30800828
0.055457205 0.7047458 -0.45641056 -0.20784064 -0.72765714 -0.028757771 0.15486813 0.64222234
-0.5676768 -0.0077496176 -0.28204483 0.14499934 -0.054420106 -0.05726792 0.4893975 -0.09960416
0.08269734 -0.49607894 -0.07360456 -2.7887142 0.4898266 0.15523744 0.15478687 -0.05409697
0.85772336 0.5043746 -0.27995077 -0.3907661 -0.51980543 0.07468462 -0.31428352 0.3520256
0.916305 -0.0035701816 0.25758016 -0.15939751 0.3885098 -0.20800114 -0.70028186 0.044107
-0.08519169 -0.34973887 -0.36644158 -0.047212683 0.5748519 0.15833308 0.10719503 -2.3628483
-0.18687735 0.26196545 0.4620981 0.5551481 2.0062897 0.10506165 0.38826752 0.36953053
-0.27675858 -0.67554426 -0.71001244 1.4060247 -1.1119652 0.2720644 2.516358 -0.12567395
-0.36133537 0.14741045 0.069413476 -1.6203575 -0.20528929 -0.16194831 -0.37950054 0.26762104
0.044593703 0.010943208 -0.13272305 0.040480856 -0.029185815 0.0082215415 -0.030213596 -3.110984
0.09014253 0.020708533 0.21400008 0.16334124
00000000: fe21 903d ebf0 96bf 3146 cdbe e5b0 3d3d
00000010: 859d 76bd 12ca ef3e d547 6f3f fea2 983e
00000020: 25ac a03f b486 0c3f 769f f03d a119 a4bf
00000030: 9401 86bd f2ff 82be 0ebf 95be 43b3 9dbe
00000040: 1827 633d 396a 343f a5ae e9be 2dd4 54be
00000050: bd47 3abf 6b95 ebbc c095 1e3e af68 243f
00000060: 4453 11bf 81f0 fdbb 2e68 90be b57a 143e
00000070: 9ee7 5ebd c491 6abd 4f92 fa3e 44fd cbbd
00000080: 395d a93d 0ffe fdbe fdbd 96bd 4b7a 32c0
00000090: 8dca fa3e 90f6 1e3e 7380 1e3e c994 5dbd
000000a0: c293 5b3f b21e 013f b555 8fbe 7f12 c8be
000000b0: f811 05bf 40f4 983d c5e9 a0be b33c b43e
000000c0: f792 6a3f b5f9 69bb 8ce1 833e 1a39 23be
000000d0: c2ea c63e 40fe 54be ac45 33bf 8ba9 343d
000000e0: fb78 aebd f910 b3be 3b9e bbbe 1662 41bd
000000f0: 7e29 133f 1122 223e 1189 db3d e838 17c0
00000100: c75c 3fbe 5620 863e 1f98 ec3e 301e 0e3f
00000110: 0d67 0040 902a d73d 00cb c63e 1b33 bd3e
00000120: 4db3 8dbe 78f0 2cbf 60c3 35bf 9ef8 b33f
00000130: e054 8ebf 064c 8b3e 020c 2140 acb0 00be
00000140: f300 b9be c4f2 163e a728 8e3d e067 cfbf
00000150: 5b37 52be c7d5 25be e54d c2be a005 893e
00000160: e3a7 363d 244b 333c 8de8 07be 41cf 253d
00000170: 1717 efbc a5b3 063c 8182 f7bc 5d1a 47c0
00000180: a69c b83d f1a4 a93c d622 5b3e ed42 273e

fc.1.weight f4 [4, 100]
-0.09451937 -0.091230586 0.16813914 0.054563303 -0.10878065 -0.0092036445 -0.10268065 -0.08860612
-0.3409639 0.032572553 0.114012845 -0.6953433 0.0015814907 0.122937314 -0.00793081 0.11092797
0.052782796 0.24624385 0.05129772 0.08940167 0.07132593 -0.0053803204 0.0035313147 -0.68616045
-0.13932961 0.020106966 0.06262819 0.023976505 -0.20327929 0.07868411 -0.08454567 0.0036545335
0.004033588 0.1189077 0.13859835 1.1578671 -0.17816298 -0.093297675 -0.06707609 -0.102736995
-0.06679869 -0.11982189 0.07634406 0.10631285 0.022264782 -0.026862422 -0.15779573 -0.056248967
-0.057924133 0.058069367 0.020426039 0.07385264 -0.08166936 -0.00076801144 0.038852796 -0.018615259
0.09845927 0.023333656 0.046826214 -0.051817894 0.02524208 -0.11120121 -0.013817539 -1.7691993
-0.050939742 0.02935765 -0.068914495 -0.033193495 -0.9254484 0.024481384 -0.043361533 -0.074553974
-0.056196548 -0.0994687 0.05876365 0.5496685 0.9174155 -0.16193068 1.0318484 0.067620695
0.0815996 -0.12587574 0.18786047 -0.10591459 -0.009131912 0.03323098 -0.07580199 -0.14629008
0.09116201 -0.07824156 0.01002111 -0.1022167 0.015288675 0.0026131978 0.063181974 -0.2389612
0.07317166 0.10027411 0.031717006 -0.0029405733 -0.14402282 -0.04407821 0.0074664075 -0.024046356
0.027885873 -0.07382081 -0.12413825 0.013787295 -0.535094 -0.084764995 -0.053760443 0.12579063
0.083608195 -0.0014317603 -0.13166507 -0.031828567 0.11167634 0.43919927 0.3703103 0.06020912
0.22968388 0.057363767 0.115861505 -0.90003103 -0.15814307 -0.011395396 0.13561615 0.03444058
-0.042880774 0.081496105 -0.14921845 -0.049829908 -0.10678753 0.12878788 0.09883721 -0.7153322
-0.27738503 0.0013515196 -0.11282407 -0.15178837 0.25379726 -0.106884025 -0.07121598 0.011174352
0.33236635 -0.13060658 0.008954413 -0.38781628 -0.18226577 0.11634698 -0.042911958 0.2040109
-0.09245141 0.08299263 0.22042035 -0.060614195 0.015553911 -0.039303426 -0.00040500812 0.03364726
-0.3180082 -0.051767364 0.09416808 0.57077146 0.06716721 0.07845006 -0.047023952 -0.18224372
-0.32112026 0.122749336 -0.12035769 -0.021541448 0.14165553 0.5595399 0.1831047 0.73980474
-0.6824998 -0.02732181 0.7806791 -0.00062797667 0.050741237 -0.1253928 0.084068425 -0.59647614
0.16960044 0.05573796 0.017741956 -0.06640187 0.07544235 0.05112496 -0.060233973 -0.15184562
-0.0049809082 -0.08578969 -0.039536115 -0.9340482 -0.055118978 0.058129776 -0.11332541 -0.040615562
0.13720392 0.02121349 -0.032544155 0.20245662 0.115114205 0.004777087 0.0030002948 -0.004280466
0.11659152 -0.0351094 -0.028614266 0.0056735203 0.07904939 0.0026765817 -0.015831182 0.07715319
0.0021295673 0.0004271401 -0.088322245 0.013915488 0.01733363 -0.014822112 -0.019904885 0.0026227375
-0.0011334826 0.1564303 0.04368829 0.084495276 -0.20849392 0.011714347 -0.023959737 0.16129255
-0.08680211 -0.08682713 0.024430076 0.0052774213 0.12064627 -0.013474808 0.15976153 0.1406496
0.0063050827 -0.047160305 0.0025745963 0.09331031 0.035808545 -0.036168892 -0.016923623 -0.053908695
0.00059647183 0.0033664769 0.20394816 -0.13442677 0.024377314 0.0036540758 0.0017034432 0.013695205
00000000: 5f93 c1bd 1ad7 babd ab2c 2c3e c57d 5f3d
00000010: 64c8 debd e2ca 16bc 3c4a d2bd 2077 b5bd
00000020: d292 aebe cc6a 053d 917f e93d 0502 32bf
00000030: 064a cf3a 8fc6 fb3d 3af0 01bc 342e e33d
00000040: c632 583d 5927 7c3e 8f1d 523d 3918 b73d
00000050: 5413 923d 664d b0bb a16d 673b 36a8 2fbf
00000060: 6cac 0ebe 5db7 a43c 3543 803d 606a c43c
00000070: 7228 50be 2225 a13d 4826 adbd e680 6f3b
00000080: 302c 843b e185 f33d baec 0d3e fd34 943f
00000090: 5b70 36be da12 bfbd 305f 89bd c667 d2bd
000000a0: c0cd 88bd 2e65 f5bd 465a 9c3d 8dba d93d
000000b0: a264 b63c 950e dcbc 3495 21be 5165 66bd
000000c0: db41 6dbd 25da 6d3d 8254 a73c 0e40 973d
000000d0: 4442 a7bd 6054 49ba 1c24 1f3d 077f 98bc
000000e0: 04a5 c93d 3926 bf3c d8cc 3f3d 003f 54bd
000000f0: 7bc8 ce3c 76bd e3bd f662 62bc 1f75 e2bf
00000100: 31a6 50bd 747f f03c 0b23 8dbd e7f5 07bd
00000110: 30ea 6cbf 2f8d c83c dd9b 31bd c1af 98bd
00000120: 5a2e 66bd 3fb6 cbbd 27b2 703d 13b7 0c3f
00000130: bedb 6a3f 28d1 25be 9c13 843f b87c 8a3d
00000140: b11d a73d 92e5 00be 7f5e 403e c0e9 d8bd
00000150: 049e 15bc 351d 083d 133e 9bbd 11cd 15be
00000160: 26b3 ba3d 1c3d a0bd 952f 243c fd56 d1bd
00000170: 5a7d 7a3c 2f42 2b3b 8d65 813d 3fb2 74be
00000180: 06db 953d 835c cd3d b1e9 013d a2b6 40bb
00000190: b87a 13be 5a8b 34bd c4a8 f43b ddfc c4bc
000001a0: ea70 e43c 5d2f 97bd 323c febd 1be4 613c
000001b0: ecfb 08bf 4599 adbd e933 5cbd 42cf 003e
000001c0: c63a ab3d e7a9 bbba 35d3 06be ac5e 02bd
000001d0: 91b6 e43d bade e03e 5099 bd3e d79d 763d
000001e0: 4032 6b3e 45f6 6a3d cc48 ed3d 6f68 66bf
000001f0: 42f0 21be c1b3 3abc f6de 0a3e 9111 0d3d
00000200: c0a3 2fbd 6ee7 a63d b9cc 18be 721a 4cbd
00000210: 6cb3 dabd f8e0 033e 2a6b ca3d 0320 37bf
00000220: 6905 8ebe 7925 b13a 4e10 e7bd 696e 1bbe
00000230: b7f1 813e 03e6 dabd afd9 91bd a114 373c
00000240: ec2b aa3e bbbd 05be 88b5 123c db8f c6be
00000250: e1a3 3abe 5347 ee3d 73c4 2fbd 3ce8 503e
00000260: 2a57 bdbd 0af8 a93d dfb5 613e 9746 78bd
00000270: d5d5 7e3c a1fc 20bd 4557 d4b9 b6d1 093d
00000280: f9d1 a2be 040a 54bd 32db c03d 141e 123f
00000290: f68e 893d 6daa a03d 309c 40bd 199e 3abe
000002a0: e069 a4be 0164 fb3d 187e f6bd b177 b0bc
000002b0: 260e 113e 023e 0f3f cc7f 3b3e d863 3d3f
000002c0: 4fb8 2ebf fdd1 dfbc 96da 473f cd9e 24ba
000002d0: 0bd6 4f3d f866 00be 112c ac3d a9b2 18bf
000002e0: bdab 2d3e 7d4d 643d 9457 913c b4fd 87bd
000002f0: 8581 9a3d 6868 513d e6b7 76bd 6b7d 1bbe
00000300: e336 a3bb 81b2 afbd 9ff0 21bd c81d 6fbf
00000310: 70c4 61bd 7d19 6e3d 2717 e8bd 815c 26bd
00000320: 2f7f 0c3e eac7 ad3c 054d 05bd ca50 4f3e
00000330: ffc0 eb3d 1c89 9c3b 98a0 443b 2743 8cbb
00000340: 89c7 ee3d e0ce 0fbd 7768 eabc f0e8 b93b
00000350: a6e4 a13d 9769 2f3b 65b0 81bc 7e02 9e3d
00000360: 3690 0b3b c6f1 df39 4be2 b4bd c9fd 633c
00000370: 42ff 8d3c 72d8 72bc 920f a3bc 3ce2 2b3b
00000380: 5d91 94ba 442f 203e 7ef2 323d dc0b ad3d
00000390: 6e7f 55be 88ed 3f3c 3647 c4bc e029 253e
000003a0: 4ec5 b1bd 6cd2 b1bd 9521 c83c 38ee ac3b
000003b0: 6415 f73d 71c5 5cbc 8798 233e 7306 103e
000003c0: de9a ce3b 2a2b 41bd 8fba 283b 7a19 bf3d
000003d0: fbab 123d d525 14bd 69a3 8abc 5dcf 5cbd
000003e0: 8c5c 1c3a 1ca0 5c3b c9d7 503e 2ca7 09be
000003f0: efb2 c73c 3879 6f3b 1246 df3a da61 603c

fc.1.bias f4 [4]
-0.10915445 -0.42810813 -0.18046676 -0.07357759
00000000: 5e8c dfbd fd30 dbbe 47cc 38be d9af 96bd
