model/unicycle-FC2-100-rk4-so/epoch_340.pth (torch, 6099 bytes, 4 tensors)

fc.0.weight f4 [100, 6]
0	0x3e84e477	0.25955555
1	0x3e3e0fb6	0.18560681
2	0x3d09c56b	0.033635538
3	0x3ed5b5b3	0.41740188
4	0x3ee2f6a4	0.44328797
5	0xbe91464d	-0.28373948
6	0xbd812136	-0.063051626
7	0xbe880c9b	-0.26572117
8	0xbe19b8ff	-0.15011977
9	0xbd8fb2c2	-0.07016517
10	0x3e84e430	0.25955343
11	0x3e456d70	0.19280028
12	0xbda2e5f0	-0.07954013
13	0x3e9edf76	0.31029862
14	0x3c8817ed	0.016612971
15	0x3dd0d0c6	0.101960704
16	0xbe8b897d	-0.27253333
17	0x3e91e62a	0.28495914
18	0x3d01c3c6	0.031680845
19	0xbe1321fe	-0.14368436
20	0x3d58219c	0.052766427
21	0xbe765fa6	-0.24059924
22	0x3e86f466	0.26358336
23	0x3e889703	0.26677713
24	0xbe5150b3	-0.2044094
25	0x3e71fe50	0.23632169
26	0x3bf6ecf8	0.007535573
27	0xbe4e349b	-0.20137255
28	0x3ea5d933	0.32392272
29	0xbec5bd59	-0.38621023
30	0xbe4c8baf	-0.1997516
31	0xbeaff977	-0.34370014
32	0x3e0092ae	0.12555954
33	0x3f3c5f25	0.7358268
34	0xbe8d15d9	-0.2755573
35	0x3e46ffb9	0.19433488
36	0x3ea7f999	0.32807615
37	0x3dab1a28	0.08354598
38	0x3fbfb346	1.4976585
39	0xbee4a9e4	-0.44660866
40	0xbaa3cdc8	-0.0012497241
41	0x3e3361f3	0.17517833
42	0x3e969f0e	0.29418224
43	0xbe28b234	-0.16474229
44	0xbdb75cae	-0.08953224
45	0xbd37f2a7	-0.044909146
46	0xbeee7151	-0.4657083
47	0x3dfe2d6e	0.12411009
48	0x3d189104	0.037247673
49	0x3dad58e6	0.08464222
50	0x3e87bbdc	0.26510513
51	0x3dce1f84	0.10064605
52	0x3e775144	0.24152094
53	0x3e564047	0.20922957
54	0xbec84872	-0.3911777
55	0xbe2407b5	-0.16018565
56	0xbeb31df6	-0.34983796
57	0xbed6f5b1	-0.41984323
58	0xbe97ee36	-0.29673928
59	0xbd1fbd17	-0.03899869
60	0x3d7e49d5	0.06208213
61	0x3e92d602	0.286789
62	0xbdd9ffcc	-0.106444925
63	0xbed83f60	-0.4223585
64	0xbe77819d	-0.24170537
65	0xbe6e591c	-0.2327618
66	0xbca7ba9d	-0.020474726
67	0x3dadd577	0.08487981
68	0x3f30312e	0.6882504
69	0x3f8fbdc3	1.1229786
70	0x3d713939	0.058892462
71	0x3d94ae43	0.072598
72	0xbe89bf29	-0.26903656
73	0xbe1d949c	-0.15388721
74	0x3e123603	0.14278416
75	0x3e924baa	0.28573352
76	0x3ecf3b36	0.40474862
77	0xbec15ac7	-0.3776457
78	0x3dd0c339	0.10193486
79	0xbe580278	-0.21094692
80	0xbeb5b024	-0.35485947
81	0xbe5729a3	-0.21011977
82	0xbdbfc2b7	-0.09363311
83	0xbdec81f3	-0.11548223
84	0x3e9280ad	0.28613797
85	0x3e762e32	0.2404106
86	0x3e065d9d	0.13121648
87	0xbee22ed8	-0.44176364
88	0xbe1fbb6a	-0.15598837
89	0x3e855885	0.26044098
90	0xbe084722	-0.13308385
91	0x3ecd7d78	0.40134788
92	0x3e1590f7	0.14606081
93	0x3dab415f	0.08362078
94	0x3ee4facb	0.4472259
95	0xbe88554b	-0.26627573
96	0xbe41261a	-0.18862191
97	0xbb372b26	-0.0027949302
98	0x3e5ee9f0	0.21768928
99	0xbeee4dc4	-0.46543705
100	0x3dc283c9	0.09497792
101	0xbf0a861b	-0.5411088
102	0xbc94308e	-0.018089559
103	0x3e19c57f	0.15016745
104	0x3f649232	0.89285576
105	0x3fbc899d	1.4729496
106	0x3db64237	0.08899348
107	0x3dd0d33c	0.1019654
108	0x3e57bfb5	0.21069224
109	0x3cf22d75	0.029562691
110	0xbeaf06dc	-0.3418492
111	0x3f1ca96e	0.6119603
112	0xbeb9f0a8	-0.3631642
113	0xbe09a212	-0.13440731
114	0xbe3c2800	-0.18374634
115	0xbdfe349b	-0.124123774
116	0xbec2c9ac	-0.38044488
117	0xbdd8164c	-0.10551128
118	0x3e07e061	0.13269188
119	0x3dab08b4	0.08351269
120	0xbcb0c02c	-0.02157601
121	0x3e22410b	0.15845124
122	0xbf3b029e	-0.7305087
123	0x3eddcd65	0.43320766
124	0x3e62aec9	0.22136988
125	0x3e024c96	0.12724528
126	0xbe5fe72f	-0.21865533
127	0xbea0a5c3	-0.31376466
128	0x3d3dc088	0.04632619
129	0x3f03c425	0.5147117
130	0xbcf21e7d	-0.029555554
131	0x3ef2dfe8	0.47436452
132	0xbd6fb65e	-0.05852353
133	0x3dc8cecf	0.098050706
134	0xbf1524ef	-0.5825948
135	0x3ed95b92	0.42452675
136	0xbe7466fe	-0.23867413
137	0xbef47804	-0.47747815
138	0x3ce03a57	0.027371569
139	0x3d4386e1	0.047736052
140	0xbf434329	-0.76274353
141	0x3fd25cc5	1.6434561
142	0xbdcf3980	-0.10118389
143	0x3dc64ff0	0.096832156
144	0xbe0744d8	-0.13209856
145	0x3e802ada	0.25032693
146	0x3e9a7cf1	0.30173448
147	0xbfb40f95	-1.4067255
148	0x3d14376a	0.03618566
149	0xbccdc8fe	-0.025120255
150	0xbe2848ab	-0.1643397
151	0xbe11dbf9	-0.14244069
152	0xbc52d447	-0.012867994
153	0xbd5d36dc	-0.054007396
154	0x3ea51ecf	0.32250068
155	0xbf0302c9	-0.51176125
156	0x3e963491	0.2933698
157	0xbb8d4831	-0.0043115844
158	0xbe25e925	-0.16202219
159	0x3ea2e174	0.31812632
160	0x3f02895d	0.5099085
161	0xbeb7cc7b	-0.35898194
162	0x3e070e79	0.13189115
163	0xbeae4fee	-0.34045357
164	0xbea78a95	-0.32722917
165	0xbe16d884	-0.14731032
166	0x3eb34900	0.35016632
167	0x3e47181d	0.19442792
168	0xbe580c0b	-0.21098344
169	0xbe1369fc	-0.14395899
170	0x3eb965d2	0.36210495
171	0xbe5a693d	-0.21329208
172	0xbeb4c4bc	-0.35306346
173	0x3ea62d8a	0.3245662
174	0xbeafdf0e	-0.34349865
175	0x3da06a61	0.0783279
176	0xbf296ee7	-0.6618485
177	0x3e9c6a18	0.30549693
178	0x3e1f7205	0.15570839
179	0xbda52859	-0.08064336
180	0x3beea967	0.007283378
181	0xbe188988	-0.14896214
182	0x3e52532f	0.20539545
183	0xbf328bf8	-0.69744825
184	0xbed9d4f0	-0.4254527
185	0xbebd3ee2	-0.36962038
186	0xbe8a81c1	-0.2705212
187	0xbe17ed8a	-0.14836708
188	0x3e21efb7	0.158141
189	0x3e1f75fb	0.1557235
190	0x3f06f45f	0.5271663
191	0xbe34a041	-0.17639257
192	0x3e553e6c	0.20824593
193	0xbe635322	-0.22199681
194	0x3e2a01cf	0.16602252
195	0x3e027523	0.12739997
196	0xbea47518	-0.32120585
197	0x3ea30686	0.31840914
198	0x3e06d359	0.1316656
199	0xbe2fea75	-0.17179282
200	0xbf3114b1	-0.691722
201	0x3cb636f0	0.022242993
202	0xbef8f9bf	-0.4862804
203	0xbee2e75e	-0.44317144
204	0x3c1ea268	0.009682275
205	0xbb1f0d63	-0.0024269454
206	0xbe1aeabe	-0.1512861
207	0x3d805ef8	0.06268114
208	0x3e92106d	0.28528157
209	0x3f07f394	0.53106046
210	0x3bb72d0d	0.0055900873
211	0xbc0b20f2	-0.0084917415
212	0xbf3efa64	-0.74600816
213	0xbfa4690b	-1.2844557
214	0xbd726b25	-0.059184212
215	0xbd40e145	-0.047089834
216	0xbe219203	-0.15778355
217	0x3dbe6ad0	0.092977166
218	0x3f1ac65b	0.60458916
219	0xbdb752af	-0.089513175
220	0x3eb608d1	0.355536
221	0x3ea40f19	0.3204277
222	0x3e51128e	0.20417234
223	0xbe90ed5d	-0.28306094
224	0x3dddc2f4	0.108282
225	0x3d7626b3	0.0600955
226	0x3dbfd53d	0.09366844
227	0xbe62e41b	-0.22157328
228	0x3e30a822	0.17251638
229	0xbe1ca6fb	-0.15298073
230	0x3e5b88fa	0.21438971
231	0xbe381a5d	-0.17978807
232	0x3f050ab0	0.5196943
233	0xbe665975	-0.22495063
234	0x3ea23b09	0.31685665
235	0x3e662e88	0.22478688
236	0x3ebd1f4c	0.3693794
237	0x3d113a58	0.03545603
238	0x3ed34b13	0.41268215
239	0x3edc08cd	0.42975464
240	0xbcff985a	-0.031200577
241	0x3de33ac6	0.110951945
242	0xbf399683	-0.7249529
243	0x3eb2f1f9	0.34950235
244	0xbd88cb50	-0.06679404
245	0x3e9eda4f	0.3102593
246	0xbe5f2229	-0.21790375
247	0x3e0f0996	0.139685
248	0x3ef0c54b	0.47025523
249	0x3e5b0373	0.21388035
250	0xbe8763b5	-0.26443258
251	0xbee6d090	-0.45080996
252	0x3d20a6c2	0.039221533
253	0xbe2550c0	-0.16144085
254	0x3dde4d84	0.10854629
255	0xbebf3271	-0.3734317

fc.0.bias f4 [100]
0	0x3e797265	0.24360044
1	0xbf3e099c	-0.7423341
2	0xbebc2bb5	-0.36752096
3	0xbdfb9d3d	-0.1228585
4	0x38f04293	0.00011456492
5	0x3e8bd6b8	0.27312255
6	0x3f176b7c	0.59148383
7	0x3e2a9519	0.16658439
8	0x3ed48c2b	0.4151319
9	0x3f0f9020	0.5607929
10	0x3def752d	0.116922714
11	0xbf709229	-0.9397302
12	0xbe185037	-0.1487435
13	0xbe95b0a9	-0.29236344
14	0xbe17f88b	-0.14840905
15	0xbea109b3	-0.31452712
16	0x3bcef3f5	0.006315703
17	0x3eef3ed4	0.46727622
18	0xbecff577	-0.40616962
19	0xbd14a862	-0.036293395
20	0xbea507e0	-0.3223257
21	0x3c2f7fd7	0.010711632
22	0x3e15bc46	0.14622602
23	0x3f0863f5	0.5327752
24	0xbf341169	-0.70339066
25	0x3bc0ef11	0.005887874
26	0xbeb9421e	-0.36183256
27	0x3dbab676	0.09116833
28	0xbd8a5930	-0.067552924
29	0x3d239f57	0.03994688
30	0x3ed3f651	0.41398862
31	0xbdc810c6	-0.09768824
32	0x3e3d9c36	0.18516621
33	0xbe6b9cf3	-0.2300909
34	0x3d7a26aa	0.06107203
35	0xc019ec0b	-2.405032
36	0x3efc3df0	0.49266005
37	0x3d87c30e	0.066290006
38	0x3d4e1f1a	0.05032263
39	0xbcfb748d	-0.030695224
40	0x3edf644e	0.43631214
41	0x3ef9777c	0.48723972
42	0xbe5fd3ba	-0.21858111
43	0xbdbf4cc6	-0.09340815
44	0xbe277562	-0.16353372
45	0x3e284920	0.16434145
46	0xbed4abc6	-0.41537303
47	0x3e8d942f	0.27652118
48	0x3f86c9e7	1.0530366
49	0x3cfb8739	0.030704128
50	0x3e288e80	0.1646061
51	0xbe44cd4f	-0.19218944
52	0x3eab5f02	0.33470923
53	0xbd9356e2	-0.07194306
54	0xbeebb934	-0.46039736
55	0x3d13b197	0.036058035
56	0x3daaec67	0.083458714
57	0xbeb6be7f	-0.35692212
58	0xbecbd9b1	-0.39814523
59	0x3da0aec4	0.07845834
60	0x3ebc1c76	0.36740464
61	0x3e699e91	0.22814395
62	0x3c7e4d56	0.015521368
63	0xbff9df86	-1.9521339
64	0xbd9fbd15	-0.077997364
65	0x3e96fd9a	0.29490358
66	0x3f0754f2	0.5286399
67	0x3e8cd98c	0.27509725
68	0x3fc94f2d	1.5727288
69	0x3ded9ebb	0.11602541
70	0x3e9d464c	0.30717695
71	0x3e61883b	0.22024624
72	0xbe032b04	-0.12809378
73	0xbe21f919	-0.1581768
74	0xbe87f864	-0.26556695
75	0x3f5a5892	0.852914
76	0xbf4a880a	-0.7911383
77	0x3e2f575a	0.17123166
78	0x400de185	2.2168896
79	0x3d345dac	0.044034645
80	0xbe416193	-0.18884878
81	0x3d528455	0.051395733
82	0xb9af262b	-0.00033407038
83	0xbf080c90	-0.5314417
84	0xbe0f64ad	-0.14003249
85	0xbe56d522	-0.20979741
86	0xbebbad03	-0.36655435
87	0x3e7e6263	0.24842219
88	0x3d613d04	0.05498983
89	0x3ced50a9	0.028969126
90	0x3e4c7dfe	0.19969937
91	0x3cd24e3f	0.025672076
92	0xbdb47706	-0.088117644
93	0xbd3b0cca	-0.045666493
94	0x3dc37057	0.095429115
95	0xbf6f1a66	-0.93399656
96	0x3db6db8e	0.089285955
97	0x3e52ba54	0.20578891
98	0x3dd61b20	0.104543924
99	0x3d85c382	0.06531431

fc.1.weight f4 [4, 100]
0	0xbd92ad2a	-0.07161935
1	0xbd8a2d1d	-0.06746886
2	0x3e2fcf3b	0.17168896
3	0x3d55d68f	0.052206572
4	0xbd85d70e	-0.06535159
5	0xbc098352	-0.008393126
6	0xbdc6b029	-0.09701569
7	0xbdccaad5	-0.09993521
8	0xbe12e6f6	-0.14345917
9	0x3d8a5631	0.06754721
10	0x3e05a595	0.13051446
11	0xbecf21d1	-0.40455487
12	0xbcea755c	-0.028620414
13	0x3ddf3b12	0.10899939
14	0xbcc925bd	-0.024554128
15	0x3dfb9caa	0.12285741
16	0x3d696017	0.056976404
17	0x3e560378	0.2089976
18	0x3d60001e	0.05468761
19	0x3da5657e	0.08075999
20	0x3de741ee	0.11291872
21	0xbcdcc3cd	-0.026948834
22	0x3ccb79af	0.024838297
23	0xbf4c0760	-0.79698753
24	0xbe411ae3	-0.18857913
25	0x3b2f5e70	0.002675917
26	0x3d7b9d4b	0.061429303
27	0x3cc484ea	0.02398916
28	0xbe290cdf	-0.16508816
29	0x3d3f9686	0.04677441
30	0xbd7095ec	-0.058736727
31	0xbbb7e9c0	-0.005612582
32	0x3b836e6b	0.0040109656
33	0x3dfe81f7	0.124271326
34	0x3d93839c	0.07202837
35	0x3f84b690	1.0368214
36	0xbe1b1b5c	-0.15147156
37	0xbdbd881d	-0.09254477
38	0xbd59eed8	-0.053206295
39	0xbd80d50e	-0.06290637
40	0x3ba3c21c	0.004997505
41	0xbe0244cc	-0.12721556
42	0x3d89816a	0.06714137
43	0x3dc18890	0.09449875
44	0x3c40c316	0.011765262
45	0xbc6a3b52	-0.01429637
46	0xbd77b1fd	-0.060472477
47	0xbd75a6b0	-0.05997342
48	0xbe0de819	-0.1385807
49	0x3d9dc9e1	0.07704521
50	0x3c2ef6f6	0.010678997
51	0x3db7bf83	0.08972075
52	0xbd935072	-0.07193078
53	0xbc981298	-0.018563554
54	0x3d89d3d7	0.06729858
55	0xbd89b700	-0.067243576
56	0x3d3d08dd	0.04615103
57	0x3c01ecc4	0.0079299845
58	0x3d2044dd	0.039128173
59	0xbcfe5605	-0.031046877
60	0xbdb36294	-0.08759037
61	0xbddec161	-0.10876728
62	0xbc80fc63	-0.015745347
63	0xbf9a8fac	-1.2075095
64	0xbd4d4a6b	-0.0501198
65	0x3d16f72c	0.036856815
66	0xbd679763	-0.056540858
67	0xbd1421a6	-0.036164902
68	0xbf68e660	-0.90976524
69	0x3d36c9e0	0.044626117
70	0xbd0e330e	-0.03471666
71	0xbdadaaf5	-0.08479873
72	0xbd89efc1	-0.067351826
73	0x3ca378c5	0.019955048
74	0xbd7c1d14	-0.06155117
75	0x3edbeff7	0.42956516
76	0x3f63e8df	0.8902721
77	0xbe094489	-0.1340505
78	0x3f7e61b3	0.9936783
79	0x3dc00f9c	0.09377977
80	0x3d6a0897	0.0571371
81	0xbde1a1ef	-0.110172145
82	0x3e1d55e5	0.15364797
83	0xbca8f8c6	-0.020626437
84	0xbbb61824	-0.005557077
85	0x3ca49ced	0.02009436
86	0xbdabd6d9	-0.08390588
87	0xbe1c1bdf	-0.15245007
88	0x3da1fc02	0.07909395
89	0xbd76000c	-0.06005864
90	0xba007b1b	-0.00049011566
91	0xbdfaea01	-0.12251664
92	0x3ceb3a18	0.028714225
93	0x3c2c335c	0.010510292
94	0x3d22626d	0.039644647
95	0x3d3e9d37	0.04653665
96	0x3d9c2dc0	0.076259136
97	0x3e06aa75	0.13150962
98	0x3d2e29fa	0.0425205
99	0xbb1e81cc	-0.0024186252
100	0xbe0ac8ae	-0.13553116
101	0xbd3a2a18	-0.0454503
102	0x3c77f041	0.015132965
103	0xbc809d8e	-0.015700128
104	0xbd15b8f2	-0.03655333
105	0xbd3654ec	-0.04451458
106	0xbe1d6ded	-0.15373965
107	0x3c92fe08	0.017943397
108	0xbe296da8	-0.16545737
109	0xbdbdeb35	-0.09273378
110	0xbdb5c7fa	-0.08876033
111	0x3e2f4f58	0.17120111
112	0x3db52b18	0.0884611
113	0x3c0a6605	0.008447175
114	0xbdd9881b	-0.10621663
115	0x3ccbd89f	0.024883566
116	0x3df22361	0.11823154
117	0x3ec666f0	0.3875041
118	0x3ead551a	0.3385399
119	0x3c86d3e0	0.016458452
120	0x3e4bc3a1	0.19898845
121	0x3d2352b4	0.039873794
122	0x3e859e75	0.26097456
123	0xbf6981f3	-0.9121391
124	0xbe54120e	-0.20710012
125	0xbc3d6003	-0.0115585355
126	0x3dcdfdfb	0.100582086
127	0x3cf824e3	0.030291026
128	0x3c604651	0.01368864
129	0x3e2cc589	0.16872229
130	0xbdc12464	-0.09430769
131	0xbcf70396	-0.030153077
132	0xbdd47a4f	-0.10374891
133	0x3da42d97	0.08016508
134	0x3df48c09	0.11940772
135	0xbf06ccd9	-0.5265632
136	0xbe7253db	-0.23664801
137	0xbb1f4eb3	-0.0024308383
138	0xbd87b307	-0.06625944
139	0xbd8b9330	-0.06815183
140	0x3e5cc85a	0.21560803
141	0xbdd576af	-0.10423028
142	0xbd1cbf93	-0.038268637
143	0xbd0d844f	-0.034550007
144	0x3e164912	0.14676312
145	0xbdc5825a	-0.09644003
146	0x3e2747a9	0.1633593
147	0xbe7d408c	-0.24731654
148	0xbea1b465	-0.31582943
149	0x3dbf30da	0.093354896
150	0xbd9e2e58	-0.07723683
151	0x3e7756a9	0.24154152
152	0xbdb778ad	-0.08958564
153	0x3d8f3452	0.06992401
154	0x3e81e250	0.25367975
155	0xbda0e870	-0.07856834
156	0xbceddc39	-0.029035674
157	0xbd0f828b	-0.035036605
158	0xbc109fa8	-0.0088271275
159	0x3c7551e4	0.0149731375
160	0xbec11a43	-0.3771535
161	0xbd3bb96f	-0.04583114
162	0x3d989c93	0.07451739
163	0x3e9f07a5	0.3106052
164	0x3d6b6ff7	0.057479825
165	0x3d8f1d20	0.06987977
166	0xbd6fd1ec	-0.058549806
167	0xbdfaf205	-0.12253193
168	0x3e04907c	0.12945741
169	0x3dbc111b	0.0918295
170	0xbdeeed89	-0.116664
171	0xbc278a34	-0.010225821
172	0x3dd4f44a	0.10398157
173	0x3e9e209c	0.30884254
174	0x3e1d793a	0.15378276
175	0x3f445660	0.766943
176	0xbf0bb039	-0.5456577
177	0xbd25a365	-0.04043903
178	0x3ec232b8	0.3792932
179	0xbb7cafc6	-0.0038556918
180	0x3b1bba1a	0.0023762048
181	0xbda37a78	-0.079823434
182	0x3da4da16	0.08049409
183	0xbe7edb04	-0.24888235
184	0x3e256227	0.16150723
185	0x3d45ae71	0.048262063
186	0x3c8fa06a	0.017532546
187	0xbe06d9fc	-0.13169092
188	0x3d6d84f3	0.05798812
189	0x3d833d19	0.06408138
190	0xbd9fcf94	-0.07803264
191	0xbe43f1d5	-0.1913522
192	0xbca8535e	-0.020547565
193	0xbd9b6893	-0.07588305
194	0xbc05fbba	-0.008177692
195	0xbddef3a2	-0.10886313
196	0xbd83697b	-0.06416603
197	0x3dddc09c	0.10827753
198	0xbdab46ed	-0.083631374
199	0xbc99600b	-0.018722555
200	0x3e1e58a1	0.15463497
201	0x3d7fcf89	0.06245378
202	0xbd792b56	-0.060832344
203	0x3e06bd4e	0.13158152
204	0x3dd431f3	0.103610896
205	0xbc068b3d	-0.008211908
206	0x3bb74941	0.0055934493
207	0xbd18dcb5	-0.037319858
208	0x3e3943c5	0.18092258
209	0xbd69dd1c	-0.057095632
210	0xbd3aae3b	-0.045576315
211	0xbca55caf	-0.020185797
212	0x3d8b88fe	0.068132386
213	0x3cec0a33	0.028813457
214	0xbd5459a0	-0.051843286
215	0x3d8fe223	0.07025554
216	0xbc3b022d	-0.011414093
217	0x3d15e49d	0.036594976
218	0xbdd5d843	-0.10441639
219	0x3c2e3cfa	0.010634655
220	0x3cfe4125	0.031036923
221	0xbd0b39b2	-0.03399057
222	0xbd299873	-0.041405153
223	0xbc373edd	-0.011184421
224	0x3c02b689	0.00797809
225	0x3e1d0697	0.15334545
226	0x3d2b26ae	0.041784935
227	0x3dce73d7	0.100806884
228	0xbe55c805	-0.20877083
229	0x3c79b589	0.015241035
230	0xbdb178e8	-0.08665639
231	0x3df97e1e	0.12182258
232	0xbd930251	-0.07178176
233	0xbddd800e	-0.1081544
234	0x3dc4fe30	0.09618795
235	0xbd5ab6bc	-0.053396925
236	0x3df34468	0.11878282
237	0xbd3d837e	-0.04626798
238	0x3e101832	0.1407173
239	0x3dddd35a	0.10831328
240	0xbacc8924	-0.0015604836
241	0xbd51e857	-0.051246967
242	0x3cb3ca3a	0.021947015
243	0x3d0b1d3c	0.033963427
244	0xba3099fa	-0.00067368115
245	0xbd2ed0e4	-0.042679682
246	0xbdb24137	-0.08703845
247	0xbe0eb853	-0.13937502
248	0x3cc14357	0.02359168
249	0xbc94139a	-0.018075753
250	0x3e2838c5	0.16427906
251	0xbdc39472	-0.09549798
252	0x3d638b4f	0.055552777
253	0xbcb7c455	-0.022432486
254	0x3cb4e806	0.022083294
255	0x3ceba2a7	0.028764082

fc.1.bias f4 [4]
0	0xbda6fc73	-0.081536196
1	0xbec37de4	-0.38181984
2	0xbe162023	-0.14660697
3	0xbd40eda7	-0.047101643
