model/unicycle-FC2-100-rk4-so/epoch_380.pth (torch, 6099 bytes, 4 tensors)

fc.0.weight f4 [100, 6]
0	0x3e85aee2	0.26109987
1	0x3e3a1f86	0.18176088
2	0x3d192b7f	0.037394997
3	0x3ed55ba2	0.41671473
4	0x3ee66687	0.45000097
5	0xbe94d194	-0.29066145
6	0xbd86cad6	-0.06581657
7	0xbe85e01b	-0.2614754
8	0xbe135048	-0.14386094
9	0xbd930a55	-0.07179705
10	0x3e8405b9	0.25785616
11	0x3e4f6de0	0.20256758
12	0xbda72b49	-0.08162553
13	0x3e9b40b2	0.30322796
14	0x3c17e569	0.009271004
15	0x3e02845b	0.12745802
16	0xbe8a1292	-0.26967293
17	0x3e92791b	0.2860802
18	0x3d097adf	0.033564445
19	0xbe1b30fc	-0.15155405
20	0x3d77e920	0.06052506
21	0xbe7e3ca5	-0.24827822
22	0x3e82df6f	0.2556109
23	0x3e8f726d	0.28016987
24	0xbe51dd12	-0.20494488
25	0x3e7a1d05	0.24425133
26	0x3bae20fa	0.0053139897
27	0xbe49ce75	-0.19707663
28	0x3ea4556d	0.32096425
29	0xbec2ca9a	-0.38045198
30	0xbe45e2b3	-0.1932476
31	0xbeb02ed9	-0.34410742
32	0x3e2027d6	0.15640196
33	0x3f4b6534	0.794513
34	0xbe8731b4	-0.26405108
35	0x3e406360	0.18787909
36	0x3e9c5fe7	0.30541918
37	0x3d915886	0.07096963
38	0x3fc17f9f	1.5117072
39	0xbefc3659	-0.49260214
40	0x3cf879af	0.03033146
41	0x3e2cb87a	0.16867247
42	0x3e9848f7	0.29743168
43	0xbe1fc817	-0.15603672
44	0xbda77913	-0.0817739
45	0xbd08a9fe	-0.033365242
46	0xbeeb125c	-0.45912445
47	0x3df44c9f	0.11928677
48	0x3d1b89b2	0.037973113
49	0x3da72a26	0.08162336
50	0x3e9db5e2	0.30802828
51	0x3da77ede	0.08178495
52	0x3e72f179	0.23724927
53	0x3e3ee166	0.1864067
54	0xbec7cc08	-0.3902285
55	0xbe243535	-0.16035922
56	0xbea200c2	-0.31641203
57	0xbee95cc0	-0.45578575
58	0xbe95f178	-0.2928579
59	0xbd2e5eb5	-0.04257079
60	0x3d66817a	0.056275822
61	0x3e8d6f94	0.2762419
62	0xbdceb5bb	-0.10093256
63	0xbed6727c	-0.4188422
64	0xbe748ee4	-0.23882633
65	0xbe6f0027	-0.23339902
66	0xbcb5446c	-0.022127353
67	0x3da66404	0.08124545
68	0x3f29f6ba	0.663921
69	0x3f909669	1.1295902
70	0x3d5d6f4d	0.054061223
71	0x3d742f44	0.05961539
72	0xbe89cec2	-0.26915556
73	0xbe1c4109	-0.15259184
74	0x3e01564d	0.12630577
75	0x3e974f21	0.29552558
76	0x3ecfd68b	0.4059337
77	0xbec1c682	-0.37846762
78	0x3dda4621	0.10657907
79	0xbe57c0de	-0.21069667
80	0xbeb15187	-0.34632513
81	0xbe823188	-0.25428414
82	0xbdd83baa	-0.10558255
83	0xbde6947c	-0.1125879
84	0x3e91831c	0.2842034
85	0x3e706aed	0.23478289
86	0x3e0ebe57	0.13939796
87	0xbef1c02e	-0.47216934
88	0xbe245709	-0.16048826
89	0x3e82c5c8	0.2554152
90	0xbe08fa0d	-0.13376637
91	0x3ec7ca08	0.39021325
92	0x3e3e5ecd	0.18590851
93	0x3d84c483	0.06482794
94	0x3ee65512	0.44986778
95	0xbe8410be	-0.25794023
96	0xbe402988	-0.18765843
97	0xbadf0f62	-0.0017018134
98	0x3e5e39b9	0.21701707
99	0xbef6b4e2	-0.48184878
100	0x3dfbce14	0.12295166
101	0xbf0e0633	-0.5547821
102	0xbca63e5b	-0.020293405
103	0x3e209167	0.15680467
104	0x3f70dac6	0.9408382
105	0x3fc5356c	1.5406928
106	0x3d9c9bc5	0.07646898
107	0x3dab7f9a	0.083739474
108	0x3e5c9df4	0.2154463
109	0x3d0ba81d	0.034095872
110	0xbeb1181f	-0.34588715
111	0x3f22f173	0.6364967
112	0xbeb54734	-0.35405886
113	0xbe146e06	-0.14495096
114	0xbe36e41f	-0.17860459
115	0xbdfd1b85	-0.123587646
116	0xbec68ea4	-0.387807
117	0xbe297a51	-0.16550566
118	0x3e0eb4f0	0.1393621
119	0x3da348f3	0.07972898
120	0xbcf735b7	-0.03017698
121	0x3e2ab0fb	0.16669075
122	0xbf31388e	-0.6922692
123	0x3ee38ea0	0.44444752
124	0x3e4e6f65	0.20159681
125	0x3e064507	0.1311227
126	0xbe683113	-0.2267497
127	0xbe9f34b8	-0.3109491
128	0x3b84d499	0.004053664
129	0x3f007171	0.501731
130	0xbd05e82a	-0.032692112
131	0x3ef1a915	0.47199312
132	0xbd7bdeba	-0.061491705
133	0x3dcd9680	0.10038471
134	0xbf0c5069	-0.54810196
135	0x3ed94dc7	0.42442152
136	0xbe7bf153	-0.24603777
137	0xbeee2a53	-0.46516666
138	0x3ce498cb	0.027904889
139	0x3d4034ad	0.046925236
140	0xbf3ed173	-0.74538344
141	0x3fd09283	1.6294712
142	0xbdd5ac0b	-0.10433205
143	0x3dc42d31	0.09578932
144	0xbe0d6974	-0.13809758
145	0x3e7bbf20	0.24584627
146	0x3eb511ff	0.35365292
147	0xbfb08faa	-1.3793843
148	0x3ccaaade	0.024739679
149	0xbd20d30c	-0.03926377
150	0xbe2cd387	-0.16877566
151	0xbe0fc52b	-0.14040057
152	0xbcffb774	-0.031215407
153	0xbd9c1351	-0.07620872
154	0x3ea5307c	0.32263553
155	0xbf034ce9	-0.5128923
156	0x3e938f68	0.28820348
157	0xbb8b880a	-0.0042581605
158	0xbe546221	-0.20740558
159	0x3eaa0298	0.33205104
160	0x3f071530	0.52766705
161	0xbeb9ca73	-0.3628727
162	0x3e0426f4	0.12905484
163	0xbeabcb93	-0.33553752
164	0xbea5972a	-0.32341892
165	0xbe05a653	-0.13051729
166	0x3eb5154d	0.35367814
167	0x3e4b8a87	0.19877063
168	0xbe56b92a	-0.20969072
169	0xbe1337bd	-0.14376731
170	0x3eb9cc33	0.36288604
171	0xbe50206b	-0.20324866
172	0xbeb93318	-0.36171794
173	0x3ea894fb	0.32926163
174	0xbeaf83b5	-0.34280172
175	0x3dab028e	0.08350097
176	0xbf24d23a	-0.6438328
177	0x3e8fb6b1	0.2806907
178	0x3e16bfed	0.14721651
179	0xbdcb13c4	-0.09915879
180	0x3c616bff	0.013758658
181	0xbe0f3515	-0.13985093
182	0x3e81450a	0.25247985
183	0xbf34e2a1	-0.7065831
184	0xbed39f19	-0.4133232
185	0xbebc9bd8	-0.3683765
186	0xbe818218	-0.25294566
187	0xbe1c34c4	-0.15254503
188	0x3e34b5b6	0.17647442
189	0x3e372394	0.17884666
190	0x3f08b15e	0.5339564
191	0xbe539432	-0.20662001
192	0x3e53d2db	0.20685904
193	0xbe65ae44	-0.22429758
194	0x3e1ca36d	0.15296717
195	0x3e1fabf0	0.15592933
196	0xbe9ee317	-0.3103263
197	0x3ea3a356	0.31960553
198	0x3e0fdb0a	0.140484
199	0xbe284d48	-0.1643573
200	0xbf3a01e9	-0.72659165
201	0x3cebce82	0.028784994
202	0xbefa44ce	-0.4888062
203	0xbedcd076	-0.43127793
204	0x3c084e3f	0.008319437
205	0xba863f82	-0.0010242315
206	0xbe30fb5f	-0.1728339
207	0x3db4e82f	0.08833348
208	0x3e883ed2	0.26610428
209	0x3f07d740	0.5306282
210	0x3b28c8d9	0.002575448
211	0xbbf0fc00	-0.0073542595
212	0xbf34159f	-0.7034549
213	0xbfa97e19	-1.3241607
214	0xbd410c73	-0.047131013
215	0xbd64b57d	-0.055837143
216	0xbe224c73	-0.15849476
217	0x3db0cec7	0.0863319
218	0x3f2708c6	0.6524776
219	0xbdde681f	-0.10859703
220	0x3eb59452	0.35464722
221	0x3e9b0194	0.30274642
222	0x3e4e3609	0.201378
223	0xbe90008a	-0.2812541
224	0x3de30fc8	0.110869944
225	0x3d45155c	0.048116073
226	0x3dc371d3	0.095431946
227	0xbe64821e	-0.22315261
228	0x3e265580	0.16243553
229	0xbe19f198	-0.15033567
230	0x3e90afd5	0.2825915
231	0xbe198cbc	-0.14995092
232	0x3f07b9c9	0.5301786
233	0xbe646319	-0.22303428
234	0x3ea70534	0.32621157
235	0x3e631fef	0.2218015
236	0x3ed727f0	0.42022657
237	0x3db4c6b0	0.08826959
238	0x3ed646a4	0.4185077
239	0x3ee43d14	0.4457785
240	0xbd0b386c	-0.033989355
241	0x3de4c329	0.11170036
242	0xbf35f801	-0.7108155
243	0x3ebf0b8d	0.373135
244	0xbd90031d	-0.07031844
245	0x3e8e577c	0.2780112
246	0xbe5925bb	-0.212058
247	0x3e0c95ae	0.13728973
248	0x3efbd099	0.49182585
249	0x3e3ee926	0.18643627
250	0xbe842936	-0.2581269
251	0xbee4003f	-0.44531438
252	0x3d1c8587	0.03821328
253	0xbe28ef2f	-0.16497491
254	0x3df8f966	0.12156944
255	0xbec4d47c	-0.38443363

fc.0.bias f4 [100]
0	0x3e73498c	0.23758525
1	0xbf4db00d	-0.8034676
2	0xbec87993	-0.39155254
3	0xbdf9a628	-0.12189895
4	0xbc399ce4	-0.01132891
5	0x3e934594	0.2876402
6	0x3f1c88b3	0.61146086
7	0x3e3cb970	0.18430114
8	0x3f082247	0.53177303
9	0x3f1217c9	0.57067543
10	0x3e027cb1	0.12742878
11	0xbf8d1128	-1.1020861
12	0xbe1d04ff	-0.15333937
13	0xbe93ad77	-0.2884328
14	0xbe314884	-0.17312819
15	0xbea389b9	-0.31941012
16	0x3bd6d38e	0.006555981
17	0x3efd3c63	0.49460134
18	0xbed3587c	-0.41278446
19	0xbdb2ca5b	-0.087300025
20	0xbec242ac	-0.37941492
21	0x3bc5fe01	0.0060422425
22	0x3e1c1172	0.1524103
23	0x3f09a8b6	0.5377306
24	0xbf2af7de	-0.66784465
25	0x3998a15a	0.00029111916
26	0xbeb32830	-0.34991598
27	0x3de1b519	0.1102087
28	0xbd5a12bf	-0.053240534
29	0xbbec300c	-0.007207876
30	0x3ee04359	0.43801382
31	0xbdc1949a	-0.094521716
32	0x3e28985a	0.16464368
33	0xbe9c67f2	-0.30548054
34	0x3d1ab2ae	0.03776806
35	0xc0206687	-2.5062578
36	0x3f029260	0.510046
37	0x3dbab7c8	0.09117085
38	0x3d7eb356	0.062182747
39	0xbd6470c4	-0.055771604
40	0x3ef01c92	0.46896797
41	0x3f0609b6	0.5235857
42	0xbe5e3129	-0.2169844
43	0xbe370739	-0.17873849
44	0xbe92415c	-0.2856549
45	0x3e2d5d3c	0.16930097
46	0xbed5e839	-0.41778734
47	0x3e99f2fc	0.30068195
48	0x3f8b41cd	1.0879456
49	0x3c915ce7	0.017744495
50	0x3e34812d	0.17627402
51	0xbe54bb8c	-0.20774668
52	0x3ebbc039	0.36670092
53	0xbd93bf63	-0.072142385
54	0xbf06aece	-0.5261048
55	0x3d2fabe9	0.042888556
56	0x3d89b87b	0.0672464
57	0xbeb36655	-0.3503901
58	0xbed352ee	-0.41274208
59	0x3d6a8094	0.057251528
60	0x3eddb31e	0.43300718
61	0x3e6984b8	0.22804534
62	0x3cdf4c51	0.02725807
63	0xc003a683	-2.057038
64	0xbdccb7d1	-0.09995998
65	0x3e9321a9	0.28736618
66	0x3f0a326e	0.539832
67	0x3ea1cc78	0.3160131
68	0x3fd38b42	1.6526873
69	0x3ddeea5c	0.10884544
70	0x3eb2672c	0.3484434
71	0x3e7acb60	0.24491644
72	0xbe10bae9	-0.141338
73	0xbeb447ca	-0.3521102
74	0xbec15371	-0.37758973
75	0x3f68ef1a	0.9098984
76	0xbf597b35	-0.84953624
77	0x3e4764fc	0.19472116
78	0x40117df1	2.2733119
79	0x3c9e6bc0	0.019338489
80	0xbe67f272	-0.2265108
81	0x3d88b01e	0.06674217
82	0x3b6647eb	0.0035138081
83	0xbf1d60e1	-0.6147595
84	0xbe282b85	-0.16422851
85	0xbe5a305e	-0.21307513
86	0xbeb87c44	-0.36032307
87	0x3e8070bf	0.25086018
88	0x3c3f6473	0.011681664
89	0x3d25637e	0.040378086
90	0x3de939fc	0.11388013
91	0x3d85d36a	0.06534465
92	0xbde95877	-0.113938265
93	0xbd12f601	-0.03587914
94	0x3da34b0a	0.07973297
95	0xbf8bc413	-1.0919212
96	0x3da0b840	0.07847643
97	0x3e1b5d86	0.15172395
98	0x3df280dd	0.11840985
99	0x3da89a2d	0.08232532

fc.1.weight f4 [4, 100]
0	0xbda099f0	-0.07841861
1	0xbd8eb8ff	-0.06968879
2	0x3e312958	0.17300928
3	0x3d5ffd20	0.05468476
4	0xbd9895b7	-0.07450431
5	0xbc334714	-0.010942239
6	0xbdb34c06	-0.08754735
7	0xbdc8b389	-0.097998686
8	0xbe2b5b18	-0.16733968
9	0x3d787aa2	0.060663827
10	0x3e03ff45	0.12890346
11	0xbef8c70f	-0.4858937
12	0xbcd63425	-0.026147911
13	0x3de45777	0.11149495
14	0xbcee8d47	-0.0291201
15	0x3df70d3d	0.12063072
16	0x3d7ee5aa	0.062230743
17	0x3e72986a	0.23690954
18	0x3d6c39fc	0.057672486
19	0x3da6431f	0.08118271
20	0x3dd07e1e	0.10180305
21	0xbcd7ab0a	-0.026326675
22	0x3cb84c42	0.0224973
23	0xbf44eb93	-0.7692196
24	0xbe2a981e	-0.1665959
25	0x3bb2e234	0.0054590944
26	0x3d816903	0.063188575
27	0x3ccd70cc	0.0250782
28	0xbe2c03dc	-0.16798347
29	0x3d598ff3	0.053115796
30	0xbd734f75	-0.059401948
31	0xbba49890	-0.0050230697
32	0x3b3b5fec	0.002859111
33	0x3e009b61	0.12559272
34	0x3da8d4e4	0.08243731
35	0x3f873df0	1.0565777
36	0xbe1ef45e	-0.15522906
37	0xbdbd58d5	-0.09245459
38	0xbd64c56d	-0.055852342
39	0xbd8d9828	-0.06913787
40	0xbc18f186	-0.009334927
41	0xbe0203be	-0.1269674
42	0x3d8d908c	0.06912336
43	0x3dca735b	0.098852836
44	0x3bbc7d89	0.0057522696
45	0xbcaf42a7	-0.021394087
46	0xbd803b2a	-0.06261285
47	0xbd92616a	-0.071474865
48	0xbe01d8a1	-0.12680294
49	0x3d9c6a98	0.07637519
50	0x3bb65dae	0.0055653667
51	0x3dc214e0	0.09476638
52	0xbd95cb28	-0.073141396
53	0xbc90b34e	-0.017663624
54	0x3da358d7	0.07975929
55	0xbd7d952b	-0.061909836
56	0x3d4a6ec3	0.049422037
57	0x3c3ff449	0.011715957
58	0x3d3314b8	0.04372093
59	0xbd078f36	-0.03309556
60	0xbd9b8647	-0.07593971
61	0xbdde606b	-0.10858234
62	0xbc7dd6f1	-0.015493141
63	0xbfa835ce	-1.314142
64	0xbd4867fa	-0.048927285
65	0x3d18f8fa	0.037346818
66	0xbd69fdd6	-0.057126842
67	0xbced38e9	-0.028957801
68	0xbf6cf78b	-0.9256522
69	0x3d3cadd1	0.0460642
70	0xbd3e23d0	-0.046420872
71	0xbdabae5d	-0.083828665
72	0xbd870073	-0.065918826
73	0x39c98ed6	0.0003844413
74	0xbd6fb18b	-0.058518928
75	0x3ed89d1d	0.42307368
76	0x3f64bce3	0.8935072
77	0xbe0d2a8c	-0.13785762
78	0x3f813b87	1.0096291
79	0x3db9aa7b	0.0906572
80	0x3d7ea793	0.06217153
81	0xbde55391	-0.1119758
82	0x3e22948f	0.15876983
83	0xbca66a1b	-0.020314267
84	0xbbcfa0d6	-0.006336312
85	0x3cb6ddab	0.022322496
86	0xbdaa5711	-0.08317388
87	0xbe1e999f	-0.1548829
88	0x3da38e5d	0.07986138
89	0xbd79e38c	-0.06100802
90	0x3a3f87af	0.000730629
91	0xbdeccaae	-0.115620956
92	0x3cec4cf9	0.028845297
93	0x3c2dbb97	0.010603807
94	0x3d2f26df	0.04276168
95	0x3d435832	0.04769153
96	0x3d9a27d3	0.07527127
97	0x3e031bca	0.1280357
98	0x3d34c1b7	0.044130053
99	0xbb14173f	-0.0022596864
100	0xbe1458b7	-0.14486967
101	0xbd3e6ad9	-0.046488617
102	0x3cce341a	0.025171328
103	0xbc85aca5	-0.016317675
104	0xbcdd1ee7	-0.026992274
105	0xbd3b78c4	-0.045769468
106	0xbe15f9dd	-0.14646097
107	0x3c8824d4	0.016619124
108	0xbe444f25	-0.19170816
109	0xbdc7274a	-0.09724291
110	0xbda3f53d	-0.0800576
111	0x3dfc829c	0.12329599
112	0x3db813e3	0.08988168
113	0x3c0bd2c0	0.008534133
114	0xbdf5f4b2	-0.120095626
115	0x3caf86de	0.021426614
116	0x3e01b8a7	0.12668096
117	0x3edddfad	0.43334714
118	0x3eb37230	0.35048056
119	0x3cb3dcaa	0.021955807
120	0x3e4b5551	0.19856764
121	0x3d260996	0.040536486
122	0x3e793c78	0.24339473
123	0xbf6a5cbf	-0.9154777
124	0xbe4a38f7	-0.19748293
125	0xbc2e6676	-0.010644546
126	0x3dd80847	0.10548454
127	0x3d00ad4d	0.031415273
128	0x3be68d81	0.0070359115
129	0x3e22afcf	0.15887378
130	0xbdc9b893	-0.09849658
131	0xbcf3811b	-0.029724648
132	0xbdd70753	-0.10499444
133	0x3db30ecb	0.08743056
134	0x3dfdd9ce	0.123950586
135	0xbf17c6ba	-0.5928761
136	0xbe7def45	-0.24798305
137	0xbb376520	-0.002798386
138	0xbd945007	-0.072418265
139	0xbdaa66ee	-0.083204135
140	0x3e55137a	0.20808211
141	0xbde5cd84	-0.112208396
142	0xbd392894	-0.045204714
143	0xbcda5d9c	-0.026655965
144	0x3e2fbab7	0.1716107
145	0xbddcc39d	-0.10779498
146	0x3e1992fd	0.14997478
147	0xbe86f084	-0.26355374
148	0xbe99d275	-0.30043378
149	0x3dca6dd1	0.09884227
150	0xbd9861b4	-0.074405104
151	0x3e6cf2d1	0.23139502
152	0xbdbeffac	-0.09326109
153	0x3d888adc	0.0666711
154	0x3e8c5fcb	0.27416834
155	0xbda3f8a6	-0.0800641
156	0xbcad79c3	-0.021176225
157	0xbd0bc37c	-0.034121975
158	0xbbbc99c7	-0.0057556364
159	0x3c8adfee	0.016952481
160	0xbec982c2	-0.39357573
161	0xbd4af683	-0.0495515
162	0x3d9d3be9	0.076774426
163	0x3ea10e64	0.31456292
164	0x3d74fb88	0.05981019
165	0x3d904321	0.07044054
166	0xbd6bc217	-0.057558145
167	0xbdfea5ed	-0.124339916
168	0x3d828357	0.06372707
169	0x3dc97040	0.09835863
170	0xbdfa2279	-0.122136064
171	0xbc5ec806	-0.013597494
172	0x3de1cfab	0.11025938
173	0x3eb02331	0.3440185
174	0x3e338552	0.17531326
175	0x3f43dbb1	0.765071
176	0xbf12067c	-0.57041144
177	0xbd432611	-0.047643725
178	0x3ee34c93	0.4439436
179	0xbaa4d816	-0.0012576606
180	0x3c070e91	0.008243219
181	0xbdb0edaf	-0.086390845
182	0x3da90621	0.08253122
183	0xbe7eb3d6	-0.2487329
184	0x3e2a3e0c	0.16625232
185	0x3d4d60e0	0.050141215
186	0x3c8ac584	0.016939886
187	0xbdf982f1	-0.12183178
188	0x3d807ad9	0.06273431
189	0x3d6f6abd	0.058451403
190	0xbd9a0aa2	-0.07521559
191	0xbe45c9b5	-0.19315226
192	0xbc898e57	-0.016791506
193	0xbda059af	-0.07829606
194	0xbc32a2f9	-0.0109031135
195	0xbe07ca36	-0.13260731
196	0xbd833625	-0.064068116
197	0x3dd096cd	0.10185013
198	0xbda99128	-0.082796395
199	0xbcb441d7	-0.022004051
200	0x3e1cc3a8	0.15309012
201	0x3d6c9791	0.057761732
202	0xbd76398a	-0.060113467
203	0x3e0e5042	0.13897803
204	0x3dd6e059	0.1049201
205	0xbbce0794	-0.0062875245
206	0xba3abb87	-0.00071232807
207	0xbd0e5f5e	-0.034758918
208	0x3e2b94ae	0.16755936
209	0xbd6585ac	-0.056035683
210	0xbd4b5d5f	-0.049649592
211	0xbb987b6a	-0.004653384
212	0x3d942114	0.07232872
213	0x3cbd7a2e	0.023129549
214	0xbd201d72	-0.03909058
215	0x3d906df4	0.07052222
216	0xbc3622d0	-0.011116698
217	0x3cae6ca4	0.021292038
218	0xbdd0fabb	-0.10204073
219	0x3c8a804e	0.016906884
220	0x3d1fd8d4	0.039025143
221	0xbcf370c0	-0.02971685
222	0xbd39467b	-0.04523323
223	0xbc115328	-0.008869924
224	0x3b66c32b	0.0035211544
225	0x3e1b19dc	0.15146583
226	0x3d34ed91	0.044171873
227	0x3dcccd86	0.10000138
228	0xbe575433	-0.21028213
229	0x3c91002f	0.017700283
230	0xbd962076	-0.0733041
231	0x3e00c082	0.12573436
232	0xbd962bbf	-0.07332563
233	0xbddcd336	-0.10782473
234	0x3dbfd23b	0.0936627
235	0xbd2980f0	-0.04138273
236	0x3df1acb7	0.11800521
237	0xbd2f74de	-0.042836063
238	0x3e10fadf	0.141582
239	0x3de907d7	0.113784485
240	0xbbdc8d6b	-0.0067307255
241	0xbd556704	-0.052100196
242	0x3c4bb969	0.012434342
243	0x3d2393db	0.039935928
244	0x3c0011f0	0.007816777
245	0xbd370d20	-0.04469025
246	0xbd992c2b	-0.074791275
247	0xbdf27bc0	-0.1184001
248	0x3c97fb2d	0.018552387
249	0xbc823d4f	-0.015898375
250	0x3e31896c	0.17337579
251	0xbdc6ddcf	-0.097102754
252	0x3d601564	0.0547079
253	0xbc8d5230	-0.017251104
254	0x3c9f24bb	0.019426694
255	0x3cce2839	0.025165664

fc.1.bias f4 [4]
0	0xbdc57492	-0.09641375
1	0xbecdb129	-0.40174225
2	0xbe1f1b80	-0.15537834
3	0xbd50301d	-0.050827134
