model/unicycle-FC2-100-rk4-so/epoch_900.pth (torch, 6099 bytes, 4 tensors)

fc.0.weight f4 [100, 6]
000000 39 b7 72 3e a4 f8 1a 3e d3 cf 5b 3e b0 2b c4 3e
       0.23702706 0.15133911 0.21465997 0.3831458
000010 58 df f1 3e 94 df 4c be 04 a5 c3 bd 63 06 67 be
       0.4724071 -0.20007163 -0.095529586 -0.2256103
000020 5f 65 b5 bd ce b6 12 be 32 ed d9 3c 34 c7 30 3d
       -0.088572256 -0.14327547 0.026602361 0.043158725
000030 19 ec cd bd 87 1d 96 3e 46 b7 70 3d d3 b7 9c 3e
       -0.10054798 0.29319403 0.058768533 0.30608997
000040 9c 0e 3d be ff c1 9c 3e c7 27 88 3d 2e 0d 43 be
       -0.18462604 0.30616757 0.06648212 -0.19047996
000050 4b 9a bc 3b f4 ba 9a be b9 55 78 3e dd fe 33 3e
       0.005755698 -0.3022076 0.2425145 0.17577691
000060 60 46 51 be a4 6a aa 3e 92 0b 8a 3d 55 4d a5 be
       -0.20437002 0.33284485 0.06740488 -0.32285562
000070 8b 34 98 3e 12 41 66 be 97 cd 10 be 49 00 b6 be
       0.29727587 -0.2248576 -0.14140926 -0.35547093
000080 47 88 8d 3e d9 3a 98 3f 3f d0 b1 3c 1b 1d 87 3d
       0.27643034 1.1892959 0.021705745 0.06597348
000090 ab da 91 3c cf 6c 93 3d 96 16 bd 3f f9 2b ec be
       0.017804464 0.07198488 1.4772518 -0.46127298
0000a0 e7 74 a5 3d 51 a6 4c bd fc 52 9c 3e e9 f1 ab bd
       0.08078938 -0.0499633 0.30532062 -0.0839575
0000b0 ad 19 80 bd d7 fd 91 be 76 55 ba be 7b 6e 2b 3e
       -0.06254897 -0.28513977 -0.36393327 0.16741364
0000c0 74 06 f3 bc 67 70 1f 3d bd 6a 97 3d e4 63 ab 3e
       -0.029666163 0.038925555 0.073934056 0.33474648
0000d0 15 2e a7 3c b6 45 22 bb e6 66 c0 be 55 dd 14 be
       0.020407716 -0.002476079 -0.37578505 -0.14537556
0000e0 c7 ae 93 3d f1 e4 ec be e3 ee f6 be e9 fb b3 bc
       0.072110705 -0.46268418 -0.4822913 -0.021970706
0000f0 bc c5 b3 bc 81 56 99 3e 09 07 4c 3e 8b 00 4e be
       -0.021944873 0.2994881 0.19924559 -0.20117395
000100 de e5 a2 bd a0 a2 4c be 56 c8 1b bc 2b ee 33 3c
       -0.07954 -0.19983912 -0.009508213 0.010982077
000110 10 c0 2b 3f 02 5e a4 3f 69 8e 9a 3d 2b 9a 8b 3d
       0.6708994 1.2841189 0.07546694 0.068165146
000120 cf 52 81 be 00 61 0f be c7 86 e7 3d 74 ed a4 3e
       -0.2525849 -0.14001846 0.113050036 0.32212412
000130 46 a5 d5 3e fe f6 16 be d3 0e 16 3e 6e 82 48 be
       0.41727656 -0.14742658 0.14654092 -0.19581005
000140 ac 18 95 be 79 b7 10 bf 78 41 27 be ab 13 95 3d
       -0.29120386 -0.5652996 -0.16333568 0.07279142
000150 6b a9 67 3e b0 bc 23 3e 70 d8 81 3e 13 22 bd be
       0.22623222 0.15989947 0.2536044 -0.3694006
000160 ad 5a 89 be 36 06 64 3e 70 96 f5 bd 7e 82 c2 3e
       -0.26826993 0.22267994 -0.11991584 0.37990183
000170 23 b5 d1 3e ae b8 a2 bd 0a 29 cf 3e 8e d1 2d be
       0.4095851 -0.07945381 0.40460998 -0.1697447
000180 99 5d 40 be 04 d5 05 bd 65 ba 73 3e c2 aa a6 be
       -0.18785705 -0.03267385 0.23801573 -0.32552153
000190 5e a6 b8 3e d5 72 06 bf a4 59 5b bd f3 98 02 3e
       0.36064428 -0.5251897 -0.053552285 0.12753658
0001a0 a6 be 4b 3f 60 5e c0 3f d0 89 6b 3d b1 06 a9 3d
       0.7958778 1.5028801 0.057504475 0.082532294
0001b0 38 f1 41 3e 1b 7e 48 3d 66 82 d4 be 10 f8 19 3f
       0.18939674 0.04894839 -0.41505736 0.6014414
0001c0 a4 e8 b2 be a7 a7 49 be ff e3 e0 bd ed 87 cf bd
       -0.34943116 -0.1969286 -0.10980987 -0.10133348
0001d0 1e dc 06 bf d5 ac 4c bf 9e 01 0a bd af b0 3d bd
       -0.5267962 -0.7995122 -0.03369295 -0.046311077
0001e0 7f ae cb bd 98 c0 dc 3d e6 77 0d bf 0d aa 0e 3e
       -0.09945392 0.10778922 -0.55261075 0.13932057
0001f0 3a ee f2 3b 7d 1d 88 3d 00 16 62 be 80 a5 96 be
       0.0074136527 0.066462494 -0.22078705 -0.2942314
000200 4d 15 b0 be c6 25 bb 3e f3 64 b2 bd 64 6a 0f 3f
       -0.3439125 0.36552256 -0.08710661 0.56021714
000210 15 00 d1 bd b4 c2 32 3e 99 84 cc be 95 7f 67 3e
       -0.10205094 0.17457086 -0.39944914 0.22607262
000220 b3 ab 75 be 1e c2 be bd 0a 53 31 3b 3a 94 b7 3c
       -0.2399128 -0.09314369 0.0027057552 0.022409547
000230 cb ff 08 bf 89 9f bc 3f 63 22 96 bd 20 f4 9f 3d
       -0.5351531 1.4736186 -0.073307775 0.07810235
000240 cc 01 d3 bd a3 54 23 3e c4 94 bc 3e ef df ac bf
       -0.10303077 0.15950255 0.3683225 -1.3505839
000250 f7 8f 5c 3c 92 a1 22 bd 08 16 23 be c9 c8 e0 bd
       0.013462058 -0.039704867 -0.15926373 -0.10975797
000260 97 f4 49 be 4c 5c 94 be 42 43 9d 3e 0a 0a 2e bf
       -0.1972221 -0.28976667 0.30715376 -0.6798407
000270 8d 84 73 3e be da 15 3d 68 40 0b bf 9a 18 e5 3e
       0.23781033 0.036585562 -0.5439515 0.44745332
000280 10 b3 e9 3e aa 64 bd be 99 ad 03 3e c4 f3 8f be
       0.45644426 -0.36990863 0.12859191 -0.28115666
000290 89 dd 85 bd da e2 cc be 62 20 c8 3e e6 05 5b 3e
       -0.06536395 -0.40016824 0.39087206 0.21388969
0002a0 76 6e 4d be 7b 9a 11 be 39 01 d8 3e 15 b8 7c be
       -0.20061669 -0.14219086 0.42188433 -0.24679597
0002b0 50 e7 f0 be e2 f3 b4 3e 72 8b 4d be 8e a7 10 3e
       -0.47051477 0.35342318 -0.20072725 0.14126417
0002c0 97 5b 37 bf 16 50 8c 3d 9f c4 17 3e f4 0c 45 3b
       -0.7162413 0.06851213 0.14821099 0.0030067535
0002d0 eb 79 01 3c a8 3b af bc e4 35 17 3f bb 65 ca bf
       0.007902603 -0.021390751 0.59066606 -1.5812296
0002e0 77 a8 8d 3d dd 8c b6 bd 11 7e 88 be fa 61 2e be
       0.06916898 -0.08913586 -0.2665868 -0.17029563
0002f0 66 0e 64 3e 15 bc c5 3e c9 82 1f 3f 79 ba 90 be
       0.22271118 0.38620058 0.6230894 -0.28267267
000300 48 29 40 3e 01 cd 69 be 3e 52 b2 bc ac 13 9d 3e
       0.18765748 -0.22832109 -0.021767732 0.3067907
000310 5f ab 4d be e3 2c 3f 3e f2 c1 30 3e a8 8b ce bd
       -0.20084904 0.18669467 0.17261484 -0.10085231
000320 f2 f1 69 bf e7 a8 b1 3e c6 29 d5 be 77 e4 43 be
       -0.91384804 0.34699175 -0.41633433 -0.19130121
000330 d2 97 73 bd 37 52 74 bc f7 73 e7 be 4a 19 16 3f
       -0.05947096 -0.01491218 -0.45205662 0.5863234
000340 31 51 8a bc 1e 71 14 3d 83 b0 d9 ba 84 4d 66 bc
       -0.016884418 0.03624069 -0.0016608391 -0.014056567
000350 ca a1 f6 be de ef bc bf 66 3c f2 bc 21 f6 95 bd
       -0.4817031 -1.4760702 -0.029569816 -0.07322336
000360 37 bf 2d be 1c 93 81 3d 29 ac 41 3f ce 27 b6 be
       -0.16967474 0.06326887 0.7565332 -0.35577244
000370 a5 d4 ac 3e 1a 24 26 3e 22 e8 3c 3e ca 38 8a be
       0.33755985 0.16224709 0.18447927 -0.26996452
000380 e4 92 48 3e 99 df 17 be 28 d9 f0 3d bc 16 87 be
       0.19587284 -0.1483139 0.11760169 -0.26384532
000390 29 31 1a 3e d2 17 0d be 92 e7 16 3f 28 cd de bd
       0.15057816 -0.13778618 0.589471 -0.10878974
0003a0 ff 94 21 3f 04 20 67 be a8 65 99 3e 39 57 41 3e
       0.63117975 -0.22570807 0.2996037 0.18880929
0003b0 5f 19 13 3f 17 70 9a 3e 2c 8c 1c 3f 80 cc 01 3f
       0.5746059 0.30163643 0.61151385 0.5070267
0003c0 35 38 9e bd cf cf ce 3d da 07 d8 be 54 62 0c 3e
       -0.077255644 0.1009823 -0.4219349 0.13709384
0003d0 4f 11 7d 3c d8 07 66 3d 72 b7 43 be b8 b9 a5 3d
       0.015446021 0.056159824 -0.19112948 0.08092064
0003e0 8d 21 0b 3f 8e 52 21 3e f1 8c 12 be d2 5c 18 bf
       0.5434807 0.15754148 -0.14311577 -0.5951663
0003f0 66 65 59 3d bc 0c 46 be 67 10 88 bc 48 2b 82 be
       0.053075217 -0.19340795 -0.016609384 -0.25423646

fc.0.bias f4 [100]
000000 7a 7a 29 bd 27 18 a8 bf 57 3c b4 be 23 61 da 3d
       -0.04137657 -1.3132371 -0.35202286 0.106630586
000010 a0 2e 2b bd 9e cb 0f 3f 1b 85 96 3f d7 57 94 3e
       -0.041792512 0.5617007 1.175937 0.28973266
000020 0b 31 af 3f c1 da da 3e 54 27 fa 3d 80 70 a9 bf
       1.3686842 0.4274502 0.122145325 -1.3237457
000030 5b 95 9a 3c 93 9d 9b be 05 40 3c be 9d 56 a6 be
       0.018870046 -0.30393657 -0.18383797 -0.32487956
000040 d7 fc 36 3d 91 b2 46 3f 3a f3 db be cb 68 9f be
       0.04467472 0.7761622 -0.42959005 -0.31134638
000050 46 8a 66 bf d9 91 42 3d 75 67 1c 3e 78 56 80 3f
       -0.9005474 0.047502372 0.1527384 1.0026388
000060 bf e9 21 bf 33 d8 be 3c 9c 28 4c be 5d 20 70 3e
       -0.63247293 0.023296451 -0.19937366 0.23449846
000070 66 04 e5 bd 7a bb e9 3d 9e 56 1e 3f 4d a5 2f be
       -0.111824796 0.114127114 0.6185092 -0.17152901
000080 f5 1c ce 3c 26 90 ca be 69 b0 b8 be 85 1e 39 c0
       0.025160292 -0.39563102 -0.3607209 -2.8924878
000090 39 2c bd 3e 86 d3 06 3e a6 19 b9 3d 47 e4 18 be
       0.36947802 0.13166627 0.09038095 -0.14930831
0000a0 41 eb 8a 3f f5 75 bb 3e 85 7c 03 bf 60 94 aa be
       1.0853044 0.36613432 -0.51361877 -0.33316326
0000b0 b5 3f b8 be f6 26 5c bd 35 a4 0a bf 73 a2 94 3e
       -0.35986105 -0.053748094 -0.5415681 0.2903019
0000c0 3f 11 2c 3f 23 11 67 3d df 5f 91 3e 1f 14 c6 bd
       0.67213815 0.056412827 0.28393456 -0.096718065
0000d0 53 83 87 3e 69 16 6e be 2d a6 26 bf bf 1a 2d bd
       0.2646738 -0.23250736 -0.65097314 -0.042261835
0000e0 2c c7 92 3d 14 db ae be 59 ed 1f be d2 79 62 bd
       0.07166895 -0.34151518 -0.15617885 -0.05529196
0000f0 ef ad e3 3e 26 6c 3e 3d dc 31 06 3e 08 60 1d c0
       0.44468638 0.046489857 0.13104957 -2.4589863
000100 ed d6 b8 bd 66 a4 79 3e b2 bc b8 3e 67 28 09 3f
       -0.09025369 0.2437912 0.36081463 0.53577274
000110 2e 27 07 40 17 3d 23 3e 63 06 7f 3e 5f 78 f0 3e
       2.1117663 0.15941273 0.2490478 0.46966836
000120 bd db 27 be 7f 77 c8 be 59 b1 1d bf b9 d4 b6 3f
       -0.16392417 -0.39153668 -0.61598736 1.4283668
000130 ad 44 95 bf 61 0d 8d 3e 7a ee 2a 40 de c5 43 be
       -1.1661583 0.2754927 2.6708055 -0.19118449
000140 46 71 95 be ac ea cb 3d 96 ea 09 3e d0 9d 0a c0
       -0.29187983 0.099568695 0.13468394 -2.165882
000150 df ae 1a be 2a 11 18 be 89 ab d4 be f3 84 5e 3e
       -0.1510577 -0.14850298 -0.4153712 0.21730404
000160 50 3d 09 3e ba f8 ab bd ad 66 d2 bd 5e 1c dc bd
       0.13402295 -0.0839705 -0.1027349 -0.10747598
000170 67 22 46 3d 3e 99 d6 bc 88 58 c3 bd d6 53 77 c0
       0.048372652 -0.026196118 -0.0953837 -3.864492
000180 aa 4b ef 3d 7d 69 95 3d 39 79 4a 3e 20 cd 0d 3e
       0.11684354 0.07295511 0.19772805 0.1384778

fc.1.weight f4 [4, 100]
000000 be c3 ab bd c8 98 cf bd 18 2e 32 3e 7e f1 59 3d
       -0.08386944 -0.101365626 0.17400396 0.05320882
000010 1f b1 d5 bd 00 0f 02 bc 9e 28 15 be 56 f0 a9 bd
       -0.10434174 -0.007938147 -0.14566275 -0.082977936
000020 be fb d9 be 1c d5 13 3d 83 b3 cd 3d d9 7c 44 bf
       -0.42574877 0.03609191 0.10044005 -0.76753
000030 84 97 2e 3c cf 6d 02 3e 61 bb 27 3c a5 fa c7 3d
       0.010656241 0.12737201 0.010237546 0.097646035
000040 8e 18 b8 3c 0a f1 8b 3e d2 51 14 3d 7c 4b fc 3d
       0.022472646 0.27332336 0.036210842 0.12319085
000050 23 18 ba 3b b5 cc ab 3b 08 04 9a bc d8 48 44 bf
       0.005679147 0.005242909 -0.01880075 -0.7667365
000060 f7 2e e8 bd bd fd dd 3c 31 3c 65 3d b6 d6 bb 3c
       -0.11337083 0.02709853 0.055965606 0.02292953
000070 f6 20 7a be 50 98 9b 3d c0 00 38 be 90 38 cd bb
       -0.24426636 0.07597411 -0.17969036 -0.0062628463
000080 2e 10 a9 3b 55 63 ee 3d db 20 a7 3e bd f6 9d 3f
       0.0051593995 0.1164004 0.32642254 1.2340924
000090 ce e1 2a be 50 18 c9 bd 71 6d 92 bd dc ca cd bd
       -0.166877 -0.0981909 -0.071497805 -0.10048458
0000a0 6c c1 b9 bd e8 61 cb bd 4c c2 ab 3d 0b 99 d6 3d
       -0.090700954 -0.099307835 0.083866686 0.104784094
0000b0 65 ad 4e 3c 18 c8 38 ba f2 37 65 be 15 19 f2 bc
       0.012614583 -0.0007048859 -0.22384623 -0.029552976
0000c0 25 11 82 bd 74 0f 45 3d e6 22 70 3d 19 c0 a7 3d
       -0.06350926 0.04811044 0.05862703 0.081909366
0000d0 bb 0f b1 bd a0 6c 9f 3a 4b fa 2c bc b2 6e 0e bc
       -0.086455785 0.001216311 -0.010557721 -0.008693384
0000e0 45 aa 0a 3e 03 2c f8 3c 7e fc 72 3d 9a 3a 8d bd
       0.13541515 0.030294424 0.059322827 -0.06895943
0000f0 9f 64 c9 3d 58 14 e3 bd 6a 3d 4d bc 34 1d e7 bf
       0.09833645 -0.11087865 -0.012526849 -1.8055787
000100 de 4a 6a bd c0 8e a6 3c 48 16 9f bd ac b3 ff bc
       -0.057200305 0.02033174 -0.07767922 -0.031213604
000110 b9 e2 67 bf 95 71 86 3c bb bc a7 bc fa f1 88 bd
       -0.90580326 0.016411582 -0.020475736 -0.06686778
000120 ed 44 4b bd 5c 5d 68 bd a2 12 a4 3d a1 a7 1a 3f
       -0.04962628 -0.05672966 0.080113664 0.6041203
000130 1a 32 6a 3f 93 49 30 be 5a ea 88 3f 1d d5 88 3d
       0.914827 -0.17215566 1.0696518 0.06681273
000140 e3 7e b6 3d fd 6b 02 be c5 ce 61 3e 9f 67 19 be
       0.089109205 -0.12736507 0.22051533 -0.14980935
000150 25 75 44 bd 03 9a 03 3d 34 47 94 bd 0a d6 0e be
       -0.04796328 0.0321293 -0.072401434 -0.13948837
000160 51 49 d5 3d 2b 52 e7 bd f0 9d 88 3c 8e 56 0f be
       0.104143746 -0.11294969 0.016676873 -0.13997862
000170 97 a4 5c 3c 62 fb 88 3c 1a 63 97 3d e0 95 2b bf
       0.013466976 0.016721431 0.07391949 -0.67025566
000180 90 f3 8d 3d 46 f0 b4 3d 37 3a cc 3c 6f 72 a8 bb
       0.069312215 0.08834891 0.024930103 -0.0051405947
000190 fd 41 08 be 6e c0 db bb ef 4b 82 bd 5c b2 ec bc
       -0.13306423 -0.006706289 -0.063621394 -0.028893642
0001a0 dd 9d c9 3d dd 37 cb bd ce fd 01 be a9 58 98 3c
       0.09844563 -0.099227645 -0.12694475 0.018596964
0001b0 40 05 12 bf 77 8e 98 bd 78 c3 a8 bd 6e a5 a7 3e
       -0.5703926 -0.07449048 -0.08240408 0.327434
0001c0 fd af 6d 3d 7d ef a2 bc aa 62 a7 bd 5d b2 b0 bd
       0.058029164 -0.019889588 -0.081731156 -0.0862777
0001d0 7a 90 c7 3d 89 d5 cd 3e 7b 15 b0 3e c5 29 14 3e
       0.097443536 0.40201977 0.34391388 0.14469059
0001e0 fa eb 85 3e 8f d5 68 3d b3 a0 bb 3d 13 6b 55 bf
       0.26156598 0.05684429 0.0916151 -0.8336651
0001f0 b6 81 15 be 53 44 49 bc 64 70 11 3e 80 00 0e 3d
       -0.14600262 -0.012284356 0.1420303 0.034668446
000200 ff 66 8e bd af 37 2e 3d db 52 ba be 24 42 a5 bd
       -0.06953239 0.042533573 -0.3639134 -0.08069256
000210 56 77 e6 bd a0 5f 0b 3e af f7 b0 bd 2d 4c 25 bf
       -0.1125323 0.13610697 -0.08640992 -0.6456936
000220 7c e8 84 be bc 1a 77 3c 1c 21 03 be 00 41 1b be
       -0.25958622 0.015082058 -0.12805599 -0.15161514
000230 71 a1 a8 3e 91 27 e2 bd 04 c3 be bd 4b 9e 01 3d
       0.3293567 -0.11042703 -0.0931454 0.0316451
000240 c4 cd c0 3e 43 ed 0c be d0 0f 82 bd 75 d6 e4 be
       0.37656987 -0.13762383 -0.06350672 -0.44694868
000250 d7 65 34 be 60 48 d7 3d 3b ea d3 bc 4f 99 41 3e
       -0.17616974 0.10511851 -0.025868526 0.18906139
000260 f8 10 bb bd 3d 09 b8 3d 63 01 38 3e 06 17 fb bc
       -0.09134096 0.08986137 0.17969279 -0.030650627
000270 4a 0e 42 3b 00 15 25 bd 4d 0d 40 bb 4a 3b ec 3c
       0.0029610568 -0.04030323 -0.0029304803 0.028836865
000280 d8 97 75 be 15 a5 09 bd e1 51 d7 3d cc 42 74 3f
       -0.23983705 -0.0336047 0.10513664 0.95414424
000290 31 ef 8f 3d cb 17 b0 3d 1e b2 11 bd 4c 14 3b be
       0.07028044 0.08598288 -0.035570256 -0.18269461
0002a0 e0 32 08 bf 5b 64 13 3e 77 f5 a0 bd 44 dc 23 bc
       -0.5320263 0.14393751 -0.07859319 -0.010001246
0002b0 14 0c 14 3e 5e 40 0f 3f ae c8 3a 3e 64 5e 2a 3f
       0.14457732 0.5595759 0.18240616 0.6655028
0002c0 7a 5b 12 bf a6 5e 85 bc 82 c7 6e 3f 12 f7 26 bd
       -0.5717083 -0.016280483 0.93273175 -0.04076297
0002d0 9a ee 85 3d bc 29 ec bd 7f 6b bd 3d 12 11 8e bf
       0.0653965 -0.11531398 0.09249019 -1.109896
0002e0 4f 08 0e 3e f5 b6 79 3d 43 e5 49 3c a8 91 6b bd
       0.13870357 0.060965497 0.012322727 -0.057511955
0002f0 f7 5c 91 3d a9 60 97 3d db 99 60 bd f4 a0 c5 bd
       0.0709781 0.07391483 -0.054834228 -0.0964984
000300 2c c3 1f bc bb 89 90 bd c2 e0 ab bd bb f3 a7 bf
       -0.009751122 -0.0705752 -0.083924785 -1.3121256
000310 1e 6f 38 bd dd 15 41 3d 1e 63 23 be 78 84 61 bd
       -0.045027845 0.04713999 -0.15955779 -0.055057973
000320 07 16 de 3d 10 fc 2c 37 61 e7 33 bb fd df 69 3e
       0.10844045 1.0310687e-05 -0.0027451145 0.22839351
000330 51 a6 c4 3d 9e 17 81 39 21 62 96 ba 87 59 7c 3b
       0.09602035 0.00024622394 -0.0011473336 0.003850551
000340 19 21 cd 3d e9 6d 28 bd 05 cd f5 bb af 87 9d bb
       0.100160785 -0.041120443 -0.007501247 -0.0048074345
000350 22 7f 75 3d 8d 4f 0a bb 63 22 91 bc 60 e1 8a 3d
       0.059935696 -0.0021104545 -0.017716592 0.06781268
000360 2d 56 e1 3c 16 ea b0 bb ed 80 7d bd ff 23 ce 3b
       0.027506912 -0.005398999 -0.06189053 0.006290912
000370 bc 7b 10 bb 7e d2 ac bb 86 df 36 bb 3e 8a f0 3b
       -0.0022046408 -0.005274116 -0.0027904226 0.0073406985
000380 4c 6a ed bb 1a 4f 37 3e 73 f3 14 3d e6 ed a8 3d
       -0.0072453376 0.17901269 0.036364984 0.082485005
000390 22 e2 12 be c0 50 e2 3b be e5 97 bb 29 dd 4c 3e
       -0.14344075 0.006906599 -0.0046355417 0.20006241
0003a0 f6 ed 9d bd 12 98 8c bd ec 4a 0e ba 0e 65 82 bb
       -0.07711403 -0.068649426 -0.00054280343 -0.003979332
0003b0 75 0d b7 3d 38 73 fd ba 52 8a 2d 3e 90 ee 22 3e
       0.089381136 -0.0019336706 0.16947296 0.15911317
0003c0 2f 9d 61 bc 44 96 0d bd ef a8 12 3b 96 34 f8 3d
       -0.013770386 -0.034567133 0.0022378524 0.12119405
0003d0 cc ba 21 3d db b3 b0 bc 56 71 2c 3b a0 2a 35 bd
       0.039484784 -0.021570137 0.002631267 -0.044230103
0003e0 b3 d3 19 3b 04 ad c2 b9 51 cb 5c 3e c2 e9 3c be
       0.002347213 -0.0003713147 0.21561934 -0.18448547
0003f0 7f 60 4a 3c a0 b6 cb 3b 0c 26 c7 b9 3f a6 8c 3b
       0.012352108 0.006216839 -0.00037984585 0.004292279

fc.1.bias f4 [4]
000000 47 9f 73 bd a1 e2 b5 be 3a a6 2a be 67 63 8b bd
       -0.05947807 -0.35524467 -0.16664973 -0.06806069
