model/unicycle-ensemble-FC3-100-2/epoch_600.pth (torch, 47077 bytes, 6 tensors)

fc.0.weight f4 [100, 6]
0	0xbdc26fc5	-0.094939746
1	0xbe9ae6b6	-0.30254143
2	0x3f3e1485	0.7425006
3	0x3d9bd589	0.07609088
4	0xbe014dce	-0.12627336
5	0x3e907dfa	0.28221112
6	0xbe5186c7	-0.2046157
7	0xbe7b5f14	-0.24547988
8	0xbeebd752	-0.46062714
9	0x3c946592	0.018114839
10	0xbc169cd4	-0.009192664
11	0x3e19c4fa	0.15016547
12	0xbe395910	-0.18100381
13	0x3dd5a1e5	0.104312696
14	0xbd6af375	-0.057361085
15	0x3db0d5f4	0.08634558
16	0x3e90c1da	0.28272897
17	0x3e9cf060	0.30652142
18	0xbea9e183	-0.33179864
19	0x3e4483b9	0.19190873
20	0x3f1bf9ee	0.6092824
21	0x3f11340f	0.5672006
22	0xbd2146ff	-0.039374348
23	0xbc09c907	-0.008409745
24	0x3dbf9f60	0.0935657
25	0x3e48256c	0.19545525
26	0xbe774c23	-0.24150138
27	0xbf073555	-0.52815753
28	0xbe2ad5c1	-0.16683103
29	0xbe913efa	-0.2836836
30	0xbe80e44b	-0.25174174
31	0xbdc4de44	-0.09612706
32	0x3ed557a9	0.41668442
33	0x3f11ba9a	0.56925356
34	0x3e00f6b0	0.12594104
35	0xbe4e6b11	-0.2015803
36	0x3dddad75	0.108241
37	0xbe84df6d	-0.2595171
38	0xbde06a4c	-0.109577745
39	0xbf849746	-1.0358665
40	0x3e34911f	0.17633484
41	0xbdc66e68	-0.09689027
42	0xbdb35c17	-0.08757799
43	0x3d3b27ed	0.045692373
44	0x3ec8a2b0	0.3918662
45	0xbef9ab03	-0.48763284
46	0x3c109ed8	0.008826934
47	0xbd1ed4c5	-0.03877713
48	0x3e6f1e82	0.23351482
49	0x3c6844d0	0.014176562
50	0x3f5dac56	0.8659109
51	0x3d2eca35	0.04267331
52	0x3e0ec050	0.13940549
53	0xbde008a0	-0.10939145
54	0xbe1cbf12	-0.15307263
55	0xbe6425c1	-0.22280027
56	0xbe5fc76f	-0.21853422
57	0x3c9e7db9	0.019347059
58	0x3e3ace46	0.1824275
59	0x3ec56ce3	0.38559636
60	0xbe915410	-0.28384447
61	0xbe32dc86	-0.17466936
62	0xbf1604d0	-0.58601093
63	0x3f4f3f58	0.8095603
64	0xbebe16e8	-0.3712685
65	0xbed07868	-0.40716863
66	0x3e37b105	0.17938621
67	0x3da39355	0.07987086
68	0xbed0c4ef	-0.40775248
69	0xbf81034b	-1.007913
70	0xbe228945	-0.15872677
71	0xbea90d7c	-0.330181
72	0x3e3f51d8	0.18683565
73	0x3e0b0322	0.13575414
74	0xbe8e24b7	-0.27762386
75	0x3e8b0b41	0.27157024
76	0x3e388f4e	0.18023416
77	0x3e09969b	0.13436358
78	0xbe521fa8	-0.20519888
79	0x3e78ed1e	0.24309203
80	0xbe0fe144	-0.14050776
81	0xbf1f1fb8	-0.62157774
82	0xbe94ea73	-0.2908512
83	0xbcc84b84	-0.024450071
84	0xbe6bf86d	-0.23043986
85	0x3d1c7dc3	0.038205873
86	0xbf1713d9	-0.5901466
87	0x3de6eff2	0.11276235
88	0x3e82f879	0.25580195
89	0x3d6d135a	0.057879783
90	0x3e357083	0.17718701
91	0x3e82d2e2	0.25551516
92	0xbf0090a7	-0.5022072
93	0x3efe55d1	0.49674848
94	0x3e5e0f8b	0.21685617
95	0x3ebb602e	0.36596817
96	0xbe094bbe	-0.134078
97	0x3e3382d4	0.17530376
98	0xbf0aa45e	-0.54157054
99	0x3e42cbee	0.19023106
100	0x3e864e59	0.2623165
101	0xbe8f1eb5	-0.27953115
102	0xbaee5775	-0.0018184023
103	0xbb701dc5	-0.0036638838
104	0xbe7d0bc2	-0.24711516
105	0xbf2c2059	-0.6723686
106	0xbca7d26a	-0.020486075
107	0xbd2184e8	-0.03943339
108	0x3e3a34f9	0.1818427
109	0x3d620d6f	0.055188593
110	0xbed2a817	-0.41143867
111	0x3f38c064	0.72168565
112	0xbe1b4b4e	-0.15165445
113	0xbd330771	-0.04370827
114	0xbebc426b	-0.36769423
115	0xbe2f4f4e	-0.17120096
116	0xbe0497e0	-0.1294856
117	0x3f0461d1	0.51711756
118	0xbd343ce0	-0.044003367
119	0xbd63f3e6	-0.05565252
120	0x3d3331e3	0.043748748
121	0xbc0304b3	-0.007996726
122	0xbee7642e	-0.4519362
123	0x3f5c2b64	0.8600371
124	0xbd1748ae	-0.036934547
125	0x3d0452df	0.032305595
126	0x3e271734	0.16317445
127	0xbdbc1bb6	-0.09184973
128	0x3d82853f	0.06373071
129	0xbd898e1e	-0.0671656
130	0xbe7e6ec5	-0.24846943
131	0xbe8dc80b	-0.27691683
132	0x3e3d3869	0.1847855
133	0xbe9b351f	-0.30313966
134	0x3c706bb5	0.014674117
135	0xbcd8ef43	-0.026481276
136	0x3eba7c9f	0.36423203
137	0x3cdf06e3	0.027224964
138	0x3eb1cb04	0.347252
139	0x3e299fa6	0.16564807
140	0xbef09437	-0.4698808
141	0xbf4bde6a	-0.7963625
142	0xbe1ea545	-0.15492733
143	0x3e8d2d63	0.2757369
144	0xbe8721af	-0.26392886
145	0xbe664845	-0.22488506
146	0x3e35a7fb	0.1773986
147	0xbe7d44fd	-0.24733348
148	0x3ec9c5ff	0.39408872
149	0xbf096fd0	-0.5368624
150	0xbe063abf	-0.13108347
151	0xbe9476e6	-0.28996962
152	0xbca2c6fc	-0.019870274
153	0x3eb40ce1	0.35166076
154	0xbeb10f57	-0.34582016
155	0xbf0e6c50	-0.5563402
156	0x3e8e26e4	0.27764046
157	0x3d937f55	0.07202021
158	0xbdffc2a4	-0.12488297
159	0xbf5ced34	-0.86299443
160	0x3eabceae	0.33556122
161	0x3c7e6a72	0.015528308
162	0xbecfbb97	-0.40572807
163	0xbda2ff10	-0.079588056
164	0xbe849323	-0.25893506
165	0xbed3d2e4	-0.41371834
166	0x3d053d4f	0.03252917
167	0x3e55e078	0.2088641
168	0x3e54dfbe	0.20788476
169	0xbe8eae47	-0.27867338
170	0xbeeb38d0	-0.45941782
171	0xbf172a03	-0.5904848
172	0xbefacc72	-0.48984104
173	0xbe38e7d1	-0.18057181
174	0xbeb986e8	-0.36235738
175	0xbe8a47e4	-0.27007973
176	0xbc61737b	-0.013760443
177	0xbf04abc9	-0.51824623
178	0x3f0a58f8	0.54042006
179	0xbdb6aee5	-0.08920077
180	0x3de29622	0.11063792
181	0xbdf7706d	-0.120819904
182	0x3e97b43d	0.29629698
183	0x3f389a6d	0.72110635
184	0x3e96aaca	0.29427177
185	0xbe50c4a7	-0.20387517
186	0x3dba0b2f	0.09084164
187	0xbe78908c	-0.2427389
188	0x3e66b247	0.22528945
189	0xbefc97e5	-0.49334636
190	0xbe1cd355	-0.15314992
191	0xbe4b0da4	-0.19829422
192	0x3e9414fa	0.28922254
193	0x3c67fb5c	0.01415905
194	0x3e02ae93	0.12761907
195	0xbef57ac0	-0.47945213
196	0x3e01d9d1	0.12680747
197	0x3e188f6b	0.1489846
198	0x3d697935	0.057000358
199	0x3d5eca2a	0.054392017
200	0x3eb4eed0	0.3533845
201	0xbdd460b7	-0.103700094
202	0x3dcfd682	0.10148336
203	0x3d001798	0.0312725
204	0xbe239be3	-0.15977435
205	0x3d638587	0.055547263
206	0xbe8bfa3d	-0.27339354
207	0x3fb963f2	1.4483626
208	0xbb4462fe	-0.002996623
209	0x3cfe831d	0.031068379
210	0x3dce15c2	0.10062744
211	0x3d0ca263	0.03433455
212	0xbf4c1363	-0.7971708
213	0x3f9d9445	1.2310873
214	0xbd407609	-0.046987567
215	0xba874194	-0.0010319226
216	0x3e54cdb1	0.2078159
217	0xbe5bee14	-0.21477538
218	0x3d0164ea	0.03159038
219	0xbedc076c	-0.42974412
220	0x3eac707f	0.33679578
221	0xbe08dd2e	-0.13365623
222	0xbde2495c	-0.110491484
223	0x3e8c8f05	0.27452865
224	0x3f34e50a	0.70661986
225	0xbe31f015	-0.1737674
226	0x3dae0a52	0.08498062
227	0xbe369596	-0.178305
228	0xbe3b9614	-0.18318969
229	0xbe3e9b79	-0.18613996
230	0xbd3c4af6	-0.045969926
231	0xbee4eea4	-0.44713318
232	0xbe8effdb	-0.27929577
233	0xbe52b104	-0.20575339
234	0x3e9955c1	0.29948238
235	0x3d805aad	0.06267295
236	0xbee22e23	-0.44175825
237	0x3f3baaf1	0.7330771
238	0x3ed7ae28	0.42125058
239	0x3e595c81	0.21226694
240	0x3de3742a	0.11106141
241	0x3e7e019a	0.24805298
242	0x3bb4fae2	0.0055230716
243	0xbe99696e	-0.2996325
244	0x3e982b1c	0.2972039
245	0x3ef43f01	0.47704318
246	0x3de60b49	0.11232621
247	0xbca5a1a1	-0.020218672
248	0xbf1b4a7a	-0.6066052
249	0x3ef07e39	0.469713
250	0x3e31b116	0.17352709
251	0xbda9563a	-0.082683995
252	0x3d92a3c3	0.07160141
253	0xbe769f82	-0.24084285
254	0xbda4ff50	-0.080565095
255	0xbe9dc2cc	-0.3081268

fc.0.bias f4 [100]
0	0x3a6a6394	0.000894123
1	0xbf9abd22	-1.2088969
2	0xbd3be99a	-0.045877077
3	0xbee80c93	-0.45322093
4	0xbe6a4e75	-0.22881491
5	0x3cdb90c8	0.026802436
6	0xbeff1145	-0.49817863
7	0x3f81414f	1.0098056
8	0x3f445f0e	0.7670754
9	0xbe277541	-0.16353323
10	0x3e48eadf	0.19620846
11	0xbe9972f6	-0.2997052
12	0x3f09dd16	0.53852975
13	0xbf18034e	-0.5938004
14	0x3ecb1bb3	0.3966957
15	0xbe8976a7	-0.26848337
16	0x3e94a6ae	0.29033417
17	0xbf9699f6	-1.1765735
18	0x3f330ae7	0.6993851
19	0x3d9d836a	0.07691081
20	0xbf1e8450	-0.6192064
21	0x3d80826b	0.06274875
22	0x3eca3a58	0.39497638
23	0xbdf91a49	-0.121632166
24	0x3e60b3ab	0.21943538
25	0x3cc4ab4a	0.024007458
26	0x3e2d6281	0.16932108
27	0xba222d6d	-0.00061865785
28	0xbf45a772	-0.77208626
29	0xbe496575	-0.19667609
30	0xbe088a9c	-0.13334125
31	0xbeb6bc2e	-0.35690445
32	0xbdb5f54d	-0.08884678
33	0x3f759a58	0.95938635
34	0xbe7c5ff9	-0.24645986
35	0xbc8602f2	-0.016358826
36	0xbea089da	-0.31355172
37	0x3e995120	0.29944706
38	0xbfafe07f	-1.3740386
39	0x3f2c2569	0.67244583
40	0xbceaf383	-0.028680569
41	0x3f5d7393	0.8650448
42	0x3f154339	0.583057
43	0x3f61f07d	0.8825758
44	0xbe8a9a16	-0.27070683
45	0x3f208561	0.6270352
46	0xbf1d3d8f	-0.61422056
47	0x3fb2cab7	1.3968114
48	0x3e99bcfe	0.30027002
49	0xbf177e27	-0.5917687
50	0x3dec0914	0.11525169
51	0xbf249153	-0.6428425
52	0xbdf714dc	-0.120645255
53	0xbce3db3e	-0.027814504
54	0xbfedc54d	-1.8575836
55	0x3f63226f	0.88724416
56	0xbeccc537	-0.39994213
57	0x3f5a8c0f	0.8536996
58	0xbf9705e1	-1.1798669
59	0x3e4ebd57	0.20189415
60	0x3f91883d	1.1369702
61	0x3f1456df	0.57945055
62	0x3ea77ee9	0.32714012
63	0xbe187654	-0.14888889
64	0xbdd04c2d	-0.101707794
65	0xbf8a77be	-1.0817792
66	0x3f1c1b61	0.60979277
67	0x3f99447d	1.1974026
68	0x3d4b8587	0.04968789
69	0xbeca54c7	-0.39517805
70	0x3ea8bba9	0.32955673
71	0xbf494d67	-0.7863373
72	0xbed89276	-0.4229924
73	0x3f84e7a1	1.0383188
74	0x3f9af3f1	1.2105695
75	0xbf6f1415	-0.9339002
76	0x3fb5fec5	1.4218374
77	0xbef5966e	-0.4796633
78	0xbf8a35b0	-1.0797634
79	0xbf597b8f	-0.8495416
80	0x3d4ef1d4	0.050523594
81	0xbd5dc24a	-0.054140367
82	0x3cbdc265	0.023163984
83	0xbede6204	-0.43434155
84	0x3f708338	0.93950224
85	0xbf32e32e	-0.698779
86	0xbf11adbf	-0.5690574
87	0x3e28a891	0.16470553
88	0xbf01c33b	-0.50688523
89	0xbe43e767	-0.19131242
90	0x3e46f3e1	0.1942897
91	0x3efc5bc2	0.49288756
92	0x3fddc96b	1.7327093
93	0xbf94db71	-1.1629468
94	0xbba5b750	-0.005057253
95	0x3e9e239c	0.30886543
96	0xbf7858ac	-0.970103
97	0xbdb9b96e	-0.09068571
98	0xbbe93eee	-0.0071180975
99	0x3edc0415	0.42971864

fc.1.weight f4 [100, 100]
0	0x3dabc9d8	0.08388108
1	0x3c3559fd	0.011068818
2	0xbd84c117	-0.064821415
3	0x3d3318c6	0.043724798
4	0xbc9a75ef	-0.018855063
5	0x3d6735f8	0.056447953
6	0x3de48300	0.11157799
7	0xbd5a02a6	-0.053225182
8	0xbdd0239d	-0.10163043
9	0x3c8ed6d4	0.017436422
10	0xbd009b38	-0.031398028
11	0x3d70b006	0.05876162
12	0x3da63490	0.08115494
13	0xbc89506e	-0.016761985
14	0x3d176a08	0.036966354
15	0x3d16bc37	0.03680059
16	0x3e3393b7	0.17536817
17	0xbe26b443	-0.16279702
18	0xbdec6e79	-0.115445085
19	0xbd83241a	-0.0640337
20	0xbebd01c0	-0.36915398
21	0xbb0aad62	-0.0021160473
22	0xbce3107f	-0.027717827
23	0x3dcb8de3	0.09939172
24	0x3dd3b208	0.10336691
25	0x3daa341f	0.083107226
26	0x3e1db37c	0.15400499
27	0x3bd1c296	0.0064013703
28	0xbc10f2d7	-0.00884696
29	0x3dce6adb	0.10078975
30	0xbd82f5d4	-0.06394544
31	0xbcd4502e	-0.025917139
32	0x3d6f2cdd	0.058392394
33	0xbc6e5ff6	-0.014549246
34	0x3e8bca22	0.27302653
35	0xbe980c54	-0.29696906
36	0xbd8fee60	-0.07027888
37	0x3dd3fb20	0.10350633
38	0x3d5bd1be	0.053666823
39	0xbd422648	-0.04739979
40	0xbce71b9a	-0.028211404
41	0x3d23f969	0.040032778
42	0x3de87850	0.11351073
43	0xbbafb969	-0.005362679
44	0x3dbf892f	0.093523376
45	0xbd54c6af	-0.051947292
46	0xbe220427	-0.15821896
47	0x3e1ee23f	0.15515994
48	0xbd5640c6	-0.052307867
49	0xbdd44574	-0.1036481
50	0x3ba43c51	0.005012073
51	0x3c925aef	0.017865626
52	0x3d29dd32	0.041470714
53	0xbbbe3820	-0.0058050305
54	0xbbddc6dd	-0.006768091
55	0xbd8a0487	-0.06739145
56	0x3d981c77	0.07427304
57	0xbd864970	-0.06556976
58	0xbdd41afb	-0.103567086
59	0xbca05cc0	-0.019575477
60	0xbd53f235	-0.05174466
61	0x3d40efe1	0.047103766
62	0xbc9cac46	-0.019125115
63	0xbdb11b43	-0.08647778
64	0x3dc00bd4	0.09377256
65	0x3e08c08c	0.13354701
66	0x3cde4a37	0.027134998
67	0xbd4e550b	-0.050374072
68	0x3d59b507	0.053151157
69	0x3d281d5b	0.04104362
70	0xbd1af9cd	-0.037835885
71	0xbdde6c17	-0.1086046
72	0xbd88d541	-0.066813
73	0xbdc748af	-0.0973066
74	0x3e094cef	0.13408254
75	0xbd9f4331	-0.077764876
76	0x3d80118c	0.06253347
77	0xbe23d75b	-0.1600012
78	0xbdf6c166	-0.120486066
79	0x3e971fdb	0.2951649
80	0x3dae825c	0.08520958
81	0x3cf9f4bb	0.030512204
82	0xbd179934	-0.03701134
83	0x3dda7d10	0.10668385
84	0xbe01d3a7	-0.12678395
85	0x3d84320d	0.06454859
86	0x3de2ce4b	0.110745035
87	0xbb50a810	-0.0031838454
88	0xbd2d82b1	-0.042360965
89	0x3d71f8d3	0.059075188
90	0xbd4112a6	-0.047136925
91	0xbdab83fd	-0.08374784
92	0x3d0fe79a	0.03513298
93	0xbdc5d0a6	-0.09658937
94	0x3c33e5db	0.010980095
95	0x3c10d4e8	0.008839823
96	0x3d10e268	0.035372168
97	0xbc04cbba	-0.008105213
98	0x3d889094	0.06668201
99	0x3db0fbe8	0.08641797
100	0x3dc89c32	0.09795417
101	0x3c9854b4	0.018595077
102	0x3e2e74a2	0.1703668
103	0xbba2c205	-0.0049669766
104	0xbd6205fe	-0.055181496
105	0x3d8ef9fc	0.069812745
106	0x3d1362f3	0.035983037
107	0xbafc127d	-0.0019231584
108	0xbdad4817	-0.08461016
109	0x3def271d	0.11677382
110	0x3d22772d	0.039664436
111	0x3d8f3c1e	0.06993888
112	0x3e01e0b1	0.12683369
113	0xbd7cb7a4	-0.06169857
114	0x3d28c3ea	0.041202463
115	0x3c9ed45f	0.019388376
116	0x3bf874ae	0.0075822687
117	0x3a8568ec	0.0010178364
118	0xbd98036d	-0.074225284
119	0x3d85e35d	0.06537507
120	0x3d1c2a62	0.038126357
121	0xbd16bdb5	-0.036802012
122	0xbda99557	-0.082804374
123	0x3df438d4	0.119249016
124	0xbdee3a16	-0.11632173
125	0xbddc2358	-0.10748929
126	0x3d0b0183	0.03393699
127	0x3dbe844e	0.09302579
128	0xbaec9769	-0.0018050495
129	0x3d89bf91	0.067259915
130	0x3d00f03d	0.03147911
131	0xbd5efad3	-0.054438423
132	0x3d62ed39	0.055402014
133	0xbc0d4a93	-0.008623737
134	0xbd82664c	-0.06367168
135	0xbd1d1132	-0.038346477
136	0xbda2016c	-0.079104275
137	0x3ba790c8	0.005113695
138	0xbdc7db8c	-0.09758672
139	0x3cc202d9	0.023682998
140	0x3c02b603	0.007977965
141	0xbd254a72	-0.0403542
142	0x3af4e6c4	0.0018684496
143	0x3d83c455	0.06433932
144	0x3a1ffe28	0.0006103241
145	0x3d8c98d2	0.06865086
146	0xbdc66d4f	-0.09688818
147	0x3d97a803	0.074050926
148	0xbcd04ab6	-0.02542625
149	0x3dd39869	0.10331804
150	0x3d3533b4	0.04423876
151	0x3dbb77da	0.09153719
152	0x3d9e8dce	0.07741891
153	0xbd95f696	-0.07322423
154	0xbc4c6a26	-0.01247648
155	0x3d98abca	0.07454641
156	0x3e308af4	0.17240506
157	0xbda3ee17	-0.080043964
158	0x3d0b94c1	0.03407741
159	0x3bc05601	0.0058696275
160	0x3dcd851c	0.10035154
161	0xbca759f7	-0.02042864
162	0xbc908aea	-0.017644364
163	0x3e3d2f13	0.18474989
164	0xbdb6f9bc	-0.08934352
165	0x3d2f656d	0.042821337
166	0xba021b31	-0.0004963158
167	0xbc389df9	-0.011268132
168	0xbc0f1199	-0.008732223
169	0x3db48049	0.08813531
170	0x3ca851fb	0.020546904
171	0xbd9435de	-0.07236837
172	0x3ded7427	0.1159442
173	0x3d31620a	0.043306388
174	0x3da631f6	0.08114998
175	0xbd087edd	-0.03332411
176	0x3c093378	0.0083740875
177	0x3df525bd	0.11970089
178	0x3c145a6f	0.009054764
179	0x3d8f6a7d	0.07002733
180	0x3db6f95d	0.08934281
181	0xbd724739	-0.059149954
182	0xbcf9a217	-0.030472798
183	0xbc35442d	-0.011063618
184	0x3e2fce66	0.17168579
185	0xbde0ca19	-0.10976047
186	0x3d754ec7	0.05988958
187	0xbc92595a	-0.017864872
188	0x3dc31426	0.095253274
189	0xbb83c35c	-0.0040210914
190	0x3d25d39c	0.04048501
191	0xbbba2646	-0.005680832
192	0xbb22db17	-0.0024849826
193	0xbd560243	-0.05224825
194	0xbd269def	-0.04067796
195	0x3d158a60	0.036508918
196	0x3d255510	0.040364325
197	0x3dc9adcd	0.09847603
198	0x3adc6854	0.001681576
199	0x3dbcf2b4	0.092259794
200	0xbcf13076	-0.029442053
201	0xbd362755	-0.044471104
202	0x3dbd8196	0.09253232
203	0x3d54487d	0.051826943
204	0xb862caf9	-5.4071632e-05
205	0x3db30b67	0.08742409
206	0x3c88d39f	0.016702471
207	0x3d4b6389	0.04965547
208	0xbcc72ead	-0.024314249
209	0x3db79924	0.08964756
210	0xbdd89e84	-0.105771095
211	0x3aa18b18	0.0012324778
212	0x3daff79d	0.0859215
213	0xbd28fee7	-0.04125872
214	0x3e0377ae	0.12838623
215	0x3ca746a2	0.020419423
216	0x3cc128ee	0.023579087
217	0xbe924797	-0.28570244
218	0xbd8946c1	-0.06702948
219	0xbc7e869f	-0.015535026
220	0xbe8d99ef	-0.27656505
221	0x3caad486	0.020853292
222	0x3da7d283	0.08194449
223	0xbcf59a48	-0.029980794
224	0xbd369c50	-0.044582665
225	0xbdc05c3b	-0.093925916
226	0x3d2f111b	0.042740922
227	0xbd4c92be	-0.04994463
228	0x3d812ec8	0.06307751
229	0x3daef138	0.085421026
230	0xbc6cfc98	-0.01446452
231	0xbdd6bf37	-0.1048569
232	0x3cafc7aa	0.021457512
233	0x3dde614c	0.10858402
234	0x3db42e12	0.0879785
235	0x3d5644b2	0.052311607
236	0xbd7fb4dd	-0.062428344
237	0xbd9d309b	-0.076752864
238	0x3d845f61	0.064635046
239	0x3dfe6f02	0.12423517
240	0x3d4a3ce4	0.049374476
241	0xbc8d48a5	-0.017246554
242	0x3d72d182	0.059281833
243	0x3d77ba2d	0.060480285
244	0xbc5682b0	-0.013092682
245	0xbd492f6c	-0.04911749
246	0xbd197a9d	-0.03747045
247	0x3d775bfb	0.060390454
248	0xbd41b580	-0.047292233
249	0x3d642cdc	0.055706844
250	0xbdb77217	-0.08957308
251	0x3d5957f6	0.0530624
252	0x3d4f1d34	0.05056496
253	0x3d00d93f	0.031457182
254	0x3d5ef9ff	0.054437634
255	0xbca6dd2e	-0.020369139

fc.1.bias f4 [100]
0	0x3debf778	0.1152181
1	0x3da8a300	0.08234215
2	0xbd66d993	-0.05635984
3	0x3e1f1df4	0.1553877
4	0x3e2c03da	0.16798344
5	0x3e86273d	0.2620181
6	0xbd7e6d3b	-0.06211589
7	0x3d6c4fc4	0.057693258
8	0xbc9a208e	-0.018814351
9	0xbe010d2c	-0.12602681
10	0x3dd63685	0.104596175
11	0xbe41bd05	-0.18919761
12	0xbe2852c8	-0.16437829
13	0xbf20898e	-0.6270989
14	0xbc88c6f0	-0.016696423
15	0x3eacc0ce	0.33740848
16	0x3d99690a	0.07490738
17	0x3d0b1dcb	0.03396396
18	0xbd2a3218	-0.04155168
19	0xbcb1cc90	-0.021703988
20	0x3da1762b	0.07883867
21	0xbc9ace0d	-0.01889708
22	0xbda7e687	-0.081982665
23	0xbe088f75	-0.13335975
24	0x3d573435	0.052540023
25	0xbeed7bab	-0.46383414
26	0xbf3e6f36	-0.74388444
27	0x3dbf0d03	0.09328654
28	0x3dde9ebf	0.10870122
29	0xbe6ccdf9	-0.23125447
30	0xbd4362da	-0.047701694
31	0xbd8fa298	-0.07013434
32	0x3c781d74	0.015143741
33	0x3b27cae2	0.0025603105
34	0x3e11db85	0.14243896
35	0xbd7ac6dd	-0.061224807
36	0x3df4d9b3	0.11955585
37	0x3dd30186	0.10303025
38	0x3d73ed95	0.059552748
39	0xbeda5dd3	-0.42649707
40	0x3e62c665	0.22145994
41	0x3d8e87ce	0.069594964
42	0x3d8cde0f	0.06878292
43	0xbdb1dbbe	-0.086844906
44	0xbd6fb935	-0.058526237
45	0x3e26dd81	0.16295435
46	0x3e1658e7	0.14682351
47	0x3b49a8b8	0.003077073
48	0x3d6a5b8c	0.057216212
49	0x3e176a47	0.14786635
50	0xbd111d81	-0.035428528
51	0xbd022a66	-0.031778716
52	0x3e50519f	0.20343636
53	0xbde41783	-0.11137297
54	0x3d87ee75	0.06637279
55	0x3d92259d	0.071360804
56	0x3d803d55	0.06261698
57	0x3e150477	0.14552484
58	0x3d86990c	0.0657216
59	0x3e040fcd	0.12896653
60	0x3cf2435f	0.02957314
61	0x3cee59b9	0.029095517
62	0x3df4cbe5	0.11952952
63	0x3de9eae2	0.114217535
64	0x3cfb4cdd	0.0306763
65	0xbe03edc1	-0.12883665
66	0xbe203fb9	-0.15649308
67	0x3c950e9c	0.018195443
68	0x3e26eac9	0.16300501
69	0x3db95146	0.09048705
70	0x3e10c574	0.14137822
71	0x3c686533	0.014184284
72	0x3c9ed045	0.01938642
73	0x3e60d4dc	0.219562
74	0x3d8a70c1	0.06759787
75	0xbd5bc10e	-0.05365091
76	0xbf1d65e9	-0.6148363
77	0x3e1cfeae	0.15331528
78	0x3c0f02b6	0.008728674
79	0x3b0e0b0d	0.0021674067
80	0x3dbf4639	0.09339566
81	0xbe354b6f	-0.17704557
82	0xbef386b5	-0.4756371
83	0xbde9ab56	-0.11409633
84	0xbc8a16be	-0.016856547
85	0x3d56bce1	0.052426223
86	0xbf191700	-0.5980072
87	0xbe9ef46f	-0.31045863
88	0xbea43583	-0.32072076
89	0x3e8a2bd1	0.26986554
90	0xbe0fc997	-0.14041744
91	0x3cd9eb24	0.026601382
92	0x3c383d1a	0.0112450365
93	0x3e029d17	0.12755238
94	0x3d9189ac	0.07106337
95	0x3cc487d3	0.023990547
96	0xbd827707	-0.06370359
97	0x3e2e1a8d	0.17002316
98	0xbdca4e9f	-0.09878277
99	0xbd9ca2b7	-0.07648223

fc.2.weight f4 [4, 100]
0	0xbdd915a5	-0.105998315
1	0xbc287989	-0.0102828825
2	0xbd85b46b	-0.065285526
3	0x3e7c9794	0.24667197
4	0x3df2071f	0.118177645
5	0x3df24eda	0.11831446
6	0xbe45f94f	-0.19333385
7	0x3d00c5a3	0.03143848
8	0xbd8d2e46	-0.068935916
9	0x3d1be54d	0.038060475
10	0x3ba4f012	0.0050335014
11	0x3dfc650d	0.123239614
12	0xbb985a5a	-0.0046494426
13	0xbf252af9	-0.64518696
14	0xbcaf2a3f	-0.02138245
15	0xbeb5e0ab	-0.3552297
16	0xbd36bbe7	-0.04461279
17	0x3cc912ea	0.024545152
18	0xbd93a8e0	-0.07209945
19	0xbdf91ad8	-0.12163323
20	0xbd1ac37d	-0.03778409
21	0xbe0dd376	-0.13850197
22	0x3e0fa68f	0.14028381
23	0xbe1965a1	-0.14980175
24	0x3ec2c0dd	0.38037768
25	0xbed1dedc	-0.4099034
26	0xbd79209d	-0.060822118
27	0xbe0f53bf	-0.1399679
28	0xbe758b7e	-0.23978993
29	0x3e01b7f6	0.12667832
30	0x3dc38ad4	0.09547964
31	0xbde45288	-0.11148554
32	0x3e29855a	0.16554776
33	0x3caed7b5	0.021343092
34	0x3b4e7c16	0.0031507066
35	0x3bc57087	0.006025377
36	0xbddf38ba	-0.108994916
37	0x3c85ad67	0.016318036
38	0x3da62279	0.08112044
39	0x3e7b09b1	0.24515416
40	0x3d69765c	0.056997642
41	0xbd50d6ff	-0.050986286
42	0xbc44d362	-0.012013288
43	0xbe08eb0d	-0.13370915
44	0xbbe4a24f	-0.0069773565
45	0x3e07abcc	0.13249129
46	0xbe5ba972	-0.21451357
47	0xbded2bab	-0.11580595
48	0x3da5943a	0.080849126
49	0x3af570d6	0.0018725644
50	0xbc94c573	-0.018160557
51	0xbd42acc8	-0.04752806
52	0x3db24f86	0.08706574
53	0xbf5bb223	-0.8581869
54	0xbde29d39	-0.11065144
55	0x3d99f5fc	0.07517621
56	0xbca58c4d	-0.020208502
57	0xbc0d3287	-0.008618004
58	0x3e96327c	0.29335392
59	0x3d5aae2a	0.053388752
60	0xbdc1d984	-0.09465316
61	0xbe1114ec	-0.14168137
62	0x3cb8174d	0.022472048
63	0x3d8b10cd	0.06790314
64	0x3dcc6db1	0.099818595
65	0xbe94df74	-0.2907673
66	0xbe0632c5	-0.13105305
67	0xbd5911e5	-0.05299558
68	0xbddecd38	-0.10878986
69	0x3d87dc44	0.06633809
70	0x3d0fd5b7	0.035115924
71	0x3c5332a1	0.012890489
72	0xbe52200b	-0.20520036
73	0x3e7bb4ce	0.2458069
74	0x3d507a98	0.050898165
75	0xbec4929a	-0.38393098
76	0xbefebc57	-0.49753067
77	0x3cbed3cc	0.023294352
78	0x3c0f0128	0.008728303
79	0x3ced6e89	0.028983371
80	0x3e0946a2	0.1340585
81	0xbd62b175	-0.055345017
82	0xbef39c00	-0.47579956
83	0xbc43c2d0	-0.011948302
84	0xbda9219d	-0.08258364
85	0x3e940b1c	0.28914726
86	0x3ec9b773	0.39397773
87	0x3eec3e25	0.46141163
88	0xbbb97920	-0.005660191
89	0x3d98f28c	0.07468137
90	0xbc335bf8	-0.01094722
91	0x3db9d0e1	0.090730436
92	0xbd3d838a	-0.046268024
93	0xbdf4d655	-0.11954943
94	0x3c807767	0.015681935
95	0x3d1eaf75	0.038741548
96	0xbc241a91	-0.0100161
97	0x3e5c2803	0.21499638
98	0x3d8bf0da	0.06833048
99	0x3d02b459	0.031910274
100	0x3cf57886	0.029964697
101	0xbd437de2	-0.047727473
102	0x3c4dfd06	0.0125725325
103	0x3e7862b9	0.2425641
104	0x3dd84b1b	0.105612
105	0x3e6391b8	0.22223556
106	0xbdf72d0f	-0.12069141
107	0x3d4fbe76	0.050718747
108	0x3ca15848	0.019695416
109	0xbd8ef5cf	-0.06980478
110	0x3d01abca	0.03165797
111	0xbdf9ed07	-0.122034125
112	0xbea2e19e	-0.31812757
113	0x3f82630d	1.0186478
114	0xbdcb47b2	-0.09925784
115	0xbe80ef44	-0.25182545
116	0xbb12b6b6	-0.0022386736
117	0x3c7e6ec0	0.015529335
118	0x3d4d1fc4	0.050079122
119	0xbd3f1325	-0.046649117
120	0x3cb4da5b	0.022076776
121	0x3e55eb34	0.20890504
122	0xbdbb31a1	-0.09140325
123	0x3e1992b0	0.14997363
124	0xbe25a72c	-0.16177052
125	0x3e4eeb77	0.2020701
126	0xbf25592e	-0.645892
127	0x3d2816b4	0.041037276
128	0x3e0934c4	0.13399035
129	0xbc078390	-0.008271113
130	0xbd82446d	-0.063607074
131	0x3cf3618f	0.029709606
132	0x3e4cd525	0.20003183
133	0x3d8b8a32	0.06813468
134	0x3d9af0af	0.07565438
135	0x3dae90d5	0.08523718
136	0xbdf66cd9	-0.1203248
137	0x3d4a42fb	0.049380284
138	0x3ba49a8a	0.0050233053
139	0x3ed56ae2	0.41683108
140	0x3e79fb86	0.24412355
141	0x3dbc1908	0.09184462
142	0xbc97d93b	-0.0185362
143	0x3e661b0f	0.2247126
144	0x3d95220a	0.07281883
145	0x3e12ce7a	0.14336577
146	0xbe9d2e23	-0.30699262
147	0x3dafbda9	0.08581097
148	0xbc216be9	-0.009852388
149	0x3c81347f	0.015772102
150	0xbabc04e2	-0.0014344717
151	0xbd6eb8fe	-0.05828189
152	0x3dabb55b	0.083842
153	0xbece07e8	-0.40240407
154	0xbe6b9ce9	-0.23009075
155	0x3d9ceb94	0.076621205
156	0xbda25d4a	-0.0792795
157	0xbd5d4888	-0.05402425
158	0xbe01259c	-0.12612003
159	0xbcb53f68	-0.022124961
160	0xbd4e7942	-0.05040861
161	0x3d802260	0.062565565
162	0x3c9a4fb7	0.01883684
163	0x3da54046	0.080689
164	0x3d91a295	0.07111088
165	0xbe9d512e	-0.30725998
166	0xbc195518	-0.009358667
167	0x3e10bd6e	0.14134762
168	0xbd6aa66b	-0.057287615
169	0xbd4710cf	-0.048600014
170	0xbb9ab26e	-0.0047209775
171	0xbc838cba	-0.016058315
172	0x3d4a0472	0.049320646
173	0x3c72079b	0.014772321
174	0x3bb3eac7	0.005490634
175	0xbe631b48	-0.22178376
176	0xbef05c5e	-0.4694547
177	0x39d35f31	0.0004031598
178	0xbe5cbdfb	-0.21556847
179	0xb946308a	-0.00018900834
180	0x3e016c2a	0.12638918
181	0xbdafe1b7	-0.085879736
182	0x3eab8133	0.3349701
183	0x3b49aaa4	0.0030771876
184	0x3e00fb03	0.12595753
185	0x3ea7e326	0.32790488
186	0xbe638aac	-0.22220868
187	0xbd739238	-0.059465617
188	0xbdb81db0	-0.089900374
189	0x3e95afe9	0.2923577
190	0xbe1167cb	-0.1419975
191	0x3d0aeb11	0.033915583
192	0xbc123f09	-0.008926162
193	0xbe1d5444	-0.15364176
194	0xbc3eb752	-0.011640387
195	0x3ee74cef	0.45175883
196	0xbd88af23	-0.0667403
197	0x3cc55464	0.024088092
198	0xbc1b82b6	-0.009491613
199	0x3e0474d9	0.12935199
200	0x3c9551b6	0.01822744
201	0x3d34ed96	0.044171892
202	0x3dce068e	0.10059844
203	0xbc174a63	-0.009234044
204	0xbd30b13a	-0.043137766
205	0x3c8db2ef	0.017297236
206	0xbd688f1f	-0.056777116
207	0xbd5ed1a8	-0.054399163
208	0xbdbdd464	-0.09269026
209	0xbdb8afa0	-0.09017873
210	0xbe0b6fba	-0.13616839
211	0xbd9c792e	-0.07640301
212	0x3cb86017	0.022506757
213	0xbb138159	-0.0022507517
214	0x3cb0942d	0.02155503
215	0x3b086231	0.002081048
216	0xbd8616cb	-0.06547316
217	0xbde44d16	-0.111475155
218	0x3d669e20	0.056303144
219	0x3d799f25	0.060942788
220	0x3deff490	0.117165685
221	0xbb9a8e60	-0.0047166795
222	0x3d670239	0.056398604
223	0x3ca74925	0.02042062
224	0xbb793039	-0.0038023128
225	0x3c73bf55	0.01487716
226	0x3c440e30	0.011966273
227	0xbd0f412c	-0.034974262
228	0x3bae720f	0.0053236554
229	0xbcdc79b9	-0.02691351
230	0x3cd4b4ef	0.025965182
231	0x3db43610	0.08799374
232	0xba1a5e03	-0.00058886426
233	0x3d6bbb41	0.057551626
234	0xbe02be38	-0.12767875
235	0xbd250c6f	-0.04029506
236	0xbdd4cc35	-0.10390512
237	0x3de67bf2	0.112541094
238	0x3dfb2d1f	0.122644655
239	0xbc9b6f16	-0.018973868
240	0x3c3e491b	0.011614109
241	0xbdea712a	-0.114473656
242	0xbdb4bdac	-0.088252395
243	0x3d46f138	0.048569888
244	0xbbac6e0c	-0.005262142
245	0x3c584542	0.013200106
246	0xbc6a7760	-0.014310688
247	0xbd7e5ef2	-0.062102266
248	0xbe133ca6	-0.14378604
249	0x3e26b320	0.16279268
250	0x3e1c1f00	0.152462
251	0xbe0fef92	-0.14056233
252	0x3dfb1d07	0.12261396
253	0x3bdd8a3a	0.0067608627
254	0x3c54d58e	0.0129903685
255	0x3d9dfc04	0.07714084

fc.2.bias f4 [4]
0	0x3dcfc428	0.10144836
1	0x3d77adc1	0.06046844
2	0xbd2ec524	-0.042668477
3	0x39bff57a	0.00036613253
