model/unicycle-ensemble-FC3-100-2/epoch_300.pth (torch, 47077 bytes, 6 tensors)

fc.0.weight f4 [100, 6]
000000 30 3b 0d bd 19 14 ae be 05 4b 31 3f a3 2b 07 3d
       -0.034480274 -0.33999708 0.69255096 0.0330006
000010 43 5c bc be 64 df cc 3e 31 00 74 be 6a 89 86 be
       -0.3678914 0.40014184 -0.23828198 -0.26276714
000020 2c 1e dd be 75 e8 7b bd 99 99 82 3d 51 7b 5c 3e
       -0.43187082 -0.061500985 0.06376953 0.21531416
000030 ac fd 44 be 42 a2 14 3e bf f6 71 3d 85 90 c8 3d
       -0.19237393 0.14515021 0.059073206 0.0979319
000040 12 59 ad 3e 98 30 93 3e a4 13 b6 be 2a 46 8c 3e
       0.33857018 0.28748012 -0.3556186 0.2739728
000050 42 f8 0a 3f df 5d cc 3e e0 f6 a6 bc fb 31 ab 3d
       0.5428506 0.39915368 -0.020381391 0.083591424
000060 a2 43 a0 3d 37 ef 77 3e ab d1 0f be 5c 97 04 bf
       0.078254 0.24212347 -0.14044826 -0.51793456
000070 c2 87 4b be eb 33 aa be 3b 85 94 be 06 24 b1 bd
       -0.19876006 -0.33242735 -0.29007897 -0.08649449
000080 8a a2 d0 3e b9 ca 0e 3f 3d 6f 23 3e 51 5d 91 be
       0.40749007 0.5577808 0.15960403 -0.28391507
000090 a0 3f e7 3d d1 2f 92 be be 1b 88 bd 13 ae 74 bf
       0.112914324 -0.28552106 -0.066459164 -0.95578116
0000a0 b3 4d 1d 3e 37 7b 31 3d 76 70 bd bd c3 75 01 3d
       0.15361671 0.043330397 -0.09249966 0.031606447
0000b0 cc 9a f3 3e 49 e5 f7 be f8 7a 53 3d d6 66 8e bd
       0.47579038 -0.48417118 0.051630944 -0.06953208
0000c0 c9 7d 77 3e 59 2b ed 3c e9 74 58 3f 8d 06 09 3d
       0.24169077 0.028951334 0.8455339 0.033453513
0000d0 70 0f 18 3e dd 39 63 be 5b 8f 30 be 35 f6 5d be
       0.14849639 -0.22190042 -0.17242186 -0.21675952
0000e0 53 15 36 be 63 90 1e bd 2b 94 62 3e d1 d5 9a 3e
       -0.17781572 -0.038711917 0.22126834 0.30241254
0000f0 ef df 99 be 27 d7 43 be f3 0f 17 bf 7c 9a 2d 3f
       -0.3005366 -0.19125043 -0.5900871 0.6781385
000100 6f 56 ac be fd df ee be 6c 4a 36 3e ba 16 a3 3d
       -0.33659694 -0.46655264 0.17801827 0.07963319
000110 f3 4a d9 be 5f 04 6a bf 02 ae a2 be eb 61 ca be
       -0.42439994 -0.9141292 -0.31773382 -0.3952783
000120 74 ea 39 3e 59 70 08 3e de f8 9d be 4b 20 97 3e
       0.18155843 0.13324107 -0.30853933 0.29516825
000130 dc 01 80 3e be a4 fc 3c 1f 92 6f be b8 c1 8f 3e
       0.2500142 0.030840274 -0.23395585 0.28077483
000140 56 85 94 bd ab ef 1b bf 2e 79 a3 be 85 e4 66 bc
       -0.07251994 -0.6091258 -0.3192839 -0.014092569
000150 d5 db 8e be da bc b1 3c db 32 2c bf 8d e5 11 3e
       -0.27902094 0.021696497 -0.672651 0.14247723
000160 66 a6 d2 3e 9d fb c5 3c 75 a3 1a 3e f6 84 87 3e
       0.41142577 0.02416783 0.15101416 0.2646863
000170 e6 42 0b bf 30 be fc 3e df 9c 31 3e be c7 b0 3e
       -0.54398954 0.49363852 0.17344998 0.3452739
000180 e5 78 0e be fc 03 48 3e ba c7 f3 be f7 7b 53 3e
       -0.13913305 0.1953277 -0.47613317 0.20652758
000190 7f a1 95 3e d2 d5 9c be 50 2b 15 b9 04 7f 78 bb
       0.29224774 -0.30631882 -0.00014225882 -0.0037917504
0001a0 6c 0a 94 be 73 c3 21 bf 18 5e e3 bc 86 42 f4 bc
       -0.289142 -0.63188857 -0.027754828 -0.029816877
0001b0 ac a8 4f 3e 38 fd 69 3d 4d a7 b4 be bf aa 2a 3f
       0.20279187 0.057126254 -0.3528389 0.6666679
0001c0 ca 84 1a be 66 37 05 be b2 1c be be 6f 6e 2f be
       -0.15089718 -0.13009414 -0.37131268 -0.17131971
0001d0 38 e6 1e be 77 21 ec 3e 83 47 c4 bd 88 f1 53 be
       -0.15517509 0.46119282 -0.09583952 -0.20697606
0001e0 7e 04 49 3d b8 98 c7 bb d1 1a eb be 42 25 59 3f
       0.04907655 -0.0060912035 -0.45918897 0.84822476
0001f0 60 ba 60 bd 51 05 03 3d da 1f 2c 3e a2 0e bc bd
       -0.05486524 0.031987492 0.16809025 -0.091824785
000200 12 a2 a4 3d db ad 7a bc a1 29 87 be d4 5f 82 be
       0.08038725 -0.015300239 -0.26398948 -0.25463736
000210 c5 be 60 3e 56 a3 a9 be f2 46 1c bc b0 d3 e1 bd
       0.21947773 -0.33132428 -0.009538399 -0.11026704
000220 33 24 bd 3e aa 9d b7 3d 42 68 c5 3e 87 9d 13 3e
       0.3694168 0.08965619 0.38556105 0.1441556
000230 36 44 b0 be 37 50 46 bf 0e 71 4d be c9 ed c9 3e
       -0.3442704 -0.7746615 -0.20062658 0.39439228
000240 87 86 95 be 12 14 76 be 83 d0 12 3e a6 03 77 be
       -0.292042 -0.24031094 0.14337353 -0.24122486
000250 66 56 a7 3e a4 20 ef be f6 29 09 be 79 9b 9c be
       0.32683104 -0.4670459 -0.13394913 -0.30587366
000260 e0 1c 1b bd 48 4c 93 3e 96 17 a4 be 21 5e f9 be
       -0.037869334 0.28769135 -0.32049245 -0.48704627
000270 09 c6 8f 3e 0f 6f 9c 3d 28 e5 07 be 80 13 61 bf
       0.28080776 0.0763837 -0.1327101 -0.8792038
000280 c0 23 dd 3e d0 b4 60 bd 66 d5 ca be de c8 c5 bd
       0.43191338 -0.054859936 -0.39615935 -0.09657453
000290 3b af 79 be f9 56 bc be 90 6e b8 3c 35 eb 4a 3e
       -0.24383251 -0.36785105 0.022513658 0.19816287
0002a0 83 e7 6d 3e b6 e1 9b be c3 d7 01 bf 4b e1 03 bf
       0.23232846 -0.3044564 -0.5071985 -0.51515645
0002b0 0c e8 01 bf 82 f4 6d be 9e aa bc be 45 1a 91 be
       -0.507447 -0.23237804 -0.3684892 -0.28340355
0002c0 c2 18 f3 3c 8f 66 f2 be de 84 ee 3e 68 2b a1 bd
       0.029674891 -0.4734387 0.46585745 -0.07869607
0002d0 f6 5e 3a 3e bb 5e 02 be da dd a8 3e ca 13 2d 3f
       0.18200287 -0.1273145 0.3298176 0.6760832
0002e0 6d a4 86 3e 34 da 51 be 5c 1d 19 3e 95 ed 8c be
       0.26297322 -0.20493394 0.14952606 -0.2752501
0002f0 2f fc 76 3e 1b dd c1 be 6e 33 13 be ed 6d 8c be
       0.24119638 -0.37864003 -0.14375088 -0.27427617
000300 d4 05 8b 3e b2 cb 39 3d bd ae 03 3e d4 bf ed be
       0.27152884 0.045360275 0.12859626 -0.46435416
000310 65 46 51 3e 5e 31 5c 3e 3b 0a d9 3d 08 83 ca 3d
       0.2043701 0.21503207 0.105976544 0.098882735
000320 11 ee c5 3e bf 75 96 bd a4 54 87 3e dc d8 8d 3c
       0.38658193 -0.07346677 0.26431763 0.01731532
000330 ac 65 33 be 89 e7 6b 3d a4 b9 1d be 9b d2 a3 3f
       -0.17519253 0.057593856 -0.15402848 1.2798647
000340 5f 32 94 ba 55 c8 10 be e2 1b 0e 3e c4 5b 19 3d
       -0.0011306516 -0.1413892 0.13877824 0.03744103
000350 14 78 39 bf 3e 08 8f 3f 93 1b 59 bd a4 64 71 bc
       -0.7244885 1.117439 -0.053004812 -0.014733467
000360 3c 90 6d 3e 45 96 68 be 21 bc ff 3b ea bf e6 be
       0.23199552 -0.22713573 0.007804409 -0.45068294
000370 89 ef af 3e 5d 48 ce bc f3 b3 f0 bd 15 d0 9a 3e
       0.34362438 -0.02518099 -0.117530726 0.3023688
000380 47 2c 2a 3f 27 8e 79 bd 97 5a 66 3d 50 fb b3 be
       0.6647381 -0.060926583 0.056238737 -0.35152674
000390 c9 ee 2e be 4d 38 4d be 45 da 47 bd 51 19 df be
       -0.17083277 -0.20041008 -0.048792142 -0.43574002
0003a0 d8 dd c1 be 9a 19 58 be c0 a7 96 3e b8 e2 5c 3d
       -0.37864566 -0.21103516 0.29424858 0.053927153
0003b0 d9 f9 dc be 0d 2d 27 3f a8 fb e1 3e 68 76 11 3e
       -0.4315937 0.6530312 0.4413731 0.14205325
0003c0 02 64 df 3d ec 3d 93 3e db f2 2b 3d 60 24 8d be
       0.10907747 0.2875818 0.041979652 -0.27566814
0003d0 70 f2 96 3e fb dd e3 3e 9b 59 10 3e bc dd 3b bd
       0.2948184 0.44505295 0.14096682 -0.04586576
0003e0 59 94 2a bf 7d 4e bb 3e 13 09 8e 3e cb 5e 0d be
       -0.6663261 0.3658332 0.27741298 -0.13805692
0003f0 7a fd a7 3d 1e ac 92 be ca cf af bd 41 71 74 be
       0.08202644 -0.2864694 -0.085845545 -0.23871328

fc.0.bias f4 [100]
000000 5e 14 22 3d c5 1d 57 bf 98 7c b6 3c 17 10 b7 be
       0.039570205 -0.840298 0.022276208 -0.35754463
000010 d6 1a a8 be 53 45 86 bc b4 4e bb be df c8 49 3f
       -0.32832974 -0.016390478 -0.36583483 0.7882213
000020 8f f2 33 3f f3 b1 e7 3c f6 99 59 3e 1b 1a 88 be
       0.7029199 0.028283095 0.21250138 -0.26582417
000030 20 19 d4 3e 6e 24 00 bf 47 62 7a 3e f2 de 14 be
       0.4142542 -0.5005559 0.24451552 -0.14538172
000040 fa 63 4e 3e be 1b 89 bf aa a4 19 3f 39 89 e9 3d
       0.20155326 -1.0711591 0.6001688 0.11403126
000050 6e b8 08 bf 96 81 1f 3e 50 20 ec 3e e0 93 d0 bd
       -0.5340642 0.15576777 0.46118402 -0.10184455
000060 b8 ea 65 3e 1a 13 f8 3c 85 d3 79 3e 0d 5c 81 3c
       0.2245282 0.030282546 0.24397095 0.015790964
000070 37 06 37 bf 90 48 35 be 27 71 ec bd 86 bb a6 be
       -0.7149386 -0.17703462 -0.115450196 -0.32564944
000080 17 e7 eb 3c 60 f8 5f 3f d2 c8 3b be c0 60 67 bd
       0.028796716 0.87488365 -0.18338326 -0.056488752
000090 94 60 67 be 8f b0 92 3e 23 eb 7e bf 31 d7 19 3f
       -0.22595435 0.2865033 -0.9957754 0.6009398
0000a0 f4 75 4a bd 4f a2 25 3f 10 25 0b 3f f1 62 50 3f
       -0.049428895 0.6470079 0.5435343 0.8140097
0000b0 85 c2 6f be 0e 6c 0f 3f 65 00 ec be 70 1a 9c 3f
       -0.23414047 0.56024253 -0.4609405 1.2195568
0000c0 1b 3d a8 3e fe b5 30 bf ab b3 62 3e 1b 42 1b bf
       0.3285912 -0.690277 0.2213885 -0.60647744
0000d0 e3 ea be bc 73 08 ee 3b 3b 6b a4 bf cd b5 48 3f
       -0.023305362 0.007264191 -1.2845224 0.78402406
0000e0 c1 bc 98 be 3f be 38 3f f6 64 7a bf 83 4d 0d 3e
       -0.29831508 0.7216529 -0.97810304 0.137991
0000f0 d0 58 81 3f 1a 93 08 3f cd 64 6a 3e ae b3 4b be
       1.0105228 0.5334946 0.22890015 -0.19892761
000100 b8 e5 24 be f9 ef 70 bf b6 8c 15 3f 54 d3 7d 3f
       -0.16103256 -0.9411617 0.5841783 0.99150586
000110 c0 f4 b0 3d 66 97 da be 84 99 b5 3e 7d d8 39 bf
       0.08640432 -0.42693633 0.35468686 -0.7259596
000120 5a 7e 8b be 4e 38 5c 3f 8e 75 8c 3f 50 b5 52 bf
       -0.27244836 0.86023414 1.0973375 -0.8230791
000130 84 e6 a0 3f e7 d8 d3 be 8a 8f 7d bf 51 53 44 bf
       1.2570348 -0.4137642 -0.9904715 -0.7668963
000140 93 96 23 3c 65 06 42 3c c0 46 15 3e b5 98 e3 be
       0.00998463 0.011842345 0.1457777 -0.44452444
000150 b0 8c 70 3f 1b d6 1c bf 5c 55 d0 be 9c 84 c4 3d
       0.9396467 -0.612642 -0.40690124 0.09595606
000160 2e 8e e3 be 53 5d 33 be 98 e9 87 3e 88 ee ca 3e
       -0.44444412 -0.17516069 0.26545405 0.3963511
000170 87 b9 ac 3f c1 18 69 bf db a0 76 3e 49 10 39 3e
       1.3494118 -0.91053396 0.24084799 0.18072619
000180 bb 3f 5f bf 94 f7 98 bd 02 57 3c bd 7e d7 e8 3e
       -0.8720662 -0.07469097 -0.045981415 0.45476907

fc.1.weight f4 [100, 100]
000000 00 6e b1 3d f5 04 0a 3c fa 57 90 bd 96 93 30 3d
       0.08663559 0.008424033 -0.0704803 0.0431095
000010 6a 36 a4 bb 3a 93 8e 3d ff bf ce 3d 37 a8 f6 bc
       -0.0050113695 0.06961675 0.10095214 -0.030109508
000020 86 ca b8 bd 90 42 62 3c fa 0d 79 bc f9 6a 40 3d
       -0.09023003 0.013809815 -0.015201086 0.046977017
000030 56 bf 55 3d 50 51 4d bc 21 42 05 3d c3 65 c1 3c
       0.052184425 -0.012531593 0.03253377 0.023608094
000040 4e c9 2b 3e 2e e7 44 be 99 4c b3 bd 5a 55 9e bd
       0.1677601 -0.19228813 -0.08754844 -0.07731123
000050 99 e2 a5 be ca 00 fd 3b 2f b5 0f bd 90 a9 bb 3d
       -0.32399443 0.0077210413 -0.0350849 0.09163201
000060 87 30 c3 3d ae 97 cb 3d 7a 1d 07 3e 7e fa 6c 3c
       0.0953074 0.0994104 0.13194838 0.014464019
000070 42 e7 03 ba 95 1e b4 3d 85 b1 a0 bd e5 9f dd bc
       -0.00050317135 0.087948956 -0.07846359 -0.027053783
000080 f6 ed 2d 3d dd 46 e7 bc 5f 8c 3c 3e 9d c5 59 be
       0.042463265 -0.028232032 0.18412922 -0.2126679
000090 fb 46 9f bd 2d e1 ee 3d 5e 42 36 3d d0 f9 74 bd
       -0.0777721 0.116640426 0.044496886 -0.059808552
0000a0 da 29 ad bb d4 02 3e 3d a9 c4 e1 3d 6e 64 12 3c
       -0.00528453 0.046389416 0.11023838 0.008935077
0000b0 ad 71 74 3d e3 93 52 bd 69 63 aa bd f9 10 0b 3e
       0.059678722 -0.051410567 -0.08319742 0.13580693
0000c0 5e 8e 5c bd 4e a1 fe bd 39 36 2d 3c 34 a5 b0 3c
       -0.05384671 -0.1243311 0.01057201 0.02156315
0000d0 1b 5b 3f 3d 7e 60 c2 bb 15 e1 67 bc 1f 94 96 bd
       0.046717744 -0.005931913 -0.014152785 -0.073524706
0000e0 8e 40 ce bc 23 10 50 bd 3c 4b a2 bd 85 05 18 3b
       -0.025177266 -0.05079664 -0.07924506 0.002319665
0000f0 a8 fb 38 bd 6f f7 33 3d 8b d3 39 bd 09 69 76 bd
       -0.045161873 0.043937143 -0.04536776 -0.060158763
000100 be 58 d1 3d bf 28 ff 3d 4e 52 09 3d 31 1a 67 bd
       0.10222004 0.124589436 0.033525757 -0.056421462
000110 bd 87 45 3d d8 24 19 3d 5d f7 04 bd b6 25 ac bd
       0.048225153 0.037388653 -0.032462467 -0.0840563
000120 85 54 6b bd f8 87 c0 bd f9 79 fd 3d ed 5c 91 bd
       -0.05745365 -0.09400934 0.1237678 -0.07097802
000130 50 f3 8d 3d e6 a3 1c be 91 9a e5 bd a4 70 6f 3e
       0.06931174 -0.15296897 -0.11211122 0.23382813
000140 00 b6 cb 3d 0d 0a d8 3c 80 31 32 bd 0f 05 d1 3d
       0.09946823 0.02637198 -0.043504238 0.10206043
000150 02 f6 10 be c2 93 9c 3d e9 9a d4 3d a2 9d 52 38
       -0.14156345 0.0764537 0.10381109 5.021471e-05
000160 c8 f3 0b bd a1 1f 81 3d 0c 08 36 bd be 6f 8f bd
       -0.034168035 0.06304861 -0.044441268 -0.07003735
000170 2d e4 0c 3d d4 e6 95 bd a2 6f fa 3c a4 6a d0 bc
       0.034397293 -0.073194176 0.030570809 -0.025441475
000180 5f aa 21 3d 6e 18 cd bb 3c dc 71 3d 88 a4 92 3d
       0.03946912 -0.0062590158 0.059047922 0.07160288
000190 cf 75 d0 3d 69 fb 26 3d 1a 1a 08 3e ff 6a 33 bb
       0.1017872 0.040767107 0.13291207 -0.0027377007
0001a0 8a 97 93 bd 9b a0 36 3d 0b ff 2d 3d ae 0d 0b bc
       -0.07206638 0.04458676 0.042479556 -0.008487148
0001b0 98 a1 e8 bd 35 d1 c6 3d 4c b2 27 3d d5 57 36 3d
       -0.113589466 0.09707872 0.04094152 0.044517357
0001c0 cd 2e 0c 3e ad b1 36 bd 4c 0d 3d 3d bb e5 d3 3b
       0.13689728 -0.04460304 0.04615526 0.006466595
0001d0 a7 37 1c 3c e7 85 9e 3c da 35 db bd 5c 3e 4b 3d
       0.009534753 0.019350959 -0.10703631 0.049620017
0001e0 fa d9 5f 3d 1f af fd bc 79 71 99 bd 5d 89 10 3e
       0.054651238 -0.030967293 -0.07492346 0.141149
0001f0 9f a2 d6 bd 09 b8 ce bd 1d 6d e2 3c d5 b7 ef 3d
       -0.10480236 -0.10093696 0.02763992 0.11704985
000200 17 b8 b9 bb 12 56 6f 3d 59 d7 eb 3c 8b d0 59 bd
       -0.005667697 0.058431692 0.02878921 -0.053177398
000210 a7 9e 80 3d ef 21 bb bc 93 37 ae bd 2f 27 56 bd
       0.062802605 -0.02284333 -0.08506694 -0.052283462
000220 95 4f a1 bd a6 3b 02 3c 58 c2 c1 bd c9 0d 32 3c
       -0.07876507 0.007948792 -0.09460896 0.010867544
000230 ad 7c e3 bc 50 f3 2a bd c5 79 f1 bb 3e ee 20 3d
       -0.027769411 -0.041735947 -0.0073692524 0.039289705
000240 cd 1b 92 bc 16 c8 82 3d a0 3c e6 bd 3e 88 13 3d
       -0.017835522 0.063858196 -0.11242032 0.036018603
000250 14 bd 12 bd 17 20 d3 3d 08 5d f0 3c d8 ac c9 3d
       -0.03582485 0.10308855 0.029341236 0.098474205
000260 a3 fb a4 3d b6 1b 8f bd cb f0 18 bc a0 87 a1 3d
       0.080558084 -0.06987707 -0.009334753 0.078871965
000270 ef d2 3c 3e ed f7 a7 bd 5e 0e 2c 3d 3d 71 ab 3c
       0.1843984 -0.08201585 0.04200589 0.02092802
000280 10 ed d5 3d 1c 6c a8 bc fd 28 84 bc b8 29 0d 3e
       0.10445607 -0.020559363 -0.016132826 0.13785446
000290 16 42 b9 bd 03 58 30 3d 04 a3 bc bc bd a4 b3 bc
       -0.09045808 0.043052685 -0.02302695 -0.02192914
0002a0 99 64 cc 3b a6 d8 ad 3d fe 67 cf 3c 77 a6 aa bd
       0.006237578 0.08488588 0.025318142 -0.08332532
0002b0 d3 84 d4 3d 00 af 2a 3d 43 c2 a1 3d f8 2c 0b bd
       0.10376897 0.0416708 0.078983806 -0.033978432
0002c0 7b fb 36 3c 8a cd e9 3d d9 9d 92 3c f1 2e d8 3c
       0.011168356 0.114161566 0.017897533 0.02638957
0002d0 b7 05 a2 3d a8 cd 5c bd 88 e6 a1 bc 5b a5 be bc
       0.07911246 -0.053907067 -0.019763246 -0.023272207
0002e0 71 ea 24 3e 41 04 c9 bd cb 7e 85 3d 4d 2f fc bb
       0.16105057 -0.098152645 0.065183245 -0.0076960684
0002f0 e5 81 d9 3d ad d2 94 3a a5 94 cf 3c 7c d8 f9 bb
       0.106204785 0.001135429 0.025339434 -0.007624684
000300 02 b8 3f bc ff 32 6a bd 0f fd 38 bd 9c f5 3a 3d
       -0.011701586 -0.05717754 -0.04516321 0.045644388
000310 49 5e 4b 3d c6 1b d9 3d 0b 93 a9 bb 3b 93 ec 3d
       0.049650464 0.106010005 -0.0051749996 0.115515195
000320 f5 05 aa bc da b0 29 bd 3f b4 91 3d 63 a6 76 3d
       -0.020754794 -0.041428424 0.07114457 0.060217272
000330 38 c3 61 bb 07 c7 a3 3d 62 49 7e 3c cc 95 61 3d
       -0.0034448635 0.07996946 0.0155204255 0.055074498
000340 c6 3a ee bc 9e 26 9f 3d 1e 04 c2 bd 10 16 92 3b
       -0.02908076 0.077710375 -0.094734415 0.0044581965
000350 63 06 cc 3d b2 de 00 bd ba b5 02 3e 5f 6e 18 3c
       0.09962156 -0.03146238 0.12764636 0.009303658
000360 b6 bc 88 3c 09 ad 7c be 23 99 a6 bd f7 9c 05 bd
       0.016691547 -0.24675383 -0.08134677 -0.032620396
000370 e1 37 95 be 4d 53 1c 3d 47 ae b8 3d d4 99 90 bc
       -0.29144195 0.03816538 0.09017616 -0.017651476
000380 c0 67 31 bd d5 b1 9d bd 8f 96 41 3d 57 b3 14 bd
       -0.043311834 -0.076999344 0.047262724 -0.036303844
000390 d5 61 73 3d 22 4e 97 3d 28 51 d2 bc a5 e3 c4 bd
       0.05941947 0.073879495 -0.025673464 -0.09613732
0003a0 07 7f dd 3c 9b 3c d3 3d 19 19 82 3d 20 f8 62 3d
       0.02703811 0.10314294 0.06352443 0.05541241
0003b0 2d 13 8d bd 1c 21 9b bd 06 35 8f 3d 9d 09 d3 3d
       -0.06888423 -0.075746745 0.06992535 0.10304568
0003c0 f8 a9 10 3d ba 99 86 bc 0a 38 78 3d 98 fe 6b 3d
       0.035318345 -0.016430724 0.060600318 0.057615846
0003d0 e9 ee cf bc 67 c6 59 bd 16 56 6b bd 13 0b 42 3d
       -0.025382476 -0.053167727 -0.057455145 0.047373842
0003e0 32 e5 6c bd e2 4f 6d 3d 42 37 b7 bd 49 26 57 3d
       -0.057835765 0.05793751 -0.089460865 0.052526746
0003f0 c0 3f 73 3d c5 83 1e 3d d3 d7 25 3d 17 1d 82 bc
       0.05938697 0.038699884 0.04048903 -0.015883012

fc.1.bias f4 [100]
000000 d2 d2 f8 3d b1 02 92 3d 88 1c 40 bd 69 71 1c 3e
       0.12149586 0.071294196 -0.04690221 0.15277638
000010 c0 ac 0a 3e 89 4e 50 3e 5d b0 1b bd 7a 3c 3c 3d
       0.13542461 0.20342459 -0.03800999 0.045956112
000020 2d 72 80 bc 10 5e 02 be 74 e2 87 3d b0 b5 2d be
       -0.015679443 -0.12731194 0.066349894 -0.1696384
000030 fd 46 e1 bd df c1 0e bf 61 0f 74 3c 09 fc 9e 3e
       -0.10999868 -0.55764574 0.014896245 0.31051663
000040 22 7c 7a 3d 98 d9 d3 bb 1f 61 08 bd e0 24 d2 bb
       0.06115354 -0.006465148 -0.033295747 -0.0064130872
000050 30 b9 9b 3d 4a 21 09 3d 2b e5 a2 bd a8 2d 00 be
       0.07603681 0.033479013 -0.079538666 -0.12517416
000060 70 4d 87 3d 66 e3 df be dd 27 05 bf e2 76 fa 3d
       0.06606567 -0.4372818 -0.5201395 0.12229706
000070 eb df fb 3d e0 1a 4b be 91 f7 40 bd c7 d9 60 bd
       0.12298568 -0.19834471 -0.047111098 -0.05489519
000080 94 70 7c 3c 82 ba 8b 3c ed 70 e5 3d 08 f4 93 bd
       0.0154077 0.017056707 0.112031795 -0.0722428
000090 25 4a 09 3e 45 90 d7 3d ce f6 35 3d 16 4c c9 be
       0.1340719 0.10525564 0.044424824 -0.3931586
0000a0 df 26 50 3e 2a 44 6b 3d db 3c 97 3d e8 d1 be bd
       0.20327328 0.057438053 0.07384654 -0.0931738
0000b0 76 01 6b bd a6 29 00 3e 77 7b 3a 3e 2e a4 0c 3c
       -0.05737444 0.12515888 0.1821116 0.008584065
0000c0 c3 0f f7 3c 81 44 21 3e d2 e6 ce bc 68 9d c8 bc
       0.030158883 0.15748788 -0.025256548 -0.02448912
0000d0 a0 b2 46 3e c8 a4 6c bc c1 f0 b8 3d 49 75 3b 3d
       0.19404078 -0.014443584 0.09030295 0.04576615
0000e0 26 c0 9f 3d 89 09 fa 3d be 62 94 3d 42 a6 ee 3d
       0.07800321 0.1220885 0.07245396 0.11652805
0000f0 e9 b3 e1 3c 7a ef 5b 3d a2 1f e3 3d c0 af d5 3d
       0.027551608 0.05369518 0.11090018 0.10433912
000100 7b 34 98 3c a0 c8 09 be b8 6c 0d be 02 28 b7 bc
       0.018579712 -0.13455439 -0.13811004 -0.022357944
000110 aa 95 19 3e 2f 30 88 3d 7f 32 d7 3d 8b 54 7e 3c
       0.14998499 0.06649815 0.10507678 0.015523086
000120 5d 42 1b 3c 44 ad 56 3e fc 74 92 3d 3c bb 86 3a
       0.009476271 0.20964533 0.07151219 0.0010279189
000130 6e d3 19 bf 3b 30 e0 3d 1b 38 2d 3d 64 01 2f bd
       -0.6008824 0.10946699 0.042289834 -0.042725936
000140 51 2f 8d 3d 6a 81 c8 bd d6 24 dc be 56 ab e9 bd
       0.068937905 -0.09790309 -0.42996854 -0.11409633
000150 a9 9b 90 bc 2f 71 b8 3d 92 86 1d bf 31 46 5d be
       -0.01765235 0.09005963 -0.61533463 -0.21608807
000160 fc ed 89 be da 62 8a 3e a9 0b 05 be bc d7 9f 39
       -0.2693938 0.27028543 -0.12992729 0.00030487578
000170 7a a9 90 3c 1d c3 0c 3e 11 c3 b0 3c 86 63 6b 3c
       0.017658938 0.13746305 0.02157739 0.01436699
000180 d0 4d 6e bd 7c f5 20 3e 1e 18 de bd bc 4f 63 bd
       -0.058179677 0.15718645 -0.10844444 -0.055495963

fc.2.weight f4 [4, 100]
000000 60 f3 b4 bd 1c 69 3b bc ed ef 91 bd 71 9b 86 3e
       -0.088354826 -0.011438634 -0.0712584 0.26290467
000010 6c 7b d8 3d 6a 34 ec 3d 14 3d 27 be 72 0b 15 3d
       0.10570416 0.11533435 -0.16331893 0.03638787
000020 52 6b b1 bd 22 ff 1c 3d aa d2 da ba a1 b7 ed 3d
       -0.08663048 0.03832925 -0.0016694863 0.1160729
000030 dd 4b 73 bd a0 e4 ae be 8c 51 03 bd 60 f0 bb be
       -0.05939852 -0.34158802 -0.03206019 -0.3670683
000040 b8 02 55 bd 09 39 d5 3c 93 dd 93 bd f1 59 cb bd
       -0.052004546 0.026028173 -0.07219996 -0.09929264
000050 8a b8 2e bd cc b8 d0 bd ee a2 0e 3e 1c dc 11 be
       -0.04265646 -0.10191497 0.1392934 -0.14244121
000060 08 12 c9 3e 7f 89 eb be c8 d7 d9 bc 3a 78 08 be
       0.3927157 -0.4600334 -0.02659215 -0.13327113
000070 7c e7 1f be 04 47 de 3d c2 37 ce 3d 88 bf 00 be
       -0.15615648 0.10853389 0.10069229 -0.12573063
000080 bc 10 22 3e dd f3 a0 3c e6 1b c0 bb 68 7e 36 3b
       0.15826696 0.019647533 -0.0058627008 0.002784634
000090 ec 37 b5 bd 6d b3 54 3c 69 88 b8 3d 39 50 ad 3e
       -0.08848557 0.012982232 0.09010393 0.33850268
0000a0 67 86 96 3d 69 2e 71 bd 10 23 79 bc 2e c0 25 be
       0.07349854 -0.05888215 -0.015206113 -0.16186592
0000b0 ae d8 0c 3c 44 23 0f 3e 85 03 72 be bb 03 ff bd
       0.008596582 0.13978297 -0.23634155 -0.124518834
0000c0 2c 84 b6 3d 6a d2 27 3b 98 bc a5 bc 14 d8 53 bd
       0.089119285 0.0025607594 -0.02023153 -0.05171974
0000d0 f8 3a bb 3d d3 74 b8 bc 52 fb d1 bd 81 9d a6 3d
       0.09142107 -0.022516644 -0.10253014 0.0813551
0000e0 2a 3f 98 bc 31 ee 39 bc bf 89 65 3e 0c 7f 69 3d
       -0.018584806 -0.011348293 0.22415827 0.057005927
0000f0 ae 7b c8 bd d8 05 0e be cd 99 d2 3c 2e 3f 8e 3d
       -0.09789215 -0.13869417 0.025708104 0.06945644
000100 e3 72 c2 3d 55 10 96 be 2c d1 da bd 2f 3c 11 bd
       0.09494569 -0.29309335 -0.106844276 -0.035457786
000110 96 5e e2 bd 3c 8c 96 3d 5f 61 1a 3d d3 98 66 3c
       -0.11053197 0.07350966 0.037690517 0.014074522
000120 bd 12 40 be 91 df 69 3e 16 fb 84 3d aa 58 c2 be
       -0.18757148 0.2283919 0.06493203 -0.3795827
000130 74 00 d1 be cf d7 cf 3c 0b 7d 00 bd 38 5f 1a 3d
       -0.40820658 0.02537146 -0.03136925 0.037688464
000140 86 01 04 3e d2 61 7a bd 32 22 dc be d0 c2 43 bc
       0.12891206 -0.061128445 -0.4299484 -0.011948302
000150 39 63 6b bd 47 9b 8e 3e 54 df b4 3e 05 54 93 3e
       -0.057467673 0.27852842 0.35326636 0.2877504
000160 37 53 39 3a 92 25 ca 3d ea 21 32 bc 28 5c d2 3d
       0.000706959 0.09870447 -0.010872344 0.10271484
000170 15 3b 5c bd b2 10 cc bd 87 39 83 3c 89 35 9f 3d
       -0.053767283 -0.09964122 0.016018642 0.07773883
000180 6e da 0d bc cc be 6f 3e 86 a7 a0 3d 36 3e 02 3d
       -0.008658035 0.23412627 0.078444526 0.03179761
000190 0c 67 2f 3c 47 a0 60 bd 0e a5 94 3c ff c2 77 3e
       0.010705721 -0.054840352 0.01814511 0.24195479
0001a0 05 bc da 3d e3 9c 34 3e d2 8f 02 be ec 00 58 3d
       0.10680393 0.17637973 -0.12750176 0.052735254
0001b0 cc 08 29 3d 9d c5 a1 bd 51 86 17 3d 5a c6 ed bd
       0.041268155 -0.0789902 0.03699333 -0.11610098
0001c0 53 32 48 be 7e 72 53 3f 7a 59 d3 bd 9a b7 47 be
       -0.19550447 0.82596576 -0.10319801 -0.19503632
0001d0 10 e8 13 3b a3 dc 78 3c 88 54 8a 3d 48 0d 3a bd
       0.002256874 0.015189323 0.06754404 -0.045422822
0001e0 87 1f d3 3c 10 77 4d 3e ce d7 ca bd 21 1d 18 3e
       0.02577187 0.2006495 -0.09904443 0.14854862
0001f0 59 3a 39 be 0b 96 2c 3e 66 a3 d5 be 5c 29 d2 3c
       -0.18088664 0.16854112 -0.41726226 0.025654487
000200 ed 7b 12 3e b7 74 1c bc 70 ca 92 bd d9 6d 63 3d
       0.14305086 -0.009549311 -0.07167518 0.05552468
000210 55 bb 40 3e 4f 13 9c 3d eb f6 b1 3d 2e 15 ca 3d
       0.18821461 0.0762087 0.08689674 0.09867321
000220 fa eb ee bd f6 b8 54 3d da e9 0b bb 4f 8a c3 3e
       -0.11666103 0.051934205 -0.0021349103 0.3819146
000230 32 9c 70 3e 4d 92 dc 3d f8 a6 af bc ae ac 58 3e
       0.23497084 0.10770092 -0.021441922 0.21159622
000240 cd 61 a5 3d 48 e8 11 3e 94 96 8b be 20 8d c0 3d
       0.08075295 0.14248765 -0.2726332 0.094019175
000250 66 ca f7 bc e9 58 83 3c 28 13 a6 3a 87 77 77 bd
       -0.030247878 0.016033607 0.0012670504 -0.060416725
000260 9b 97 ad 3d 26 d4 01 bd a4 f5 72 be 99 61 96 3d
       0.08476182 -0.03169646 -0.23726517 0.07342834
000270 5f 03 ad bd 11 ff 6e bd 91 c1 e8 bd a0 d2 e8 bc
       -0.084479086 -0.05834872 -0.11365045 -0.028420746
000280 b6 4d 4e bd 54 8e 9a 3d a5 64 9e 3c 9c b0 ab 3d
       -0.05036708 0.07546678 0.0193351 0.08383295
000290 3c c4 b3 3d 67 cd a2 be a8 64 4d bc 71 79 fa 3d
       0.08777663 -0.31797335 -0.012536205 0.12230194
0002a0 83 87 3b bd 43 b4 70 bd 9c ec 81 bc 54 b0 8e bc
       -0.04578353 -0.05876566 -0.015859894 -0.017418064
0002b0 9e e0 0b 3d b9 89 79 ba f8 85 ef bb 4d 8b 5c be
       0.03414976 -0.00095191185 -0.0073096715 -0.21537514
0002c0 f0 cb 00 bf 62 5d c2 bb 26 62 3d be 3b 3e c7 bb
       -0.50311184 -0.0059315423 -0.18494472 -0.0060804165
0002d0 12 79 02 3e ab 04 90 bd d8 b0 99 3e a4 aa 49 3b
       0.12741497 -0.0703214 0.30017734 0.0030771876
0002e0 65 45 c7 3d 9c 34 ad 3e c7 3b 61 be b0 5f 3d bd
       0.09730033 0.338292 -0.2199546 -0.046233833
0002f0 6d 45 b5 bd 2d 83 8b 3e cb 86 dd bd 3c 05 01 3d
       -0.088511325 0.27248517 -0.10816725 0.031499133
000300 79 1b ab bb be 1f 1d be b8 31 53 bc be 73 df 3e
       -0.005221781 -0.1534414 -0.012890272 0.43642992
000310 b6 37 8b bd 7f ba ab 3c d0 97 cd bc 52 79 d3 3d
       -0.067977354 0.020962952 -0.025096804 0.103258744
000320 d3 cd aa 3b 50 d3 24 3d 7c 31 bc 3d 52 c8 cd bb
       0.0052125244 0.040240586 0.09189126 -0.0062799836
000330 a0 cd 2c bd 9a 67 e1 3b a4 dd a3 bd 38 c2 31 bd
       -0.042188287 0.0068788053 -0.08001259 -0.043398112
000340 b2 eb de bd 09 5e eb bd 0a 7a f3 bd d9 dc e1 bd
       -0.10884799 -0.11492545 -0.118885115 -0.110284515
000350 fa 35 a7 3d 84 82 f2 bb a8 4f d6 3c 89 ea a8 bb
       0.08164592 -0.0074008126 0.02616103 -0.005154912
000360 55 c3 89 bd 70 af c6 bd dd f9 c5 3d 2d b9 99 3d
       -0.0672671 -0.09701431 0.09666798 0.075060226
000370 76 e6 e0 3d b5 01 89 3c 66 8e 88 3d ee 7b f6 3c
       0.10981457 0.016724447 0.06667785 0.030088391
000380 66 04 0a 3c d8 4b df 3c 35 87 02 39 e0 5f 3b bd
       0.0084239 0.027257845 0.00012448135 -0.04574573
000390 d9 e6 38 bc ae cf 86 bc 5c 7e a6 3c eb f4 aa 3d
       -0.011285507 -0.016456451 0.020323925 0.08347496
0003a0 3a 4a 86 bc 6f a1 34 3d e1 98 e6 bd 2c 58 96 bd
       -0.016392816 0.044099268 -0.11259628 -0.07341036
0003b0 9e fe c4 bd 4b a9 c7 3d 0f de d1 3d e7 0c 49 bc
       -0.09618877 0.09749087 0.102474324 -0.012271143
0003c0 a3 e3 f8 3c 53 a2 d3 bd 42 a6 ab bd 82 81 60 3d
       0.030381983 -0.10333695 -0.083813205 0.05481101
0003d0 94 17 a4 bb 8e 81 3b bc e2 3c ba bc ef 61 7f bd
       -0.0050076935 -0.011444462 -0.02273411 -0.062349256
0003e0 af 45 0e be e6 c5 12 3e a4 3a 03 3e d2 f2 ec bd
       -0.1389377 0.14333305 0.12815338 -0.11569752
0003f0 64 8f e4 3d f5 80 78 bc 87 af e7 3c f3 fd 9d 3d
       0.11160162 -0.0151674645 0.02828194 0.077144526

fc.2.bias f4 [4]
000000 d1 96 b7 3d ab 49 46 3d 4d 99 99 bc 5d 5e c6 bc
       0.08964313 0.0484101 -0.018749857 -0.024214918
