model/unicycle-FC2-300-rk4-extra/epoch_0.pth (torch, 14867 bytes, 4 tensors)

fc.0.weight f4 [300, 6]
00000000: 9915 bf3e 4920 773d 130e c23d 0c67 13bd
00000010: b425 583e ca97 6dbe 2d9f 69be 9868 7d3d
00000020: 57bb bc3e 88df 93be ca2e adbd 0121 bd3e
00000030: 2429 b7be 6e72 6c3e f798 02be d5da 453e
00000040: e644 03be 304e a1be 452a 2fbe 3a2a 73be
00000050: 2be9 533e f07d cc3e a9f3 23be 61f5 cbbe
00000060: 410d 4e3e 7c26 cabe 50ea 533e 8e39 a13e
00000070: c9bf 903e 50c9 7bbe 24b8 1abe 6b10 02bd
00000080: 5dea 403e 070f 66be ad0c 853e 80d7 b83e
00000090: 964a 96be cb3f 0c3e c18a d43d 38c0 fa3d
000000a0: c8ee 1e3e 1347 e83d 2962 38be d859 be3e
000000b0: 8c78 fdbc 44a8 ccbe 0ac5 22be 7b42 d5be
000000c0: 759a 3dbd 9c6f 9fbe 4fbb b7be 1120 9a3e
000000d0: 7602 6dbe 814a 41be 5a66 893e 99a2 fb3d
000000e0: 88b5 afbe 4327 46be 875f 853d d453 393e
000000f0: 88c0 b63d d081 823d 3175 9d3d 49b0 b7bd
00000100: def7 a7bc 4481 ccbc 6075 163e 23a7 a9bd
00000110: 3bde 673e 64c3 cdbd 8302 3fbd 742b 83bd
00000120: 2b37 ba3d da90 2ebd 3d68 7e3e 6135 603e
00000130: 8283 4cbc 50ba c93d c93b aabe e065 c23e
00000140: 96e1 b53c 89d5 a2be b633 88be 6378 59be
00000150: 1387 0fbc b322 a13e a9e3 59be 1003 a73e
00000160: c90d 87be fafb a53e a77e bebe 42e5 09be
00000170: 79d6 713e 8248 d2bd 5c90 6d3e 6905 753e
00000180: 5266 813e af3f 603c 104e c1be eb47 30be
00000190: 6b9c 063e 738a 1fbe 2a00 933e 9c3f 98be
000001a0: 172a 6abc 80d0 953e 5ad4 393e 8fef 483d
000001b0: c1a9 cf3d 5300 72be a8db 0a3e 9db6 923e
000001c0: c11c 40be b804 b93e 36a6 703d 2942 55bd
000001d0: e8b8 01be 1329 cebe c57c 97bd d477 d9b9
000001e0: efb9 d13d 31ff 803e 52aa c8be d8e9 01bc
000001f0: 71f3 283e c772 97bd ca73 bdbe 8394 a9be
00000200: e4d4 933e 5aeb c63e 6e29 31be 7b58 98bd
00000210: 7951 723d 82dd 34be 3549 58be 99b8 913e
00000220: 6421 c1be c0a8 96be d94c 413e 9276 223e
00000230: eb94 08bd 1f64 aa3c c762 8c3b aad6 b03e
00000240: 09dd 763d aa94 933e fb1c cbbe a24b aa3e
00000250: 4e22 bbbe fe03 15be 6614 95be 0466 893e
00000260: 3ca1 79bd 5d43 9ebe a4a0 8e3e d2ff d1bd
00000270: 09e4 653e adb8 033e 023d ce3d 192a 0abe
00000280: 1a36 413e 5389 0abc b8ce 523d 12dd 983e
00000290: d1bc aa3d 31c9 6fbe 0989 833e 98f4 c33e
000002a0: 9791 f7bd 1e92 ccbd 87a9 be3e 0622 32be
000002b0: f272 51be 0a57 d03e 9dc5 82be 7030 9b3e
000002c0: 11f4 51be 01e8 87be 86c2 a33e 1c2e 023e
000002d0: ca3b b53e bd4a bbbe b667 afbe 91bb 57bd
000002e0: 1c4d 3d3e 7cbf b7be 89ec babe f928 11be
000002f0: b232 143e bc35 b9be 0d73 e9bd f1bc c5be
00000300: 4811 ebbc a7ab 4c3e 5f4a 7abe 62ab 373e
00000310: 73f5 a4be 29d5 283e 557b d8bd fc6c 4fbe
00000320: 8f44 cf3d 3e7e 60be 165d 133e 2aca e7bd
00000330: 098b 743e b227 a63e 06a5 1c3e 21be 30be
00000340: d416 abbd 792a cb3e 051a 413e a954 223e
00000350: 1e4e b2bd 77d5 b73e d4c3 073e f9b9 a33d
00000360: 3ac8 85bc cf09 c4bc 8c20 673e 3f04 b03e
00000370: 11f6 a8bb 094e 513e 48af d6bd f278 7f3e
00000380: c4ad a9be 7dd1 2e3e 2a4c 513e 5a23 393e
00000390: b8c2 443e 1024 8b3e ed53 ca3c 09e8 c73e
000003a0: e8cc ad3e 6293 15be 85c5 82be 5478 94be
000003b0: 80e5 303e 7a20 863c d116 ce3e b822 a7be
000003c0: 28d2 cabe 8dc6 fa3d e280 c1be 7fc8 12be
000003d0: abce 533e 242f 12bd 1618 7cbe 1295 1dbe
000003e0: e6e2 f43d 9eac 6b3e 5554 863e 84fe 863d
000003f0: fdfd b8be 8505 663e cfa8 7dbe bb82 bd3e
0.37321165 0.060333524 0.09475341 -0.035986945 0.21108133 -0.23202434 -0.22814627 0.061867326
0.3686168 -0.28881478 -0.0845619 0.36939242 -0.35773575 0.23090526 -0.12753664 0.19321759
-0.12819251 -0.31504965 -0.17105968 -0.23746577 0.20694415 0.39939833 -0.16010918 -0.39835647
0.20122243 -0.39482486 0.20694852 0.31489223 0.2827132 -0.24588513 -0.15109307 -0.03175394
0.18839402 -0.2246667 0.25986233 0.36101913 -0.2935378 0.1369621 0.10378028 0.12243694
0.15520775 0.11341681 -0.18006195 0.3717792 -0.03094127 -0.39972126 -0.15895477 -0.41652283
-0.04628988 -0.3113984 -0.35885093 0.3010259 -0.2314547 -0.18876077 0.268359 0.122868724
-0.34318185 -0.19350915 0.06512361 0.18098384 0.08923441 0.06372416 0.07688368 -0.089691706
-0.020503934 -0.024963982 0.14693213 -0.08283832 0.22643368 -0.100470334 -0.046633255 -0.064047724
0.09092554 -0.04261861 0.24844451 0.21895362 -0.012482526 0.098499894 -0.33248737 0.3796835
0.022202294 -0.3180354 -0.26601952 -0.2123733 -0.008760232 0.31471786 -0.21278252 0.32619524
-0.26377705 0.32418805 -0.37206003 -0.13466361 0.23616971 -0.10267736 0.231996 0.23927845
0.25273377 0.013687058 -0.3775487 -0.17214935 0.13145606 -0.15580158 0.28711063 -0.2973603
-0.014292262 0.29260635 0.18147412 0.049056586 0.101398 -0.23632936 0.13560355 0.28654948
-0.18760969 0.36136413 0.05875226 -0.05206505 -0.12668192 -0.40265712 -0.07396845 -0.00041478744
0.10240542 0.25194696 -0.39192444 -0.007929288 0.16499116 -0.07394939 -0.37002403 -0.33121118
0.2887336 0.38851434 -0.1730096 -0.07438751 0.05915973 -0.17662624 -0.21121676 0.2846115
-0.37720788 -0.2942562 0.18876971 0.15865543 -0.033345144 0.020799695 0.004284236 0.34538776
0.06026939 0.2882436 -0.39670548 0.33260828 -0.3654961 -0.14552304 -0.29117125 0.26835644
-0.06094478 -0.3091077 0.27856934 -0.10253872 0.2245027 0.12863417 0.1007023 -0.13492621
0.18868294 -0.008455592 0.051466674 0.29856163 0.08336795 -0.23416592 0.25690487 0.38272548
-0.12088316 -0.09988807 0.37238714 -0.17395791 -0.20454004 0.40691406 -0.25541392 0.30310392
-0.2050326 -0.26544192 0.31984347 0.12712902 0.35397178 -0.36580458 -0.34258813 -0.05266911
0.18486446 -0.35888278 -0.36508587 -0.14175786 0.14472464 -0.3617381 -0.11398897 -0.38620713
-0.028694764 0.19987355 -0.24442433 0.17936471 -0.32218513 0.16487564 -0.10570399 -0.20256418
0.101204984 -0.21923158 0.14390978 -0.113178566 0.23881163 0.3245216 0.15297326 -0.17260028
-0.083539635 0.39680842 0.18857582 0.15852608 -0.08706306 0.35905048 0.13258296 0.07994456
-0.016330827 -0.023930458 0.2257101 0.3437824 -0.0051562865 0.20439924 -0.10482651 0.2494848
-0.33140385 0.17072101 0.2043921 0.18079892 0.19214904 0.2717595 0.024698222 0.39044216
0.33945394 -0.14607003 -0.2554132 -0.28998053 0.17275047 0.016372908 0.40251783 -0.32643676
-0.39613461 0.12244902 -0.37793642 -0.14334296 0.20684306 -0.035689488 -0.24618563 -0.15388897
0.1195734 0.23015067 0.26236215 0.06591514 -0.36131278 0.22463043 -0.24771427 0.37013802

fc.0.bias f4 [300]
00000000: 5efa c7be 6f18 32be b46b 94be 77ba 8b3d
00000010: 998d ca3e 6151 223e 9cab ea3d 70a2 6f3d
00000020: b88f d0bb c74c 83be 86e3 423e c9a9 673e
00000030: 7b07 92be 1076 34bc abb9 7dbe 5c1f a13e
00000040: 9080 513e 388a 0cbd 18c2 9dbd e9a5 a0be
00000050: 1da8 cfbc 50bf 04bd 72d2 ab3e 2521 723e
00000060: 2f98 373e b92c a33e f84b e23d b708 95be
00000070: 3b73 c53d 4fa4 423e b9f6 aabe 8c53 cc3d
00000080: fbac 803e 05e6 f33d 2d24 54bd b7fb b33e
00000090: e8cf 41be daf9 a63e f0ca a9be 9fc1 3dbd
000000a0: e242 653d 1312 343e af0a 9e3e 93d2 a63d
000000b0: ea89 803e 645e 493e 23e3 81be 43ca 79be
000000c0: fd09 90be 0bc7 22be 86af 69bd 86cc 79be
000000d0: a4e6 34bc c38f 74be 60ae a73e b7e1 a9be
000000e0: f092 2ebe 96cc a5bd 2d2d 9cbe bdc2 87bd
000000f0: afd1 fabd 6839 6e3e 1cbf b3be c84d a13e
00000100: 706e b93e 18e4 c43d 3610 86bd eab8 793e
00000110: 9d5d 21be 91a3 37be 7e34 cd3d 6de2 8dbe
00000120: 0c0d 623e c812 483e feb0 c1be c844 e73d
00000130: a84a ab3e 098e c63e ee21 bd3e 3a58 b0be
00000140: a6eb 383c 8672 8ebe 4b89 01be 5ea3 8b3d
00000150: 3a76 d3bc 958a d23d 201b f63d aced a0be
00000160: 5932 1b3e 2a5d a2bd 902f bfbe 5581 b93d
00000170: 32df f1bd cb9f 20bd 3125 68be baa5 363e
00000180: b558 bfbe 04a4 6abd 9ab3 c53e 5da0 e5bd
00000190: 6605 fbbd 7eb9 46bd 4dbe 80bd 180e 82bc
000001a0: 16b0 873e 9458 c8bd f78f a8bd 2f49 2f3e
000001b0: a93a 333e 9107 8dbe da1a 0b3d 5a47 9abe
000001c0: e62c 133c 21ee bf3e 50ba 373e 6413 c23e
000001d0: ed74 d3be f772 b03e a052 da3c 053e b03e
000001e0: 6cda 8bbe d8cd bf3e a3d8 b23e 09ef 0ebe
000001f0: 062b 3a3e d921 a6bc f84d cd3e 101c 873e
00000200: e626 7a3e c304 65be 5495 543e 500b c3be
00000210: df28 f43d 6e4b 443e 17dd 6abe 26b2 963e
00000220: 9637 e63d 0240 7bbe 821c 22be 2ae3 2c3e
00000230: e39c 063e 6d4f 093e a8d2 8e3e e1e5 8f3e
00000240: 9408 8dbd 84b8 6c3e b8a3 be3e f9ae c63e
00000250: c954 be3e 4e8f 8cbe 7971 1fbd b514 373e
00000260: baab 453e c297 57be 0b7a 0bbe 10c2 a7bd
00000270: 4514 32be c191 c1be 386e 1a3d a556 a13c
00000280: b82e 9f3e 4f6d 7f3d 6579 743e 05d7 133e
00000290: 6030 a73e b3cd e7bd 8381 d0be b772 13be
000002a0: 961a 18be 0422 c7bd 59a1 a5bd 16f5 d0be
000002b0: fc1b 39be 7092 853e 7231 be3e e7cb c0bc
000002c0: c4a4 c53e bc7c a6be f6dd 373e 570e 243e
000002d0: 385e 30be 5cfc b23e 56d5 223e ded4 d1be
000002e0: b0df c93e dc3e 85be e4df dfbd 2570 123e
000002f0: f7f1 c8be 0958 96bd c9a5 453e c7da 9ebe
00000300: d8dc 83bd 99e8 cabe 6420 85be dfe7 653e
00000310: 24ba 4e3d 05f6 41bd 694e 373e 84c3 b6be
00000320: 4198 813e 3a0b 8f3e 52ce 113c e11e 9ebe
00000330: 8ac3 1ebe a4e2 9fbe 6ac2 3fbc 1b40 ac3e
00000340: c1a7 9cbe e29b c1be cf00 fb3d ff42 9b3e
00000350: 3cfe a1be 4879 a7be f002 cfbe e6ed 783d
00000360: 586a 423e 8594 9fbe bdde 543e 2055 15be
00000370: ea0a 17bd a013 b9be 12e8 cfbe 00af a9be
00000380: 829e d2bc af9e 25be 1269 453e 3540 803e
00000390: e4b9 25be 3745 2dbe 3ebc 4d3e 4bd7 bf3e
000003a0: 1de4 b5bd e551 d1be 7652 0bbe 92be d3be
000003b0: 940a c23e 1552 bd3e dbda 803e eb93 723e
000003c0: 3e5c 833e e152 43be 7514 13be f5bb c63c
000003d0: 5b06 4fbe aa4d b73d 1497 ad3e 5b35 033e
000003e0: d3f3 84be 703a b73e caf1 82be aa19 e9bd
000003f0: e204 41be 77a1 7f3e 2704 ebba 501c 893d
-0.39058203 -0.17392133 -0.2898842 0.06822675 0.39561155 0.15851356 0.11458513 0.05850452
-0.006364789 -0.25644514 0.19032106 0.22623362 -0.28521332 -0.011014476 -0.24777858 0.31469238
0.20459199 -0.034311503 -0.07703036 -0.3137658 -0.025348717 -0.032409012 0.33558995 0.23645456
0.17929147 0.31870058 0.11049646 -0.2910821 0.09641119 0.19007991 -0.3339136 0.09976873
0.25131974 0.11909107 -0.051792312 0.3515298 -0.18926966 0.32612497 -0.33162642 -0.04632723
0.055971988 0.1758502 0.30867526 0.081456326 0.2510522 0.19664913 -0.25368604 -0.24393563
-0.2813262 -0.15896241 -0.057052158 -0.24394426 -0.011041317 -0.23882966 0.32750225 -0.3318002
-0.1704824 -0.08095662 -0.30503216 -0.0662894 -0.12247025 0.23264086 -0.35106742 0.31504655
0.3621707 0.09613818 -0.06546061 0.24386945 -0.15758367 -0.1793349 0.10019778 -0.27711812
0.2207529 0.19538414 -0.37830347 0.11292416 0.33455396 0.3878024 0.3693995 -0.34442312
0.011286652 -0.2782175 -0.1265003 0.06818269 -0.02581321 0.10280339 0.120168924 -0.3143133
0.15155925 -0.07927926 -0.37340975 0.09057871 -0.11810149 -0.03921489 -0.22670437 0.17836657
-0.37372366 -0.057285324 0.38613588 -0.112122275 -0.12256889 -0.048516743 -0.06286297 -0.015875861
0.2650153 -0.0978252 -0.08230584 0.17117761 0.17502846 -0.27544835 0.033961155 -0.30132562
0.008982873 0.37486365 0.17942166 0.3790542 -0.41300145 0.3446271 0.026650727 0.34422317
-0.2731508 0.37461734 0.34930906 -0.13958372 0.18180475 -0.020279812 0.40098548 0.26388597
0.24428901 -0.22365098 0.20760089 -0.38094568 0.11921858 0.19169399 -0.22935902 0.2943279
0.11241071 -0.24536136 -0.15831187 0.16883531 0.13145785 0.13409205 0.27895093 0.2810507
-0.06886402 0.23117262 0.37234282 0.3880537 0.3717406 -0.27453083 -0.038926575 0.17878993
0.1930379 -0.21053985 -0.13620774 -0.08191311 -0.17390545 -0.37806514 0.03770277 0.019694636
0.3109033 0.062360104 0.23874433 0.14437492 0.32654095 -0.11318531 -0.4072381 -0.14399229
-0.14853892 -0.09723285 -0.08087415 -0.40811986 -0.18077081 0.26088285 0.371471 -0.023534728
0.3860227 -0.3251704 0.17955765 0.16021095 -0.17223442 0.3495816 0.15901694 -0.40982717
0.39428473 -0.2602452 -0.109313756 0.14300592 -0.39247105 -0.0734101 0.19301523 -0.3102629
-0.06438607 -0.39630583 -0.26001275 0.22451733 0.050470486 -0.047353763 0.17901005 -0.35696042
0.25311473 0.27938253 0.008899288 -0.30882934 -0.1550428 -0.312276 -0.011704067 0.3364266
-0.30596736 -0.37814242 0.122560136 0.3032455 -0.31639278 -0.32709718 -0.4043193 0.060773753
0.1898588 -0.31168 0.20788093 -0.14583254 -0.036875643 -0.36147785 -0.40606743 -0.33141327
-0.025710348 -0.16173814 0.19278362 0.25048986 -0.16184193 -0.16920935 0.2009134 0.37468943
-0.088814 -0.40882793 -0.13605675 -0.4135633 0.37898695 0.36976686 0.25166973 0.23689239
0.25656313 -0.19074585 -0.14363272 0.024259547 -0.20217268 0.0895036 0.33904326 0.12813322
-0.25967273 0.35786772 -0.25575095 -0.11381848 -0.18849519 0.24963938 -0.0017930315 0.06694853

fc.1.weight f4 [4, 300]
00000000: f50e 06bd 9b2d 0fbd 1427 25bd 094c 24bd
00000010: c323 e4bc 7331 143c 400f 8c3b 41d0 5a3d
00000020: dd8b 533c 8d22 20bd 593d 3c3d 0035 03bd
00000030: a659 18bd 9994 1dbd fec2 dabc dbc0 fbbc
00000040: dbeb 403c 3c27 0cbd 03d6 59bd a987 883b
00000050: c2d1 a9bb b399 7b3d 7372 993a e1b7 4ebc
00000060: cb2c 7b3d f05c 863d 850d b6bc 60d5 d83c
00000070: e99e 463d 66cb 0ebd f73d bd3c 128b 1a3d
00000080: b2ee 53bc 177b 0f3d cc24 713d 2b3c 09bc
00000090: a66a 5c3d a733 353d 32bb e43b 2b0b 1abd
000000a0: d242 6e3c 6b79 e3bc 59b9 4f3d 0363 c43c
000000b0: c534 453d 8428 eebc 6b40 8fbc 8b7b fcbc
000000c0: 77c5 d7bc 5a57 9b3c c24a 333d da36 253b
000000d0: aed7 ddbc fb6b 68bd 40f7 e13c c24b 5e3d
000000e0: c5e4 753d aa34 683d c081 93bb 4a6a 8a3b
000000f0: d16e 1b3d 9dcb f73c 96ab 10bd 2ac9 7ebc
00000100: b968 3abd f0a4 ae3c 96b8 de3c eff3 2fbd
00000110: c3e1 95bc 29e8 813b d77d 463d fa72 b4bc
00000120: 7d31 3abd 9e0d a93a 219a ddbc 92ea d63a
00000130: 9f50 2b3d ac03 00bc b4be 12bd 1673 47bd
00000140: b943 0bbd fa79 1c3d ab4c 95bc 0fbe 443c
00000150: a010 08bd cc41 33bd d388 68bc 5c5c 3ebd
00000160: 335b 523d cf39 463c 7f29 a23c eac3 813d
00000170: 290d 2bbd a3dc 8c3c 7d8d 61bd 62f9 563d
00000180: 559d 163d 1cd4 f83c ac61 89bb 708e 483d
00000190: f8f0 d2bc 696e ab3c 9591 523d 45d2 c73c
000001a0: 5ee7 403d 5848 42bc 5189 20bd 0a78 db3c
000001b0: 9fb3 37bd 6bc9 0dbd 3cef 07bd 44c9 783d
000001c0: 0c7f 89bc 5750 413c bcbf 3fbd 1b61 51bc
000001d0: 9e02 26bd 1efb 073d 0cda 42bc bb71 223d
000001e0: 8211 493d 4ec8 553a a0e1 1fbc 974a a9bc
000001f0: 17c2 013c e62f 0b3d 4d3b 853d 2eb0 413d
00000200: 78ce 90bc f41e a0bb 71c5 f5bc 22ae 423d
00000210: 82ce 6abd dcaa bb3c e97d 0bbd 849d 07bd
00000220: 6492 363c 35a3 bb3c 6492 a63c 2327 023c
00000230: bd26 f3bb f91a ca3b 5acb 27bd 6287 4f3d
00000240: 939f 30bd b4f6 c2bc b5a0 1fbd 0eaa 07bd
00000250: 51aa 64bd 9fc3 993c bd79 4b3d 2f61 a93c
00000260: d310 aabc 3fd2 30bc 2b54 163d ae46 083c
00000270: efd8 1ebd 23ef 4abb 3561 41bd d178 923c
00000280: 8ad4 9fbc a11a ac3c 9a21 27bd 9c13 d1bc
00000290: 7628 e8bb c5a6 d2bc 723b bc3c 5302 d13c
000002a0: 69a8 133d 13bc 803d 1a1e 963c f544 a53c
000002b0: cb05 213d b761 70bd 7415 223d d75b 013c
000002c0: ffa0 43bd ba67 373d b175 37bd e444 6bbb
000002d0: 0672 123d b6f1 373d c905 da3c 9627 9bbc
000002e0: 7f7e 533d d20e 87ba 2a75 d53c 6c7a 27bd
000002f0: 62cc 03bd ea71 b93c 33b2 6a39 5902 0ebd
00000300: ff4b 0c3d 21df 123c ca27 02bd 58fc 7d3c
00000310: 9a3a d43c f335 c8bc 5ebb 1a3d 5809 6fbc
00000320: ad66 0ebd 74ec 103d ff7b 33bd 9d53 5c3d
00000330: e9fb 3bbd 712e 13bd 58d9 af3c 4994 983c
00000340: b2d8 1e3d 705e 48bd aea7 ac3c 314f 89bc
00000350: 0779 563d af27 48bd fa90 9e3c 643d 5d3d
00000360: ae5b 173d 86f1 82ba b4a7 0a3c 6bbd d73c
00000370: 3cae 403d 8682 39bd 9797 64bd f28b 83bb
00000380: 02ed dc3c bcc9 9e3c e538 b03c df96 71bb
00000390: b8c6 e9bc eb49 08bd fa9d babc df58 4f3c
000003a0: 2918 23bd 0194 f3bc 5a16 17bd fe7a 3fbd
000003b0: 9bba e73c 9ff2 cb3c 8884 25bb 424c 6ebd
000003c0: ec39 1e3d 3d61 13bd 5311 2ebd c6ae 8abc
000003d0: a4b4 1bbd 1654 a8bc b181 ff3c 70b7 0abd
000003e0: f8aa 303c 55dd ef3c f951 153d 8099 d6bc
000003f0: a696 efbb 89b3 803d 2a80 053c 6984 e3bb
-0.032729108 -0.034955602 -0.04032047 -0.040111575 -0.027849084 0.009044993 0.004274279 0.053421263
0.012911764 -0.03909545 0.045956943 -0.032032967 -0.03719487 -0.038471792 -0.026704308 -0.03073161
0.011774982 -0.034217104 -0.053182613 0.0041665626 -0.005182476 0.061425876 0.0011707082 -0.012617082
0.061322015 0.06560695 -0.022223243 0.026468933 0.048491392 -0.034861945 0.023100836 0.037730284
-0.012935327 0.035029497 0.058872983 -0.008376162 0.053812645 0.044238713 0.006980323 -0.037608307
0.014542298 -0.027767858 0.05071387 0.023972994 0.048146028 -0.029072054 -0.017486772 -0.030820629
-0.026339276 0.01896255 0.043772466 0.0025209696 -0.027080383 -0.056743603 0.027583718 0.054271467
0.060032625 0.05669085 -0.0045015514 0.0042240964 0.03794748 0.030248458 -0.035319887 -0.015550891
-0.045510028 0.021318883 0.027187627 -0.042957243 -0.018296128 0.003964443 0.048459854 -0.022027481
-0.045457352 0.0012897735 -0.027051033 0.0016396812 0.041824933 -0.007813375 -0.0358264 -0.04869374
-0.034000132 0.038202263 -0.018225035 0.012008204 -0.03321898 -0.04376392 -0.014192778 -0.0464748
0.051356506 0.012098744 0.019795178 0.06336196 -0.041760597 0.017195052 -0.055066574 0.052483924
0.036771137 0.03037458 -0.0041925516 0.048963964 -0.025749668 0.020926671 0.05140837 0.024392257
0.04709565 -0.011858068 -0.039193455 0.026790638 -0.044849034 -0.034615915 -0.033187136 0.060738817
-0.016784213 0.01179894 -0.04681371 -0.012779499 -0.04052984 0.03319847 -0.011892807 0.039659243
0.049088962 0.0008155153 -0.009758383 -0.02066545 0.00791981 0.033981226 0.06505451 0.04728716
-0.017676577 -0.0048865024 -0.030001374 0.047529347 -0.057325847 0.02290862 -0.034055624 -0.033109203
0.011143301 0.022904972 0.020333476 0.007943901 -0.0074203894 0.006167766 -0.040965416 0.05066622
-0.04312093 -0.023799278 -0.03897162 -0.03312116 -0.05582649 0.018770037 0.049676646 0.020676224
-0.020759976 -0.010792314 0.036701363 0.008317633 -0.038781103 -0.003096529 -0.047211844 0.017879875
-0.019510526 0.021008791 -0.04080353 -0.025522046 -0.0070849014 -0.025714288 0.022977564 0.025513804
0.03604928 0.06285872 0.0183249 0.020174483 0.039312165 -0.058686938 0.03957124 0.0078954315
-0.04776096 0.044776656 -0.044789974 -0.0035899216 0.035753272 0.044908248 0.026614087 -0.018939774
0.051634308 -0.0010304099 0.026056845 -0.040888235 -0.032177337 0.022637326 0.00022382363 -0.034670208
0.034252163 0.008964331 -0.031776227 0.015502058 0.02590685 -0.024439787 0.037776344 -0.01458963
-0.034765888 0.03538175 -0.043819424 0.053790677 -0.045894537 -0.03593296 0.021465942 0.018625395
0.038780876 -0.048918188 0.02107605 -0.016761394 0.052361514 -0.04886597 0.01935624 0.054013625
0.036952667 -0.0009990192 0.008462835 0.026335439 0.047041163 -0.045290492 -0.05580863 -0.0040144855
0.026968483 0.019383304 0.021511504 -0.0036863608 -0.02853714 -0.03327362 -0.022780407 0.012655466
-0.039817963 -0.02973366 -0.03688655 -0.046748154 0.028287223 0.024895964 -0.0025255997 -0.058178194
0.038629457 -0.035981406 -0.04249699 -0.016929042 -0.03801407 -0.020547908 0.031189771 -0.033866346
0.01078295 0.029280344 0.03645513 -0.026196241 -0.00731166 0.062842436 0.0081482325 -0.0069432748

fc.1.bias f4 [4]
00000000: ee8a 003d c2a6 48bc ef81 e93c 9cde b9bc
0.031382494 -0.012246789 0.02850434 -0.022689156
