model/unicycle-FC2-300-rk4-extra/epoch_200.pth (torch, 14867 bytes, 4 tensors)

fc.0.weight f4 [300, 6]
0	0x3ebc3ca6	0.3676502
1	0x3d85b7c0	0.06529188
2	0x3e113406	0.14180002
3	0xbd047ec4	-0.032347456
4	0x3e67c5d3	0.22634058
5	0xbe311c6d	-0.17296
6	0xbe634763	-0.221952
7	0x3d5bfeb7	0.053709712
8	0x3e3605d7	0.17775665
9	0xbe62c646	-0.22145948
10	0xbe023e9f	-0.127192
11	0x3eafc24e	0.3432793
12	0xbec0aa76	-0.3763005
13	0x3e1718fa	0.14755622
14	0xbe136ab0	-0.14396167
15	0x3e968bd8	0.29403567
16	0xbe48e969	-0.19620289
17	0xbeb34345	-0.3501226
18	0xbe3b867e	-0.18313023
19	0xbe5ab377	-0.21357523
20	0x3e7a1a22	0.24424031
21	0x3f04ed10	0.5192423
22	0xbe5d5d48	-0.21617615
23	0xbeaccd71	-0.3375049
24	0x3e7cf58f	0.24703048
25	0xbeb87ea1	-0.3603411
26	0x3e900a31	0.28132775
27	0x3ec749bd	0.38923445
28	0x3e9cf0dc	0.3065251
29	0xbea7bb48	-0.32760072
30	0xbb5039a4	-0.0031772638
31	0x3af2cef3	0.001852481
32	0x3ee64b26	0.4497921
33	0xbf237dae	-0.63863647
34	0x3e323941	0.17404653
35	0x3e726f05	0.23675163
36	0xbe8becde	-0.27329153
37	0xbc2d6341	-0.010582746
38	0x3eab49a6	0.33454627
39	0x3edde587	0.43339178
40	0x3e5c3de5	0.21507986
41	0x3de4cb3a	0.11171575
42	0xbe134123	-0.14380316
43	0x3eb6d44b	0.35708842
44	0x3f004475	0.5010446
45	0xbe005c19	-0.12535132
46	0xbe2f7511	-0.17134501
47	0xbee3ab32	-0.4446655
48	0xbb224915	-0.0024762799
49	0xbe96667f	-0.29375073
50	0xbea03435	-0.3128983
51	0x3e94904b	0.29016337
52	0xbe911d42	-0.28342634
53	0xbdfb5e1d	-0.1227381
54	0x3e812f2c	0.25231302
55	0x3dd40a7c	0.10353562
56	0xbf0bff6f	-0.54686636
57	0xbf0f3e08	-0.5595403
58	0x3d4ad2bf	0.04951739
59	0x3e07cc10	0.13261437
60	0x3d27bb98	0.040950388
61	0x3bb3794b	0.0054771057
62	0x3f39d639	0.725925
63	0xbf6a9ac6	-0.91642416
64	0x3d1b4d31	0.037915412
65	0xbd6e2d1c	-0.05814849
66	0x3e0f253b	0.13979046
67	0xbd78dbbd	-0.060756434
68	0x3e79dab2	0.24399832
69	0xbe352f27	-0.17693768
70	0xbe2181f6	-0.15772232
71	0x39a506d5	0.00031476343
72	0x3abac0ff	0.0014248191
73	0x3b144e47	0.0022629665
74	0x3f378d4c	0.71699977
75	0x3f824e5c	1.0180163
76	0x3d666bb7	0.05625507
77	0x3d21af2f	0.03947371
78	0xbe9b3b67	-0.30318758
79	0x3ec113c1	0.37710384
80	0xbbc063f9	-0.0058712927
81	0xbef9ba06	-0.48774737
82	0xbea0b904	-0.31391156
83	0xbe7e319a	-0.24823609
84	0x3e054fa8	0.13018668
85	0x3e8a3ec4	0.2700101
86	0xbe98ad8c	-0.29819906
87	0x3ed84e74	0.42247355
88	0xbe9d4873	-0.30719337
89	0x3e9c4c86	0.30527133
90	0xbeb7caa3	-0.35896787
91	0xbdf4a023	-0.11944606
92	0x3e49cf53	0.19707994
93	0xbea0d092	-0.31409127
94	0x3e8e363e	0.27775759
95	0x3e8f370c	0.27971685
96	0x3e5db315	0.21650346
97	0x3d6d98fe	0.058007233
98	0xbf0bb9ae	-0.545802
99	0xbed6d2c7	-0.41957685
100	0x3d9aebd6	0.075645134
101	0xbe6c1e09	-0.23058333
102	0x3e815c43	0.25265703
103	0xbe92d35c	-0.2867688
104	0x3cd7a96a	0.0263259
105	0x3eaa0984	0.33210385
106	0x3e63d377	0.22248636
107	0x3b0ba63a	0.0021308796
108	0x3e0bc1d1	0.13648154
109	0xbe693b0f	-0.22776435
110	0x3ddfa675	0.10920421
111	0x3e5df089	0.21673788
112	0xbe6968b8	-0.22793853
113	0x3e8edcb6	0.27902764
114	0x3c777eb9	0.015105897
115	0xbcb6efa1	-0.02233106
116	0xbf1e9233	-0.6194183
117	0xbf6b5644	-0.91928506
118	0xbd84a831	-0.064773925
119	0xbd39b78d	-0.045341063
120	0x3e0b8f48	0.13628876
121	0x3e7be9e9	0.24600948
122	0xbe8a6fdd	-0.2703847
123	0xbe65a2c4	-0.22425371
124	0x3df03355	0.11728541
125	0xbe100e17	-0.14067875
126	0xbed7ad79	-0.42124537
127	0xbe8e3a4a	-0.27778846
128	0x3ef98049	0.48730686
129	0x3f4775f1	0.7791434
130	0xbe6ffcac	-0.2343623
131	0x3e34d469	0.17659153
132	0x3d454d6e	0.048169546
133	0xbe259f81	-0.16174127
134	0xbe6da8bc	-0.23208898
135	0x3eb958a9	0.36200455
136	0xbec578f4	-0.38568842
137	0xbe622e5d	-0.22087999
138	0x3e185668	0.14876711
139	0x3e497fee	0.19677708
140	0xbd82ec35	-0.06392709
141	0xbdbfb804	-0.0936127
142	0x3d428e1f	0.04749882
143	0x3e9d9f68	0.3078568
144	0xbd591058	-0.052994102
145	0x3ea15a95	0.3151442
146	0xbe1c8acf	-0.15287326
147	0x3ea6cc4d	0.32577744
148	0xbec3e6d8	-0.38262057
149	0xbdbd7401	-0.092506416
150	0xbe97bbf3	-0.2963558
151	0x3e81d1fb	0.25355515
152	0xbd5a4fe1	-0.053298835
153	0xbe30dabc	-0.1727094
154	0x3e33cf99	0.17559661
155	0xbe06750e	-0.1313059
156	0x3e212816	0.15737948
157	0x3d2f44b6	0.042790137
158	0x3f01b869	0.5067201
159	0x3ecb988d	0.39764825
160	0x3ea21599	0.31657103
161	0xbe2b28da	-0.16714802
162	0x3c49c33c	0.012314614
163	0x3e940033	0.28906402
164	0xbd9d10c1	-0.07669211
165	0xbe9d6e18	-0.30748057
166	0x3e56c491	0.20973422
167	0x3ee064ed	0.43827
168	0xbe1c0ad4	-0.15238506
169	0xbdd49240	-0.103794575
170	0x3ea6eacb	0.32601008
171	0x3e0bdbdd	0.1365809
172	0xbea29b01	-0.31758884
173	0x3eea41b2	0.45753247
174	0xbe6a25aa	-0.2286593
175	0x3ea63a2d	0.3246626
176	0xbe7628d1	-0.24039008
177	0xbef141ee	-0.47120613
178	0x3ea7cd5d	0.32773867
179	0x3dc8862a	0.09791215
180	0x3eb4b2a2	0.35292536
181	0xbeb66c12	-0.35629326
182	0xbe9e6774	-0.30938303
183	0x3d031821	0.032005433
184	0x3e9e0732	0.30864865
185	0xbedb5233	-0.4283615
186	0xbe86d728	-0.26336026
187	0xbd408d7a	-0.047009923
188	0x3f1fed6c	0.6247165
189	0xbf5fdad5	-0.87443286
190	0xbc5d68b0	-0.013513729
191	0xbf174e1b	-0.59103554
192	0xbc07d746	-0.008291071
193	0x3b9eedc7	0.0048501226
194	0xbe761ec5	-0.24035175
195	0x3f6dd0b6	0.9289659
196	0xbe6b0c75	-0.2295397
197	0x3e0bf464	0.13667446
198	0xbdcdb583	-0.10044386
199	0xbe439c04	-0.19102484
200	0x3d45d87e	0.048302166
201	0xbe9b0843	-0.3027974
202	0x3de5c24d	0.112187006
203	0xbe7d6d6e	-0.24748775
204	0x3e8c24c0	0.27371788
205	0x3e9bb44e	0.30411
206	0xbe66f319	-0.22553672
207	0xbe2f1173	-0.170965
208	0xbdf157b9	-0.1178431
209	0x3efadf14	0.4899832
210	0x3e302af9	0.17203893
211	0x3e4b3b31	0.19846798
212	0xbc19f036	-0.00939565
213	0x3ede88ea	0.43463832
214	0x3da489d3	0.080341004
215	0x3ce96946	0.028492581
216	0x3d34a179	0.044099305
217	0xbd835065	-0.064118184
218	0x3f260f82	0.64867413
219	0x3f9f1d34	1.2430787
220	0x3da56247	0.080753855
221	0x3d882c26	0.06649046
222	0xbda7c662	-0.081921354
223	0x3e815472	0.2525974
224	0xbcc6c1d9	-0.024262356
225	0x3eb6830d	0.3564686
226	0x3e6822da	0.22669545
227	0x3e82a221	0.2551432
228	0x3e65afd3	0.22430353
229	0x3e98d58c	0.29850423
230	0xbc9d65bc	-0.01921355
231	0x3ef9c8a0	0.48785877
232	0x3e9a586e	0.30145591
233	0xbdb34974	-0.087542444
234	0xbe9f538f	-0.31118438
235	0xbe926fd4	-0.28600943
236	0x3dcf105a	0.10110541
237	0xbd8b7b01	-0.068105705
238	0x3ec7a7c6	0.38995188
239	0xbeb7b0d9	-0.35877112
240	0xbebb78d2	-0.36615616
241	0x3dea1a13	0.114307545
242	0xbee4bc6f	-0.44675013
243	0xbe49b6c2	-0.19698623
244	0x3e7404e7	0.23829995
245	0x3c06edc8	0.008235402
246	0xbe5f97eb	-0.21835296
247	0xbe17e132	-0.14831999
248	0x3e0cd585	0.13753326
249	0x3f0f3b70	0.5595007
250	0x3e95b66a	0.29240733
251	0x3da596e3	0.0808542
252	0xbec9f25c	-0.39442718
253	0x3e37c6f2	0.17946985
254	0xbe2a9213	-0.16657285
255	0x3e8bf92b	0.27338538

fc.0.bias f4 [300]
0	0xbe9c08b9	-0.30475405
1	0xbe6fd0e6	-0.23419532
2	0xbe83f5a9	-0.2577336
3	0x3d927735	0.07151643
4	0x3eee76a4	0.4657489
5	0x3f0f78aa	0.56043494
6	0x3d8a1455	0.06742159
7	0xbcc1cc28	-0.02365692
8	0xbe5d4ec6	-0.21612081
9	0xbe5a40f3	-0.21313839
10	0x3fb8b83a	1.4431221
11	0x3ea9a510	0.33133745
12	0xbfe004b2	-1.7501433
13	0xbd18da0c	-0.03731732
14	0xbe87f61e	-0.2655496
15	0x3ec849bc	0.39118755
16	0x3e28caa8	0.16483557
17	0xbbd5bd3c	-0.0065228026
18	0x3c745e9f	0.014915138
19	0xbfb736e2	-1.4313624
20	0xbc80550b	-0.015665552
21	0xbd8cd8d1	-0.06877292
22	0x3eb91e22	0.36155802
23	0x3e8fb7cd	0.28069916
24	0x3d656aa3	0.0560099
25	0x3e7a9004	0.24469
26	0x3ea2c814	0.31793272
27	0xbeab44ea	-0.33451015
28	0x3bd9cac9	0.0066464883
29	0x3e7ede5a	0.24889508
30	0xbea3f7fe	-0.3202514
31	0x3dff6a1b	0.1247141
32	0x3f2b9f2b	0.67039746
33	0x3db805b2	0.08985461
34	0xbdada414	-0.08478561
35	0x3e485bc5	0.19566257
36	0xbea31308	-0.31850457
37	0x3e628cae	0.22123978
38	0xbeb69d28	-0.35666776
39	0x3d725213	0.059160303
40	0xbd92eb03	-0.07173731
41	0x3e848c14	0.2588812
42	0x3e657a56	0.22409949
43	0x3df57a05	0.11986164
44	0x3d8d30b5	0.06894056
45	0x3e98152c	0.29703653
46	0xbe9327ca	-0.28741294
47	0xbe01ef53	-0.12688951
48	0xbea2f952	-0.3183084
49	0xbe411cbe	-0.1885862
50	0xbda2b655	-0.07944933
51	0xbe7ea091	-0.24865939
52	0x3d220106	0.039551757
53	0xbe3d3109	-0.18475737
54	0x3eb0dd6d	0.34543934
55	0xbea17a81	-0.31538776
56	0xbe80438e	-0.2505154
57	0xbd340ea2	-0.043959267
58	0xbe896046	-0.26831263
59	0xbdde7236	-0.10861628
60	0xbe83b621	-0.2572489
61	0x3dd5edba	0.10445733
62	0xbe6229a9	-0.22086205
63	0x3ea539c9	0.3227065
64	0x3edba1d5	0.42896906
65	0x3be7a39e	0.0070690652
66	0xbd515848	-0.051109582
67	0x3ebce0a2	0.3689013
68	0xbe3efbed	-0.1865079
69	0xbe51c29f	-0.20484398
70	0x3c2e0e3c	0.010623511
71	0xbe9e13f8	-0.3087461
72	0x3e954108	0.29151177
73	0x3e50cc45	0.20390423
74	0xbe8f7582	-0.2801934
75	0x3e258aee	0.16166279
76	0x3ef7eb7c	0.48421848
77	0x3ed015ce	0.40641636
78	0x3e9d41ba	0.30714208
79	0xbed3962f	-0.41325518
80	0xbcdca5ea	-0.026934583
81	0xbeb330b4	-0.34998095
82	0xbcc7f415	-0.02440838
83	0xbc702c8d	-0.014659059
84	0x3ac04e69	0.0014671806
85	0x3e13549a	0.14387742
86	0x3debeaac	0.115193695
87	0xbeac2d95	-0.33628526
88	0x3cc5e1a5	0.024155447
89	0xbcc233ea	-0.023706395
90	0xbeb98058	-0.3623073
91	0x3d6ddb27	0.058070328
92	0xbd1fd262	-0.039018996
93	0xbc86d6e1	-0.016459884
94	0xbd7f5c0a	-0.062343635
95	0x3d8f52c5	0.06998209
96	0xbe9f7be0	-0.31149197
97	0xbdb9c4d8	-0.09070748
98	0x3ec39ae4	0.3820411
99	0xb936399e	-0.00017378337
100	0xbe11464b	-0.14186971
101	0xbdf5c33b	-0.12000128
102	0xbdf4d9d1	-0.11955608
103	0xbdba6d49	-0.09102876
104	0x3e715dd4	0.23570949
105	0x3d09596b	0.03353254
106	0xbc999baf	-0.018750994
107	0x3e973410	0.29531908
108	0x3eb7564e	0.35808033
109	0xbe144f84	-0.14483458
110	0x3e3826f3	0.17983608
111	0xbeb46fd5	-0.3524157
112	0x3ea6473e	0.32476228
113	0x3ec15f05	0.37767807
114	0x3ea99180	0.3311882
115	0x3ed323e6	0.41238326
116	0xbede29f1	-0.43391374
117	0x3e72810f	0.23682044
118	0x3ced2aa5	0.028950999
119	0x3e86ac55	0.26303354
120	0xbecb673a	-0.39727193
121	0x3ed58135	0.4170014
122	0x3e6fce23	0.23418479
123	0xbdd1f9ce	-0.102527246
124	0x3de23f44	0.11047223
125	0xbe40b75d	-0.18819948
126	0x3e466fc5	0.19378574
127	0x3eadfcb7	0.3398187
128	0x3ea235f9	0.31681803
129	0xbe00552f	-0.12532495
130	0x3ea37aa8	0.31929517
131	0xbeb96b10	-0.36214495
132	0x3e7610fd	0.24029918
133	0x3f9309e4	1.1487393
134	0xbe509ff9	-0.20373525
135	0x3ec62c76	0.38705796
136	0x3db9137e	0.09036921
137	0xbe7c0c02	-0.24613956
138	0xbe197d4d	-0.14989205
139	0x3e717add	0.23582025
140	0x3e3a2b44	0.18180567
141	0x3dc00e7f	0.09377765
142	0x3f77e00c	0.96826243
143	0x3e36c0c4	0.17846972
144	0x3c4606dc	0.012086596
145	0x3f79a669	0.97519547
146	0x3f0bd9d3	0.5462925
147	0x3ef5e78e	0.48028225
148	0x3f110d9a	0.5666138
149	0xbe834ef9	-0.2564619
150	0xbddec1e1	-0.10876823
151	0x3e4a5e12	0.19762447
152	0x3eaa2224	0.33229172
153	0xbe940bcc	-0.2891525
154	0xbf4ece50	-0.8078356
155	0xbe0288f7	-0.1274756
156	0x3c8bdad3	0.017072117
157	0xbf03c0bc	-0.51465964
158	0x3d7cd23d	0.061723936
159	0x3c27ea99	0.0102488035
160	0x3e8a3cce	0.26999515
161	0x3d92b404	0.071632415
162	0x3e80c1ac	0.2514776
163	0x3e04e4a0	0.12977839
164	0x3eb2ba8f	0.34907958
165	0x3c5845b9	0.013200217
166	0xbf2a51d0	-0.66531086
167	0xbe923426	-0.2855541
168	0xbe788bf0	-0.24272132
169	0xbe3a6b5b	-0.18205015
170	0xbe117798	-0.14205778
171	0xbed9925a	-0.4249447
172	0xbe961434	-0.2931229
173	0x3ecc300f	0.39880416
174	0x3dca403a	0.098755315
175	0xbd1220fb	-0.035675984
176	0x3ef47e39	0.4775255
177	0xbf051beb	-0.51995724
178	0x3e4fd170	0.20294738
179	0x3e33d9a4	0.17563492
180	0xbe421fb6	-0.1895741
181	0x3e9e09d9	0.30866888
182	0x3db0f740	0.08640909
183	0xbedd6292	-0.43239266
184	0x3e99b6fc	0.30022418
185	0xbe84910b	-0.2589191
186	0xbe9f673b	-0.31133446
187	0x3e8fb963	0.28071126
188	0xbece738e	-0.40322536
189	0xbf631aa6	-0.8871254
190	0x3e63ee98	0.22258985
191	0x3debba6b	0.11510166
192	0xbe1a7e5e	-0.15087268
193	0xbf2050b5	-0.6262315
194	0xbe983e8b	-0.29735216
195	0x3e4f44a3	0.20241027
196	0x3d25617a	0.040376164
197	0xbbb2fc81	-0.0054622297
198	0x3d9e8d5f	0.07741808
199	0xbeb0cb59	-0.34530142
200	0x3ebc3bb8	0.36764312
201	0x3e5ddccb	0.21666257
202	0x3deaa0c4	0.11456445
203	0xbeb43587	-0.35197088
204	0xbd23329a	-0.03984318
205	0xbead11ce	-0.33802646
206	0xbce0276c	-0.027362548
207	0x3e8d78ba	0.2763117
208	0xbe489e2b	-0.19591586
209	0xbec26acd	-0.37972108
210	0x3c9934e6	0.018701982
211	0x3eb973ce	0.36221164
212	0xbe9631b7	-0.29334804
213	0xbe2ad619	-0.16683234
214	0xbfdb17dd	-1.7116657
215	0x3ca91a83	0.020642525
216	0x3d3584e3	0.044316184
217	0xbe87e0ab	-0.26538596
218	0x3ebab3d8	0.36465335
219	0xbda7d76d	-0.08195386
220	0xbe4fc71d	-0.202908
221	0xbea39464	-0.3194915
222	0xbea5e59a	-0.32401735
223	0xbede4362	-0.43410784
224	0xbe1aebda	-0.15129033
225	0xbe30d5ce	-0.1726906
226	0x3e9856ff	0.29753873
227	0x3e9a0309	0.3008044
228	0xbde73cb0	-0.11290872
229	0xbe203af4	-0.15647489
230	0x3e89651e	0.2683496
231	0x3eac4661	0.33647445
232	0xbdb05a4c	-0.08610973
233	0xbf0d8703	-0.55284137
234	0xbd91203a	-0.07086225
235	0xbe970abd	-0.2950038
236	0x3e56b720	0.20968294
237	0x3ebd9209	0.37025478
238	0x3e6ca5a9	0.2311007
239	0x3e989041	0.29797557
240	0x3e70cd37	0.23515783
241	0xbe28f1f2	-0.16498545
242	0xbd6de35d	-0.05807816
243	0x3e334ba5	0.17509325
244	0xbfc3aecf	-1.5287722
245	0x3e1729ef	0.1476209
246	0x3ea5f6dc	0.324149
247	0x3e4bde27	0.19908963
248	0xbe866f39	-0.2625673
249	0x3f05da6b	0.52286404
250	0xbe9a4d62	-0.30137163
251	0xbde358ba	-0.111009076
252	0xbe027f04	-0.12743765
253	0x3df8e5fc	0.12153241
254	0x3e6c6c1e	0.23088118
255	0x3e25a75b	0.16177122

fc.1.weight f4 [4, 300]
0	0xbcd86011	-0.026412996
1	0xbce892c9	-0.028390305
2	0xbcc3b9f3	-0.023892378
3	0xbccdf6b7	-0.025142057
4	0xbcdfb233	-0.027306652
5	0x3e023a50	0.12717557
6	0x3baa5f4d	0.005199349
7	0x3d55c211	0.05218703
8	0x3c72b0da	0.0148126725
9	0xbd8076f7	-0.06272691
10	0x3f6e9914	0.9320233
11	0xbd345ceb	-0.044033926
12	0xbf76563c	-0.96225333
13	0xbd0b2df7	-0.033979382
14	0xbca5c070	-0.020233363
15	0xbd45b8eb	-0.048272055
16	0xbc30c0d0	-0.010788158
17	0xbcbead6f	-0.023276059
18	0xbd71b348	-0.059008867
19	0x3f1b1a96	0.6058744
20	0xbd024d01	-0.031811718
21	0x3d87ecac	0.066369385
22	0xba994987	-0.0011694886
23	0xbd80cc26	-0.06288938
24	0x3d864129	0.06555397
25	0x3d47bcb8	0.04876396
26	0xbda54055	-0.08068911
27	0x3d57e672	0.052710004
28	0x3d1f10ad	0.038834263
29	0xbd66274c	-0.05618982
30	0x3ce5d021	0.028053345
31	0x3d79f056	0.061020218
32	0xbe77fae4	-0.24216801
33	0x3c9c81b2	0.019104812
34	0x3d348591	0.04407269
35	0x3c2084d8	0.009797297
36	0xbd9a1c8d	-0.07524977
37	0x3d4704b8	0.048588485
38	0x3d550386	0.052005313
39	0xbd1d882f	-0.038459953
40	0x3c86a2c0	0.016435027
41	0xbbe63453	-0.0070252805
42	0x3d7334ad	0.059376407
43	0x3b9b2c2d	0.004735491
44	0x3d7d970d	0.06191163
45	0xbd420848	-0.04737118
46	0x3cb1c937	0.021702392
47	0xbd6090f0	-0.054825723
48	0xbcff0b45	-0.031133303
49	0x3cd23ae4	0.025662847
50	0x3d20f780	0.039298534
51	0x3c8213a0	0.015878499
52	0xbd113031	-0.03544635
53	0xbd50292b	-0.05082051
54	0x3ca51648	0.020152226
55	0x3d70d942	0.058800943
56	0x3d0019ca	0.031274594
57	0x3db5856a	0.08863337
58	0x3ca74c6e	0.020422187
59	0x3cd106a2	0.025515858
60	0x3d152e8d	0.036421347
61	0x3d3f4389	0.046695266
62	0xbd25992c	-0.04042928
63	0xbc631011	-0.013858811
64	0xbd45454e	-0.048161797
65	0x3c6b4fb1	0.014362262
66	0x3cf1ed95	0.029532233
67	0xbd9834f2	-0.074319735
68	0xbc2476f7	-0.010038129
69	0x3d057308	0.032580405
70	0x3d30d449	0.0431712
71	0xbcb54a96	-0.022130292
72	0xbd3d5ecc	-0.046232983
73	0xbb0c9274	-0.0021449598
74	0xbcb1c140	-0.021698594
75	0xbc9cf945	-0.01916183
76	0xbe01eba2	-0.12687543
77	0xbc90ad3c	-0.01766073
78	0xbd3c0b87	-0.04590943
79	0xbd5ec90f	-0.054390963
80	0xbce88a10	-0.028386146
81	0x3d951811	0.07279981
82	0xbc02a20c	-0.007973205
83	0x3d1aec11	0.037822787
84	0xbc869f81	-0.01643348
85	0xbd3b5e6e	-0.045744352
86	0xbc9e17ef	-0.019298522
87	0x3cba75fa	0.022761334
88	0x3d4e16f4	0.05031486
89	0xbc707b33	-0.0146778105
90	0x3db29578	0.08719915
91	0x3d5ca6da	0.05387006
92	0xbd1dfa7a	-0.03856895
93	0xbc6de475	-0.0145198
94	0xbd5c8243	-0.053835165
95	0x3d3a88d6	0.045540653
96	0x3d3749f2	0.044748254
97	0x3d0755c5	0.03304078
98	0x3e31c664	0.17360836
99	0x3db78134	0.089601904
100	0xbcff40d8	-0.03115885
101	0x3cbe7c07	0.0232525
102	0x3d505cbc	0.05086969
103	0x3cf488f1	0.029850455
104	0x3d5b1a57	0.053491917
105	0xbc91dbee	-0.017805066
106	0xbd28eb04	-0.041239753
107	0xbd8a2525	-0.06745366
108	0xbd826b0c	-0.06368074
109	0xbd51558b	-0.05110697
110	0xbd21b01b	-0.039474588
111	0x3d3167ad	0.043311764
112	0xbd300fbe	-0.042983763
113	0x3c8d4578	0.01724504
114	0xbd6fe407	-0.058567073
115	0xbceb41a0	-0.028717816
116	0xbd13bd41	-0.03606916
117	0xbb1b806a	-0.0023727664
118	0xbd081725	-0.033225197
119	0x3d131230	0.035906017
120	0x3d2d76c1	0.04234958
121	0xbda6ac25	-0.08138303
122	0xbc28971b	-0.010289933
123	0x3bf034bd	0.0073305056
124	0x3c127a29	0.008940258
125	0x3d2d19ef	0.04226106
126	0x3d3d932a	0.046282925
127	0x3c7daa35	0.015482475
128	0xbcdc8eed	-0.026923621
129	0xbc4ab5b6	-0.012372425
130	0xbd898980	-0.06715679
131	0x3d530bca	0.051524915
132	0xbd82b47f	-0.06382083
133	0x3dac67a2	0.08418204
134	0xbd2a0a79	-0.041513894
135	0xbd27419c	-0.040834054
136	0xba89800f	-0.0010490435
137	0x3ca0689f	0.019581137
138	0x3d0068a2	0.031349786
139	0xbd3c1422	-0.045917638
140	0xbd131d4b	-0.035916608
141	0x3c5c093e	0.013429938
142	0xbe0a647e	-0.13514897
143	0x3d6173a0	0.05504191
144	0xbd6ec1b2	-0.05829019
145	0xbef14f41	-0.47130778
146	0xbd9a7d68	-0.075434506
147	0xbd37c54d	-0.044865895
148	0xbdb4fa8c	-0.088368505
149	0x3cae7e74	0.021300532
150	0x3d229b5a	0.039698936
151	0xbbf62246	-0.00751141
152	0xbcef652a	-0.029223043
153	0xbc5a7991	-0.013334648
154	0xbf336dc0	-0.7008934
155	0xbbfeaa7b	-0.0077717877
156	0xbd6be58a	-0.057591952
157	0x3dae6c44	0.08516744
158	0xbd5449ae	-0.05182808
159	0x3c2ddf9d	0.010612396
160	0xbc1cc1e5	-0.009567712
161	0x3c65e3a0	0.014031321
162	0xbd0995d9	-0.03359017
163	0xbcaa4b46	-0.020787846
164	0xbcd48c25	-0.025945732
165	0xba258406	-0.00063139235
166	0x3d48e2fa	0.049044587
167	0x3d58b729	0.05290905
168	0x3d77aa91	0.0604654
169	0x3d9ed8b6	0.07756178
170	0xb9cc887e	-0.00039011607
171	0x3d934886	0.07191567
172	0x3d16f185	0.036851425
173	0xbd5bd286	-0.053667568
174	0x3d611eab	0.054960888
175	0x3b5ba816	0.0033516935
176	0xbd918e26	-0.07107191
177	0x3d8bf6e9	0.06834204
178	0xbd22bd9c	-0.039731607
179	0xbcfa9a3c	-0.030591123
180	0x3d201f70	0.03909248
181	0x3d07bcd7	0.033139076
182	0x3d409103	0.047013294
183	0x3cde5b97	0.027143283
184	0x3d22b7b3	0.03972597
185	0x3b7445ae	0.0037272978
186	0xbca3d34b	-0.019998213
187	0xbd87b554	-0.066263825
188	0xbd14eae6	-0.03635683
189	0x3efa5a85	0.48897186
190	0xba317aac	-0.00067702937
191	0xbd30321c	-0.043016538
192	0x3cf5d34a	0.030007977
193	0x3c9325bf	0.017962335
194	0xbccd7716	-0.025081199
195	0xbca21a88	-0.019788042
196	0x3b8ac0af	0.0042343955
197	0xbc827426	-0.015924525
198	0x3cd5ba91	0.026089938
199	0x3d201308	0.03908065
200	0xbd4a7096	-0.049423777
201	0x3c87594d	0.016522074
202	0xbd4039cd	-0.046930123
203	0x3d5972ad	0.05308788
204	0xbd1f32af	-0.038866695
205	0x3e3d596a	0.1849114
206	0x3c8bbf67	0.017059041
207	0x3c7a231e	0.015267162
208	0x3d439430	0.047748744
209	0xbd22874a	-0.039679803
210	0x3c9c9d81	0.019118072
211	0xbd06e109	-0.032929454
212	0x3d8c9fc9	0.06866414
213	0xbcf74ce2	-0.030188028
214	0x3f198eab	0.5998332
215	0x3d6cdcaf	0.057827648
216	0x3d1c42a2	0.038149484
217	0xbc2b6e97	-0.010463378
218	0xbca6cb64	-0.020360656
219	0x3c879aa1	0.016553225
220	0x3d8c18b0	0.06840646
221	0xbd999ad7	-0.075002365
222	0xbd407f1c	-0.04699622
223	0x3c3ad188	0.011402495
224	0x3dc0ff73	0.09423723
225	0x3cbe2174	0.023209311
226	0x3cb362e6	0.021897744
227	0xbc29ef41	-0.010371984
228	0xbcf9ea29	-0.030507164
229	0xbd302519	-0.04300413
230	0xbd0ab464	-0.03386344
231	0x3ae5c3e8	0.0017529698
232	0xbd2c9342	-0.042132623
233	0xbcb614f0	-0.02222678
234	0xbd1da3f7	-0.038486447
235	0x3d1580af	0.036499675
236	0x3cc4bd0c	0.024015926
237	0x3dfc1fb0	0.123107314
238	0xbc6e15a4	-0.014531527
239	0xbd6d7f46	-0.057982706
240	0xbb2222cd	-0.002473998
241	0xbd2d4b21	-0.042307977
242	0xbce13557	-0.027491255
243	0x3c56b49a	0.013104582
244	0xbf821238	-1.016181
245	0xbcbe3b79	-0.023221718
246	0x3bb7e16c	0.005611589
247	0xbd23403a	-0.039856173
248	0x3ce00d0a	0.027349968
249	0x3c3ee281	0.011650682
250	0x3d1ccd55	0.038281757
251	0xbc90064c	-0.017581128
252	0xbcd396e2	-0.025828782
253	0x3d7027f5	0.058631856
254	0xbd180b46	-0.037120126
255	0x3ab41987	0.0013740518

fc.1.bias f4 [4]
0	0xbde07e88	-0.10961634
1	0xbbf29b5b	-0.0074037737
2	0x3c13d017	0.00902178
3	0xbd18eb1c	-0.037333593
