model/unicycle-FC2-100-rk4-extra/epoch_400.pth (torch, 6099 bytes, 4 tensors)

fc.0.weight f4 [100, 6]
000000 5c 7c d3 bd 61 a4 96 be ca 5c 27 3e 20 b2 56 be
       -0.10326454 -0.29422286 0.1634399 -0.20966387
000010 a3 52 25 be c6 2f a0 3e ee 09 1f 3e 55 57 e7 3d
       -0.16144805 0.31286448 0.15531132 0.11295954
000020 d8 59 7c bf e4 3a 1a bf 02 45 94 bd 7e 41 da bd
       -0.9857459 -0.6024611 -0.07239725 -0.10657023
000030 75 a0 3d bd 4d 96 83 3d 7f ab 23 bf 50 bf b6 bf
       -0.046295602 0.06425152 -0.6393356 -1.4277134
000040 5c bb b1 bd 9d e2 41 bd 82 ef 95 be 38 82 8f bc
       -0.08678314 -0.047335256 -0.29284292 -0.017518148
000050 aa 69 43 3e 3a d8 2a be bc aa 9b be a3 7c 0a 3f
       0.19083276 -0.16684046 -0.30403697 0.5409643
000060 ad a1 3d 3e 04 d2 10 3d 2f 7c 35 3f 5b 32 ac 3e
       0.18518706 0.035356537 0.70892614 0.33632168
000070 ce 72 ad 3e 3d 51 fa 3e d5 05 02 3c 8b c7 73 3c
       0.33876652 0.48890105 0.007935961 0.014879118
000080 a0 5a 84 be 12 d7 52 3f 9f 0c a8 bd 33 50 76 3d
       -0.2585039 0.8235942 -0.08205532 0.060135078
000090 e1 3e 51 be 4c 4a 14 be 90 5f a0 be 70 34 7b be
       -0.20434143 -0.14481467 -0.31322908 -0.24531722
0000a0 7b 8a aa be 1f d0 dd 3e 51 e2 6e 3e 45 cc 90 bb
       -0.33308777 0.43322846 0.2332852 -0.004418882
0000b0 67 1a ca 3e ce 4e 5c 3d cc 2c 2f 3e 2d 79 8b be
       0.39473268 0.05378609 0.17106932 -0.27240887
0000c0 c0 97 fc 3d f3 e4 af 3e 42 76 9e 3d ab 07 f3 3c
       0.123336315 0.34354362 0.077374 0.029666742
0000d0 14 9a 31 3e bb 48 f6 3e a1 7f e3 bd df ce 9e be
       0.17343932 0.48102364 -0.11108328 -0.31017205
0000e0 fb 28 91 bd 01 e2 99 bc bc d9 1c be bc 98 ef be
       -0.070878945 -0.018784525 -0.15317434 -0.46796215
0000f0 4c a3 46 3c 89 0b d5 3b e8 b5 89 3f e2 cc d3 bf
       0.012123894 0.0065016192 1.0758638 -1.65469
000100 30 d4 b4 3d 58 b1 90 bd 1d a2 a6 3e 01 ec ae be
       0.08829534 -0.07065076 0.32545558 -0.34164432
000110 b8 63 a4 3e e6 18 af 3d 41 43 b9 3e dc 74 32 3f
       0.3210733 0.08549671 0.36184123 0.69709563
000120 ad 35 97 be 33 02 77 3e 29 cb 7c bf 9d bf 12 bf
       -0.2953314 0.24121933 -0.987475 -0.5732363
000130 42 51 96 bd c8 dc f4 bc 06 9a b3 3e d0 6b 97 bd
       -0.073397174 -0.029890433 0.35078448 -0.073936105
000140 67 f7 48 bf 9e 84 18 3e be e0 49 be 94 ee 55 3e
       -0.78502506 0.1489434 -0.19714639 0.20891792
000150 85 7e 31 be fe 54 31 3d b0 27 8c be 4e 84 31 be
       -0.1733342 0.043293945 -0.2737403 -0.17335626
000160 24 1f 98 be fd f2 b8 be cb 44 2b be d7 6b 67 bd
       -0.29711258 -0.36122885 -0.16725461 -0.05649933
000170 ac af 02 bf 16 a7 14 bf f6 11 d9 3e 2c 4a 82 3e
       -0.51049304 -0.5806745 0.42396516 0.25447214
000180 25 ed ae 3e 9c 21 bb 3e 66 e6 0e 3f c4 09 f6 3e
       0.34165302 0.3654908 0.5582031 0.48054326
000190 21 95 99 be 8b 1d 55 3d fe 56 50 bd ea 52 71 be
       -0.2999659 0.052030127 -0.050864212 -0.23566785
0001a0 1c 28 d0 3e d2 eb 83 be 6b f9 c8 3e 4b 9c bc 3d
       0.406556 -0.25765854 0.3925279 0.09209498
0001b0 f3 da 72 be 7c 23 05 3c d4 63 ee 3d 16 93 ac be
       -0.23716335 0.008126136 0.116401345 -0.33705968
0001c0 7a 32 51 3e 64 2d c6 3e ec a8 9e 3e 16 93 a2 3e
       0.20429412 0.38706505 0.30988252 0.31752843
0001d0 8f ac 4b 3e c9 c3 02 3f 5f 8a 13 be 1f a9 ff 3c
       0.19890045 0.51079994 -0.14408253 0.031208573
0001e0 ab 67 09 3e 04 3a 7d 3d bd 7a 27 3e 72 df 5b be
       0.13418452 0.061822906 0.16355415 -0.21471956
0001f0 de 5e 04 bf 06 82 ce 3e ba 27 85 be 74 8b 3a bc
       -0.51707256 0.40333575 -0.2600687 -0.011385787
000200 f2 80 17 3f d1 d2 7f 3d 2b 76 4c be 9d 81 06 3f
       0.5918113 0.06245691 -0.19966953 0.52541524
000210 c8 fe 85 be 65 ec 84 3e 24 20 70 be a4 31 c1 bd
       -0.26170945 0.25961605 -0.2344976 -0.09433296
000220 91 de 9b be 18 bb ee be 3c c6 8c be a1 8b a5 3e
       -0.30443242 -0.46627116 -0.2749499 0.3233309
000230 d0 aa 3b 3d 90 e4 e1 bd 6f 27 d3 3e fb 53 ea 3e
       0.045817196 -0.11029923 0.41241023 0.45767197
000240 09 c3 6b 3e e2 8a d0 3d 22 68 18 3f 48 22 e7 3e
       0.23023619 0.1018274 0.59533894 0.45143342
000250 bc 1c da be c8 f5 85 be 70 27 b1 be 71 d6 01 be
       -0.42600048 -0.2616408 -0.346004 -0.12679459
000260 e0 6d 32 bf 52 07 a3 be 0f 1d e4 3e e4 43 82 3e
       -0.69698906 -0.31841522 0.4455342 0.2544242
000270 14 9d 1f 3e d3 cd bb 3d df 3c ea be 5e dd cf 3e
       0.15587264 0.09170117 -0.45749566 0.40598577
000280 4a 6c 2d be b3 31 dd bd e6 e8 1e be 36 2d 46 3e
       -0.1693584 -0.10800495 -0.15518531 0.19353184
000290 51 8b 67 3e ed 68 7c be b7 c4 9a bd 0c 68 e4 3e
       0.22611739 -0.24649401 -0.07557052 0.4461063
0002a0 14 1f 32 3e 73 bf 06 bd ba 0c cb bd 5a 98 5a 3f
       0.17394668 -0.032897424 -0.09914537 0.8538872
0002b0 f3 e6 df be 85 6f 32 be 34 74 5c be 27 d8 a2 bd
       -0.43730888 -0.17425354 -0.21528703 -0.07951384
0002c0 18 b0 d9 be e4 72 eb 3d 12 9d 07 3f 6d e5 ff be
       -0.4251716 0.11496523 0.52974045 -0.49979725
0002d0 29 86 65 3d 92 cc 52 3e 43 3b 50 3f fc 87 5a be
       0.05603615 0.2058585 0.81340426 -0.21340936
0002e0 b5 38 a4 3e a9 ea 17 bc 3c 72 28 3e 8c 80 9f be
       0.32074514 -0.009272256 0.16449827 -0.3115276
0002f0 96 5e 0d bf 28 e0 26 be 01 42 24 bd fe 76 f2 3e
       -0.5522245 -0.16296446 -0.04010201 0.4735641
000300 90 71 1b 3d 2a ad 3c 3e 62 b6 14 3e 03 e9 b3 bc
       0.0379501 0.18425432 0.14522699 -0.021961695
000310 dc b3 48 3d 78 3f cd 3e 7f 8e d3 be 8b 65 51 3c
       0.048999652 0.40087485 -0.41319653 0.012780557
000320 06 8e 42 3f 3f 5a 18 bd e5 54 26 be b8 c1 a3 3e
       0.7599796 -0.03719544 -0.16243322 0.31983733
000330 7b a9 3f 3c e2 ba 80 bc 3f 4e 2a bf 14 7e 95 bf
       0.011698122 -0.015714113 -0.66525644 -1.1679101
000340 e4 cc 41 bd b6 ef 66 bd 1d 47 cc 3e 49 c5 77 be
       -0.04731454 -0.05638095 0.39898005 -0.24196352
000350 10 83 99 3e 67 6d 2f 3e d0 e0 0b 3f 0b 27 b4 3e
       0.29982805 0.17131577 0.5463991 0.35186037
000360 31 64 7b 3c 54 aa 43 be 38 a5 3c be dd 7f 8e 3d
       0.015343712 -0.19107944 -0.18422401 0.06957982
000370 8d 32 0c bd 7b d5 f4 be fe 1c 36 be 9a 7d 8c 3d
       -0.034227896 -0.47819123 -0.17784497 0.06859894
000380 47 6e c6 be fc 91 3d 3d f6 9d 6b be eb bb 19 bf
       -0.3875601 0.0462818 -0.23009476 -0.60052365
000390 1d 4e f0 3d 5e d6 3c be b0 3a 17 be c6 f5 14 bf
       0.11733649 -0.1844115 -0.14768481 -0.5818752
0003a0 ae 7c 95 be f0 de f7 3e 03 ee a6 be 7b 90 a1 be
       -0.29196686 0.48412275 -0.32603464 -0.31555542
0003b0 23 19 87 be 9c 15 6b 3f 86 db cb 3d e2 ba a0 3d
       -0.26386365 0.9182985 0.0995398 0.07848145
0003c0 7c d3 83 3e c2 b8 d9 3c 96 3f 7c 3e 17 76 b6 3d
       0.25747287 0.026577357 0.24633631 0.089092426
0003d0 bd d0 ef be 88 6f 63 be b4 b4 93 3e 4e 82 d0 bc
       -0.46838942 -0.22210515 0.28848803 -0.02545276
0003e0 ae 5e 2c bd 2e fd 62 3e b2 36 cc 3e bf d5 8a be
       -0.04208248 0.22166893 0.3988548 -0.271162
0003f0 67 a9 85 3e ec 45 06 3d d5 73 26 3e 8f 09 88 3f
       0.26105806 0.032781526 0.16255124 1.0627917

fc.0.bias f4 [100]
000000 a4 0b 3a 3e 87 b1 52 bf 3a c5 2e 3f 88 f1 2c 3e
       0.18168503 -0.82302135 0.68269694 0.16889012
000010 ee a7 f3 3d 23 29 4b 3f 28 3e ce be a2 3a 1c 3e
       0.118972644 0.79359645 -0.40281796 0.15256742
000020 83 05 5b 3d 45 a7 86 bd cb 77 fa 3f 24 d9 67 3e
       0.053472053 -0.06574873 1.9567808 0.22641426
000030 d9 11 81 be 1c a4 ed bd 4c 29 a2 be a4 58 61 be
       -0.2520893 -0.11603567 -0.31672132 -0.2200647
000040 45 aa e7 bc c3 94 fb 3e 6b 41 63 3d 0c a2 d7 bd
       -0.028279433 0.49136934 0.05548231 -0.10528955
000050 4f 0b d7 bd 51 fd de 3e f2 bc 3f be ff f0 92 3e
       -0.10500204 0.4355264 -0.1872442 0.2869949
000060 8f d6 07 3e 58 91 09 3d c2 a7 83 bd f7 7b 1f 3f
       0.13265441 0.033585876 -0.06428482 0.6229853
000070 8e a1 a9 3e f3 8a ec 3c 11 be b3 3e 5c f6 8e 3e
       0.3313107 0.02887485 0.35105947 0.27922332
000080 58 c2 02 3e a6 0d 89 be b7 c4 54 c0 f4 eb 90 3e
       0.12769449 -0.26768225 -3.3245065 0.28305018
000090 93 da 71 be 29 f1 f2 3e 7d 13 09 be c2 8e 12 bf
       -0.23618536 0.47449616 -0.1338634 -0.5724908
0000a0 d2 9c d3 3c 62 46 b3 be 33 d3 88 be 57 22 d6 3f
       0.025831614 -0.35014635 -0.26723632 1.672923
0000b0 51 25 dc 3e 6f 58 c4 be 17 6e be bd 24 93 12 3f
       0.4299722 -0.3834872 -0.09298342 0.5725577
0000c0 d2 88 b3 be f7 2f b4 3e ce 8a 8b be 1d b2 9b 3e
       -0.35065323 0.35192844 -0.27254337 0.30409327
0000d0 ca 55 b0 3e 9f a2 f3 bf 4b 6b b9 3e 9c 34 7c be
       0.34440452 -1.9034003 0.3621467 -0.24629444
0000e0 73 22 a7 3e 13 1e 0c 40 06 22 b4 bf 57 2b 81 3e
       0.3264347 2.1893356 -1.4072883 0.25228378
0000f0 bb 70 0a be 10 49 46 3e 2f 60 43 3e 55 36 91 bb
       -0.13519566 0.19363809 0.1907966 -0.0044315257
000100 83 07 a3 bf bc ac 23 bf f6 cf 0c c0 dd e0 d0 bd
       -1.2736667 -0.63935447 -2.200193 -0.10199139
000110 91 92 8a 3e c8 c4 88 be b6 8e 5e 3f 32 de 5e be
       0.27064946 -0.26712632 0.8693651 -0.21764448
000120 7c 40 b0 3f 05 c0 85 3f 4b c6 0e 3b 17 57 1d bf
       1.3769679 1.0449225 0.0021785672 -0.61461014
000130 99 81 a8 3e 58 90 7d be f7 f2 1e 3f fb d6 12 3d
       0.32911375 -0.24762094 0.62089485 0.035849553
000140 55 cf a4 3d 3c 74 7f 3e 75 9b 79 3e 91 c6 87 3e
       0.08047358 0.24946684 0.24375708 0.26518682
000150 1b 0f c4 bd 49 7e b4 3d bc 57 dc 3e 32 5c 52 be
       -0.09573194 0.088131495 0.43035686 -0.20542982
000160 87 e2 54 3f b1 38 1a be 93 38 da 3d f8 f4 13 be
       0.83158153 -0.15060689 0.10655322 -0.14448917
000170 43 4d 16 be 8e f3 9c 3d b2 41 ad 3e a8 50 6a bd
       -0.1467791 0.07663642 0.33839184 -0.057205826
000180 f1 4c 21 be dc 47 c0 be 71 45 1e be 73 45 2a bd
       -0.15752007 -0.37554824 -0.15456177 -0.04157014

fc.1.weight f4 [4, 100]
000000 be 59 8d bd 0a fb 85 3e 5f 12 46 3d 88 30 4d 3c
       -0.069018826 0.2616809 0.048357364 0.012523778
000010 d6 3e 00 bd 82 9b b2 be fb ef 94 3d 60 6a 95 bd
       -0.031309925 -0.34884268 0.07272335 -0.0729568
000020 c4 88 1f bd 85 ff 0b bc 8b 5f 4a 3f 77 7a ad bd
       -0.03894879 -0.008544807 0.79052037 -0.08470624
000030 f5 43 1c 3e b8 9d 57 3c bb e3 7b 3c 77 b1 06 3d
       0.15260299 0.013160162 0.015374119 0.032884087
000040 b6 39 5c bc 3c b6 16 be e4 18 b8 3d 73 78 c5 3d
       -0.013441494 -0.14717954 0.089891225 0.096421145
000050 92 a5 a2 3d f4 bb ac bd e1 e2 84 3d 60 f9 ad bd
       0.07941736 -0.08434287 0.06488586 -0.0849483
000060 b3 d3 e6 bd e8 0a d8 3d cb 3e 9f 3d 69 80 8d bd
       -0.11270847 0.10548955 0.07775649 -0.06909258
000070 85 fa 94 3d ea f5 1c 3d 34 f0 19 be 89 5f a8 3d
       0.07274345 0.03832046 -0.15033036 0.08221347
000080 28 3a 61 bd 29 48 23 bd 6f b5 5a 3e aa 43 82 bd
       -0.054987103 -0.03986374 0.21358274 -0.06360562
000090 6f f4 54 3d b9 52 17 3d 2b a9 87 3d b3 ad a7 3c
       0.051990923 0.036944125 0.06624063 0.020468568
0000a0 84 16 cd bd 2c 12 b5 3d 4b 9a 28 3e 8a ab 4d 3f
       -0.1001406 0.08841357 0.16465108 0.8033987
0000b0 32 9a f5 bd 7f 5e 71 3d c8 c5 36 bc 11 8a ba bd
       -0.11992301 0.05892801 -0.011155553 -0.09108365
0000c0 92 96 a9 3c da 26 1e be 92 f6 ec bb d3 04 cb bd
       0.02070168 -0.15444508 -0.007231542 -0.099130295
0000d0 4c 45 6d 3d 01 b3 af bf 54 40 a9 bd 0e b8 2f 3e
       0.057927415 -1.3726503 -0.08264223 0.17160055
0000e0 f6 a0 e7 bd 9e 92 33 bf fd 8a 72 bf 26 75 1b 3c
       -0.11309998 -0.70145595 -0.9474333 0.00948838
0000f0 f0 39 00 be 50 0a dc bd 14 e6 3d bd f7 52 1c bc
       -0.12522101 -0.107441545 -0.046361998 -0.009541265
000100 14 04 00 3d 1a 0c 15 3e 9b 2a 79 3f 24 46 c7 3c
       0.03125389 0.14555398 0.97330636 0.024325438
000110 a8 1a 23 bd b8 05 94 3d ff e1 b5 3e 42 a3 8a 3e
       -0.039820343 0.07227653 0.35523984 0.2707768
000120 c0 fa 90 bd 72 29 bd bc 97 71 6c be 1d 13 c6 3d
       -0.07079077 -0.023091052 -0.23090206 0.09671614
000130 21 77 0e be fd 54 c8 3d 93 7c 2d 3d 7f f8 df bd
       -0.13912632 0.09781835 0.04235513 -0.10936069
000140 d8 71 14 3e 67 86 8f 3d 73 ee e7 3d 00 56 a4 bd
       0.14496553 0.07008057 0.113247775 -0.08024216
000150 51 ac 4a bd 03 44 af bd 37 bd 33 3e cd f3 9a 3d
       -0.04948074 -0.08557894 0.17552648 0.075660326
000160 24 f1 5c be 92 e0 a8 bd 85 60 1e bd 45 b0 61 bd
       -0.21576363 -0.082459584 -0.038666267 -0.055099744
000170 fd 74 41 bd 9c bc ed bd 05 38 49 3d 30 9c 05 3d
       -0.04723071 -0.1160824 0.04912569 0.032619655
000180 12 6d 56 3d 61 fe 58 3d 16 cd be 3b 49 0f 93 3c
       0.05235011 0.05297697 0.005822788 0.017951624
000190 d4 b0 87 3d 6f d1 93 be b8 48 2d 3f 2d 3c 36 3e
       0.06625524 -0.28870723 0.67689085 0.17796393
0001a0 24 50 6b be 41 ab d0 be 9b 51 d8 bd af 0b ee 3a
       -0.2297979 -0.40755656 -0.1056244 0.0018161441
0001b0 fb 1b 07 3d 00 18 6d 3c 11 7e 03 3c cb fc 8b 3c
       0.03298567 0.014471054 0.008025662 0.017088315
0001c0 88 5c 18 bd 2f 6b 9c bd cf fc f4 3d 10 4a 69 bd
       -0.03719762 -0.07637631 0.11962282 -0.056955397
0001d0 c8 5a d7 3d dc 12 42 bd 22 90 d9 3c 65 bb 9c bc
       0.10515362 -0.047381267 0.026557986 -0.019132325
0001e0 2c 2c 42 3c 81 93 b2 3b 07 9e 02 be a0 00 6c bd
       0.011851352 0.0054497127 -0.12755595 -0.057617784
0001f0 cc 09 b5 bd 61 90 aa bd fd 4c e2 3d fc 89 cc bc
       -0.08839759 -0.08328319 0.110498406 -0.02496814
000200 14 e7 04 3e 3a 07 8a 3d b7 a8 1c 3c 4d 0e 23 3d
       0.12978774 0.067396596 0.009561709 0.03980856
000210 f8 97 d1 bc be 74 85 bd 92 53 86 bf 2a af 35 bc
       -0.02558516 -0.065164074 -1.0494254 -0.011089126
000220 26 0c 2b bc e1 00 d5 3d 03 46 42 bc 4e 56 f2 bd
       -0.010439908 0.10400558 -0.011857512 -0.118328676
000230 b8 ab df bc ac cf 93 bd 3d 6b 43 3e bd 43 ff bd
       -0.027303562 -0.07217345 0.19083877 -0.12464092
000240 3a 3a 0f 3c 1f 74 63 bd eb ab 85 bd 72 56 9e bc
       0.00874191 -0.055530664 -0.065269314 -0.01932833
000250 e4 bc dd 3d 1b 84 d0 3c 2d 0f 96 3d cc 0f 8a bc
       0.10827044 0.025453618 0.07327113 -0.016853236
000260 d3 bf c4 3c c0 fa cd 3d e4 e0 68 be d0 27 d2 3c
       0.02401725 0.100575924 -0.22742039 0.02565375
000270 f1 dd 8c 3d 5b f2 cd be 0e 0f ae 3d 01 d9 03 3e
       0.068782695 -0.40223965 0.08498965 0.12875749
000280 62 8e e6 bd 4f 04 90 bc d7 a2 5e 3e 1e a9 3d bd
       -0.11257626 -0.01758018 0.21741806 -0.04630386
000290 4b 17 b3 3e e4 79 68 3d 6d f2 97 3f be 68 c1 3d
       0.3497871 0.05675687 1.1870857 0.09443806
0002a0 85 59 20 bd 27 35 40 bb d2 a2 39 3f 87 9a f1 3e
       -0.039147872 -0.0029328556 0.7251407 0.47188208
0002b0 70 bb ab 3e eb 52 de be 79 fa 7a bf 0f e7 a7 bd
       0.3354144 -0.43422636 -0.9803844 -0.08198368
0002c0 cc 30 06 3c 96 96 b6 bc 9c 13 de 3d 05 b7 43 bd
       0.008190345 -0.022288602 0.10843584 -0.047781963
0002d0 39 03 65 ba f0 2f cd 3d 73 71 e5 3d 85 14 6c 3d
       -0.0008736137 0.10018909 0.11203279 0.057636756
0002e0 a2 c0 0f bd 04 d6 3d be 1b 60 fb 3e 14 dc a7 3d
       -0.03509582 -0.18538672 0.4909676 0.081962734
0002f0 f9 95 da 3d 37 ea 9c be 71 71 35 3d bd 8f a0 bd
       0.10673136 -0.30647442 0.04429764 -0.07839916
000300 21 42 43 bd 1d 06 d0 bd a2 e5 b9 bc 9e 98 8e bd
       -0.047670487 -0.10157416 -0.022692505 -0.06962703
000310 1c 1f 41 3d 4a 12 3d 3d 0a a2 c0 bd e0 a6 ce 3d
       0.04714881 0.04616002 -0.094059065 0.10090423
000320 da 6a 9f 3c 6f a8 0c bd 44 c3 b0 bb 61 3b 5b bd
       0.01946013 -0.03434032 -0.005394371 -0.053523425
000330 7b 90 9d 3d 9d 0c d2 bc b9 1b 7a bd 80 d3 dd 3b
       0.07693573 -0.02564078 -0.061061595 0.0067695975
000340 92 fb d5 3d ec 12 03 be e2 d2 8d bc b8 18 bf 3d
       0.10448374 -0.12800187 -0.01731247 0.093308866
000350 05 6e d5 3c 68 00 13 bc 35 59 c4 bd 1f 92 c5 3d
       0.026053438 -0.008972265 -0.095873274 0.09647011
000360 32 69 93 3c d5 22 ea 3d 1b da e4 3c f7 c9 8a bd
       0.017994497 0.11432425 0.027936032 -0.06776803
000370 35 0c 9f bd c1 5c 0d be 6d 48 36 be 5a 9b 3b 3d
       -0.07766 -0.13804914 -0.17801066 0.04580245
000380 db e9 fb bd 0f 05 75 3d 6e 2b 0a be e0 d3 a9 bc
       -0.12300464 0.059819277 -0.1349313 -0.020730913
000390 b7 e2 8a bd 94 5f 4e 3e ff 03 9b 3c 72 b9 9c 3b
       -0.06781524 0.20153648 0.018922804 0.004782849
0003a0 60 45 cc 3b 39 64 3f bc 48 a8 09 bb 99 db b7 3d
       0.006233856 -0.01168161 -0.0021004844 0.08977432
0003b0 e6 35 0f bd 45 05 a4 bc 79 28 90 bc 0d 2e 28 3b
       -0.03496351 -0.020022044 -0.017597424 0.0025662214
0003c0 20 49 32 be f4 6a 0f 3e 8c f3 10 3e 8b a2 c8 bc
       -0.17410707 0.14005643 0.14155406 -0.024491569
0003d0 6c ac d3 3c 0a 1d 0a 3e ff 20 dc 3c a3 80 af bd
       0.025839053 0.1348764 0.026871203 -0.085694574
0003e0 72 2e 12 3c d6 62 11 3e cc 32 ea 3d 36 3b 03 be
       0.008922206 0.14197859 0.1143547 -0.12815556
0003f0 5c 94 04 3d a9 1b bf 3c 3f bf eb 3b 1d a1 69 3d
       0.03236805 0.02332862 0.007194429 0.057038415

fc.1.bias f4 [4]
000000 70 d2 1b bf 43 60 15 3e 64 f2 4e 3d 1b e0 86 3c
       -0.6086798 0.14587502 0.05052413 0.016464284
