model/unicycle-FC2-100-rk4-extra/epoch_200.pth (torch, 6099 bytes, 4 tensors)

fc.0.weight f4 [100, 6]
0	0xbd863ca9	-0.06554539
1	0xbe9fb8f3	-0.31195793
2	0x3e14a99c	0.14517826
3	0xbe8af292	-0.2713819
4	0xbe10457c	-0.14089006
5	0x3e9f179a	0.31072694
6	0x3e0d12a3	0.1377664
7	0x3dd6c34c	0.10486469
8	0xbf89be38	-1.0761175
9	0xbf12a296	-0.57279336
10	0xbe250b8a	-0.16117683
11	0xbdf08c6c	-0.11745533
12	0xbd54bc40	-0.05193734
13	0x3d9d94de	0.0769441
14	0xbf30c513	-0.6905071
15	0xbfad53a1	-1.3541147
16	0xbd865e64	-0.06560972
17	0xbb98c024	-0.004661577
18	0xbeabd2b5	-0.33559194
19	0x3bb44004	0.0055007953
20	0xbd91cff9	-0.07119746
21	0xbd9803e3	-0.07422616
22	0xbe8629bf	-0.26203725
23	0x3f021cad	0.50825006
24	0x3e69dca0	0.22838068
25	0x3d5c4c0a	0.053783454
26	0x3f3768f5	0.71644527
27	0x3ee914fa	0.45523816
28	0x3eae2095	0.34009233
29	0x3f06851a	0.52546847
30	0x3bf39498	0.0074334852
31	0xbb9732de	-0.004614218
32	0x3e2eb6f4	0.17061979
33	0x3f211b5f	0.6293239
34	0xbe8c18e5	-0.27362743
35	0xbc05f530	-0.008176133
36	0xbe5b164e	-0.21395227
37	0xbe17ec7d	-0.14836307
38	0xbe744884	-0.23855788
39	0xbed30228	-0.41212583
40	0xbeb3beb9	-0.35106447
41	0x3eb0480a	0.3442996
42	0x3e8a436f	0.27004573
43	0xbd27bc89	-0.040951286
44	0x3e40b22d	0.18817969
45	0x3cfb010e	0.030640151
46	0x3e150199	0.1455139
47	0xbe6781f1	-0.22608162
48	0x3e1df37b	0.15424912
49	0x3ebfaa61	0.37434676
50	0x3e863e53	0.26219425
51	0x3b62e00f	0.0034618413
52	0x3e308df8	0.17241657
53	0x3ed52147	0.4162695
54	0xbdcbdf89	-0.09954745
55	0xbe9da7e4	-0.30792153
56	0xbde16ffe	-0.11007689
57	0x3da23c67	0.07921677
58	0xbe150531	-0.14552762
59	0xbee7fc95	-0.45309892
60	0x3cc5cc45	0.024145255
61	0xb9af1d6e	-0.00033400528
62	0x3f8965b1	1.0734159
63	0xbfb32584	-1.3995824
64	0x3d80affb	0.062835656
65	0xbd9c2041	-0.076233394
66	0x3eb1d68d	0.34734002
67	0xbea77c32	-0.3271194
68	0x3e756d48	0.23967469
69	0x3e40ec39	0.18840112
70	0x3e72f098	0.23724592
71	0x3f0d1ea2	0.55124867
72	0xbe7c7087	-0.24652301
73	0x3e7ef881	0.24899484
74	0xbf73d604	-0.95248437
75	0xbf20fac4	-0.6288264
76	0xbdef6bf6	-0.11690514
77	0x3d4b4ed9	0.04963574
78	0x3ec7bae5	0.39009777
79	0xbdf080f2	-0.11743344
80	0xbf2feb21	-0.68718153
81	0xbe1141fc	-0.14185327
82	0xbdf0633a	-0.11737676
83	0x3e84952b	0.25895056
84	0xbe81bc81	-0.2533913
85	0xbcd7c103	-0.026337152
86	0xbe5a4b3a	-0.21317759
87	0xbe38d791	-0.18050982
88	0xbe9a3774	-0.30120432
89	0xbe921c7a	-0.2853735
90	0xbdceef48	-0.10104233
91	0xbdbafa0b	-0.09129723
92	0xbed9a395	-0.42507616
93	0xbefce026	-0.49389762
94	0x3ef56bb0	0.47933722
95	0x3e958895	0.29205766
96	0x3ebb5daa	0.36594898
97	0x3ede63c1	0.4343548
98	0x3ee68531	0.45023492
99	0x3f0411d0	0.5158968
100	0xbe969dc1	-0.29417232
101	0xbbacf3cf	-0.0052780877
102	0xbd4b56e0	-0.049643397
103	0xbe6dc230	-0.23218608
104	0x3ea0bc93	0.3139387
105	0xbe2e3554	-0.1701253
106	0x3eb75092	0.35803658
107	0x3dc8e294	0.09808841
108	0xbe89a53d	-0.2688388
109	0xbd2db046	-0.042404436
110	0x3eacc216	0.33741826
111	0xbeaad278	-0.333637
112	0x3e4bd43c	0.1990518
113	0x3ea7c7ff	0.32769772
114	0x3e95a231	0.29225305
115	0x3e9e03a1	0.30862144
116	0x3d89975f	0.06718325
117	0x3eba5ac7	0.36397383
118	0xbe2cf0dc	-0.16888756
119	0xbc890614	-0.016726531
120	0x3e20f723	0.15719275
121	0x3d74b2f5	0.05974098
122	0x3ec7f5ab	0.39054617
123	0xbe18cd06	-0.1492196
124	0xbefc7c46	-0.49313563
125	0x3eaaad6c	0.33335435
126	0xbea16977	-0.31525776
127	0xbd138c38	-0.036022395
128	0x3f0795f7	0.52963203
129	0x3e3115fc	0.17293543
130	0xbe58f65c	-0.21187729
131	0x3ed94357	0.4243419
132	0xbe9da1ce	-0.3078751
133	0x3e8cb2d4	0.27480185
134	0xbe3df303	-0.18549733
135	0xbe17e2db	-0.14832632
136	0xbe7476c1	-0.23873426
137	0xbed86909	-0.42267635
138	0xbe9d74ec	-0.30753267
139	0x3ea0f419	0.31436232
140	0x3e5a233b	0.21302502
141	0xbdadba39	-0.08482785
142	0x3ee68fab	0.45031485
143	0x3eced729	0.4039853
144	0x3e848c3b	0.25888237
145	0x3dd58583	0.10425856
146	0x3eab3ce3	0.3344489
147	0x3f00e265	0.5034545
148	0xbedde851	-0.43341306
149	0xbe7b0772	-0.24514559
150	0xbeb58510	-0.3545308
151	0xbe06227b	-0.13099091
152	0xbf2489d5	-0.64272815
153	0xbeecde55	-0.46263376
154	0x3eb06fdd	0.34460345
155	0x3e851b3f	0.2599735
156	0x3e06a2bf	0.1314802
157	0x3db8bb29	0.09020073
158	0xbee43eda	-0.44579202
159	0x3ee8e054	0.4548365
160	0xbe39083c	-0.18069547
161	0xbe285121	-0.16437198
162	0xbe063a3f	-0.13108157
163	0x3e334315	0.17506059
164	0x3e407d2c	0.1879775
165	0xbe6a1201	-0.2285843
166	0xbdda998d	-0.10673819
167	0x3ef92594	0.48661482
168	0x3e415d77	0.1888331
169	0xbd39255b	-0.04520164
170	0xbbe007f3	-0.006836885
171	0x3f5642c2	0.83695614
172	0xbf01a2a9	-0.50638825
173	0xbdff5b7d	-0.12468622
174	0xbe5a4bf1	-0.21318032
175	0xbda2eeb6	-0.07955687
176	0xbe8c003d	-0.27343932
177	0x3d6671ca	0.05626086
178	0x3efb5f4a	0.49096137
179	0xbef62a91	-0.4807935
180	0x3d91a558	0.07111615
181	0x3e809921	0.25116828
182	0x3ea2f1f8	0.31825233
183	0xbcba89cb	-0.022770783
184	0x3ea4d255	0.3219172
185	0x3dceb2f7	0.100927286
186	0x3e25627d	0.16150852
187	0xbea091eb	-0.31361327
188	0xbf02243c	-0.5083654
189	0xbe53051b	-0.20607416
190	0xbcc4da4e	-0.024029877
191	0x3eb0b14f	0.34510276
192	0x3d79a8d2	0.060952015
193	0x3e51462b	0.20436923
194	0xbc845c17	-0.016157193
195	0xbca64e38	-0.02030097
196	0x3d62f760	0.055411696
197	0x3ebe3793	0.37151775
198	0xbeec6247	-0.4616873
199	0x3df76545	0.120798625
200	0x3f2bc3ea	0.67095816
201	0x3e513a57	0.20432411
202	0xbe30dc1b	-0.17271464
203	0x3ea1e096	0.31616658
204	0xba9ea81d	-0.0012104545
205	0xbd392d52	-0.045209236
206	0xbf3ac57f	-0.72957605
207	0xbf5a6550	-0.8531084
208	0xbcf0d47f	-0.029398201
209	0xbd54c3c3	-0.051944505
210	0x3ee63334	0.4496094
211	0xbe7d59a6	-0.2474123
212	0x3e6b0b94	0.22953635
213	0x3c1b1f11	0.009467856
214	0x3eff5f27	0.49877283
215	0x3e745e94	0.23864204
216	0x3cc6e38f	0.02427843
217	0xbe3b97e7	-0.18319665
218	0xbc837fa7	-0.01605208
219	0x3d807cbf	0.062737934
220	0x3c24c45b	0.01005658
221	0xbef0e5a4	-0.47050202
222	0xbe5f4f57	-0.2180761
223	0x3d81fbc1	0.06346846
224	0xbf02eb49	-0.51140267
225	0x3e852dba	0.2601145
226	0xbe0cacec	-0.1373784
227	0xbf1b9b0a	-0.60783446
228	0x3d5b7e97	0.053587522
229	0xbe3b877e	-0.18313405
230	0x3c46deb9	0.012138062
231	0xbf273820	-0.65320015
232	0xbeafaa5e	-0.34309667
233	0x3ef262ac	0.47340906
234	0xbe9f1760	-0.3107252
235	0xbeb6a7ef	-0.35674998
236	0xbe64026e	-0.22266552
237	0x3f085ed6	0.5326971
238	0x3dabd85a	0.08390875
239	0x3e1d98fc	0.1539039
240	0x3e87ee6b	0.26549086
241	0x3cc73154	0.024315514
242	0x3d82485d	0.063614585
243	0xbdb22b8b	-0.086997114
244	0xbee99766	-0.4562332
245	0xbe172821	-0.14761402
246	0x3e9bcaed	0.30428258
247	0xbd15b03b	-0.03654502
248	0xbdd0ec98	-0.10201377
249	0x3e35e5e8	0.17763484
250	0x3eca7156	0.39539593
251	0xbe3934e9	-0.1808659
252	0x3e91db21	0.28487495
253	0x3d255af6	0.04036995
254	0x3e861887	0.26190588
255	0x3f64c96d	0.8936985

fc.0.bias f4 [100]
0	0x3e8966b1	0.2683616
1	0xbf73bc3c	-0.952091
2	0x3eb52b4a	0.3538459
3	0x3e1fac18	0.15592992
4	0x3e7f3f32	0.24926451
5	0x3f2e1031	0.67993456
6	0xbed74d24	-0.4205104
7	0x3d86939a	0.065711215
8	0x3e4f3205	0.20233925
9	0xbd29c3be	-0.04144644
10	0x3ff0f87a	1.8825829
11	0x3e56f6a4	0.20992523
12	0xbd8833f4	-0.06650534
13	0xbe1477a2	-0.14498761
14	0xbe826790	-0.25469637
15	0xbe047bde	-0.12937877
16	0xbdae36f5	-0.08506576
17	0x3f072812	0.5279552
18	0xbdca2b65	-0.09871558
19	0x3d1b06c1	0.037848238
20	0xbe169ed0	-0.1470902
21	0x3ecbbbe7	0.39791796
22	0xbe396620	-0.18105364
23	0x3edde3eb	0.4333795
24	0x3e9d7649	0.30754307
25	0x3e05a0b5	0.13049586
26	0xbe9d6375	-0.30739942
27	0x3f2072a9	0.6267496
28	0x3e6206c7	0.22072898
29	0x3c98bdb1	0.01864514
30	0x3e3ba473	0.18324451
31	0x3e025e2b	0.12731235
32	0xbca0103c	-0.019538991
33	0xbbf1443b	-0.00736287
34	0xc00219de	-2.0328288
35	0x3e88bf3e	0.26708406
36	0xbe8585db	-0.26078686
37	0x3edd23a2	0.43191248
38	0xbdb642a8	-0.088994324
39	0xbf19518e	-0.5989007
40	0xbda523ab	-0.08063444
41	0xbeceef69	-0.4041703
42	0xbea19443	-0.31558427
43	0x3f9d4095	1.2285334
44	0x3ea0a71a	0.31377488
45	0xbec3d093	-0.38245067
46	0xbd8397de	-0.06425451
47	0x3f11cf33	0.56956786
48	0xbea80866	-0.32818907
49	0x3e93b249	0.28846958
50	0xbe2bf48a	-0.16792503
51	0x3edab30a	0.4271472
52	0x3e669320	0.22517061
53	0xbfc6e648	-1.5539026
54	0x3eea4909	0.45758846
55	0xbd953f02	-0.072874084
56	0x3ec24d0a	0.379494
57	0x3fefa3d4	1.8721871
58	0xbfb5415c	-1.4160571
59	0x3e7298d6	0.23691115
60	0xbca088e7	-0.01959653
61	0x3e4af530	0.19820094
62	0x3e981422	0.2970286
63	0x3d322657	0.043493595
64	0xbf3451cf	-0.7043733
65	0xbefd4df0	-0.49473524
66	0xbfafd603	-1.3737186
67	0xbe1a2152	-0.15051773
68	0xbd111193	-0.03541715
69	0xbeb4db03	-0.35323343
70	0x3e8e7df5	0.27830473
71	0xbe784a31	-0.24247052
72	0x3f78d7ef	0.9720449
73	0x3f41b4ac	0.7566631
74	0xbe53313a	-0.20624247
75	0xbf0ee7e7	-0.55822605
76	0x3e4b1503	0.19832234
77	0xbe72f5d3	-0.23726587
78	0x3eaf673a	0.34258443
79	0x3d9cd212	0.07657255
80	0x3e2cd6c0	0.16878796
81	0x3e7e91bd	0.24860282
82	0x3e86f733	0.26360473
83	0x3eb9cac3	0.36287507
84	0xbdd0e35d	-0.10199616
85	0x3e0a2080	0.1348896
86	0x3e3ff3cc	0.18745345
87	0xbe99eacc	-0.30061948
88	0x3eef89d0	0.4678483
89	0xbed8192a	-0.422067
90	0x3df8a593	0.12140956
91	0xbdf6b749	-0.120466776
92	0xbe89b9c9	-0.26899555
93	0x3e174612	0.14772823
94	0x3ec0170c	0.37517583
95	0xbd269b7c	-0.040675625
96	0xbe713481	-0.23555185
97	0xbeb1166f	-0.34587428
98	0xbe4315ae	-0.19051239
99	0xbd3f5fc7	-0.0467222

fc.1.weight f4 [4, 100]
0	0xbd7bc2d4	-0.0614651
1	0x3e98f768	0.29876256
2	0xbd5f8c1e	-0.054576986
3	0xbcf678dd	-0.030086929
4	0xbcab87a5	-0.020938704
5	0xbe22d74d	-0.15902443
6	0x3d6f42e8	0.058413416
7	0xbd5a1fa7	-0.053252842
8	0xbc656d12	-0.014003055
9	0xbc0145a8	-0.0078901425
10	0x3f29cdda	0.6632973
11	0xbd8f8f65	-0.07009772
12	0x3e0621a1	0.13098766
13	0x3cad5e15	0.021163026
14	0xbcccadb4	-0.024985172
15	0x3c29dc72	0.0103675
16	0xbd434ae2	-0.047678836
17	0xbdeeb59f	-0.11655735
18	0x3d6d66b4	0.057959273
19	0x3d64373b	0.055716734
20	0x3d9d4ae8	0.07680303
21	0xbd543c63	-0.0518154
22	0x3da6adf1	0.081386454
23	0xbd8e199c	-0.06938478
24	0xbdbed364	-0.09317663
25	0x3da2bb36	0.07945864
26	0x3db93341	0.09042979
27	0xbd274671	-0.040838663
28	0x3d17b3ec	0.03703682
29	0xbba97fde	-0.0051727137
30	0xbd91c2f1	-0.0711726
31	0x3d826a12	0.063678876
32	0xbd1e5974	-0.038659528
33	0xbce6ea62	-0.028187934
34	0x3e53b066	0.2067276
35	0xbd63934d	-0.0555604
36	0x3d05dd27	0.03268161
37	0xbc99ed95	-0.018790046
38	0x3d530fad	0.05152862
39	0x3d662092	0.056183405
40	0xbd9fe5ea	-0.078075245
41	0x3dc2b1fe	0.095066056
42	0x3df4b956	0.119494125
43	0x3f1152de	0.5676707
44	0xbd9d628b	-0.07684811
45	0x3d2b3d3a	0.041806437
46	0x3afc1008	0.0019230852
47	0xbdb36763	-0.08759954
48	0x3c11ec78	0.008906476
49	0xbe001917	-0.12509571
50	0x3c44e124	0.012016568
51	0xbd73c1e5	-0.059511084
52	0x3d0b0291	0.033937994
53	0xbfa0a7ba	-1.2551186
54	0xbca1736d	-0.01970836
55	0x3e1fbeb6	0.15600094
56	0xbdcbd87c	-0.099534005
57	0xbf1b5718	-0.6067977
58	0xbf7f3911	-0.9969645
59	0xbb41a6ae	-0.0029548812
60	0xbdd76e87	-0.10519128
61	0xbdd4db00	-0.103933334
62	0xbd845e3a	-0.06463285
63	0x3c1626e0	0.009164542
64	0xbda375b3	-0.07981434
65	0x3dd34ee5	0.10317782
66	0x3ed17470	0.40909147
67	0x3b27dd69	0.0025614148
68	0xbc3e248c	-0.011605393
69	0x3d46a630	0.048498333
70	0x3e891dec	0.2678064
71	0x3e91ac82	0.28451926
72	0xbd5ee56c	-0.054418012
73	0x3e152f98	0.14568937
74	0x3dd073bd	0.10178325
75	0x3dacb0c8	0.08432156
76	0xbccff08a	-0.025383253
77	0x3cd9330b	0.026513597
78	0x3d3f0382	0.046634205
79	0xbcfc5c1b	-0.030805638
80	0x3df8e214	0.12152496
81	0x3d775152	0.060380287
82	0x3bed3f37	0.007240202
83	0xbd9547d5	-0.072890915
84	0xbb49c7d6	-0.0030789278
85	0xbcc741c1	-0.024323346
86	0x3ddaf263	0.10690763
87	0x3db50c2b	0.088402115
88	0xbdbf8c4d	-0.09352932
89	0xbcf016cd	-0.029307747
90	0xbb9df8b9	-0.00482091
91	0xbd43f9af	-0.04784554
92	0xbd311bd0	-0.043239415
93	0xbd4d356d	-0.05009978
94	0x3d212714	0.03934391
95	0x3c28dc3b	0.010306413
96	0x3d819b10	0.06328404
97	0x3d686cd3	0.056744408
98	0x3b34065f	0.0027469618
99	0xbab9056c	-0.0014115996
100	0x3db2a11a	0.08722134
101	0xbece5055	-0.40295663
102	0x3f1938eb	0.59852475
103	0x3e322b92	0.17399433
104	0xbe8d6763	-0.2761794
105	0xbec0426b	-0.37550673
106	0xbddb8dce	-0.107204065
107	0x3cb4c5a3	0.022066897
108	0x3cc61842	0.024181489
109	0x3cc7e409	0.024400728
110	0x3d208e70	0.03919834
111	0x3cb38f78	0.021918997
112	0xbcaa38f5	-0.020779112
113	0xbd9d9bae	-0.07695709
114	0x3dcc9e3a	0.09991117
115	0xbd890806	-0.066909835
116	0x3e0bfc1b	0.1367039
117	0xbd51b6e2	-0.0511998
118	0x3aa1065a	0.0012285218
119	0x3a460899	0.0007554382
120	0xbd29b4ef	-0.041432317
121	0xbcc7546e	-0.024332251
122	0xbdfe4db1	-0.12417162
123	0xbd8b1d35	-0.0679268
124	0xbe1b1f3a	-0.1514863
125	0xbdd1c9cf	-0.1024357
126	0x3e4b4853	0.19851808
127	0xbd052e34	-0.032514766
128	0x3e1a9401	0.15095522
129	0x3d1b29c8	0.037881643
130	0xbc43bce4	-0.0119468905
131	0x3d0ef6af	0.034903225
132	0xbd1fe7c9	-0.039039407
133	0xbdd2787a	-0.10276885
134	0xbed651ff	-0.41859433
135	0xbc0634a0	-0.008191258
136	0xb9246d82	-0.00015681054
137	0x3dfa07e3	0.122085355
138	0xbc51cb82	-0.012804868
139	0xbdd9e778	-0.10639852
140	0x3b14c2cf	0.0022699123
141	0xbd884162	-0.06653096
142	0x3e48c165	0.19605024
143	0x3d53e66a	0.05173341
144	0x3d1d1775	0.03835245
145	0xbd36312b	-0.044480484
146	0xbd734e64	-0.05940093
147	0xbc2f9b03	-0.01071811
148	0x3e03a502	0.12855914
149	0x3b171618	0.002305394
150	0x3da28eec	0.079374164
151	0x3c667fb1	0.01406853
152	0x3cb55331	0.022134395
153	0xbe5499f1	-0.20761849
154	0xbe78a285	-0.24280746
155	0x3d3a8867	0.04554024
156	0x3d9342b9	0.07190461
157	0xbe20655a	-0.15663663
158	0x3dce2fc2	0.10067703
159	0x3db0e5b6	0.08637564
160	0xbe0614eb	-0.13093917
161	0x3d0471ff	0.032335278
162	0x3e45fccb	0.19334714
163	0xbda3b224	-0.07992962
164	0x3e6eccac	0.23320264
165	0x3db6a23f	0.08917665
166	0x3f260944	0.6485789
167	0x3e40293d	0.18765731
168	0xbcdf74a8	-0.027277306
169	0xba39b45e	-0.0007084067
170	0x3f24cd06	0.6437534
171	0x3eaaa447	0.3332846
172	0x3e41c1f9	0.18921651
173	0xbeaf8762	-0.34282976
174	0xbf7a419f	-0.9775638
175	0xbdaafdac	-0.08349165
176	0xb9c9a318	-0.00038459222
177	0xbd646b90	-0.055766642
178	0x3dff0255	0.12451617
179	0xbd522d24	-0.05131258
180	0x3afc5f6d	0.0019254513
181	0x3decc69d	0.1156132
182	0x3deb406e	0.11486898
183	0x3d6ada53	0.057337116
184	0xbdb0e19f	-0.08636784
185	0xbe1cbc56	-0.1530622
186	0x3ed2de00	0.41184998
187	0x3d91ed63	0.07125356
188	0x3d27aa27	0.040933754
189	0xbe69f48c	-0.22847193
190	0x3aeb5564	0.0017954526
191	0xbd993c3b	-0.07482191
192	0xbdab226c	-0.08356175
193	0xbd68fec2	-0.05688358
194	0xbc811f60	-0.015762031
195	0xbd8ac891	-0.06776536
196	0x3d433de0	0.04766643
197	0x3d691236	0.056902133
198	0xbdb4c471	-0.08826531
199	0x3dd454b7	0.103677206
200	0x3cc7ad4d	0.024374628
201	0xbc980062	-0.01855487
202	0xbccbba55	-0.024869123
203	0xbcd8ff01	-0.026488783
204	0x3def6ebd	0.116910435
205	0xbd9419c0	-0.07231474
206	0xbcdf2f8e	-0.027244356
207	0xbb12269b	-0.0022300843
208	0x3dc216ec	0.09477028
209	0xbde53cba	-0.11193223
210	0xbc9143e0	-0.01773256
211	0x3d812154	0.06305185
212	0x3cf62858	0.030048534
213	0x3c019144	0.007908169
214	0xbde583bd	-0.11206768
215	0x3db3f22b	0.08786424
216	0x3b3ebdcd	0.002910483
217	0x3df439ec	0.1192511
218	0x3ccab2cd	0.024743462
219	0xbdd2e862	-0.1029823
220	0xbd9a3dcd	-0.07531319
221	0xbe0599f4	-0.1304701
222	0xbe1d861a	-0.15383187
223	0x3d8149e8	0.063129246
224	0xbdbf3182	-0.09335615
225	0x3d7f27e4	0.062293902
226	0xbe004fc3	-0.12530427
227	0xbd05baa4	-0.032648697
228	0xbdc02dac	-0.09383711
229	0x3e38852e	0.18019554
230	0x3cc116b9	0.023570405
231	0xbca44d87	-0.0200565
232	0xbc222045	-0.009895389
233	0xbd000cd2	-0.031262226
234	0x3b2d94d6	0.0026486418
235	0x3dcc9107	0.09988599
236	0xbd45e34f	-0.04831248
237	0xbb53d46d	-0.003232266
238	0xbd031342	-0.032000788
239	0xbb191b71	-0.0023362304
240	0xbe24c26b	-0.1608979
241	0x3e0fa0ab	0.14026134
242	0x3debee36	0.115200445
243	0xbd229502	-0.039692886
244	0x3c51a664	0.012796018
245	0x3dce73b0	0.100806594
246	0x3daa06b9	0.083020635
247	0xbdc1a301	-0.09454919
248	0x3aa4dfed	0.0012578942
249	0x3e1e3f5a	0.15453854
250	0x3dedaf41	0.11605693
251	0xbe1401cb	-0.14453809
252	0x3c8c5d90	0.017134458
253	0xbc32dbe1	-0.010916681
254	0x3c3d4d59	0.011554086
255	0x3d88b497	0.0667507

fc.1.bias f4 [4]
0	0xbf0cbc57	-0.54974884
1	0x3d80d0d8	0.06289834
2	0x3d98d261	0.074620016
3	0x3d847b64	0.064688474
