model/unicycle-FC6-100-rk4-extra/epoch_400.pth (torch, 170011 bytes, 12 tensors)

fc.0.weight f4 [100, 6]
000000 d2 4e 1a bd 5b 4c e2 bd 3e 3a 36 3e 5f bf 13 bf
       -0.037672825 -0.1104972 0.17795655 -0.57713884
000010 b9 99 98 3e 12 70 1a 3e b0 d2 cb 3e ec 14 91 3e
       0.2980478 0.15081814 0.3980918 0.28336275
000020 2d ee a3 3e ea 85 99 3e e8 20 a7 3e b3 92 16 be
       0.3201765 0.2998498 0.32642293 -0.14704399
000030 c9 01 d0 be 78 0c 4a be 8d 23 29 bd c7 70 b7 3e
       -0.40626362 -0.19731319 -0.04129367 0.3582823
000040 75 5f ca bb 1b b7 98 be c3 9a d4 bc c7 9e 94 be
       -0.00617593 -0.29827198 -0.025952702 -0.29027387
000050 ca 4c d0 3d df ce cb be 77 26 d2 be 8a 10 eb 3e
       0.10170896 -0.39806268 -0.4104497 0.45911056
000060 d9 ad 83 3e 8f 4a b0 be 1b 35 c1 be 9e 90 37 bf
       0.25718573 -0.34431884 -0.3773583 -0.71705043
000070 3d 46 46 3e f6 73 c9 be 6e 56 9c bc b6 48 9e bd
       0.19362731 -0.39346284 -0.019084182 -0.07728712
000080 c3 8a b2 3d b2 9a 83 3e 28 b9 90 bd e5 27 a1 3e
       0.08717873 0.2570396 -0.07066566 0.3147575
000090 58 0d 54 be 1f d4 27 be 4c d6 b7 3e c3 dc c1 3e
       -0.20708215 -0.16389512 0.35905683 0.3786374
0000a0 fa ef 7c 3e d1 0d 8b 3e c8 fc 0b bd d0 5c a8 3e
       0.24700919 0.2715898 -0.034176618 0.3288331
0000b0 f4 bf bb bd cb 54 8c be 85 c8 c4 3e df e3 bf bd
       -0.091674715 -0.27408442 0.38434234 -0.09369635
0000c0 93 46 68 3e 31 9f 82 be a7 e5 f2 3e 71 ec 2d 3f
       0.22683172 -0.25512078 0.47440836 0.67938906
0000d0 32 b4 0a 3e c9 1a e9 3c 13 a6 c1 bd bc a1 23 3e
       0.13545302 0.028455155 -0.09455504 0.15979666
0000e0 c4 ee 1e 3e 7c 99 96 3e e2 03 0b be b8 72 e5 be
       0.1552077 0.29413974 -0.135757 -0.44814086
0000f0 cd d4 9c be d9 5f 27 3c 86 7b 64 be c6 2a c7 be
       -0.30631104 0.010215723 -0.22312745 -0.3889982
000100 79 07 88 be 9a 47 2a 3e c0 04 66 3e 66 3e 62 be
       -0.265682 0.16628876 0.2246275 -0.22094116
000110 5a 4e 0d 3e 6e 5a f1 bc bf 75 dd 3d 3b 36 14 be
       0.1379942 -0.029462066 0.10813474 -0.14473812
000120 b9 cf bf be ed 2d 88 be 1e 7d b3 3e 48 67 d3 bd
       -0.37463167 -0.2659754 0.35056394 -0.10322434
000130 fe 5a 1f 3e 87 ce a6 be 47 88 a3 3d ce 25 4c 3d
       0.15562055 -0.32579443 0.07984977 0.04984074
000140 69 65 c3 bc ef 56 dd be d3 68 ff bd 69 8c be 3e
       -0.023852067 -0.43230388 -0.124711655 0.372165
000150 ac aa c4 be 86 f6 a4 be 90 b4 19 bd 24 ed 8f be
       -0.38411462 -0.32219332 -0.037525713 -0.2811061
000160 14 88 d5 bd c8 17 0b bd f3 e6 bf be a3 da 96 be
       -0.104263455 -0.033958226 -0.37480888 -0.29463682
000170 9b a1 d5 3e a2 44 df be 09 ff 21 3e 38 72 ce be
       0.41724858 -0.4360705 0.15819944 -0.40321517
000180 03 c6 84 be f3 dd b1 be af e2 78 3e 5d a0 10 3f
       -0.2593232 -0.34739646 0.24305223 0.56494695
000190 75 6f 05 3f d7 f6 63 3d 81 ff db bd dd 67 2d bd
       0.52123195 0.055655327 -0.10742093 -0.04233538
0001a0 76 38 b1 be b6 c5 41 bf 50 ed 3b bc d1 44 43 be
       -0.3461339 -0.7569231 -0.011470154 -0.1906922
0001b0 05 cd 94 be 77 da 54 be 9c 06 e1 3d 11 77 a7 bc
       -0.29062667 -0.20786463 0.10987589 -0.020442517
0001c0 e4 4c 8e be 27 9a 97 3e a3 d4 9f be 52 a6 fa 3c
       -0.27793038 0.29609796 -0.31216916 0.030596886
0001d0 4e b4 65 be 59 f8 eb 3d 55 e1 bc be 2c f7 8f 3e
       -0.22432062 0.11521978 -0.36890665 0.28118265
0001e0 34 ce 1a 3e 1f 6e 01 3e d4 07 06 3f 80 2e 99 be
       0.15117723 0.12639664 0.52355695 -0.2991829
0001f0 3a 72 60 3e f4 9b 52 be 2e 0a af bd a2 03 da bd
       0.21918574 -0.20567304 -0.085468635 -0.10645224
000200 ae 11 6e 3e d4 6d 90 bd c1 8c bf 3d 69 98 eb 3d
       0.23248932 -0.07052198 0.093530186 0.11503679
000210 10 46 3b 3e b6 a4 ec 3d 99 01 5c bd dc cd f9 3e
       0.18288445 0.115548536 -0.05371246 0.4878987
000220 4e 81 a9 3e 6a 5a b6 3e a9 e9 6d 3e cd 61 7a be
       0.33106464 0.35615855 0.23233666 -0.2445137
000230 60 4f 3a 3e d8 2e 00 bf c6 61 9b 3c c9 a0 6c bd
       0.18194342 -0.5007148 0.01896752 -0.057770524
000240 4d 71 c6 bc 9a 92 53 ba b0 76 54 be 99 94 67 3e
       -0.024223948 -0.00080708566 -0.207484 0.2261528
000250 18 49 cb be 5e da 78 3d 16 17 4e be 62 34 aa be
       -0.39704204 0.060755126 -0.20125994 -0.3324309
000260 87 de 19 bf 10 4a a9 3e 29 69 d8 be d3 2f 1f 3e
       -0.60105175 0.33064318 -0.4226773 0.15545587
000270 33 7c f7 3c c1 5b 96 3e 72 c6 07 be f3 a6 ca 3e
       0.03021059 0.29366878 -0.13259295 0.39580497
000280 de c6 da 3e 67 a0 f2 be df 9a 8c 3d 83 9c b1 bc
       0.4272985 -0.47388002 0.06865477 -0.021681076
000290 9e f4 7e 3e 2d 57 f8 3e 1a 7a c4 bd da ab 6d be
       0.24898002 0.4850401 -0.095936015 -0.23210087
0002a0 57 eb d4 3e 57 05 08 3e 9a 7e bd be c9 3e 95 3e
       0.415858 0.13283287 -0.37010652 0.29149464
0002b0 3b a4 d7 be 4a 68 af 3e 98 89 66 be fb cc 8a 3e
       -0.42117485 0.34259254 -0.22513425 0.27109513
0002c0 d2 0b 7e be 5e 6b c5 3d 3c 94 0b be 45 27 31 3e
       -0.24809197 0.09639619 -0.13630766 0.17300136
0002d0 f6 ed 65 3e f8 38 3b 3e e2 0f 7e be 7d c0 44 3e
       0.22454056 0.1828345 -0.24810746 0.19214053
0002e0 6c aa d3 bd 03 96 74 3e 55 5a 01 be f0 86 2b bd
       -0.1033524 0.2388535 -0.12632115 -0.041876733
0002f0 b0 12 e6 be 57 a1 ba 3e 59 af ac 3d f9 ec 8e 3b
       -0.44936132 0.36451218 0.084318824 0.0043617454
000300 f9 2d b6 3e f7 12 19 3e 5a 64 c9 3e 17 ec 80 3e
       0.3558195 0.14948641 0.39334375 0.25180122
000310 89 85 2b be 23 08 0b 3d 5c 5a 9b bd 2f 2f 8b 3d
       -0.16750158 0.033943307 -0.07585594 0.06796109
000320 83 d8 a9 be 1d fb 25 3f 5a 35 09 bd 7a 76 f2 3d
       -0.33172998 0.64836293 -0.033498146 0.11839004
000330 eb c9 8c 3d ba 7d a4 3e 21 f4 ab be a1 da 1b 3f
       0.0687445 0.32127172 -0.33584693 0.60880476
000340 d3 2d 73 3d 72 1c fe bd e6 71 01 3e 5c b3 92 3a
       0.059369873 -0.12407769 0.12641105 0.0011192369
000350 7b dd 9f 3e 45 ed 3d bf b5 4b 85 bd 9b d9 57 3e
       0.31223664 -0.7419017 -0.065085806 0.21079104
000360 b6 7a 21 3d 13 7a c7 3d 0a 17 0b 3f 74 91 f8 be
       0.039423667 0.09740081 0.5433203 -0.48548472
000370 b9 e5 23 3e c8 05 06 be 36 88 11 be ac 5f a9 be
       0.16005601 -0.13088143 -0.14212117 -0.33080804
000380 f5 db 9b 3e 14 3b 4f be 1d d3 98 be fe f6 a7 3d
       0.3044125 -0.2023738 -0.29848567 0.08201407
000390 38 e7 f0 bd 39 44 03 3e c7 ca 43 be 21 0e 4f bf
       -0.117628515 0.12818994 -0.19120322 -0.80880934
0003a0 57 4b 2e 3c 41 6f 5e bd 6b 8b 7e 3e e0 ef 5f 3e
       0.01063808 -0.05430532 0.24857871 0.21868849
0003b0 99 eb bc 3e 99 f5 1f 3f 91 5f 37 be 74 56 d0 3d
       0.36898497 0.6248413 -0.1790755 0.101727396
0003c0 2a 7d 83 be fd 8d ad be 4d 54 bb 3e f9 08 24 bf
       -0.2568143 -0.3389739 0.36587754 -0.6407619
0003d0 27 71 8c 3e be 5f 9a bd 65 81 76 be 1a 6b 36 be
       0.27430078 -0.075377926 -0.24072798 -0.17814294
0003e0 88 49 15 be 33 da aa 3e 03 ba cb 3e 56 ff a8 3e
       -0.14578831 0.33369598 0.39790353 0.33007306
0003f0 6e 27 1d be d1 7e a2 bb d1 51 23 3f 22 62 1e bf
       -0.15347072 -0.0049589653 0.63796717 -0.6186849

fc.0.bias f4 [100]
000000 89 d5 aa be d6 96 ae be 7e 03 72 3d ce 56 0a 3e
       -0.3336604 -0.34099454 0.05908536 0.13509676
000010 4f 00 31 bf d4 3d e8 3d ee ef 1d 3d 2c 3b 15 bd
       -0.69141096 0.11339918 0.038558893 -0.036433384
000020 c3 56 1e 3f 38 1b 37 3d 27 ee 0b 3e f9 fd aa 3e
       0.6185114 0.044703692 0.13665067 0.3339689
000030 c6 08 57 3e f6 ad 69 3e 31 05 99 be 7a 54 f9 3e
       0.2099944 0.22820267 -0.29886773 0.48697263
000040 fa de a6 bc d8 9d 08 bf b1 00 5d 3e 94 1b b1 be
       -0.020369995 -0.5336585 0.21582295 -0.34591353
000050 a6 75 12 3f bd 58 06 3f 42 55 2d be 1c fa 61 bf
       0.5721077 0.52479154 -0.16927055 -0.8827226
000060 5b a2 da 3e e7 ef 39 bf 18 c2 05 be cd e5 f0 bd
       0.42701992 -0.72631687 -0.13062322 -0.11762581
000070 ad 53 9a bd d7 b0 e8 3d be 2c 60 be 5b eb 05 3f
       -0.07535491 0.113618545 -0.21892068 0.5231225
000080 19 c8 19 3f 0d 55 bd be 9f f5 c8 be a7 d6 14 be
       0.6007095 -0.3697895 -0.39249894 -0.14535008
000090 22 f2 f6 3e 2f d0 b4 be b5 1b 77 bf 2e 0c 8c be
       0.48231608 -0.3531508 -0.9652665 -0.27353042
0000a0 59 1f c1 be 6d ca 19 3e d5 c7 08 bf 32 13 75 be
       -0.3771923 0.15018626 -0.5342992 -0.23933104
0000b0 3b c4 02 3d 6f 26 25 3e 1b 95 08 3f 8e e8 4e 3d
       0.03192542 0.16127943 0.53352517 0.05051475
0000c0 08 44 43 3f a8 60 da bc 18 0a 11 bb 6f 1f b0 be
       0.7627568 -0.026657417 -0.002213126 -0.34398982
0000d0 ab ab da 3e 86 10 c2 3e b6 07 48 bb 13 22 f7 bb
       0.42709097 0.3790323 -0.0030522174 -0.0075419038
0000e0 ce 6c 53 be dc 39 05 3f 4e 02 fa bd 78 4d 2f 3e
       -0.20646974 0.5204141 -0.12207471 0.17119396
0000f0 0e e8 69 3e a1 f2 0c be a4 ef 06 bf 1d 85 67 be
       0.22842428 -0.1376443 -0.5270941 -0.22609372
000100 d3 77 d6 bd ab 8e 8b 3d bb b6 0a 3e 6a d5 1f 3e
       -0.104720734 0.06814321 0.13546269 0.15608755
000110 1b ab 01 3f df 53 52 3e b1 ac eb 3d 16 c1 2c bd
       0.5065171 0.20539807 0.11507548 -0.04217633
000120 0a af 3d 3f 4f cb f8 3e d7 26 0c bc 50 eb 18 3f
       0.74095213 0.48592612 -0.008554182 0.5973406
000130 0c 3b 4a be d6 55 6f 3e 8b e1 02 bd 7d 13 b1 bd
       -0.19749087 0.23372588 -0.031953376 -0.08646295
000140 c9 bf a5 3e 18 a6 58 be 3b 15 5c bf 3a ca e9 3d
       0.32372883 -0.2115711 -0.85969895 0.11415525
000150 68 23 5b 3e 41 47 a4 be 91 67 e1 3e 74 dc c0 3d
       0.21400225 -0.32085612 0.44024327 0.09417048
000160 46 7f 41 3e 00 e7 24 3e 2c 5c c6 3d c3 e2 8a 3d
       0.18896207 0.16103745 0.09685549 0.067815326
000170 3d 90 2d bc 93 9c bd be 30 5b e3 3d 23 2f 7f bb
       -0.010593471 -0.3703352 0.11101377 -0.0038938008
000180 c5 ac cb bd 23 a3 40 be df 88 cb be 73 c4 13 bd
       -0.099450625 -0.18812232 -0.39752862 -0.03607602

fc.1.weight f4 [100, 100]
000000 b6 af 76 bc 6a 88 84 3d 9d 37 ff bc eb 40 27 3b
       -0.015056541 0.064713314 -0.031154448 0.0025520872
000010 2b 7e 97 3c 21 c4 29 3d 5a 9d 06 3d cf 72 85 3d
       0.018492779 0.04144681 0.032864906 0.065160386
000020 52 50 ad 3d ff 2f 83 bd a7 53 d7 bd 55 93 aa 3d
       0.084625855 -0.06405639 -0.10514002 0.083288826
000030 d9 33 3a bd 16 e8 1f 3e ca c1 30 bd 24 a1 0f 3d
       -0.045459602 0.15615878 -0.04315356 0.035065785
000040 17 49 2c 3d 6c 32 24 bd 9c 41 8d bd fa 50 3f bd
       0.04206189 -0.04008715 -0.068972796 -0.046708085
000050 9f 28 d4 bd 63 34 b7 3d e0 27 82 b9 c5 3f bb bd
       -0.1035931 0.08945539 -0.0002482524 -0.091430224
000060 51 22 11 3d 45 a8 82 bd 5c 02 95 bb ec 26 7f 3d
       0.035433117 -0.06379751 -0.0045474004 0.06229298
000070 56 25 e7 3d da 01 7e 3d 62 c5 5e 3c 91 8c ad b9
       0.11286418 0.062013485 0.013596864 -0.00033101861
000080 2e 0b c5 bb 73 37 90 3d 68 01 e2 bc 15 9c 8d bc
       -0.0060132956 0.07041826 -0.027588561 -0.01728634
000090 aa 91 ee bd 83 13 4c 3d 62 59 3c bd 9f 43 98 3d
       -0.11648877 0.049823295 -0.04598368 0.07434773
0000a0 8f a2 91 bc 53 97 82 3a af f3 b1 3d b5 41 8f bd
       -0.01777771 0.0009963311 0.08689057 -0.069949545
0000b0 2c 74 aa 3b aa 70 11 ba c5 0f b9 bd 7a ca 7f 3d
       0.005201837 -0.0005548099 -0.09036211 0.062448956
0000c0 76 b3 d0 bd 74 b5 cd 3c ba 1d 46 3c 7b 54 14 3e
       -0.101904795 0.025110938 0.012092048 0.14485352
0000d0 df 21 38 3c 50 da de bd f2 60 a5 3d c1 9a 06 3c
       0.011238544 -0.108814836 0.080751315 0.008215607
0000e0 6b 1e 83 bd d1 ee 7d 3d d2 79 29 3d 21 36 31 bd
       -0.06402286 0.06199533 0.041375943 -0.043264512
0000f0 68 ea 16 bd 39 e6 b5 3c a1 c7 12 3d df 31 9d 3c
       -0.03684464 0.022204505 0.035834912 0.01918882
000100 48 4f 37 3c d2 98 c0 3d d3 37 08 bd e2 86 08 bd
       0.011188336 0.09404148 -0.033256363 -0.03333176
000110 4e a5 d0 3c 9c e0 7b 3d 8c ad 7b 3d 2a 11 cc bc
       0.025469448 0.0614935 0.061444804 -0.024910528
000120 d3 a4 c0 3c 2f ef bf bd e5 ce 52 bd b6 7c c7 3d
       0.023516094 -0.093717925 -0.05146684 0.097405836
000130 21 e4 c8 bd 7e 30 5e bd 9b 99 a2 3b e0 c9 ed 3d
       -0.09809137 -0.054245465 0.004962159 0.1161077
000140 b2 96 5d bc 2c fe ab 3d 51 92 4a bd b4 76 87 3d
       -0.013524698 0.08398089 -0.049455944 0.06614438
000150 bf 9f a6 bd 05 68 a7 3d 45 e3 81 bd fe 92 a1 3d
       -0.08135938 0.08174137 -0.06342176 0.07889365
000160 a4 24 0f 3d e9 07 81 3d 65 d7 a6 3d 49 b5 02 be
       0.034947053 0.06300337 0.08146552 -0.12764467
000170 c3 59 6e bc ce 8b 06 bd a3 57 03 3c 47 dd 31 bd
       -0.014547768 -0.032848172 0.0080165 -0.043423917
000180 56 ae 15 3b 93 e5 ff 3b c9 54 c1 bd 68 6a 94 bd
       0.0022839508 0.00780935 -0.094399996 -0.07246858
000190 14 01 d8 3d 5c c7 65 bd 34 6e bf bd 12 d7 98 3d
       0.10547081 -0.056098327 -0.093471915 0.074628964
0001a0 d4 5e b2 3d 13 cc db bd af ef bb 3c 2b 09 24 bd
       0.08709493 -0.107322834 0.022941438 -0.040047806
0001b0 e0 2d 59 bd 7a 4f ad 3d f1 e6 e0 bd a3 26 6c bc
       -0.053022265 0.084624246 -0.109815486 -0.014413509
0001c0 f3 5d 4e bd 21 46 f2 3c d1 b8 b4 3d 25 44 9c 3d
       -0.050382566 0.029574456 0.088243134 0.07630185
0001d0 5d 60 17 3d ac fd 3d 3e ff ec d2 3d af 59 62 3d
       0.036957134 0.185538 0.1029911 0.05526131
0001e0 ec 3c 0a 3e f8 8d 8e bd 91 de 80 3d 34 c3 98 3d
       0.13499802 -0.06960672 0.06292451 0.07459107
0001f0 b4 90 5f 3d f9 ac f5 3c 0f 84 a6 bc 3e a3 81 bd
       0.05458136 0.029989706 -0.020326642 -0.06329964
000200 12 6f fb bd ed 17 85 3d 61 81 69 3c c6 64 c6 bd
       -0.12277044 0.06498704 0.014252038 -0.0968719
000210 26 98 c5 3d 2d 90 86 bd 51 6b 91 bb 22 b6 24 3e
       0.09648161 -0.06570468 -0.004437842 0.16085103
000220 4a 82 ca 3d 68 25 f3 3c 64 59 de 3d b8 1c 76 bd
       0.09888132 0.029680923 0.10856894 -0.060085982
000230 1a af 26 3d b0 37 d0 bc ca 36 d9 3d b4 a4 a5 bd
       0.040694334 -0.025417179 0.10606153 -0.08088055
000240 f8 c5 cc 3c 7c 4d 39 3d dc c7 2d 3c b4 d6 30 3e
       0.024996743 0.04523991 0.010606732 0.17269403
000250 49 21 e2 3a 51 25 78 bc 04 e1 8d bd 62 e0 5a bd
       0.0017252351 -0.015145616 -0.06927684 -0.053436644
000260 10 7c a1 3c 9c 20 00 3d f0 43 4e 3a 1c 5d db 3d
       0.019712478 0.0312811 0.00078684 0.107111186
000270 88 eb 94 3d a0 a5 9a bd 83 5a 82 3d 9c 71 3d 3d
       0.072714865 -0.07551122 0.0636492 0.046250924
000280 ac 02 7e 3d bc 4d 5f 3d 75 ff 34 3d 69 9d 27 3e
       0.062014267 0.054517493 0.044188935 0.16368641
000290 6d 6b 59 bd 60 b1 38 3d 76 8c 2b 3d 5c bd 19 3e
       -0.053080965 0.045091033 0.041882 0.15013641
0002a0 f8 fc 84 bc 00 c9 42 bd 46 c8 1c bd 58 0c bd 3c
       -0.016233906 -0.04755497 -0.038276933 0.023077175
0002b0 df 64 aa bd af 5d a3 bd c7 0d 3e 3d a1 04 b7 3d
       -0.08320021 -0.07976853 0.046399858 0.0893643
0002c0 c2 88 b1 3d 5e 51 55 bc a1 d8 c8 bc de 2b 62 3d
       0.086686626 -0.013019888 -0.02451736 0.055217616
0002d0 d4 46 e1 3d 97 73 8c bd 45 26 f3 3d 08 ed a5 3d
       0.109998375 -0.068579845 0.11872534 0.08101851
0002e0 ab f2 d6 3d 01 c4 56 3d d2 71 38 3e 32 37 e2 3d
       0.10495504 0.052433018 0.18012169 0.11045684
0002f0 2d c7 0c 3d ce 9d 95 3d 13 10 c3 3d 83 5b b4 3c
       0.034369636 0.073054895 0.0952455 0.022016292
000300 be c3 7d bd 3c 64 fd 3d 90 ab 90 bd b6 69 a9 3d
       -0.061954252 0.12372634 -0.07063973 0.08272116
000310 de 1e 95 bd 21 26 31 3d ba cb ab bd fe cd 8f 3d
       -0.07281278 0.043249253 -0.08388467 0.07021712
000320 26 dc 69 bd f7 cb 6b bb 5a ff 14 3d d1 68 4e bd
       -0.057094716 -0.0035979727 0.036376335 -0.05039293
000330 d4 85 56 bd 7c 6b dc 3d 28 14 59 3d 5c 86 64 3d
       -0.052373722 0.107626885 0.052997738 0.055792198
000340 0c c6 ac bc bf cc 06 bc 80 74 ad 3d 67 66 cb bc
       -0.02109053 -0.008227526 0.08469486 -0.024829103
000350 d7 b4 f2 3d 47 7b 25 3d 1c 99 82 bc 34 5f 4a 3d
       0.11850899 0.04040077 -0.015942149 0.0494072
000360 37 6b 36 bc e9 64 9b bc 00 61 07 3d 10 9b 04 bc
       -0.01113396 -0.018969016 0.03305149 -0.00809361
000370 ab 7d 99 3d 77 18 ae 3d 26 1b ea 3c 50 c3 ee bd
       0.074946724 0.0850076 0.028577399 -0.11658347
000380 2b 92 7a 3d b0 dd 33 bd 29 0c 8e bd a8 cb b0 3c
       0.061174553 -0.04391259 -0.06935913 0.021581486
000390 59 8a d7 3c a1 8b d8 bc e5 db ae 3d df 0a af 3d
       0.026311086 -0.026433768 0.08538035 0.08546995
0003a0 a2 45 a7 bc 21 75 02 bd a9 e3 a0 3d 8b aa 47 3d
       -0.020418946 -0.031849984 0.07855923 0.048746627
0003b0 eb 90 58 3d 17 e6 4d bd e3 64 cb 3c 0e 47 b8 bc
       0.05287258 -0.05026826 0.02482838 -0.022494819
0003c0 a7 cb 4e 3c dd 83 70 3c 49 20 6c 3d 0e 9d 8c bd
       0.012621797 0.014679876 0.057647977 -0.06865893
0003d0 9e 7d 98 3d 3a 83 64 bb 0a ac db bc b2 63 bb 3d
       0.074458346 -0.0034868256 -0.026815433 0.09149875
0003e0 ce 5c c9 bc f2 4c c9 bd 62 c9 a8 bc 80 7a c3 bd
       -0.024580386 -0.09829129 -0.02060384 -0.095448494
0003f0 50 10 8a 3b 30 9e 8c 3d b8 4a a2 3c 28 b6 b2 bd
       0.0042133704 0.06866109 0.01981102 -0.0872615

fc.1.bias f4 [100]
000000 c4 8e 60 3d d7 67 a8 bd b2 59 8a 3e 50 2b d9 3c
       0.054823652 -0.08222931 0.27021557 0.02650991
000010 e1 08 70 3d d9 a5 90 3d 4f d4 b7 ba d9 77 52 3e
       0.058602218 0.07062883 -0.0014025065 0.20553531
000020 b9 31 6d 3e 15 ca f9 3d b4 e4 45 3e 1c ba d5 3d
       0.23163499 0.12196747 0.19325525 0.10435888
000030 95 0c 2f 3e 42 32 5e 3e 60 9e 9d 3d ad 61 59 3c
       0.17094643 0.2169886 0.07696223 0.013267917
000040 27 37 60 be 1e 53 15 bf 5b ac b1 3d 06 7d ef 3d
       -0.21896039 -0.5832995 0.08675452 0.11693768
000050 73 55 2c be bd f0 13 bc 68 de f9 3d 78 14 bb bd
       -0.16829471 -0.009029564 0.12200624 -0.091347635
000060 5b 7a 24 3e 95 8d 97 be a1 2f c3 3c fd bc 44 3e
       0.160623 -0.29600206 0.023826422 0.19212718
000070 e2 64 b1 bc 6c 9a 89 3a a9 ac b0 3d 73 6c b6 bd
       -0.02165455 0.0010498292 0.08626682 -0.08907404
000080 12 e0 ca bc 99 13 93 bd 28 1d fa 3d 2d f2 26 bd
       -0.024765048 -0.07181472 0.12212592 -0.0407583
000090 23 0f ba 3d 06 ca b6 3b b9 f6 1f be c7 39 2a bc
       0.09084918 0.0055782823 -0.15621461 -0.010389752
0000a0 8a a7 34 3e a8 65 22 3e 1c 17 94 bb f9 16 47 3e
       0.17642036 0.15859091 -0.0045193564 0.19442357
0000b0 8f a8 13 3e c1 c7 df bd 8f 15 cc 3c 21 77 9b be
       0.14419769 -0.10926772 0.024912624 -0.30364326
0000c0 a6 ad 41 3e b9 8f 1b bc ed 17 b9 3d 62 56 cc bc
       0.18913898 -0.009494715 0.090377666 -0.024943534
0000d0 05 0c 1f 3d 01 52 f9 bc 7b 7b 03 bd ec 34 62 bc
       0.038829822 -0.03043461 -0.032100182 -0.013806563
0000e0 05 c3 4a 3e 36 75 d5 3e 8c 4b 0e 3e c7 20 ca 3e
       0.19800957 0.41690987 0.13896006 0.39478132
0000f0 fd 2b f6 3e 1a 1a 93 3e df 68 b7 be 4f 77 5d 3e
       0.48080435 0.2873085 -0.35822198 0.21627544
000100 5c 63 09 3e d2 3a dd 3d 3d 3e 14 bc 40 37 9c 3c
       0.13416809 0.10802235 -0.009048042 0.019069314
000110 f9 75 8a 3d 78 66 70 bd aa 31 d7 bd 5b b9 e8 3c
       0.06760783 -0.05869147 -0.105075195 0.028408697
000120 5c d2 c7 bc e0 4e 4a 3e e1 e6 62 3d 3b 23 3a bd
       -0.0243923 0.19756651 0.055395965 -0.045443755
000130 1d f7 46 3e 93 f3 15 3c 6a 4f a5 bd a5 f2 43 bd
       0.19430204 0.009152311 -0.08071788 -0.047838826
000140 42 44 b3 bd d4 97 0d 3e f9 c1 9d 3c 3d e9 41 3e
       -0.087532535 0.13827449 0.019257532 0.1893663
000150 b9 e3 21 bd 97 ef dc bd 38 b6 45 3d a9 4d 7b be
       -0.039523814 -0.10787886 0.04826948 -0.24541344
000160 e8 cc 1a 3e d0 30 9a bd fb 59 53 be 09 46 f9 3d
       0.15117228 -0.075288415 -0.20639794 0.12171561
000170 02 43 04 be 1a fb 13 bc 17 8d ef bc 53 65 b7 3d
       -0.12916186 -0.009032035 -0.029242082 0.08954873
000180 5e 6a 0d 3e a5 02 8c 3e 31 ed 67 3e 80 27 88 3e
       0.13810107 0.27345768 0.22649075 0.26592636

fc.2.weight f4 [100, 100]
000000 77 79 9a bd ea b7 01 3e ef 46 e0 bc 8b 5a 75 3d
       -0.07542699 0.12667814 -0.027377574 0.0599008
000010 5e 26 ec 3d 92 f8 3b bd bd b3 08 3e e3 34 43 3d
       0.115307555 -0.045891352 0.13349815 0.04765786
000020 fe 13 c7 bc db 00 bf 3d 70 48 91 3d 7a f3 f4 bc
       -0.024301525 0.09326335 0.070938945 -0.029901255
000030 c5 18 76 bd e8 42 58 bd 2c ea 8b bc 1c 57 c2 3d
       -0.060082216 -0.05279818 -0.017079435 0.09489271
000040 36 a0 54 bd a6 5a 10 3e c1 00 8a bd 03 16 fe 3d
       -0.0519106 0.1409708 -0.06738425 0.12406542
000050 70 18 65 be 70 5c f0 3d aa 31 6b bd 66 d8 84 bd
       -0.22372603 0.11736381 -0.05742041 -0.06486587
000060 22 c7 6a bd 9d 8d f8 3d e5 cf 10 3d 37 e8 d5 3d
       -0.057318814 0.121363856 0.035354514 0.10444682
000070 7a ad c3 bc 17 f5 00 3e 51 a8 b6 3d f0 f1 5a 3d
       -0.023886431 0.12593494 0.089188226 0.053453386
000080 25 c0 c7 3d 25 0e 7c 3d d9 58 05 be ed c1 c7 bd
       0.097534455 0.061536927 -0.13022174 -0.09753785
000090 50 ed 6a 3c b3 1b fc 3d 98 81 d1 3d f3 c7 20 bd
       0.014338806 0.12309971 0.10229796 -0.039253186
0000a0 86 e0 84 bd 02 c2 5a bd 56 b1 a3 3d 43 38 c7 3d
       -0.06488137 -0.053407677 0.079928085 0.09727528
0000b0 11 97 31 bd eb 16 af 3d b1 0c 0a 3c e1 b3 80 bc
       -0.04335696 0.08549293 0.008425877 -0.015710773
0000c0 14 91 ab 3d 4a 50 9c 3a 1d 81 0e bd 27 73 42 3d
       0.08377281 0.0011925783 -0.0347911 0.0474731
0000d0 ab b5 f7 3d ca 9c 3a bc 0b 4c d3 bc e9 76 a5 bd
       0.12095197 -0.0113899205 -0.025793096 -0.08079321
0000e0 1f 15 e3 bc 03 90 88 3e 9b ba a3 3d 4f ec 8d 3d
       -0.027720032 0.26672372 0.079945765 0.06929838
0000f0 a3 31 29 3c 9e ff 8a 3d 2e 68 2c ba ab d9 30 bd
       0.010326776 0.06787036 -0.0006576803 -0.043176334
000100 22 b1 31 3b 72 96 03 3e e8 52 ad 3d 26 e0 e2 3d
       0.0027113636 0.12850359 0.08463079 0.11077909
000110 35 5e ae 3d 40 d3 91 bd f2 9f 95 bb 9a 24 75 3d
       0.08514062 -0.07120371 -0.004566186 0.05984936
000120 30 5f 9a 3d a3 24 e2 3d a9 8a c1 3d 5f 57 83 bb
       0.07537687 0.11042144 0.094502755 -0.004008218
000130 d6 23 94 bc 15 56 96 3d 8a 05 42 bd 19 6b d7 bd
       -0.018083494 0.073406376 -0.047368564 -0.10518474
000140 db 15 5c bd 1f 2a 37 bc 07 5c f4 3d fc 08 eb 3c
       -0.05373178 -0.011179476 0.11931615 0.028690808
000150 1b 5b e8 3c 66 d0 cf 3c dd c8 84 3d 97 16 ae bd
       0.028363755 0.025367927 0.06483624 -0.085004024
000160 6a cc 6f bb 82 d1 83 bd c9 f6 d8 3c b6 5a 8e 3d
       -0.0036590346 -0.06436445 0.026484864 0.069508955
000170 5c 49 3d 3d bc cc fa 3c a7 e9 cf 3d 9f 2c a7 bc
       0.04621254 0.030615203 0.101519875 -0.02040702
000180 eb 23 1a bc 05 d6 0e 3d ae 09 9f bd e1 9a 85 bd
       -0.009407978 0.034872074 -0.07765518 -0.065236814
000190 a5 b3 d3 bd 4a 1b 9d bc a8 9b c0 bc e3 d1 86 bd
       -0.10336999 -0.019178052 -0.023511723 -0.065830015
0001a0 9f 42 04 3e 52 c5 cf 3d ba 8e 12 be 5b 6b 90 bc
       0.12916039 0.10145058 -0.14312258 -0.017629316
0001b0 40 68 c0 3d 0f 94 0c bd a8 a4 d8 3c 07 81 2d bc
       0.09394884 -0.034320887 0.026445702 -0.010589845
0001c0 82 90 e1 bc 26 22 96 3d e4 5e 4c bb 5a e5 c0 3d
       -0.027534727 0.07330732 -0.003118449 0.09418745
0001d0 e6 53 02 be 47 17 2d 3d 80 0e f4 3b db d3 43 bd
       -0.12727317 0.042258527 0.0074480176 -0.047809463
0001e0 df be 61 3d d2 3a d9 3c 84 28 a9 3d 1c 4b b3 3d
       0.05511367 0.026517306 0.08259681 0.0875456
0001f0 48 c3 a0 bc c6 73 a4 bd 45 53 9e 3c bf 84 36 3e
       -0.019624367 -0.080298945 0.019326815 0.17824076
000200 43 0d 23 bd 23 e2 29 3d 28 65 65 3d 88 c6 bb bd
       -0.03980757 0.041475426 0.056004673 -0.09168726
000210 6b e0 01 3c ee 09 55 bd f2 5a 14 3e 08 05 24 3c
       0.007927041 -0.052011423 0.14487818 0.010010965
000220 aa c8 f8 3b 73 3f 0a ba 48 1c 8f bd 01 1f 99 3c
       0.0075922804 -0.0005273737 -0.06987816 0.018691542
000230 60 e8 b2 3d df 16 ce bc b1 62 79 bc ae 57 a2 3d
       0.08735728 -0.02515739 -0.015221284 0.0792688
000240 61 9a 14 bd 33 5f a1 3c 1b 9d 86 bd 7f d1 d2 bd
       -0.03628004 0.019698715 -0.06572934 -0.102938645
000250 c0 b5 c8 bc 98 3c 2f 3d 1b ea 8f 3d ad 3a 5d bc
       -0.024500728 0.042782396 0.07027074 -0.013502759
000260 b1 de f7 bc 79 a8 d5 3c 63 fc 60 bd 77 c0 f4 bc
       -0.030257555 0.02608131 -0.054928195 -0.02987693
000270 e0 54 b3 bb 30 48 42 3c 5a 5b c4 bb 56 c0 a0 3c
       -0.0054727644 0.011858031 -0.0059923353 0.019622963
000280 76 0b c9 3d 16 5a cc bc 74 0e 2f bd 22 f5 79 3d
       0.09816639 -0.0249453 -0.042738393 0.061024792
000290 bb be b0 3d 51 ef b8 3d 33 5b 6b bd da 8e 4d 3d
       0.08630129 0.09030021 -0.05746002 0.050185062
0002a0 cd 94 d1 bd b4 c0 28 3d 13 a2 1e bd ff 9d 8e bd
       -0.102334596 0.0411994 -0.038728785 -0.06963729
0002b0 a4 74 83 bd 92 09 93 bc 81 57 5f 3d 1e 2f a1 bd
       -0.06418732 -0.0179489 0.05452681 -0.07870315
0002c0 0b 2a 36 3d ee f4 ad bd 6e ec f8 3d 8e 18 f8 3c
       0.04447369 -0.08493982 0.121544704 0.030285146
0002d0 70 ff 95 3c e7 9c cf 3d 97 6a 1c 3d e1 d7 07 3c
       0.018310279 0.101373486 0.03818759 0.008291216
0002e0 5c 3a 40 3c 62 54 f3 b9 b8 99 bf bb ae 03 b4 bd
       0.011732664 -0.00046411442 -0.005847182 -0.08789764
0002f0 b7 d8 89 3c e3 3e b9 bd ef c0 6e bd 73 f5 35 bd
       0.01682697 -0.09045198 -0.058289465 -0.04442353
000300 f7 63 0a bd 7e 4c 48 bc 4c 23 b8 bc 34 b2 80 bd
       -0.03378674 -0.012225268 -0.022477768 -0.062839895
000310 a8 c4 33 3d 33 69 5d 3d bc 59 a7 3d 9a 36 cd 3c
       0.043888718 0.054055404 0.08171412 0.02505045
000320 71 2f ff 3c b0 0b f6 3d 01 5b 84 bd 19 1c 5e bd
       0.031150552 0.12013948 -0.0646267 -0.054226015
000330 23 fd a3 bd 35 26 02 3d 2a b9 dc 3d 45 ef 51 bd
       -0.08007266 0.03177472 0.10777505 -0.051253576
000340 23 b3 2e bd 51 c8 7a 3b d7 06 48 bd 12 bb 8f 3d
       -0.042651307 0.003826637 -0.048834648 0.07018103
000350 9f b0 db 3b f6 61 3e bd fb ce e5 3d 33 20 82 3d
       0.0067044045 -0.04648014 0.11221119 0.06353798
000360 9d ea 39 3d e6 5c 30 3d 3b 3d a9 3d 93 3d c9 bd
       0.04538976 0.043057345 0.08263632 -0.098261975
000370 77 ce 96 be 28 74 18 3d 33 ac 49 3d d0 46 bf bb
       -0.29454395 0.03722015 0.049236488 -0.005837299
000380 2f 0f 2c bd 78 a7 17 3e 69 8a 21 3c 99 bf 0d 3d
       -0.042006668 0.14809978 0.00985966 0.03460655
000390 57 00 d6 3d c8 e6 f9 3d 09 f3 80 bd 61 1e 38 bd
       0.104492836 0.12202221 -0.06296355 -0.044950847
0003a0 4c 5f 43 bd 45 2d 8b bd 9c 31 11 bd 55 13 00 bd
       -0.047698304 -0.06795744 -0.0354477 -0.031268436
0003b0 14 df 94 bc f4 76 90 bd 26 4b b7 3d 93 4e 0d 3d
       -0.018172778 -0.070539385 0.0894988 0.034498762
0003c0 29 72 19 3d cd 71 1a 3e ba f2 c2 3c f4 5f 54 bd
       0.037462387 0.15082474 0.023797382 -0.05184932
0003d0 f4 cc 78 bd c2 c6 2a bd 71 47 e7 bc 24 dd 86 3d
       -0.060742334 -0.041693456 -0.028232308 0.06585148
0003e0 c7 d8 80 3a 59 1c 06 bc ba d6 0e bd e1 fd 0c 3c
       0.000983023 -0.00818547 -0.034872748 0.008605451
0003f0 3f 6e e4 bc b7 92 8c 3c 38 b9 8c bb 02 74 9e bc
       -0.0278846 0.017159803 -0.0042945407 -0.019342426

fc.2.bias f4 [100]
000000 d4 f2 42 3d 2b 47 72 3e ee 0d 6e bc 5b e6 f8 bd
       0.04759486 0.23659961 -0.014529688 -0.12153312
000010 d2 71 09 3e 22 03 7b 3c 07 81 a9 3c 7c 68 b2 bd
       0.13422325 0.015320571 0.020691408 -0.08711335
000020 4f 44 b3 bc b9 10 3d 3d b6 45 0b bd 0e b8 32 bd
       -0.021883158 0.046158526 -0.03400203 -0.04363256
000030 f8 e0 85 3c 66 51 01 3d cc ed 7e bc 72 32 c0 3c
       0.016342625 0.03157177 -0.015559625 0.023461554
000040 4d f9 4f 3d cc 76 70 bc 76 a2 b9 3d d4 b4 df 3c
       0.05077486 -0.014676761 0.0906419 0.027307905
000050 a0 ae 4b be 47 8c a0 3e 28 99 3d 3d b4 d2 41 bd
       -0.19890833 0.31357023 0.04628864 -0.047320083
000060 cd 4f f8 3d 16 c0 01 3e a2 2c 82 3d d8 55 f4 3d
       0.12124596 0.12670931 0.06356169 0.11930436
000070 8f ea bb 3d c5 0d 60 3d 0a 74 46 3d 32 cc 92 bc
       0.09175598 0.05470063 0.048450507 -0.017919634
000080 62 f3 b1 be 1f dc 23 be 33 e0 ae bc 76 bc ac 3d
       -0.34756 -0.16001938 -0.02134714 0.084343836
000090 1b 4f 03 bd 97 a8 a0 3d 13 37 d2 3c 1e 03 7f 3e
       -0.032057863 0.07844656 0.025661027 0.24903533
0000a0 31 3c 01 3c d0 5d f4 3d 38 a5 0d 3e c9 5a 2d 3e
       0.007887886 0.11931956 0.13832557 0.16929163
0000b0 cc 43 87 3d 4c 85 03 3e f5 6c 8d 3d 87 fe 6b bc
       0.06604728 0.12843817 0.069055475 -0.014403946
0000c0 93 ed 2b bd 31 a8 05 3e 1b c3 d6 bd 89 f6 be 3d
       -0.041974615 0.13052441 -0.10486432 0.093243666
0000d0 16 24 88 3c 2d 76 01 bd 5b 25 8c 3d 7c b4 ad be
       0.01661877 -0.03160684 0.068430625 -0.3392676
0000e0 61 96 01 3d 7f d9 0f 3e 89 92 c7 bc 52 db eb bc
       0.031637553 0.14047812 -0.024361866 -0.028791104
0000f0 e7 ba 02 bd b1 17 c6 bd a6 bb ee 3d 63 59 54 3c
       -0.031916525 -0.096724875 0.11656885 0.012960765
000100 98 05 01 3e 3b 49 e8 3d 0d d3 2c 3d 1d 30 29 3e
       0.1259979 0.113420926 0.04219346 0.1652226
000110 d7 c5 d8 3b ac 79 b1 bd c8 6e 83 3d 0e 8a 7b 3c
       0.006615381 -0.08665785 0.06417614 0.015352739
000120 5f dc 33 3d 45 e7 bc bc 04 79 df bd 09 8f eb 3d
       0.043911334 -0.023059497 -0.10911754 0.11501891
000130 c6 7c 23 3e e2 48 09 3d aa 29 39 3d bf e3 2a bd
       0.15965566 0.033516772 0.04520575 -0.0417211
000140 19 7e bf bd 41 3d 56 3d 7f 28 51 bd ae df 04 bd
       -0.09350223 0.05230451 -0.05106401 -0.03243988
000150 94 55 67 b9 d1 ad af 3d b9 5a 93 3d 6a 37 57 3d
       -0.00022061757 0.08578075 0.07195038 0.05254308
000160 ac 37 fd 3d 2d b0 a7 3d e6 f6 20 3e 18 30 bf 3d
       0.12364134 0.081879 0.15719184 0.09335345
000170 00 b0 1a 3d 99 de d5 3c e8 ac 16 bc bf 18 73 bd
       0.037765503 0.02610712 -0.0091964975 -0.05934977
000180 6f e9 18 3e 70 fa 15 3e 51 d3 ab bd 35 54 d7 3d
       0.14932798 0.14646316 -0.08389915 0.10514108

fc.3.weight f4 [100, 100]
000000 d7 63 da bb 34 89 78 3d 1f f2 88 3d 29 f8 d9 bc
       -0.006664734 0.060677722 0.06686806 -0.02660759
000010 39 ba f3 3d 10 db 91 3b 7d 26 e5 3d e9 83 b7 bd
       0.119007535 0.004451163 0.11188982 -0.08960707
000020 b5 b7 12 3c d5 b4 1b 3d be 07 d2 bd cf 57 8d bd
       0.008954932 0.03801425 -0.10255383 -0.06901514
000030 52 9c 47 bd 02 94 d2 3c 40 f9 a9 bc e1 3a 04 3d
       -0.048733063 0.025705341 -0.020748734 0.032282714
000040 2f 85 95 bd c6 1a eb bc f3 ee 8e bd 3d f0 7e bd
       -0.073007934 -0.02869929 -0.0697917 -0.062240828
000050 04 54 a8 bd 50 c5 17 3e 6c 2e cc bd f0 cc 18 bc
       -0.0821915 0.14821362 -0.09969792 -0.009326205
000060 61 b2 0a 3d 03 c8 a5 3d eb d3 0c bd 15 51 e0 3d
       0.03386152 0.0809479 -0.03438179 0.10952965
000070 b5 c1 ad bc a0 51 df 3c 26 b8 8a bd 95 19 96 bb
       -0.02121053 0.027260602 -0.06773405 -0.0045806863
000080 b5 d4 72 be b7 67 46 bd 1c 35 2d 3d dc 71 9d 3d
       -0.23713954 -0.048438754 0.042286977 0.076877326
000090 2f b4 15 3c d8 67 df 3d c9 55 94 3d 37 76 34 3c
       0.009137197 0.109084785 0.07242925 0.011014513
0000a0 09 2c 5f bc ac 02 ed 3d a1 04 8c 3c fc 5e 7f 3d
       -0.013621339 0.11572775 0.017092051 0.062346444
0000b0 02 9a 4a 3c f7 85 ed bd 79 2f 0b bd 0f 9c e9 3c
       0.01236582 -0.115978174 -0.03398082 0.028516797
0000c0 13 47 82 3d 50 6a c0 3c 71 2a 87 bc ff ff b6 bd
       0.063612126 0.023488194 -0.01649973 -0.08935546
0000d0 1a e0 fe bc 96 a8 aa 3d 7e 7c 23 3b da d3 0d be
       -0.03111272 0.083329365 0.002494603 -0.13850346
0000e0 60 28 52 bc 23 0b 31 bc 95 88 21 bd 77 fb c6 3d
       -0.012827009 -0.010805878 -0.039436895 0.09715932
0000f0 d1 aa a0 3d 57 dc b7 3d e8 7d b5 3d 1a bf 20 3c
       0.07845081 0.08977573 0.08861905 0.009811187
000100 cb 62 2c 3d 2d 64 8d 3d 4e 64 31 3c ad d6 e5 bd
       0.042086404 0.06903873 0.010827137 -0.11222587
000110 36 1d 8f bd ba e9 8c 3d a1 4e b7 3d fa be 91 bd
       -0.069879934 0.06880517 0.08950544 -0.07116504
000120 e7 16 9e 3d bd d6 77 3c 3e 7f a2 3d c6 0a 5e bd
       0.07719212 0.015126881 0.07934426 -0.054209493
000130 3c da ce 3d 57 83 97 bd 15 cb 15 3c 67 2f 91 3d
       0.10100219 -0.07398098 0.009142657 0.070891194
000140 c4 41 c4 3d 60 e9 80 3d aa c5 17 3c 4a 11 82 3c
       0.09582856 0.06294513 0.009263435 0.015877385
000150 62 43 94 3d 12 19 5e bc ad 5c 0a 3d 32 4b 02 bc
       0.07239415 -0.013555782 0.03377979 -0.007952498
000160 19 30 cb 3d 05 cf 97 3d c0 d5 6c 3d 3e e5 27 bd
       0.09921283 0.07412533 0.057821035 -0.040990107
000170 22 4b 05 3d 29 38 82 3d a2 65 b1 bc b8 36 8c bd
       0.032542355 0.06358368 -0.021654908 -0.06846374
000180 50 5c 8c 3d 2b 5e d7 3c 5e c2 c9 bc b2 d8 e7 3c
       0.06853545 0.02629002 -0.024628814 0.02830157
000190 6e a5 71 3d 18 bc 04 3e 16 8c bd 3a 8c 44 e9 3d
       0.058995657 0.12962377 0.0014461305 0.113900274
0001a0 09 58 c3 3a ed ce eb 3d 92 a5 34 bd 2a b8 f0 bc
       0.0014903556 0.11514077 -0.044103213 -0.029384691
0001b0 d9 9b 68 3c 72 07 98 bd ea ec 53 3d 1a 92 7d bd
       0.014197313 -0.07423295 0.05173961 -0.06190691
0001c0 1f 0c f7 3c 40 69 a7 3d a1 ef 59 3d 1c 54 48 3c
       0.030157147 0.08174372 0.053207044 0.0122270845
0001d0 25 97 d6 bd 40 90 3f bb 48 44 70 3d 04 58 31 3c
       -0.10478047 -0.0029230267 0.058658868 0.010824207
0001e0 53 1b 59 be ee c6 7d 3e d7 9f b2 3d 32 57 84 bd
       -0.2120183 0.24782917 0.08721893 -0.06461944
0001f0 37 7c 11 3d 96 6b 9d 3c e0 75 b7 3d c7 d8 41 3c
       0.03551885 0.01921634 0.0895803 0.011831469
000200 1e fa 5d bd fc 50 b3 3d 77 ed 9d 3d 3a 28 bb bc
       -0.05419361 0.08755681 0.077113084 -0.02284633
000210 10 cb 83 be b9 ac 8b bc 50 4e e9 3c 95 22 bd 3d
       -0.25740862 -0.017050134 0.028479725 0.092351116
000220 c1 32 d6 3d fa d8 94 bd 73 c3 37 bd 15 87 ba 3c
       0.10458899 -0.072679475 -0.04486413 0.02276949
000230 f6 83 b7 bd 3f 88 79 3d 9e 55 57 3d a4 ee 36 bd
       -0.089607164 0.06092095 0.052571885 -0.04466118
000240 4d e8 04 3d 06 6e 60 be a6 ce 0f bc c5 58 0c ba
       0.0324481 -0.2191697 -0.008777296 -0.0005353804
000250 ca 30 a6 3d 7b e4 d5 bc bf 92 af 3d cf 65 4e bc
       0.081147745 -0.026109925 0.085729115 -0.012597515
000260 84 e5 b0 3d 9d 6e 83 3e b6 69 59 3d 80 48 c9 bd
       0.08637527 0.2567033 0.05307933 -0.098282814
000270 ff 75 7d 3d e1 ba e9 3c d4 55 53 bd 46 49 b8 bd
       0.061880108 0.028531494 -0.051595524 -0.08998351
000280 1d 0b 97 3d 27 f2 c0 bc 6b 45 a8 bb e7 63 86 bb
       0.073751666 -0.023552967 -0.0051352284 -0.0041012648
000290 dd 92 aa 3c 89 12 c8 3d db 39 17 bd 54 f9 96 3d
       0.020821983 0.0976916 -0.03692041 0.07371774
0002a0 b5 ae 19 bc 49 ba dd bd 60 e3 a1 bc cf 4e 97 3b
       -0.009380032 -0.10826547 -0.019761741 0.004617549
0002b0 c2 1d 18 bd f3 3a 11 3d 7a 52 34 3d e2 4b 23 3d
       -0.037137754 0.03545661 0.04402397 0.03986729
0002c0 55 6a fc 3d 31 6a 0d bd fb 97 0b 3e 42 9e 89 bd
       0.12324969 -0.0345251 0.13632195 -0.067196384
0002d0 55 e7 a8 3d 95 61 87 bd ed 1c 60 ba 28 40 87 bd
       0.08247248 -0.06610409 -0.0008549232 -0.06604034
0002e0 a7 74 c7 3d d8 c7 98 bd b1 ca 43 3e 93 3e 96 3d
       0.097390465 -0.07459992 0.1912029 0.07336154
0002f0 87 a2 2d 3d 06 5d f1 3b 0d 2d 50 3d dc 4e 49 bd
       0.042391326 0.0073658256 0.050824214 -0.04914747
000300 21 ff 8d bd 55 bf ab bd 45 1a c5 bd 5e 15 4f bc
       -0.069334276 -0.08386103 -0.09624151 -0.012639372
000310 13 dc 25 3e c6 6f f9 bc 9f 4b 92 3d e2 2b 9f 3d
       0.16197233 -0.030448806 0.0714333 0.07772042
000320 ad 4c d6 3d 99 62 ad 3d e7 f4 9c 3d 62 c1 82 3c
       0.104638435 0.08466072 0.07663899 0.015961353
000330 c8 76 58 3d 4d b3 95 3d 2d 0b 2b 3d 42 9c 94 bd
       0.052847654 0.073095895 0.041758705 -0.07256366
000340 89 0f b5 bc 5f 74 c8 3d 2f bb 78 3d a5 4a bd 3c
       -0.022102134 0.09787821 0.060725387 0.023106882
000350 00 72 0a bd 3a f5 80 3d 0f f6 6e 3d f9 3f a3 3d
       -0.033800125 0.06296773 0.05834013 0.07971186
000360 e6 48 6d 3d 03 c1 e6 bd 2d b5 ac 3d 6b fc e9 bc
       0.05793085 -0.11267283 0.08432994 -0.028562745
000370 80 77 cb 3d f9 3d a8 bd 79 ea 77 3d f1 83 63 3c
       0.09934902 -0.08214945 0.060526345 0.013886438
000380 51 c8 3a bd ae 12 f1 bd 10 49 85 bd e5 6b 32 3d
       -0.045601193 -0.11771141 -0.06508076 0.043559927
000390 fb 8b 40 bd 76 f6 fe 3c 23 94 7d 3d a8 cc 34 3d
       -0.047008496 0.031123381 0.061908852 0.044140488
0003a0 b4 52 e4 3d c6 c5 11 bd 3d e2 81 3d ea 62 93 bd
       0.11148587 -0.035589002 0.0634198 -0.07196601
0003b0 08 ad 6f 3d 76 a1 e1 3d 40 04 8d bd 92 e7 b7 3c
       0.058514625 0.11017124 -0.06885576 0.022449289
0003c0 87 82 e5 bc 3b 06 3f bd 8b d1 a4 3d 2a c5 1a bd
       -0.028016342 -0.0466368 0.0804778 -0.037785687
0003d0 5e be e0 bd 7c 5b 82 3c 26 08 85 bd 1f f7 81 bd
       -0.1097381 0.015912764 -0.06495695 -0.06345963
0003e0 9d a1 06 3d b5 05 d7 3d e4 9e 3e bd 67 2d 9c 3d
       0.03286897 0.104991354 -0.04653825 0.07625847
0003f0 4e ae f6 3c 79 37 5d 3d f6 06 c2 3d 8e c2 7f 3d
       0.030112412 0.05400798 0.09473984 0.0624414

fc.3.bias f4 [100]
000000 5e 3f d3 bc 70 ef 04 3e 2c 2e c7 3d 79 0e 8a bd
       -0.025787052 0.12981963 0.097256035 -0.06741042
000010 3b 55 11 3e 1f d2 a1 bc a8 f6 0b be 59 18 6e 3d
       0.14192669 -0.019753514 -0.1366831 0.05812869
000020 cb 06 e1 3d 02 1e 22 bd 4f e0 9e 3d fa d2 8d bc
       0.10987624 -0.0395794 0.07757627 -0.017312516
000030 d5 7c 23 bc 8f 82 51 3e 06 af 58 bd 7e 76 8d bc
       -0.009978493 0.2045996 -0.05290129 -0.017268416
000040 d0 c1 68 3d 2f 1d ac 3d f3 60 8a bd 4d 1f cb 3c
       0.05682546 0.08404004 -0.06756773 0.024795199
000050 45 f2 ad bd be c8 9b bb bc ca ca 3d 26 dc dc bd
       -0.08493475 -0.004754155 0.0990195 -0.107841775
000060 94 fd dd 3d 7e 6f 8f 3d 32 40 da 3d 05 b7 dc 3d
       0.10839382 0.07003687 0.106567755 0.10777096
000070 7c 6b 7f 3b ca 18 cf bd f8 d7 ed 3d 0c 2b c3 ba
       0.0038973978 -0.1011215 0.116134584 -0.0014890148
000080 6a 69 a1 bc b2 03 bc 3d 88 15 6c 3d f6 9f 3e 3d
       -0.019703586 0.09180392 0.05763772 0.04653927
000090 b6 71 5d 3d b2 53 c4 bd 24 a5 42 3d ef a6 3d 3d
       0.05406352 -0.09586276 0.04752077 0.04630178
0000a0 17 e2 8d 3d ef f4 e8 bc 34 ca 85 3d ed 7f 89 bd
       0.06927889 -0.028437106 0.06532708 -0.06713853
0000b0 2c 52 d3 3d 4a f2 08 3d df 89 1e bc 3e 32 37 3e
       0.103184074 0.03343419 -0.009676426 0.1789026
0000c0 f7 e5 a5 bd 3c 9a 73 bb 4c c3 99 bc a6 b6 4b 3c
       -0.08100503 -0.0037170788 -0.018769883 0.0124336835
0000d0 12 60 c2 3b 5c ef 86 3d 0b bf 87 bd 36 07 6e bd
       0.0059318626 0.06588623 -0.066282354 -0.058112346
0000e0 72 02 24 bd 32 2f cf 3c fe 39 44 3d c4 45 b2 3d
       -0.040041395 0.02529106 0.04790687 0.08704713
0000f0 d8 f5 05 3e 93 30 43 3e 28 b5 a7 bd e9 e5 16 3d
       0.13082063 0.19061498 -0.0818885 0.036840353
000100 0e 20 c1 bd 74 3a d5 3d 6e c9 2c 3d 21 2a b8 3c
       -0.09429942 0.1041154 0.042184286 0.022481026
000110 da f6 86 bd 42 03 46 3c a5 62 95 3d 83 bf 09 3e
       -0.06590052 0.012085738 0.072942056 0.13451962
000120 b4 3b b5 3d ac 63 2c be 48 eb 25 be cc e1 d6 3d
       0.08849278 -0.16834897 -0.16203034 0.10492286
000130 38 8d a1 bd ae 68 8b bd 38 1a 02 bd f3 2f c0 3c
       -0.078882635 -0.068070754 -0.031763285 0.023460364
000140 46 fc 88 3c f2 82 17 3e 6f c4 54 3d 1c b6 56 3d
       0.016721856 0.14796045 0.051945146 0.052419767
000150 d9 a3 90 bc 1e 94 61 3d 23 bb d0 3c 7b 2b 14 3e
       -0.017656254 0.055072896 0.025479859 0.14469711
000160 ca 00 89 bd 96 74 5d 3b f5 05 ff 3c 76 2d 05 bd
       -0.066896036 0.0033791414 0.03113077 -0.032514058
000170 a8 a6 3b 3d fd 3d 00 3d de 0c 11 3e d1 ea 26 be
       0.045813233 0.031309117 0.14165065 -0.16300513
000180 9f 10 90 be cf 57 ac bb 9a a2 2c 3c 78 22 b5 bd
       -0.2813768 -0.005259491 0.010536814 -0.08844465

fc.4.weight f4 [100, 100]
000000 1f 2c 43 bd 60 86 96 bd 8d 74 56 bd d1 48 0c 3d
       -0.0476495 -0.07349849 -0.052357245 0.03424913
000010 63 56 85 bd 7e 21 b4 bd cb 40 87 3d 72 4c 96 bd
       -0.065106176 -0.08795451 0.06604155 -0.073387995
000020 13 df 2e 3d 68 8a 96 3c af ee 80 bd 55 92 81 bd
       0.04269321 0.018376544 -0.06295525 -0.06326739
000030 93 5b 84 bd 62 08 07 be b7 c4 56 3d 42 a6 14 3b
       -0.06462779 -0.13186792 0.052433696 0.0022682105
000040 32 13 85 bb b7 53 a2 bd 85 ff 96 3d cb 7e a4 3d
       -0.004061126 -0.079261236 0.07372955 0.08031996
000050 fc dd 31 bc 7c c7 ba 3d 64 f3 d6 3d ae 8b 13 3c
       -0.010856148 0.0912008 0.10495642 0.00900547
000060 e4 51 6d bc dc 7e a4 3d 97 a4 d9 bd ea 93 c9 bb
       -0.014484856 0.08032009 -0.10627096 -0.006151666
000070 ad fb a1 3c 87 b4 3b 3d b6 88 9a 3c 8e db ca bd
       0.019773329 0.04582646 0.018864017 -0.09905158
000080 65 85 eb bb e9 37 45 bd 39 36 d9 bc f2 45 9c bd
       -0.0071875327 -0.048149023 -0.026515113 -0.076305285
000090 1a f6 25 3d 87 91 9b bc 3d 4f 5d 3c d3 34 c0 3d
       0.040517904 -0.018990291 0.013507661 0.093850754
0000a0 98 00 91 bc b1 93 5d bc 29 45 c0 bb 3c 4c 9c 3d
       -0.017700478 -0.013523982 -0.0058676195 0.07631728
0000b0 15 f1 ee 3d 33 ec 8d 3d 14 ad 67 ba 5d 21 40 bd
       0.116670765 0.06929817 -0.00088377413 -0.046906818
0000c0 67 6b ef bc 02 fa 95 bc 89 92 b6 3b 8a 06 0b 3d
       -0.029226018 -0.01830769 0.0055716676 0.033941783
0000d0 34 db 9f bc 65 7f c2 3d cb 5a 88 bd 24 d0 c2 3c
       -0.019513704 0.09496955 -0.066579424 0.02378089
0000e0 02 1f 3e 3d 49 e7 20 3c b3 9b 97 3d c2 63 ad 3c
       0.04641629 0.009820768 0.07402744 0.021165732
0000f0 5c 22 22 3d 8a b6 15 bd 06 e9 b2 bd be e2 cf 3a
       0.03958355 -0.036551036 -0.08735852 0.0015860421
000100 ef 62 a2 bd c7 1b a2 3d a6 cf 39 3c 80 b4 09 3c
       -0.07929026 0.07915454 0.011341011 0.008404851
000110 84 20 91 bd 65 5f 8a 3d 92 ba 49 bb 56 a1 40 3d
       -0.0708628 0.06756476 -0.003078137 0.047028862
000120 73 75 be 3d 0b 8f de 3a 83 b1 ab 3c fc 03 49 3d
       0.092997454 0.0016979886 0.020958668 0.049076065
000130 00 00 49 3d df 1b 95 bd 96 e7 33 3d c6 fe da 3d
       0.049072266 -0.072807066 0.04392203 0.106931254
000140 d5 ed 29 3d dd 0e 31 3c 0c cb d9 3d 83 77 d9 3d
       0.04148658 0.010806766 0.10634431 0.10618498
000150 43 fb 6d bd 32 e4 7c bd cd 04 da bc a4 5d 24 3d
       -0.05810095 -0.06174106 -0.026613617 0.040128365
000160 9c 14 6b bd 07 28 16 3c ca 80 63 3d d7 51 c3 bc
       -0.0573927 0.009164817 0.055542745 -0.023842735
000170 6e 41 ed 3c 77 d9 f9 3b 44 dd 6a bd 53 b7 c5 3d
       0.028961863 0.007624801 -0.05733992 0.09654107
000180 6b 7a 18 be 1f c1 1a bd fb f0 fe bc ad c2 a9 bc
       -0.14890449 -0.03778183 -0.031120768 -0.020722711
000190 f4 6b d1 3d c4 2c 9f 3d e5 a0 2c 3c 15 c6 93 bd
       0.102256685 0.0777221 0.010536407 -0.072155155
0001a0 68 59 38 bc 4f a4 bc 3d 92 05 42 be 12 42 93 bc
       -0.011251785 0.09211027 -0.18947437 -0.01797584
0001b0 19 23 e7 3d b4 7c a8 3d 80 84 f3 3b 0e 29 a3 3d
       0.11285991 0.0822691 0.0074315667 0.07966815
0001c0 51 26 9b 3c 3a 99 80 bd 43 a5 12 3c 02 34 a5 bd
       0.01893917 -0.06279226 0.008950534 -0.0806656
0001d0 e1 5e 06 3d 4f bb 28 3d 3e 82 0b 3d 3a 25 4f 3d
       0.032805327 0.041194256 0.034059756 0.05057261
0001e0 a5 b7 95 3d 58 21 c3 bc 1f 0a 3a 3d 6a 3a f0 3c
       0.07310418 -0.02381961 0.04541981 0.029324729
0001f0 0a 82 28 3c 78 03 37 3d fe 67 93 3d d6 53 ad 3d
       0.01028491 0.044681042 0.07197569 0.08463256
000200 24 31 2f 3d 44 8b 95 bd 78 f1 bf 3d 5a ff 98 bd
       0.042771474 -0.073019534 0.093722284 -0.074705794
000210 05 94 b1 3c 4b 5a 7f 3c d6 52 a3 3c 0d a4 e9 bb
       0.021677027 0.015585492 0.01993696 -0.007130152
000220 60 6e aa 3c 1d e1 03 be d0 77 c6 3d 34 c0 a5 3d
       0.020804584 -0.12878843 0.09690821 0.080933005
000230 7e 5e 94 3d 4e 7c d4 bc 4c 9d 35 bd 0c 0f 4a bd
       0.072445855 -0.02593818 -0.044339463 -0.049330756
000240 3c 90 64 bd e0 9f 63 3d 04 c1 7c bd 10 f1 e6 3d
       -0.055801615 0.05557239 -0.06170751 0.11276448
000250 9a 16 bd bc 9f f8 55 3c 5d 53 fa bc 8e 82 61 3d
       -0.023082066 0.013059764 -0.030557329 0.055056147
000260 e1 68 7f bd 48 ff 99 bd 92 60 4d 3d 3c 54 2d bd
       -0.06235588 -0.07519394 0.050140925 -0.04231666
000270 ce b6 c3 bd bf 0e 4a 3d 47 b9 be bc b6 c0 e4 3c
       -0.095563516 0.04933047 -0.023281706 0.027923923
000280 6e f5 5d 3d 9f 1e 7c bd 57 17 ca 3d 8e 15 90 3d
       0.054189138 -0.06155264 0.09867733 0.07035361
000290 2c 03 b0 bd 54 fa 5d 3d 4f 1f a0 3d 28 22 b4 bd
       -0.08594355 0.05419381 0.07818472 -0.08795577
0002a0 9a c8 a1 3d 32 0d b9 3d cf cf 33 bd 60 92 9a 3c
       0.0789959 0.0903572 -0.043899354 0.018868625
0002b0 93 1b 02 bc c1 18 58 bd c4 e3 a0 bd fc 12 2d 3d
       -0.0079411445 -0.052757982 -0.07855943 0.042254433
0002c0 72 fc bc bb f3 a9 7a bd 04 d6 9e bc 85 fc 81 bd
       -0.0057673985 -0.061197232 -0.01938916 -0.063469924
0002d0 68 a6 e4 3d 83 b3 07 be bf 7f 8b bd 10 e7 a1 bc
       0.11164552 -0.13252072 -0.06811475 -0.0197635
0002e0 eb c1 2c bd 51 8c d6 3d 49 54 71 bd bc ca 82 bc
       -0.042177122 0.10475982 -0.05891827 -0.015965812
0002f0 9c 8d a1 bd 53 bc 6e 3d bc 3f a0 3d 93 cd eb bd
       -0.07888338 0.05828507 0.07824656 -0.115138195
000300 dd 78 b2 bd ab 38 d6 3c 89 c5 2a 3d 7c a1 bb bd
       -0.08714459 0.026150068 0.04169229 -0.0916166
000310 83 e5 94 3e b5 ca d3 3d 84 79 ca 3d 6e 69 91 3d
       0.29081354 0.10341398 0.098864585 0.07100187
000320 cf aa 16 bd ca ff 1a bd fa 5c 35 bc 69 45 98 3d
       -0.03678399 -0.037841596 -0.011069531 0.07435114
000330 1e 0e e5 bd 9b 96 8c 3d 49 51 41 bc 86 4c a3 3c
       -0.11184333 0.06864663 -0.011799165 0.01993395
000340 67 31 a2 bc f3 06 79 3c b8 94 b2 3a d0 76 3e 3b
       -0.019798947 0.015199411 0.0013624644 0.0029062517
000350 df d8 4e bc d4 c9 4b bd e9 71 5a 3d 0d 0d 8f bd
       -0.012624948 -0.049753025 0.05333129 -0.06984911
000360 57 e9 cb bb 17 69 a7 bd 41 76 0d 3d 70 66 22 bd
       -0.0062228846 -0.08174341 0.034536604 -0.039648473
000370 0b bd ac 3c 10 dc de bc 46 48 59 3d ca 48 b2 3d
       0.021086236 -0.027204543 0.05304744 0.0870529
000380 f1 14 09 bd 0a e4 de bd 46 f1 94 bd 3c 57 9b bd
       -0.033467237 -0.10883339 -0.07272582 -0.07584998
000390 86 7f 7b 3d 18 7c 59 3d d8 36 83 3d f3 44 9f bd
       0.061400913 0.05309686 0.06406945 -0.07776823
0003a0 3d c0 03 3d 59 e7 83 3d 5e 5c b7 3c d5 64 97 bd
       0.032165755 0.064406104 0.022382911 -0.07392279
0003b0 62 9f a6 3d 0a 11 84 3d 02 d5 fe bc d3 fd 92 3c
       0.081358686 0.064485624 -0.03110743 0.017943298
0003c0 94 00 a1 bd e1 f7 5f 3d bf 96 78 3d c3 3a 6b 3d
       -0.078614384 0.054679755 0.060690638 0.057429086
0003d0 9b 65 bd bd 77 b9 45 3d 6d 72 23 3d f1 83 14 bd
       -0.09247895 0.048272576 0.039904047 -0.03625864
0003e0 aa e9 03 bd 6d 77 3e bd aa 8c 6f 3d 9e 09 90 3d
       -0.03220526 -0.046500612 0.058483757 0.07033084
0003f0 80 53 a5 bd dc 41 d8 bb 00 5d 8e 3d a7 b6 a5 3d
       -0.08072567 -0.006599648 0.06951332 0.08091479

fc.4.bias f4 [100]
000000 b5 df 8c bd 89 dd e9 3d d1 ca 53 bd 3f 9a e7 bd
       -0.06878606 0.114192076 -0.051707093 -0.11308717
000010 07 f4 ce 3b c6 68 66 3d 00 f8 92 b9 27 8f a3 3d
       0.0063157114 0.056252263 -0.00028032064 0.079862885
000020 f6 5c 5f 3d f4 79 cf 3d e3 36 94 bd 91 4e 38 bd
       0.054532014 0.101306826 -0.07237031 -0.0449968
000030 b7 a2 4c 3d 52 d9 8a be ff ab 1e 3d f8 04 a3 3d
       0.049959864 -0.27118927 0.038738247 0.07959932
000040 d3 2d e4 bc c2 d7 a9 3c 30 06 1d 3c 6e 73 5a bc
       -0.027853882 0.020732764 0.009583995 -0.013333185
000050 3e c3 07 3d 0b d6 65 3d 3a e2 63 3d 91 1d ad bb
       0.03314518 0.05611233 0.05563567 -0.0052830656
000060 84 0f e5 bc 50 cd 64 3d aa c6 ca bd 52 0b 4f 3d
       -0.0279615 0.055859864 -0.099011734 0.050547905
000070 ed 30 9d bc 6a 57 ca bb fb 8c 2e bd 8a 8f 9c 3d
       -0.019188369 -0.0061749713 -0.04261492 0.076445654
000080 19 02 bd be b3 4a bb 3c 1d 21 d6 3d 59 43 d5 bd
       -0.36915663 0.022862768 0.104555346 -0.10413236
000090 c9 ec e5 3b c4 5c 94 bd cc 01 ec 3c 21 6f 7d 3d
       0.0070167524 -0.07244256 0.02880945 0.06187356
0000a0 a8 79 9d 3c cd 87 ed 3d 30 32 2f 3d 84 9f b3 3d
       0.01922305 0.115981676 0.042772472 0.087706596
0000b0 12 4e ad bd 2c 7d 04 3e 33 50 c3 3d 09 78 a0 bc
       -0.08462156 0.12938374 0.09536781 -0.019588487
0000c0 38 03 2e bd aa 1e ab 3d 06 50 a6 bd 3d 7e 87 3d
       -0.04248354 0.08355458 -0.08120732 0.06615875
0000d0 28 08 40 bc b6 b3 0b be 13 66 a4 3d 83 74 dc 3d
       -0.011720695 -0.13642773 0.080272816 0.1076441
0000e0 25 9d b7 bd 80 c4 be bd 99 9c bc 3d 50 92 d9 3c
       -0.0896552 -0.09314823 0.09209556 0.026559025
0000f0 c4 ed 8a 3d 84 f7 e2 3c 9e a1 a1 3d ff 37 f1 3d
       0.067836314 0.027705915 0.07892154 0.117782585
000100 63 a1 83 bd da c8 a8 bd 58 2d 12 be bb fb 36 bd
       -0.064272664 -0.082414344 -0.1427511 -0.044673663
000110 13 7e 30 3d d8 73 7b 3c 4f 60 87 3d 8c b3 10 3d
       0.043088984 0.0153474435 0.06610166 0.03532748
000120 38 8c c0 bd b3 22 af 3d f4 d2 9b bd c2 55 5e bc
       -0.094017446 0.0855154 -0.076085955 -0.013570251
000130 cf c6 16 bd 4d eb 33 bd 93 f5 9a 3d 24 01 71 bd
       -0.036810692 -0.043925572 0.07566371 -0.05883898
000140 97 6e 28 bd 0e a8 23 3d b3 45 84 3d 72 49 63 bd
       -0.04112109 0.03995519 0.064586066 -0.055489965
000150 dc 50 6e 3d 92 4b 8f 3d 7b a4 c3 3d 76 54 cb 3d
       0.058182582 0.06996836 0.095528565 0.09928219
000160 93 24 b6 bd e9 b5 78 bd e7 1b ba 3d df 27 91 bd
       -0.08893695 -0.060720358 0.09087353 -0.07087683
000170 28 af 9d bc 70 6a d1 3d 68 80 b9 3d e2 3e a9 bd
       -0.01924856 0.102253795 0.09057695 -0.08263947
000180 51 06 c2 bd b2 cb 13 3d ff c2 8a bd c8 60 04 3e
       -0.09473861 0.03608293 -0.06775474 0.12927544
