model/unicycle-FC6-100-rk4-extra/epoch_300.pth (torch, 170011 bytes, 12 tensors)

fc.0.weight f4 [100, 6]
-0.038379174 -0.11276358 0.1752364 -0.5675078 0.33640468 0.16737166 0.41247582 0.26700553
0.35877496 0.3247581 0.32867044 -0.15547152 -0.41008544 -0.19860983 -0.043285545 0.35133365
-0.035810065 -0.2962217 -0.022094421 -0.2936774 0.078293435 -0.3920163 -0.3802869 0.42938125
0.25765944 -0.35122833 -0.39188817 -0.6851779 0.1749246 -0.39585975 -0.008841871 -0.082359724
0.05943949 0.2637258 -0.05953054 0.31928462 -0.21219599 -0.16166227 0.36390558 0.3568393
0.22966446 0.27013147 -0.04109785 0.34553105 -0.10930479 -0.2436935 0.3770258 -0.07772634
0.23502143 -0.25682685 0.48005363 0.67140085 0.11858914 0.044134196 -0.097344354 0.14200556
0.16566588 0.2525127 -0.15923674 -0.45827731 -0.32363376 0.0056106043 -0.22565478 -0.3906149
-0.2908909 0.16416894 0.24148023 -0.22899142 0.1369456 -0.02789559 0.1271146 -0.13726687
-0.37741375 -0.27162784 0.33656317 -0.089553356 0.13967015 -0.30827373 0.08210802 0.048257366
-0.025406932 -0.41788587 -0.10990406 0.36641097 -0.3843878 -0.32466066 -0.0349258 -0.2658125
-0.108136855 -0.020166598 -0.37190196 -0.29678783 0.40671834 -0.45103478 0.11981135 -0.4054816
-0.2574613 -0.35469887 0.24260771 0.55821973 0.5052762 0.081516646 -0.111145295 -0.044112083
-0.34750816 -0.7360671 -0.03456219 -0.21186988 -0.2956479 -0.21082303 0.11124624 -0.024131786
-0.2755928 0.3074978 -0.3211452 0.026894169 -0.20339178 0.13243024 -0.36887017 0.26186326
0.16530634 0.13533257 0.5245584 -0.3006019 0.21885887 -0.23131339 -0.08169705 -0.10900667
0.24720272 -0.07914015 0.07767685 0.12816983 0.2072638 0.13362445 -0.06831281 0.47045964
0.33920807 0.34963486 0.22910714 -0.2468427 0.18401548 -0.4980311 0.012774055 -0.04387941
-0.025550721 0.0061085043 -0.20079014 0.21442129 -0.39403298 0.05910179 -0.21113007 -0.34213936
-0.58095187 0.29871804 -0.38022327 0.14665543 0.0292922 0.29965043 -0.12415715 0.39635333
0.40519887 -0.4577103 0.06881304 -0.021794138 0.24006553 0.48095503 -0.08858348 -0.23115583
0.4163426 0.12994747 -0.39897442 0.30949244 -0.43671927 0.3820023 -0.22909918 0.28462654
-0.21994953 0.10502048 -0.12048288 0.18694226 0.2199814 0.17899513 -0.24947062 0.18244651
-0.09839462 0.23460092 -0.13188213 -0.043627 -0.44595835 0.3550113 0.10126875 -0.015682919
0.3602448 0.1544757 0.38928908 0.23588958 -0.15038648 0.025546035 -0.08145492 0.08145604
-0.33682725 0.62825423 -0.0412464 0.15717246 0.06309427 0.32931018 -0.3445494 0.6144354
0.04600595 -0.1339537 0.12868325 0.0024255987 0.30708623 -0.73093075 -0.06999794 0.2400156
0.04140055 0.1103715 0.50363 -0.48298603 0.16971141 -0.18073046 -0.14868313 -0.336446
0.30592903 -0.19897936 -0.3040411 0.065701574 -0.12773629 0.12907632 -0.20206338 -0.78692
0.01231704 -0.04644203 0.256393 0.22434583 0.38499564 0.6198773 -0.16959223 0.10233412
-0.25209427 -0.34360477 0.36000013 -0.62436557 0.2763639 -0.04249878 -0.24353538 -0.17832835
-0.1482512 0.33768228 0.39865738 0.32342726 -0.16035415 0.016488759 0.6511863 -0.6040363
00000000: 7b33 1dbd 98f0 e6bd 2c71 333e 3148 11bf
00000010: 3c3d ac3e 7a63 2b3e 0830 d33e f3b4 883e
00000020: 5ab1 b73e b246 a63e 7e47 a83e ed33 1fbe
00000030: b8f6 d1be 6060 4bbe 2f4c 31bd 01e2 b33e
00000040: 93ad 12bd 5faa 97be 5cff b4bc e25c 96be
00000050: 4f58 a03d 5cb6 c8be f7b4 c2be dcd7 db3e
00000060: f0eb 833e 33d4 b3be 91a5 c8be d267 2fbf
00000070: 6f1f 333e 21ae cabe 7fdd 10bc 37ac a8bd
00000080: d376 733d 1107 873e 4cd6 73bd 4679 a33e
00000090: e849 59be cb8a 25be d551 ba3e a4b3 b63e
000000a0: 292d 6b3e ac4e 8a3e 3856 28bd 72e9 b03e
000000b0: 31db dfbd ca8a 79be 8709 c13e fd2e 9fbd
000000c0: 75a9 703e cf7e 83be 97c9 f53e ede0 2b3f
000000d0: ddde f23d 0fc6 343d 7a5c c7bd e869 113e
000000e0: 51a4 293e 5849 813e f50e 23be 53a3 eabe
000000f0: 53b3 a5be 29d9 b73b 0c12 67be adfe c7be
00000100: a7ef 94be e71b 283e 9846 773e ba7c 6abe
00000110: 783b 0c3e 4b85 e4bc 542a 023e b08f 0cbe
00000120: 603c c1be ce12 8bbe 0252 ac3e c067 b7bd
00000130: b105 0f3e 0ed6 9dbe 4028 a83d 84a9 453d
00000140: 3322 d0bc 23f5 d5be 6115 e1bd 389a bb3e
00000150: 7ace c4be ec39 a6be 5b0e 0fbd 9318 88be
00000160: db76 ddbd 6c34 a5bc ef69 bebe 93f4 97be
00000170: 633d d03e 08ee e6be a75f f53d 499b cfbe
00000180: f8d1 83be 179b b5be 286e 783e 7de7 0e3f
00000190: c859 013f 33f2 a63d 25a0 e3bd dfae 34bd
000001a0: 97ec b1be e56e 3cbf 1591 0dbd 6bf4 58be
000001b0: 295f 97be fee1 57be 12d5 e33d 06b0 c5bc
000001c0: 801a 8dbe 5a70 9d3e 256d a4be 2951 dc3c
000001d0: ef45 50be cb9b 073e 8ddc bcbe f112 863e
000001e0: 1146 293e 9f94 0a3e 7649 063f 7ee8 99be
000001f0: 8a1c 603e 6bdd 6cbe c850 a7bd e43e dfbd
00000200: b622 7d3e 3b14 a2bd 0a15 9f3d f43e 033e
00000210: f63c 543e d9d4 083e 96e7 8bbd 16e0 f03e
00000220: aeac ad3e 5703 b33e 109b 6a3e 55c4 7cbe
00000230: 8e6e 3c3e effd febe 454a 513c e5ba 33bd
00000240: bf4f d1bc d929 c83b ee9b 4dbe 4191 5b3e
00000250: b1be c9be b814 723d 7b32 58be e42c afbe
00000260: 43b9 14bf 92f1 983e a0ac c2be d72c 163e
00000270: 32f6 ef3c c86b 993e 1b46 febd d3ee ca3e
00000280: 3a76 cf3e 0159 eabe daed 8c3d 9f89 b2bc
00000290: bdd3 753e bd3f f63e 416b b5bd 1db4 6cbe
000002a0: db2a d53e f310 053e 6046 ccbe cb75 9e3e
000002b0: ab99 dfbe ce95 c33e fa98 6abe 92ba 913e
000002c0: 733a 61be fa14 d73d babf f6bd cb6d 3f3e
000002d0: ce42 613e 804a 373e 3a75 7fbe 42d3 3a3e
000002e0: 1e83 c9bd 393b 703e 1c0c 07be 3ab2 32bd
000002f0: a754 e4be 0bc4 b53e fe65 cf3d 7779 80bc
00000300: 0272 b83e e12e 1e3e e650 c73e 0a8d 713e
00000310: eafe 19be eb45 d13c d6d1 a6bd 6dd2 a63d
00000320: 9f74 acbe 45d5 203f fcf1 28bd d1f1 203e
00000330: 9237 813d 589b a83e c768 b0be a34b 1d3f
00000340: bc70 3c3d 292b 09be 8bc5 033e cbf6 1e3b
00000350: 683a 9d3e 471e 3bbf 145b 8fbd a6c6 753e
00000360: a093 293d 740a e23d e5ed 003f f249 f7be
00000370: d4c8 2d3e 6811 39be 6440 18be a642 acbe
00000380: bba2 9c3e 3fc1 4bbe 46ab 9bbe 8c8e 863d
00000390: 4dcd 02be 952c 043e b4e9 4ebe 9773 49bf
000003a0: 69cd 493c 003a 3ebd f145 833e eaba 653e
000003b0: 261e c53e 47b0 1e3f 96a9 2dbe 8d94 d13d
000003c0: 8012 81be f7ec afbe f051 b83e 6cd6 1fbf
000003d0: 927f 8d3e 3313 2ebd 5761 79be b59b 36be
000003e0: 2acf 17be b1e4 ac3e d21c cc3e 4298 a53e
000003f0: e133 24be 6f13 873c 25b4 263f 1fa2 1abf

fc.0.bias f4 [100]
-0.29072186 -0.3408868 0.06697317 0.1336205 -0.672655 0.11591239 0.04320795 -0.038212005
0.5980065 0.08461688 0.12269788 0.31731042 0.19605207 0.2396877 -0.287266 0.47155133
-0.009683072 -0.4997736 0.20563042 -0.33092722 0.55936664 0.49398497 -0.16702378 -0.841907
0.418685 -0.66853464 -0.13604805 -0.120259315 -0.08315071 0.11270601 -0.2209557 0.50518477
0.5867266 -0.3539277 -0.3927556 -0.11558992 0.46638274 -0.34476414 -0.95558286 -0.26343018
-0.35400245 0.14895351 -0.5168311 -0.20687121 0.038966704 0.14761585 0.54092014 0.044921707
0.72324175 -0.016471867 0.00906115 -0.3329282 0.4092167 0.3651296 -0.0009815369 -8.4642306e-05
-0.19667546 0.50389075 -0.09893941 0.17354661 0.22023511 -0.13908051 -0.5006131 -0.23128614
-0.08547144 0.052356303 0.1406295 0.13179475 0.48952875 0.20338131 0.16833818 -0.036460187
0.70873576 0.48822394 0.013309231 0.5864833 -0.1896892 0.22787815 -0.027976166 -0.029656226
0.31691003 -0.19599596 -0.8307322 0.13288923 0.2085802 -0.33590853 0.43287438 0.09253172
0.21767335 0.17684238 0.11580706 0.07023247 0.004804883 -0.37002355 0.09635395 -0.019052071
-0.06957903 -0.16509397 -0.3876939 -0.01932387
00000000: 7fd9 94be b788 aebe 3b29 893d d0d3 083e
00000010: 1e33 2cbf 7a63 ed3d d2fa 303d 3184 1cbd
00000020: f416 193f 9d4b ad3d 0749 fb3d 8376 a23e
00000030: e0c1 483e b170 753e 8714 93be 2d6f f13e
00000040: bfa5 1ebc 53e2 ffbe c890 523e 4b6f a9be
00000050: a732 0f3f 99eb fc3e 4808 2bbe 3887 57bf
00000060: e15d d63e 1625 2bbf 2e50 0bbe 844a f6bd
00000070: eb4a aabd 69d2 e63d 3642 62be ca53 013f
00000080: b733 163f 0336 b5be 4317 c9be 68ba ecbd
00000090: b8c9 ee3e ed84 b0be 14a1 74bf 52e0 86be
000000a0: cf3f b5be 4587 183e 0b4f 04bf 0cd6 53be
000000b0: 8d9b 1f3d 9c28 173e be79 0a3f d3ff 373d
000000c0: 5f26 393f 02f0 86bc 3875 143c 9175 aabe
000000d0: da84 d13e 44f2 ba3e eaa6 80ba fe81 b1b8
000000e0: 4b65 49be fcfe 003f bfa0 cabd 34b6 313e
000000f0: 5085 613e 1f6b 0ebe 2e28 00bf 46d6 6cbe
00000100: a60b afbd 9073 563d 2e01 103e 34f5 063e
00000110: 83a3 fa3e 3143 503e d860 2c3e 4757 15bd
00000120: b56f 353f 7df8 f93e f60e 5a3c c523 163f
00000130: e33d 42be e458 693e 462e e5bc 9df1 f2bc
00000140: 0842 a23e 2ab3 48be deaa 54bf 1d14 083e
00000150: 0c96 553e 34fc abbe b6a1 dd3e 4581 bd3d
00000160: c3e5 5e3e 2b16 353e 402c ed3d 0bd6 8f3d
00000170: 4872 9d3b ba73 bdbe 3855 c53d 1713 9cbc
00000180: 737f 8ebd 650e 29be d17f c6be 184d 9ebc

fc.1.weight f4 [100, 100]
-0.0071933283 0.06362383 -0.040682193 0.0016422585 0.02009598 0.039175477 0.035293277 0.06920617
0.087133884 -0.050603382 -0.122118145 0.085057706 -0.0444008 0.15618128 -0.044018045 0.036101967
0.045320023 -0.04876763 -0.0729248 -0.055518083 -0.10632563 0.0956832 -0.00450671 -0.09098292
0.04035724 -0.064564265 -0.009765725 0.08086584 0.11428969 0.06760504 0.00964925 -0.010539795
-0.0033092601 0.076442875 -0.03522996 -0.01331744 -0.11667341 0.051400192 -0.047545407 0.07513386
-0.014202345 0.00020426817 0.09916281 -0.05946423 0.008279687 -0.0037412518 -0.092229545 0.07161322
-0.09774294 0.017510818 0.012132643 0.1433239 0.007366878 -0.1046382 0.079801835 0.004409019
-0.049609337 0.06403006 0.047780596 -0.046457965 -0.046391714 0.022707641 0.040032595 0.021713924
0.011715713 0.05618729 -0.042240996 -0.0342142 0.026936242 0.0625652 0.0619477 -0.022744972
0.020432478 -0.09631105 -0.05237811 0.098067164 -0.09681288 -0.052150186 0.0030503832 0.11771989
-0.021009715 0.08938901 -0.049895845 0.06719132 -0.0830778 0.080862135 -0.06140307 0.078910485
0.03766885 0.06557286 0.083285466 -0.11614721 -0.015009882 -0.021070542 0.0076666214 -0.04163082
0.0061250934 0.0097013 -0.09606111 -0.07372412 0.10525573 -0.05385983 -0.09134957 0.0754789
0.08783233 -0.10680714 0.028156787 -0.04163268 -0.050693147 0.09058238 -0.1039849 -0.013724638
-0.049133748 0.020166537 0.09036856 0.07779098 0.03931333 0.18218282 0.1063225 0.05791551
0.13533613 -0.067180544 0.055655204 0.075275585 0.047765102 0.031055206 -0.019204797 -0.05943896
-0.12161975 0.058718912 0.020259684 -0.101571515 0.096211925 -0.058766983 -0.0012644219 0.15965854
0.09596275 0.031437293 0.10969967 -0.056302235 0.04204841 -0.023099374 0.10811488 -0.080076784
0.030381229 0.047830954 0.008787882 0.16683803 0.009445994 -0.020029744 -0.07387613 -0.05170749
0.026911492 0.03499732 0.008505477 0.107173495 0.07592102 -0.074091285 0.06435654 0.04709636
0.07271444 0.05837735 0.044940524 0.16359387 -0.052376304 0.04276507 0.050821956 0.15581597
-0.015778333 -0.046219777 -0.03666588 0.026961688 -0.079790495 -0.07949439 0.0480493 0.08848776
0.08859417 -0.011849624 -0.022892762 0.05968136 0.11104393 -0.066748306 0.11789115 0.08287343
0.09899383 0.055371977 0.18292241 0.1139245 0.035433587 0.074064426 0.09976646 0.022501184
-0.060432587 0.13049378 -0.06576737 0.083865985 -0.06973634 0.044405498 -0.08127673 0.06863375
-0.05348652 -0.0016020552 0.037464637 -0.056071825 -0.051998533 0.10482498 0.058175094 0.057568748
-0.025947714 -0.0074705016 0.08562546 -0.027384182 0.12045587 0.034405425 -0.014218327 0.04861103
-0.00674903 -0.016645534 0.032774724 -0.004540827 0.076540135 0.08451044 0.026089644 -0.11804971
0.059291814 -0.04264511 -0.070989706 0.026402457 0.020228993 -0.023536973 0.08047616 0.08666597
-0.02262946 -0.028654978 0.07404526 0.04967133 0.060645964 -0.048779413 0.035019346 -0.019506093
0.014586557 0.015408781 0.058622103 -0.058319062 0.07812592 -0.00021801691 -0.028971806 0.09624097
-0.022869134 -0.09837132 -0.017211175 -0.09502718 0.005458558 0.06821132 0.023665393 -0.08525253
00000000: 03b6 ebbb 364d 823d 5fa2 26bd 0d41 d73a
00000010: 53a0 a43c 7776 203d af8f 103d f7bb 8d3d
00000020: 4073 b23d 7e45 4fbd 1419 fabd bc32 ae3d
00000030: 9ddd 35bd fced 1f3e 444c 34bd a8df 133d
00000040: 7da1 393d 91c0 47bd 9959 95bd ee66 63bd
00000050: 40c1 d9bd 8ef5 c33d 06ad 93bb 4155 babd
00000060: a24d 253d 453a 84bd 6b00 20bc fd9c a53d
00000070: b710 ea3d 8374 8a3d e317 1e3c 1baf 2cbc
00000080: 2ce0 58bb 158e 9c3d 4a4d 10bd 6431 5abc
00000090: 78f2 eebd 0289 523d f9be 42bd c8df 993d
000000a0: f4b0 68bc d230 5639 df15 cb3d c490 73bd
000000b0: 86a7 073c ca2f 75bb d8e2 bcbd f4a9 923d
000000c0: 732d c8bd d972 8f3c fec7 463c 80c3 123e
000000d0: da65 f13b 8d4c d6bd 256f a33d 8879 903b
000000e0: 2933 4bbd 3122 833d 96b5 433d b54a 3ebd
000000f0: 3d05 3ebd 6005 ba3c 38f9 233d 66e1 b13c
00000100: 43f3 3f3c a524 663d e504 2dbd 3024 0cbd
00000110: 65a9 dc3c 2f22 803d dfbc 7d3d aa53 babc
00000120: 0362 a73c ba3e c5bd 6e8a 56bd 70d7 c83d
00000130: d545 c6bd 6f9b 55bd f0e8 473b 2017 f13d
00000140: 911c acbc 9611 b73d 965f 4cbd 9a9b 893d
00000150: b224 aabd 0c9b a53d c981 7bbd d29b a13d
00000160: a74a 1a3d 104b 863d 9291 aa3d 97de edbd
00000170: 02ec 75bc 219c acbc 4838 fb3b 1485 2abd
00000180: 02b5 c83b 34f2 1e3c b0bb c4bd acfc 96bd
00000190: 5190 d73d 209c 5cbd 7c15 bbbd ae94 9a3d
000001a0: 70e1 b33d b4bd dabd 10a9 e63c 0787 2abd
000001b0: 9ea3 4fbd 4183 b93d 09f6 d4bd 4edd 60bc
000001c0: 7840 49bd 4b34 a53c 2713 b93d e150 9f3d
000001d0: 0407 213d 228e 3a3e 9cbf d93d d038 6d3d
000001e0: 8e95 0a3e f495 89bd b6f6 633d 162a 9a3d
000001f0: 57a5 433d 7d67 fe3c 6153 9dbc 4476 73bd
00000200: c713 f9bd 3e83 703d a3f7 a53c ba04 d0bd
00000210: c20a c53d a6b5 70bd f5ba a5ba 877d 233e
00000220: 1e88 c43d 64c4 003d 38aa e03d 2c9d 66bd
00000230: f43a 2c3d e63a bdbc 566b dd3d 4cff a3bd
00000240: 0ee2 f83c 64ea 433d 0cfb 0f3c 97d7 2a3e
00000250: 5fc3 1a3c 6b15 a4bc 5e4c 97bd 3ccb 53bd
00000260: 7d75 dc3c 5a59 0f3d 8e5a 0b3c c77d db3d
00000270: 7b7c 9b3d 2cbd 97bd 5dcd 833d 1de8 403d
00000280: 4feb 943d 171d 6f3d 8e13 383d 2785 273e
00000290: 8988 56bd 6d2a 2f3d af2a 503d 398e 1f3e
000002a0: 9041 81bc f350 3dbd f62e 16bd c2de dc3c
000002b0: 3369 a3bd f4cd a2bd 58cf 443d 1239 b53d
000002c0: dc70 b53d ed24 42bc 9a89 bbbc 7174 743d
000002d0: 006b e33d 56b3 88bd ea70 f13d 8bb9 a93d
000002e0: 47bd ca3d bacd 623d 0350 3b3e 4051 e93d
000002f0: cf22 113d 17af 973d 5c52 cc3d 6754 b83c
00000300: 2988 77bd 29a0 053e 0bb1 86bd eec1 ab3d
00000310: edd1 8ebd 8ae2 353d 6a74 a6bd da8f 8c3d
00000320: ae14 5bbd 0dfc d1ba 8574 193d 92ab 65bd
00000330: 6afc 54bd 7bae d63d 0249 6e3d 35cd 6b3d
00000340: 4d90 d4bc 1ccb f4bb 675c af3d cb54 e0bc
00000350: 91b1 f63d b4ec 0c3d fcf3 68bc 5c1c 473d
00000360: f826 ddbb 375c 88bc ca3e 063d 38cb 94bb
00000370: 13c1 9c3d cf13 ad3d f3b9 d53c 0cc4 f1bd
00000380: f9db 723d a4ac 2ebd 0d63 91bd f749 d83c
00000390: 46b7 a53c 9cd0 c0bc afd0 a43d ee7d b13d
000003a0: 6b61 b9bc d8bd eabc 0ba5 973d 2a74 4b3d
000003b0: e767 783d eccc 47bd 7270 0f3d 3ecb 9fbc
000003c0: 74fc 6e3c 1d75 7c3c bb1d 703d f8df 6ebd
000003d0: 7b00 a03d 789b 64b9 4856 edbc fc19 c53d
000003e0: 0d58 bbbc e776 c9bd 73fe 8cbc 9c9d c2bd
000003f0: b4dd b23b 60b2 8b3d eddd c13c e198 aebd

fc.1.bias f4 [100]
0.053294588 -0.07580179 0.26090702 0.024605997 0.055950277 0.06825364 -0.004731949 0.19943102
0.2160985 0.12321483 0.19035444 0.0953196 0.16672778 0.21063207 0.07149996 0.010376596
-0.19536063 -0.55478424 0.07926472 0.108127795 -0.15237728 -0.014337945 0.118971676 -0.087647155
0.15105926 -0.28365156 0.030768024 0.18467185 -0.025559431 0.005268508 0.077322364 -0.08099456
-0.017230546 -0.070339754 0.11175692 -0.04174812 0.0903489 0.01721939 -0.13518178 -0.011246891
0.16978769 0.15456866 -0.0017453922 0.1903133 0.1478332 -0.1078609 0.026874304 -0.28896594
0.18059613 -0.003024797 0.09492256 -0.026347788 0.043681055 -0.028074382 -0.03328446 -0.013601901
0.19603176 0.4039127 0.12843718 0.3801972 0.45152253 0.26842606 -0.3378966 0.20906428
0.1328703 0.10597602 -0.012516319 0.031069184 0.06384663 -0.05020209 -0.094473355 0.02649683
-0.018668296 0.1936379 0.054464594 -0.040863723 0.1878002 0.007343766 -0.06441369 -0.045734365
-0.077868976 0.13912012 0.016930891 0.18095799 -0.031896718 -0.10130337 0.044121638 -0.20635056
0.14884709 -0.07788427 -0.1865111 0.12318038 -0.11802066 -0.017234685 -0.028781034 0.08791766
0.14199659 0.26018378 0.22178055 0.25635192
00000000: 6d4b 5a3d f83d 9bbd 9b95 853e 8492 c93c
00000010: 1e2c 653d 90c8 8b3d 770e 9bbb a537 4c3e
00000020: ed48 5d3e 0f58 fc3d 46ec 423e ec36 c33d
00000030: b0ba 2a3e efaf 573e 926e 923d 9902 2a3c
00000040: 9e0c 48be 5706 0ebf 8b55 a23d 1b72 dd3d
00000050: ca08 1cbe b3e9 6abc 6ca7 f33d 5a80 b3bd
00000060: 47af 1a3e c73a 91be 390d fc3c 9e1a 3d3e
00000070: 0362 d1bc 73a3 ac3b 305b 9e3d 7ae0 a5bd
00000080: 1327 8dbc 4a0e 90bd d0e0 e43d 1400 2bbd
00000090: d808 b93d ae0f 8d3c 186d 0abe e144 38bc
000000a0: d3dc 2d3e 3f47 1e3e a5c5 e4ba 7de1 423e
000000b0: 9661 173e 2de6 dcbd 8027 dc3c 58f3 93be
000000c0: 31ee 383e ac3b 46bb c266 c23d 51d7 d7bc
000000d0: e8ea 323d 3ffc e5bc 4955 08bd 82da 5ebc
000000e0: 8dbc 483e a5cd ce3e 0985 033e 35a9 c23e
000000f0: f62d e73e 246f 893e c800 adbe f214 563e
00000100: 270f 083e f509 d93d 3f11 4dbc cd84 fe3c
00000110: 06c2 823d b5a0 4dbd 3f7b c1bd e10f d93c
00000120: 41ee 98bc 0349 463e 4416 5f3d b860 27bd
00000130: b24e 403e f9a3 f03b 53eb 83bd f553 3bbd
00000140: c579 9fbd 8175 0e3e a7b2 8a3c 0d4d 393e
00000150: 22a6 02bd 2478 cfbd e4b8 343d 904d 53be
00000160: 5f6b 183e ca81 9fbd c4fc 3ebe ff45 fc3d
00000170: d1b4 f1bd c12f 8dbc 34c6 ebbc 2d0e b43d
00000180: 8e67 113e cf36 853e 711a 633e 8f40 833e

fc.2.weight f4 [100, 100]
-0.077436805 0.12766404 -0.026279248 0.059658926 0.1150903 -0.04669777 0.13259579 0.046120375
-0.02653687 0.09239555 0.06940983 -0.030179579 -0.05877688 -0.05325669 -0.020645842 0.09507855
-0.05258886 0.13884878 -0.06775878 0.12183379 -0.22801735 0.11606722 -0.05758852 -0.06523203
-0.057810646 0.11728362 0.03550759 0.10619558 -0.022573136 0.12662078 0.0880215 0.052546695
0.09736905 0.06300739 -0.12735167 -0.09637395 0.016966218 0.12443468 0.10268593 -0.038405325
-0.06637444 -0.053839024 0.08219502 0.09574477 -0.045367137 0.084729224 0.009265949 -0.012844791
0.07937192 0.0021673224 -0.0401968 0.044100452 0.1230956 -0.014466213 -0.024995407 -0.07929465
-0.027315995 0.2606185 0.07776984 0.068883255 0.009860017 0.067785226 0.0036527081 -0.04518441
0.001582389 0.12921767 0.08380212 0.11543296 0.08452284 -0.06884262 -0.005214466 0.058049936
0.07611688 0.11040294 0.09691155 -0.0019075819 -0.020363146 0.074301384 -0.048638467 -0.10419999
-0.0554656 -0.011806544 0.1179943 0.029190699 0.028350445 0.023909684 0.0622874 -0.08910709
-0.005658008 -0.06458809 0.03394802 0.07099173 0.047734044 0.032236703 0.10312729 -0.020992305
-0.011677873 0.03529939 -0.07606228 -0.06308876 -0.10640245 -0.020142142 -0.025104769 -0.067495964
0.12615444 0.101040065 -0.14237612 -0.019959105 0.09918098 -0.034118064 0.03118794 -0.012920671
-0.027294941 0.07337026 -0.0005804038 0.092649795 -0.11588694 0.042342562 0.0067341346 -0.046425495
0.062244765 0.026743488 0.081256956 0.08977559 -0.018569859 -0.08350188 0.024878077 0.17686081
-0.042012993 0.0394777 0.05651424 -0.08813221 0.006528683 -0.049340606 0.1485621 0.009658709
0.004978698 -0.0019744139 -0.06880087 0.017549058 0.08394127 -0.024901243 -0.016145954 0.077405095
-0.03228919 0.022333255 -0.06566718 -0.101063244 -0.023880033 0.04049734 0.07121045 -0.015666984
-0.030265879 0.029329756 -0.0579307 -0.028348515 -0.0041635134 0.023088373 -0.0074374066 0.024403414
0.09555728 -0.026766734 -0.036789723 0.064548835 0.084962994 0.08920923 -0.056610454 0.05921056
-0.10570988 0.046428226 -0.03627144 -0.068638176 -0.063131936 -0.02147058 0.053701337 -0.077129744
0.04372228 -0.0847048 0.12110015 0.02932202 0.017570939 0.101609685 0.03760952 0.008550347
0.011374676 0.0096897045 -0.008254471 -0.0888744 0.01892911 -0.089641206 -0.049907073 -0.041815385
-0.03056195 -0.0125659425 -0.025044922 -0.061215047 0.04269085 0.05316665 0.08270524 0.026935738
0.029605566 0.12156178 -0.06187943 -0.053488847 -0.07653964 0.033584934 0.1014065 -0.05055873
-0.04683787 0.009183201 -0.050584953 0.07150085 0.009420527 -0.047010265 0.10666219 0.0637326
0.03971524 0.041115284 0.08129116 -0.09325274 -0.28586006 0.03785753 0.048489884 -0.0055272877
-0.044438742 0.14413363 0.010375054 0.03285102 0.1056715 0.122363806 -0.06256508 -0.05045487
-0.04606583 -0.068139695 -0.03881508 -0.0297196 -0.01769271 -0.0699292 0.092711225 0.037366662
0.040762477 0.14856151 0.028485062 -0.052063234 -0.060354974 -0.04742203 -0.024897538 0.06630713
0.0028573645 -0.005673743 -0.037749913 0.015645359 -0.024282701 0.014819206 -0.0028285726 -0.016717562
00000000: 3097 9ebd 5dba 023e 9447 d7bc eb5c 743d
00000010: 77b4 eb3d 2946 3fbd 31c7 073e b8e8 3c3d
00000020: da63 d9bc e139 bd3d be26 8e3d 2a3b f7bc
00000030: 07c0 70bd b023 5abd 7821 a9bc 8bb8 c23d
00000040: 6b67 57bd 602e 0e3e 1ec5 8abd fe83 f93d
00000050: 617d 69be a7b4 ed3d f1e1 6bbd 5f98 85bd
00000060: dbca 6cbd 6532 f03d 6870 113d 117d d93d
00000070: 4ceb b8bc e1a8 013e 9e44 b43d 343b 573d
00000080: 6d69 c73d 050a 813d 7a68 02be b55f c5bd
00000090: bdfc 8a3c 9cd7 fe3d 004d d23d e74e 1dbd
000000a0: 53ef 87bd 4f86 5cbd dd55 a83d d515 c43d
000000b0: e4d2 39bd 8486 ad3d 35d0 173c f572 52bc
000000c0: bf8d a23d a309 0e3b 66a5 24bd ada2 343d
000000d0: 8c19 fc3d b203 6dbc 2bc3 ccbc 3c65 a2bd
000000e0: cbc5 dfbc ca6f 853e cb45 9f3d aa12 8d3d
000000f0: e98b 213c fbd2 8a3d 4662 6f3b 4a13 39bd
00000100: 2a68 cf3a a351 043e 72a0 ab3d 1e68 ec3d
00000110: 501a ad3d 5cfd 8cbd 1cde aabb c5c5 6d3d
00000120: 2be3 9b3d f01a e23d 9079 c63d d407 faba
00000130: 9dd0 a6bc 532b 983d 2139 47bd ce66 d5bd
00000140: e62f 63bd 3c70 41bc ffa6 f13d 5521 ef3c
00000150: 313f e83c 3ede c33c 1321 7f3d c77d b6bd
00000160: d066 b9bb c346 84bd 140d 0b3d 1d64 913d
00000170: c684 433d a20a 043d 6734 d33d 0ef8 abbc
00000180: 8d54 3fbc 1896 103d 8ac6 9bbd ae34 81bd
00000190: 87e9 d9bd 2201 a5bc 84a8 cdbc 533b 8abd
000001a0: a12e 013e 18ee ce3d 0ccb 11be 4781 a3bc
000001b0: 661f cb3d 62bf 0bbd da7d ff3c 39b1 53bc
000001c0: a499 dfbc 2643 963d 3d26 18ba 2dbf bd3d
000001d0: 2256 edbd 656f 2d3d 04aa dc3b a928 3ebd
000001e0: 5ef4 7e3d 2915 db3c 0c6a a63d 44dc b73d
000001f0: d11f 98bc 0903 abbd 1ccd cb3c 001b 353e
00000200: d115 2cbd 5eb3 213d 7a7b 673d a97e b4bd
00000210: 90ee d53b 6019 4abd aa20 183e 903f 1e3c
00000220: 5924 a33b 2b65 01bb 78e7 8cbd 0bc3 8f3c
00000230: 67e9 ab3d b1fd cbbc 8544 84bc 9086 9e3d
00000240: ab41 04bd 3bf4 b63c 847c 86bd 3ffa cebd
00000250: 0fa0 c3bc 8ae0 253d c9d6 913d 0c58 80bc
00000260: 26f0 f7bc f544 f03c be48 6dbd 253b e8bc
00000270: 156e 88bb d423 bd3c 7db5 f3bb abe9 c73c
00000280: 89b3 c33d e945 dbbc d2b0 16bd 2e32 843d
00000290: 1401 ae3d 54b3 b63d 5de0 67bd c686 723d
000002a0: 6c7e d8bd 862b 3e3d 5d91 14bd 2c92 8cbd
000002b0: 514b 81bd 12e3 afbc eff5 5b3d 33f6 9dbd
000002c0: 2216 333d b679 adbd 5b03 f83d bc34 f03c
000002d0: eef0 8f3c bd18 d03d 710c 1a3d c116 0c3c
000002e0: d95c 3a3c 91c1 1e3c c33d 07bc c803 b6bd
000002f0: 3911 9b3c cf95 b7bd 5c6b 4cbd 9c46 2bbd
00000300: 0e5d fabc 62e1 4dbc 022b cdbc a1bc 7abd
00000310: 9adc 2e3d 46c5 593d 5d61 a93d 56a8 dc3c
00000320: 5f87 f23c 62f5 f83d 4975 7dbd 1f17 5bbd
00000330: d1c0 9cbd 5b90 093d 36ae cf3d ac16 4fbd
00000340: 11d9 3fbd 2375 163c 2b32 4fbd 0a6f 923d
00000350: 8e58 1a3c d68d 40bd b571 da3d 3d86 823d
00000360: 73ac 223d 8068 283d fb7b a63d 4bfb bebd
00000370: 405c 92be 7f10 1b3d 549d 463d 401e b5bb
00000380: 6605 36bd c497 133e 21fc 293c cb8e 063d
00000390: 4d6a d83d e099 fa3d 1f22 80bd c4a9 4ebd
000003a0: 86af 3cbd d38c 8bbd 90fc 1ebd 8576 f3bc
000003b0: 4df0 90bc 0a37 8fbd 62df bd3d c90d 193d
000003c0: 8ef6 263d 8220 183e 8159 e93c 4240 55bd
000003d0: c736 77bd 9a3d 42bd ecf5 cbbc 08cc 873d
000003e0: 9f42 3b3b ceea b9bb a79f 1abd b22a 803c
000003f0: 84ec c6bc 41cc 723c 935f 39bb 45f3 88bc

fc.2.bias f4 [100]
0.047493916 0.23362687 -0.015186489 -0.11740403 0.13113692 0.018784804 0.020162636 -0.08711335
-0.019543013 0.043514278 -0.030632515 -0.04363256 0.017271431 0.033102173 -0.011009138 0.02136191
0.052541934 -0.014676761 0.089378595 0.02848874 -0.1658811 0.3072216 0.044461783 -0.039584517
0.12110246 0.12498018 0.06156729 0.120534346 0.08961811 0.058774948 0.048450507 -0.019885458
-0.33605585 -0.15498678 -0.021352181 0.080933504 -0.032255184 0.07749372 0.023671621 0.24393867
0.008317147 0.11931772 0.14157039 0.17389818 0.06514047 0.12345649 0.06930537 -0.014927697
-0.021084666 0.13116786 -0.1028413 0.0936995 0.01661877 -0.030227525 0.07314455 -0.32604396
0.024332212 0.1384221 -0.024361866 -0.036529955 -0.029526956 -0.096724875 0.115302175 0.011780165
0.12252275 0.116436735 0.04219346 0.16472311 0.0051900307 -0.08665785 0.06417614 0.012156027
0.043911334 -0.023071082 -0.110277295 0.11039223 0.15614967 0.032273903 0.053029362 -0.041679893
-0.09155735 0.057788454 -0.05847997 -0.031703923 0.0016826937 0.08498455 0.066497646 0.050723746
0.12167005 0.080816686 0.15224896 0.08721189 0.03419051 0.02610712 -0.00860644 -0.05934977
0.14249076 0.14639163 -0.0836215 0.10334084
00000000: fb88 423d e23b 6f3e c0d0 78bc 8671 f0bd
00000010: c248 063e 97e2 993c 1d2c a53c 7c68 b2bd
00000020: ab18 a0bc 073c 323d 0af1 fabc 0eb8 32bd
00000030: d17c 8d3c 2596 073d ac5f 34bc 2cff ae3c
00000040: 3636 573d cc76 70bc 200c b73d 3861 e93c
00000050: bcdc 29be 264c 9d3e 8f1d 363d 6023 22bd
00000060: 9104 f83d 9cf5 ff3d fc2d 7c3d b6da f63d
00000070: b389 b73d 00be 703d 0a74 463d d4e6 a2bc
00000080: 830f acbe dbb4 1ebe c5ea aebc 77c0 a53d
00000090: 031e 04bd 07b5 9e3d fdea c13c 0fcb 793e
000000a0: a544 083c d95c f43d d4f7 103e 5d12 323e
000000b0: 5e68 853d c2d6 fc3d f9ef 8d3d 4d93 74bc
000000c0: c0b9 acbc de50 063e 769e d2bd 86e5 bf3d
000000d0: 1624 883c b79f f7bc cfcc 953d 3cef a6be
000000e0: 5954 c73c 86be 0d3e 8992 c7bc 6fa0 15bd
000000f0: 84e2 f1bc b117 c6bd 8c23 ec3d 9801 413c
00000100: 35ed fa3d 6276 ee3d 0dd3 2c3d 2dad 283e
00000110: 2211 aa3b ac79 b1bd c86e 833d 132a 473c
00000120: 5fdc 333d 91ff bcbc 10d9 e1bd 5215 e23d
00000130: b3e5 1f3e a431 043d 5135 593d 89b8 2abd
00000140: 6b82 bbbd 96b3 6c3d b188 6fbd f9db 01bd
00000150: d58d dc3a 610c ae3d eb2f 883d b4c3 4f3d
00000160: 262e f93d 3883 a53d 27e7 1b3e 269c b23d
00000170: 590b 0c3d 99de d53c 0702 0dbc bf18 73bd
00000180: 19e9 113e b0e7 153e c041 abbd 5da4 d33d

fc.3.weight f4 [100, 100]
-0.0069981753 0.060239624 0.066191606 -0.025094945 0.124529816 0.004384523 0.111521564 -0.08960707
0.009330052 0.039594803 -0.100621335 -0.06901514 -0.0480861 0.02639957 -0.01931261 0.030810937
-0.07153657 -0.02869929 -0.07063516 -0.061614677 -0.06444632 0.15033083 -0.0992528 -0.010089821
0.03448996 0.08229712 -0.032163613 0.10948966 -0.022470208 0.02617762 -0.06773405 -0.003229597
-0.24652691 -0.05208942 0.04270295 0.077258825 0.008607408 0.10783348 0.07183361 0.010848006
-0.010970122 0.115441844 0.016598325 0.06276958 0.014335312 -0.11360436 -0.03425278 0.029737862
0.0626874 0.023843884 -0.01618169 -0.089110106 -0.03111272 0.084360555 0.0015416392 -0.15321827
-0.015380771 -0.010295782 -0.039436895 0.09545322 0.08007557 0.08977573 0.088870905 0.01009083
0.044091158 0.07026429 0.010827137 -0.109477654 -0.06892505 0.06880517 0.08950544 -0.071319245
0.07719212 0.01650762 0.08028051 -0.053781897 0.10287395 -0.07358025 0.014919234 0.070891194
0.09671545 0.063409105 0.0067040543 0.016728902 0.070143834 -0.011866787 0.031580072 -0.0070689074
0.09953436 0.07459344 0.057896074 -0.03914013 0.030946832 0.06358368 -0.021796152 -0.06846374
0.0691719 0.026076276 -0.024539169 0.029342743 0.05929889 0.12869266 0.0014606828 0.11564242
0.0053977743 0.11511021 -0.0434172 -0.029384691 0.014913656 -0.07192392 0.054308143 -0.06190691
0.031013062 0.08344678 0.05448657 0.011357385 -0.10689385 -0.0029230267 0.05604296 0.011157825
-0.19544454 0.24983263 0.08720988 -0.061400164 0.03648671 0.01918459 0.091764726 0.012970491
-0.055801477 0.088639565 0.077113084 -0.020906176 -0.26079446 -0.017296309 0.028183179 0.09334151
0.10534702 -0.075801656 -0.044809252 0.023113558 -0.08503352 0.06207763 0.051195964 -0.044028305
0.03273256 -0.21797144 -0.008455377 0.0014836795 0.079866655 -0.025660705 0.08729175 -0.01315359
0.08637527 0.2563352 0.053066418 -0.11641454 0.058352772 0.028542079 -0.051595524 -0.09267943
0.07556939 -0.023552967 -0.0059062555 -0.004380156 0.021619307 0.09867258 -0.03692041 0.07521127
-0.009218076 -0.10826547 -0.019761741 0.004947528 -0.037137754 0.036753114 0.045796875 0.041781437
0.1251756 -0.036241986 0.14047892 -0.067196384 0.082077034 -0.066196196 -0.004623734 -0.06471666
0.09600554 -0.07254244 0.188298 0.07361128 0.043504216 0.008434494 0.051990516 -0.048054527
-0.06962566 -0.08386103 -0.09561155 -0.012639372 0.16233991 -0.029490689 0.072006136 0.07886254
0.104318514 0.08341962 0.078937896 0.007988334 0.05362218 0.0736861 0.04120909 -0.07256366
-0.021724079 0.09774976 0.05947433 0.023106882 -0.032990817 0.0639282 0.060026463 0.07738196
0.060016546 -0.11267283 0.08491029 -0.027537972 0.08778903 -0.08519708 0.06105416 0.016600613
-0.047648698 -0.117638715 -0.06605075 0.043590967 -0.04623571 0.029014178 0.061908852 0.04312588
0.1177121 -0.03436746 0.06327845 -0.07022054 0.059461746 0.111824475 -0.06833704 0.020976378
-0.028193844 -0.049302433 0.08145291 -0.03694729 -0.109013565 0.014147746 -0.06488639 -0.0637022
0.035333086 0.10561939 -0.046280894 0.07653688 0.030112412 0.05453457 0.09592385 0.07784717
00000000: f350 e5bb d3bd 763d 778f 873d ea93 cdbc
00000010: 7d09 ff3d 0bac 8f3b 6b65 e43d e983 b7bd
00000020: 13dd 183c 292e 223d 8f12 cebd cf57 8dbd
00000030: eef5 44bd e943 d83c 7b35 9ebc 3867 fc3c
00000040: c481 92bd c61a ebbc 2ba9 90bd ac5f 7cbd
00000050: 6ffc 83bd 53f0 193e 0d45 cbbd c74f 25bc
00000060: 5845 0d3d 648b a83d febd 03bd 1d3c e03d
00000070: 7113 b8bc 7372 d63c 26b8 8abd a5a7 53bb
00000080: 8d71 7cbe b75b 55bd 4ae9 2e3d e039 9e3d
00000090: 1606 0d3c cdd7 dc3d 801d 933d d6bb 313c
000000a0: 07bc 33bc c66c ec3d 36f9 873c 568d 803d
000000b0: a8de 6a3c 67a9 e8bd a54c 0cbd d19c f33c
000000c0: 4062 803d 4054 c33c 778f 84bc 5c7f b6bd
000000d0: 1ae0 febc 3ac5 ac3d d410 ca3a 40e5 1cbe
000000e0: a1ff 7bbc a4af 28bc 9588 21bd fa7c c33d
000000f0: a9fe a33d 57dc b73d f301 b63d 0254 253c
00000100: ee98 343d b9e6 8f3d 4e64 313c d235 e0bd
00000110: 9428 8dbd bae9 8c3d a14e b73d d30f 92bd
00000120: e716 9e3d fd3a 873c 1c6a a43d 684a 5cbd
00000130: 94af d23d 3eb1 96bd ce6f 743c 672f 913d
00000140: c012 c63d a2dc 813d afad db3b 0d0b 893c
00000150: 92a7 8f3d ea6c 42bc 1b5a 013d 4ba2 e7bb
00000160: acd8 cb3d 72c4 983d 6f24 6d3d 6751 20bd
00000170: 3684 fd3c 2938 823d d88d b2bc b836 8cbd
00000180: ffa9 8d3d ea9d d53c 5e06 c9bc 3160 f03c
00000190: 65e3 723d 02c8 033e 6274 bf3a efd5 ec3d
000001a0: d0df b03b e7be eb3d 3cd6 31bd 2ab8 f0bc
000001b0: 6858 743c d94c 93bd 3772 5e3d 1a92 7dbd
000001c0: 1b0f fe3c 25e6 aa3d 4f2d 5f3d 5314 3a3c
000001d0: 2aeb dabd 4090 3fbb 4e8d 653d 4fcf 363c
000001e0: 9d22 48be 20d4 7f3e 189b b23d bd7e 7bbd
000001f0: 1773 153d 0029 9d3c 25ef bb3d 2f82 543c
00000200: 1790 64bd a988 b53d 77ed 9d3d 6e43 abbc
00000210: da86 85be fdb0 8dbc 69e0 e63c d529 bf3d
00000220: 2ec0 d73d e63d 9bbd e889 37bd a558 bd3c
00000230: 0e26 aebd 1d45 7e3d dcb2 513d 0657 34bd
00000240: 9412 063d e833 5fbe 6c88 0abc 0678 c23a
00000250: 2191 a33d 6636 d2bc 04c6 b23d 2882 57bc
00000260: 84e5 b03d 5e3e 833e 2c5c 593d bf6a eebd
00000270: 5103 6f3d 14d1 e93c d455 53bd b7ce bdbd
00000280: 20c4 9a3d 27f2 c0bc 4389 c1bb 6987 8fbb
00000290: f91a b13c da14 ca3d db39 17bd 5e08 9a3d
000002a0: 6a07 17bc 49ba ddbd 60e3 a1bc df1e a23b
000002b0: c21d 18bd 6f8a 163d 8195 3b3d 0323 2b3d
000002c0: 082e 003e 7a72 14bd b5d9 0f3e 429e 89bd
000002d0: 0118 a83d df91 87bd b182 97bb 2b8a 84bd
000002e0: 8d9e c43d 2191 94bd 31d1 403e 83c1 963d
000002f0: 7a31 323d d530 0a3c 02f4 543d d3d4 44bd
00000300: e697 8ebd 55bf abbd fdcf c3bd 5e15 4fbc
00000310: 6f3c 263e 7596 f1bc f477 933d af82 a13d
00000320: f2a4 d53d e8d7 aa3d 31aa a13d 80e1 023c
00000330: eea2 5b3d bde8 963d ddca 283d 429c 94bd
00000340: b2f6 b1bc 0731 c83d 5b9b 733d a54a bd3c
00000350: 6121 07bd caec 823d 4fde 753d 6f7a 9e3d
00000360: e9d3 753d 03c1 e6bd 72e5 ad3d 5097 e1bc
00000370: bcca b33d cf7b aebd ed13 7a3d 02fe 873c
00000380: 482b 43bd 91ec f0bd 9e45 87bd 718c 323d
00000390: a861 3dbd 24af ed3c 2394 7d3d c3a4 303d
000003a0: 0b13 f13d e5c4 0cbd 2298 813d c9cf 8fbd
000003b0: 298e 733d 3b04 e53d 4af4 8bbd a7d6 ab3c
000003c0: c7f6 e6bc 59f1 49bd c9d0 a63d 0b56 17bd
000003d0: 8142 dfbd f3cb 673c 28e3 84bd 4d76 82bd
000003e0: 6db9 103d fb4e d83d 0991 3dbd 5ebf 9c3d
000003f0: 4eae f63c a45f 5f3d b973 c43d 566e 9f3d

fc.3.bias f4 [100]
-0.02487026 0.12798285 0.09559073 -0.0692046 0.13796774 -0.016431876 -0.14106558 0.061486218
0.114154585 -0.0395794 0.07757627 -0.017312516 -0.008985656 0.20469908 -0.057215802 -0.016325058
0.05785769 0.07945456 -0.067008406 0.01597877 -0.08493475 0.0005459666 0.0964269 -0.103923164
0.107005104 0.068194024 0.10507402 0.10988507 0.010095162 -0.1011215 0.112103514 -0.003601543
-0.020404702 0.09411997 0.051598117 0.057563566 0.051521987 -0.0905976 0.0495942 0.050827716
0.070502706 -0.031494394 0.066071145 -0.06729565 0.10026828 0.03343419 -0.014036322 0.17567481
-0.08100503 -0.001386173 -0.0076131425 0.012375962 0.0083853 0.06594624 -0.06409043 -0.05918879
-0.040041395 0.027999623 0.04785825 0.08881638 0.12914173 0.19088398 -0.076527715 0.036206614
-0.09429942 0.10139861 0.04239911 0.021878894 -0.06308461 0.019438317 0.076738834 0.13607734
0.08996599 -0.15310206 -0.15697716 0.10723677 -0.078882635 -0.06542318 -0.029721217 0.02484521
0.014844327 0.14805114 0.048453208 0.05222455 -0.016500669 0.05620324 0.024727302 0.13558629
-0.06332664 0.0038804293 0.034606036 -0.03568287 0.044362888 0.03626057 0.13800606 -0.15803714
-0.27580696 -0.006157644 0.011695943 -0.08844465
00000000: b7bc cbbc f00d 033e 13c5 c33d 24bb 8dbd
00000010: 6a47 0d3e 249c 86bc 7f73 10be f9d8 7b3d
00000020: e1c9 e93d 021e 22bd 4fe0 9e3d fad2 8dbc
00000030: 9338 13bc a39c 513e 1e5b 6abd 21bc 85bc
00000040: 2ffc 6c3d 13b9 a23d b43b 89bd e9e5 823c
00000050: 45f2 adbd 331f 0f3a 777b c53d abd5 d4bd
00000060: 7e25 db3d 4fa9 8b3d 0c31 d73d 6c0b e13d
00000070: 2e66 253c ca18 cfbd 8796 e53d dd07 6cbb
00000080: c327 a7bc f9c1 c03d 8c58 533d c6c7 6b3d
00000090: b808 533d 3c8b b9bd 4a23 4b3d b930 503d
000000a0: b963 903d 4400 01bd 4f50 873d 4dd2 89bd
000000b0: 7559 cd3d 4af2 083d 9af8 65bc 19e4 333e
000000c0: f7e5 a5bd 3fb0 b5ba ab77 f9bb 8cc4 4a3c
000000d0: 7f62 093c d30e 873d d841 83bd f26f 72bd
000000e0: 7202 24bd 775f e53c 0307 443d 5de5 b53d
000000f0: bb3d 043e 1777 433e 90ba 9cbd 634d 143d
00000100: 0e20 c1bd 13aa cf3d b0aa 2d3d 5e3b b33c
00000110: 8132 81bd 1b3d 9f3c 4029 9d3d dc57 0b3e
00000120: 1740 b83d c9c6 1cbe 9fbe 20be f49e db3d
00000130: 388d a1bd 97fc 85bd e979 f3bc 2f88 cb3c
00000140: 9f35 733c b89a 173e df76 463d 69e9 553d
00000150: 692c 87bc 5e35 663d e990 ca3c 22d7 0a3e
00000160: 66b1 81bd cd4e 7e3b 0fbf 0d3d 3328 12bd
00000170: dcb5 353d f785 143d 7651 0d3e 7dd4 21be
00000180: 9236 8dbe 10c6 c9bb 57a0 3f3c 7822 b5bd

fc.4.weight f4 [100, 100]
-0.047894947 -0.07331077 -0.051279265 0.035267368 -0.06354061 -0.09030463 0.06275522 -0.07106701
0.044061407 0.018376544 -0.06295525 -0.06326739 -0.06257993 -0.13499592 0.0525763 -0.0050469637
-0.004102738 -0.07844688 0.073670335 0.08073126 -0.010856148 0.09155134 0.10536569 0.010662875
-0.014545889 0.08060423 -0.10457438 -0.004627128 0.018167246 0.04582646 0.019618437 -0.09697492
-0.0057824585 -0.048547164 -0.025976453 -0.07889458 0.041890483 -0.014966964 0.010548639 0.09053928
-0.01751493 -0.012095865 0.004389748 0.07743053 0.11699569 0.06929817 -0.00056864077 -0.04636956
-0.029226018 -0.017084716 0.0059433035 0.035623282 -0.020178659 0.094942294 -0.06755991 0.024314428
0.04641629 0.0108617395 0.07399321 0.022106558 0.03890417 -0.03129178 -0.08756118 0.0006607949
-0.07929026 0.07925357 0.011339086 0.01029794 -0.07524432 0.068122454 -0.0016428042 0.047271993
0.09320953 0.0017611504 0.024335444 0.049602672 0.049072266 -0.06988811 0.045766316 0.10704474
0.042246576 0.009406595 0.10757268 0.10679919 -0.057578202 -0.06227686 -0.026724495 0.040316872
-0.056692492 0.009311295 0.05230254 -0.031496212 0.028942147 0.009346749 -0.056672927 0.09077211
-0.1685272 -0.037654325 -0.032199513 -0.020722711 0.10280354 0.07761695 0.009117761 -0.0724178
-0.012057231 0.08504924 -0.19589733 -0.017378677 0.112560764 0.0822691 0.0074315667 0.07966815
0.016391687 -0.0636622 0.007163364 -0.075012855 0.031521574 0.040615074 0.032793127 0.048784442
0.07310418 -0.023082769 0.044077434 0.031966545 0.010393682 0.044728804 0.07079847 0.08479507
0.04328795 -0.073019534 0.091356464 -0.07474017 0.021286057 0.014497171 0.020304052 -0.011078232
0.019269258 -0.12742849 0.099247284 0.080482595 0.07205535 -0.027075388 -0.04391764 -0.05018186
-0.05753096 0.05557239 -0.061268203 0.11228054 -0.023082066 0.0111568505 -0.03114845 0.053124584
-0.064802915 -0.07638195 0.048621774 -0.04327857 -0.095563516 0.04890735 -0.024415724 0.026283707
0.05325284 -0.06602117 0.09886658 0.06984539 -0.08594355 0.053903136 0.07697533 -0.090467304
0.07643537 0.090819344 -0.0443322 0.018531399 -0.008370086 -0.05611982 -0.08078098 0.042411845
-0.0057673985 -0.071416326 -0.020129586 -0.06468723 0.11044577 -0.13028735 -0.06949186 -0.020222327
-0.04337011 0.104661375 -0.059761718 -0.017078504 -0.0781234 0.05678812 0.07568647 -0.11135246
-0.09102897 0.026283357 0.0418712 -0.088097595 0.2992215 0.10262215 0.098674566 0.07100187
-0.03678399 -0.037841596 -0.011069531 0.07435114 -0.11184333 0.06864663 -0.011799165 0.01993395
-0.019798947 0.015199411 0.0013624644 0.0029062517 -0.012624948 -0.049753025 0.05333129 -0.06984911
-0.0062228846 -0.08174341 0.034536604 -0.039648473 0.021086236 -0.027204543 0.05304744 0.0870529
-0.033467237 -0.10883339 -0.07272582 -0.07584998 0.061400913 0.05309686 0.06406945 -0.07776823
0.032165755 0.064406104 0.022382911 -0.07392279 0.081358686 0.064485624 -0.03110743 0.017943298
-0.078614384 0.054679755 0.060690638 0.057429086 -0.09247895 0.048272576 0.039904047 -0.03625864
-0.03220526 -0.046500612 0.058483757 0.07033084 -0.08072567 -0.006599648 0.06951332 0.08091479
00000000: 7e2d 44bd f523 96bd 350a 52bd 8474 103d
00000010: 9421 82bd a2f1 b8bd cf85 803d 958b 91bd
00000020: bc79 343d 688a 963c afee 80bd 5592 81bd
00000030: e829 80bd 5f3c 0abe 3f5a 573d 0061 a5bb
00000040: 4370 86bb c2a8 a0bd 79e0 963d 6e56 a53d
00000050: fcdd 31bc 457f bb3d f8c9 d73d 57b3 2e3c
00000060: e151 6ebc d513 a53d 182b d6bd 2a9f 97bb
00000070: 7ad3 943c 87b4 3b3d d8b6 a03c c99a c6bd
00000080: c77a bdbb 64d9 46bd 92cc d4bc 7b93 a1bd
00000090: 5b95 2b3d ff37 75bc 33d4 2c3c a86c b93d
000000a0: 787b 8fbc bc2d 46bc e0d7 8f3b e693 9e3d
000000b0: 709b ef3d 33ec 8d3d d610 15ba 02ee 3dbd
000000c0: 676b efbc 3ff5 8bbc 0bc0 c23b b8e9 113d
000000d0: b74d a5bc 1b71 c23d da5c 8abd 0d2f c73c
000000e0: 021f 3e3d 70f5 313c c189 973d d018 b53c
000000f0: fb59 1f3d cf2b 00bd 4753 b3bd 3239 2d3a
00000100: ef62 a2bd b24f a23d 93c7 393c b1b8 283c
00000110: b219 9abd c983 8b3d 5d53 d7ba 47a0 413d
00000120: a3e4 be3d 67d6 e63a 205b c73c 2c2c 4b3d
00000130: 0000 493d 7f21 8fbd 7675 3b3d 463a db3d
00000140: bf0a 2d3d 1e1e 1a3c 114f dc3d 89b9 da3d
00000150: 1fd7 6bbd 0516 7fbd 54ed dabc 4e23 253d
00000160: 6336 68bd 678e 183c 303b 563d 2c02 01bd
00000170: 1518 ed3c 1b23 193c df21 68bd bae6 b93d
00000180: 6592 2cbe 6c3b 1abd a3e3 03bd adc2 a9bc
00000190: aa8a d23d a3f5 9e3d a962 153c c94f 94bd
000001a0: b18b 45bc 4c2e ae3d 4f99 48be ba5d 8ebc
000001b0: 4286 e63d b47c a83d 8084 f33b 0e29 a33d
000001c0: dc47 863c 5461 82bd a7ba ea3b 57a0 99bd
000001d0: c41c 013d fe5b 263d 1652 063d 32d2 473d
000001e0: a5b7 953d 1318 bdbc 8a8a 343d 5aef 023d
000001f0: 434a 2a3c 8d35 373d cafe 903d 0aa9 ad3d
00000200: b54e 313d 448b 95bd 1919 bb3d 6011 99bd
00000210: 1960 ae3c 8b85 6d3c af54 a63c 7981 35bc
00000220: 90da 9d3c 9d7c 02be 2942 cb3d 0fd4 a43d
00000230: c191 933d 34cd ddbc fce2 33bd 7e8b 4dbd
00000240: 95a5 6bbd e09f 633d 5ef4 7abd 57f3 e53d
00000250: 9a16 bdbc 39cb 363c 092b ffbc 2a99 593d
00000260: 64b7 84bd 246e 9cbd a027 473d df44 31bd
00000270: ceb6 c3bd 1353 483d 7c03 c8bc ee50 d73c
00000280: a61f 5a3d 1b36 87bd 907a ca3d 1a0b 8f3d
00000290: 2c03 b0bd 89c9 5c3d 3ea5 9d3d ec46 b9bd
000002a0: 268a 9c3d 7eff b93d ae95 35bd 29cf 973c
000002b0: af22 09bc e5dd 65bd 8070 a5bd 0bb8 2d3d
000002c0: 72fc bcbb b942 92bd cde6 a4bc bd7a 84bd
000002d0: 6431 e23d 0c6a 05be c051 8ebd 4ba9 a5bc
000002e0: dba4 31bd b458 d63d b4c8 74bd 38e8 8bbc
000002f0: 29ff 9fbd a99a 683d 8201 9b3d c20c e4bd
00000300: 666d babd 3250 d73c 2381 2b3d 836c b4bd
00000310: 8f33 993e 902b d23d e415 ca3d 6e69 913d
00000320: cfaa 16bd caff 1abd fa5c 35bc 6945 983d
00000330: 1e0e e5bd 9b96 8c3d 4951 41bc 864c a33c
00000340: 6731 a2bc f306 793c b894 b23a d076 3e3b
00000350: dfd8 4ebc d4c9 4bbd e971 5a3d 0d0d 8fbd
00000360: 57e9 cbbb 1769 a7bd 4176 0d3d 7066 22bd
00000370: 0bbd ac3c 10dc debc 4648 593d ca48 b23d
00000380: f114 09bd 0ae4 debd 46f1 94bd 3c57 9bbd
00000390: 867f 7b3d 187c 593d d836 833d f344 9fbd
000003a0: 3dc0 033d 59e7 833d 5e5c b73c d564 97bd
000003b0: 629f a63d 0a11 843d 02d5 febc d3fd 923c
000003c0: 9400 a1bd e1f7 5f3d bf96 783d c33a 6b3d
000003d0: 9b65 bdbd 77b9 453d 6d72 233d f183 14bd
000003e0: aae9 03bd 6d77 3ebd aa8c 6f3d 9e09 903d
000003f0: 8053 a5bd dc41 d8bb 005d 8e3d a7b6 a53d

fc.4.bias f4 [100]
-0.06737093 0.11395517 -0.051707093 -0.10090521 0.0038203327 0.056366704 -0.00028032064 0.08040255
0.05411048 0.10004322 -0.07237031 -0.0449968 0.0591639 -0.23960312 0.050741147 0.081054404
-0.02810956 0.0220548 0.008504026 -0.013333185 0.03314518 0.054845616 0.05679744 -0.006723069
-0.029513713 0.054154754 -0.099011734 0.05056589 -0.020731548 -0.007683935 -0.043971322 0.07358844
-0.34924167 0.022862768 0.10478797 -0.10413236 0.0043994277 -0.06966398 0.026254123 0.058351494
0.018029358 0.11387183 0.046104573 0.08823732 -0.08462156 0.12853579 0.095806286 -0.019588487
-0.04425073 0.08360649 -0.08210386 0.06674054 -0.013742502 -0.12753615 0.079129234 0.10675116
-0.0896552 -0.09557943 0.09374339 0.025817916 0.06894487 0.0323707 0.0788992 0.11860074
-0.06508921 -0.082414344 -0.14384471 -0.044673663 0.043088984 0.013897699 0.067216314 0.033479303
-0.09290637 0.08379759 -0.076085955 -0.013170971 -0.036810692 -0.04648357 0.07415556 -0.06195814
-0.04112109 0.040919334 0.06489655 -0.055489965 0.058151234 0.06909621 0.09471884 0.10049778
-0.08893695 -0.060720358 0.08985311 -0.07087683 -0.019780584 0.10670429 0.091593 -0.08483723
-0.09254483 0.033012647 -0.06775474 0.12620057
00000000: c5f9 89bd 5461 e93d d1ca 53bd 64a7 cebd
00000010: 8c5e 7a3b c6e0 663d 00f8 92b9 18aa a43d
00000020: f3a2 5d3d 76e3 cc3d e336 94bd 914e 38bd
00000030: d855 723d 855a 75be f3d5 4f3d daff a53d
00000040: 0546 e6bc 45ac b43c 7854 0b3c 6e73 5abc
00000050: 3ec3 073d cca5 603d 6fa4 683d 314d dcbb
00000060: bec6 f1bc 60d1 5d3d aac6 cabd 2e1e 4f3d
00000070: 35d5 a9bc 85c9 fbbb 461b 34bd 89b5 963d
00000080: cecf b2be b34a bb3c 139b d63d 5943 d5bd
00000090: 1329 903b fdab 8ebd e312 d73c fa01 6f3d
000000a0: 4eb2 933c a235 e93d 26d8 3c3d c5b5 b43d
000000b0: 124e adbd e39e 033e 1636 c43d 0978 a0bc
000000c0: 4140 35bd e139 ab3d 1226 a8bd 44af 883d
000000d0: 3b28 61bc d698 02be 820e a23d 5aa0 da3d
000000e0: 259d b7bd 26bf c3bd 89fc bf3d 1880 d33c
000000f0: f832 8d3d 2497 043d e795 a13d f2e4 f23d
00000100: 7e4d 85bd dac8 a8bd 074c 13be bbfb 36bd
00000110: 137e 303d 2db3 633c b5a8 893d 9821 093d
00000120: b245 bebd 129e ab3d f4d2 9bbd 0ecb 57bc
00000130: cfc6 16bd 8e65 3ebd dfde 973d d2c7 7dbd
00000140: 976e 28bd 089b 273d 7be8 843d 7249 63bd
00000150: fd2f 6e3d 5082 8d3d f4fb c13d c8d1 cd3d
00000160: 9324 b6bd e9b5 78bd e804 b83d df27 91bd
00000170: e40a a2bc c787 da3d 1c95 bb3d 24bf adbd
00000180: 2588 bdbd 4538 073d ffc2 8abd b93a 013e

fc.5.weight f4 [4, 100]
-0.049614746 0.010969666 0.076481454 -0.1974959 0.1444488 -0.061300214 0.07957631 -0.046121255
0.034069914 0.020540584 0.01074034 0.05812919 -0.10529749 0.027840428 -0.097678795 -0.02971511
-0.066479355 -0.11441955 0.07923377 0.0818387 0.0074954713 0.01757206 -0.07382632 -0.009492715
0.02509601 0.020720363 0.08522189 -0.04732979 0.13349408 0.086020805 0.03859663 0.08664142
0.45815882 -0.0005057335 0.022994682 0.020955686 0.084714524 -0.06597702 0.09632371 0.14895608
0.0010237955 0.07080574 -0.1087861 -0.042718343 -0.035017584 0.08587342 -0.04702656 0.044248614
0.064750664 -0.003809529 0.020890586 0.022038579 0.101888455 0.12056594 0.049089894 0.014734793
0.029109085 0.12769616 -0.09236905 0.05191834 -0.048508998 -0.06668383 0.013244226 -0.08729464
0.05773326 -0.059903875 0.19352211 -0.07433264 0.04340046 0.065129556 -0.12152955 0.043752287
-0.44065782 0.094631925 0.053394184 -0.014557246 -0.04352849 0.13041689 0.06764167 0.07637341
0.030887319 -0.07974459 -0.07447491 0.029151812 -0.11150839 -0.035969548 -0.01423909 -0.096903086
0.042360235 -0.05569675 0.066872895 -0.07744672 -0.017294914 -0.11579109 -0.0005301494 0.09946459
-0.079583004 -0.0064806347 0.04158658 -0.03759974 -0.089027524 0.094265744 -0.028132603 0.50509423
0.065146536 0.040670212 -0.002800572 0.04371369 -0.0735956 0.044212256 -0.050579693 0.06305811
0.04075969 -0.5738303 0.12574029 -0.09629845 0.063183606 -0.08761591 0.10810675 -0.0033849557
0.0060442784 -0.07983939 0.03438067 -0.13906722 -0.12419495 -0.014822857 -0.036613204 -0.080253765
0.012029937 -0.05225365 -0.010246768 -0.018132564 -0.5041441 -0.081720866 0.06363055 -0.103118986
0.13726865 0.056090374 0.07121825 0.013530482 -0.10150052 0.0064990344 0.005137971 -0.07361689
-0.02814851 0.10720452 -0.029784597 -0.071375415 -0.0495118 -0.0010916223 0.054589212 0.0020675596
0.0064088325 0.34043622 0.047434296 0.0689284 0.03261551 -0.042428978 -0.06745347 -0.061573863
0.07780352 -0.039024014 0.03317242 0.100886896 -0.00716844 -0.10394334 -0.41478482 0.06560308
-0.041081376 0.07849917 -0.052939963 0.04770428 -0.082244106 0.049165152 -0.017101873 0.08728127
0.062249467 -0.0449442 0.007847316 -0.13435015 -0.06451558 -0.09410383 -0.074255586 -0.063486464
0.013764637 -0.098999955 -0.044885088 -0.00061854406 0.09634473 -0.08135107 0.10794363 -0.06246675
0.08918057 0.0865583 0.064601324 -0.05224083 -0.046675254 0.11646825 -0.016109621 0.12135202
-0.030301634 -0.08606237 -0.050127663 -0.053468965 -0.011851004 0.11968085 -0.0698569 0.10594877
-0.101361886 0.050539013 -0.025415039 -0.021821572 -0.05285547 -0.040441543 0.06925191 -0.077080496
0.07764622 -0.058439795 0.029650414 -0.049741488 -0.051321875 -0.05742246 -0.08045585 0.044371862
0.016669493 -0.0633217 -0.08203896 -0.053379476 -0.08857436 -0.038376532 0.12423478 -0.09803379
-0.015201345 0.024436343 -0.010113303 -0.07140508 0.065530986 0.09091922 0.084682785 0.006624857
0.05498461 0.033545766 0.05313046 -0.10283016 -0.039649278 -0.1102662 0.09466792 -0.088596776
0.074060254 -0.026765663 0.11143782 -0.11027728 -0.060665656 0.03821797 -0.072810486 0.07979669
00000000: d538 4bbd 1dba 333c 4fa2 9c3d 5d3c 4abe
00000010: 63ea 133e ef15 7bbd e8f8 a23d a4e9 3cbd
00000020: e58c 0b3d ba44 a83c 40f8 2f3c e018 6e3d
00000030: 36a6 d7bd 9c11 e43c d20b c8bd 1a6d f3bc
00000040: 5426 88bd cc54 eabd 5145 a23d 0c9b a73d
00000050: 929c f53b 48f3 8f3c 4132 97bd 5587 1bbc
00000060: 2696 cd3c c0bd a93c d088 ae3d e2dc 41bd
00000070: acb2 083e ad2b b03d 8017 1e3d 0f71 b13d
00000080: cb93 ea3e 3393 04ba 585f bc3c 42ab ab3c
00000090: cf7e ad3d f61e 87bd 5e45 c53d f187 183e
000000a0: e030 863a 9a02 913d 3fcb debd 6ef9 2ebd
000000b0: 996e 0fbd 67de af3d ec9e 40bd 093e 353d
000000c0: ff9b 843d 4aa9 79bb bc22 ab3c 408a b43c
000000d0: e5aa d03d 47eb f63d 7c12 493d 346a 713c
000000e0: 2d76 ee3c c8c2 023e fc2b bdbd 53a8 543d
000000f0: 5fb1 46bd 8891 88bd 4ffe 583c 88c7 b2bd
00000100: b679 6c3d c45d 75bd a92a 463e b63b 98bd
00000110: aec4 313d a562 853d 7ce4 f8bd 9935 333d
00000120: e79d e1be 62ce c13d dcb3 5a3d 8481 6ebc
00000130: ee4a 32bd 018c 053e b787 8a3d aa69 9c3d
00000140: 6707 fd3c 2251 a3bd 4d86 98bd c8cf ee3c
00000150: 835e e4bd ce54 13bd 124b 69bc 2075 c6bd
00000160: ed81 2d3d 4622 64bd a8f4 883d 639c 9ebd
00000170: 10ae 8dbc e123 edbd b9f9 0aba 17b4 cb3d
00000180: 6afc a2bd 815b d4bb b156 2a3d 2f02 1abd
00000190: 1054 b6bd 660e c13d 5876 e6bc db4d 013f
000001a0: 8c6b 853d cf95 263d cd89 37bb 200d 333d
000001b0: 4ab9 96bd e917 353d a72c 4fbd 9c24 813d
000001c0: a2f3 263d 8be6 12bf 10c2 003e 1f38 c5bd
000001d0: 6866 813d f86f b3bd 1267 dd3d 22d6 5dbb
000001e0: 150f c63b d682 a3bd bfd2 0c3d a367 0ebe
000001f0: ec59 febd 92db 72bc baf7 15bd 165c a4bd
00000200: 3619 453c ec07 56bd 0fe2 27bc be8a 94bc
00000210: 960f 01bf 455d a7bd bc50 823d 0c30 d3bd
00000220: 2790 0c3e 05bf 653d e0da 913d f4ae 5d3c
00000230: 81df cfbd daf5 d43b 6d5c a83b 74c4 96bd
00000240: b497 e6bc 0b8e db3d d4fe f3bc 462d 92bd
00000250: e3cc 4abd c414 8fba f098 5f3d e57f 073b
00000260: 2f01 d23b a84d ae3e 774a 423d 552a 8d3d
00000270: d797 053d 02ca 2dbd 0b25 8abd e034 7cbd
00000280: 7457 9f3d a5d7 1fbd cedf 073d ca9d ce3d
00000290: 3ce5 eabb 3fe0 d4bd ad5e d4be e85a 863d
000002a0: f244 28bd 2cc4 a03d 93d7 58bd 9065 433d
000002b0: 996f a8bd 6661 493d 3a19 8cbc 86c0 b23d
000002c0: 4cf9 7e3d 6917 38bd 0792 003c 1693 09be
000002d0: bf20 84bd 82b9 c0bd 5013 98bd 3105 82bd
000002e0: 1285 613c 7dc0 cabd 6dd9 37bd ca25 22ba
000002f0: 6350 c53d 649b a6bd 8d11 dd3d 23dd 7fbd
00000300: 4da4 b63d 7a45 b13d b34d 843d 7bfa 55bd
00000310: 8d2e 3fbd e886 ee3d 53f8 83bc 6887 f83d
00000320: 223b f8bc 7841 b0bd aa52 4dbd 4602 5bbd
00000330: b72a 42bc 3c1b f53d 2211 8fbd abfb d83d
00000340: d296 cfbd ff01 4f3d 3333 d0bc 27c3 b2bc
00000350: fa7e 58bd 08a6 25bd f2d3 8d3d 61dc 9dbd
00000360: fb04 9f3d 915e 6fbd 6de5 f23c bbbd 4bbd
00000370: e336 52bd d033 6bbd 09c6 a4bd 45bf 353d
00000380: 768e 883c cfae 81bd 0b04 a8bd 70a4 5abd
00000390: 7966 b5bd b630 1dbd ce6e fe3d f1c5 c8bd
000003a0: 100f 79bc ba2e c83c 44b2 25bc d43c 92bd
000003b0: 1c35 863d db33 ba3d 2b6e ad3d 5415 d93b
000003c0: 8b37 613d 4967 093d 539f 593d 9e98 d2bd
000003d0: 4867 22bd 3fd3 e1bd 41e1 c13d 3a72 b5bd
000003e0: e7ac 973d aa43 dbbc 8339 e43d 0ed9 e1bd
000003f0: 8d7c 78bd 728a 1c3d aa1d 95bd 726c a33d

fc.5.bias f4 [4]
0.058705393 0.050526366 -0.049069613 0.0071368865
00000000: 1175 703d bcf4 4e3d 38fd 48bd 8bdc e93b
