model/unicycle-FC3-100-rk4-extra/epoch_1000.pth (torch, 47077 bytes, 6 tensors)

fc.0.weight f4 [100, 6]
-0.3889025 -0.24145114 -0.28509116 0.51400566 0.45191613 0.39989987 -0.26650047 -0.19134776
0.20557284 0.5399257 -0.040655177 0.008545138 -0.04558729 0.13794543 0.0890805 0.2347233
-0.13851431 -0.03515368 -0.13843131 0.013581075 0.16039138 0.07433339 0.047201402 -0.004774883
-0.05726475 0.0037675435 -0.4561213 -0.72014225 -0.034807887 -0.0334095 -0.17871039 0.09695173
-0.65963954 1.0751904 -0.010779494 0.035306107 0.29948717 -0.03013454 0.50904304 -0.5532805
-0.22743797 -0.03012918 -0.00016625627 0.17179343 0.10337633 -0.27599996 0.06348687 0.0059497585
0.19441846 -0.09532371 0.51846284 0.3504535 0.0041156136 0.012545991 -0.076837234 0.13850592
-0.41870213 -0.7091848 -0.00973309 -0.032294244 0.22549276 -0.08989212 -0.054145914 -0.23314883
-0.14724591 0.6293554 0.091275245 -0.048839346 -0.3699646 0.6121215 -0.24507752 0.2145548
-0.01064331 -0.006534223 -0.54063845 1.6582624 -0.02943765 0.07106273 -0.18743083 -0.005732293
0.36352557 -0.30691692 -0.23864438 -0.22515948 0.42361888 0.09305612 -0.2568446 0.9571717
-0.36901772 0.1335538 -0.008073326 0.005564393 -0.75886935 -0.10786426 -0.061283227 -0.008640221
0.24927296 0.088789806 -0.33566886 -0.779902 0.38363263 -0.22242814 -0.3390669 -0.1833351
0.470485 0.34476304 0.057993736 0.1636342 0.2386475 0.022578524 -0.3699466 0.4336527
0.29397428 0.25589705 -0.052249312 -0.06875932 0.55398226 -0.91817206 0.07884652 -0.044504344
-0.2697088 0.10741967 -0.031826112 0.28382298 -0.003549416 0.15834491 0.06311764 -0.1584772
0.17115879 -0.48451808 -0.07515333 -0.019672647 0.107437916 0.182139 -0.6027132 0.30123317
0.39893404 -0.012729957 -0.27327394 -0.21113028 -0.3012974 0.6412062 0.47608197 -0.53996015
-0.14337237 -0.07081506 -0.07016899 -0.20368844 -0.26648933 0.26833272 0.0910619 0.12940621
0.2899971 -0.3097614 0.11366889 -0.03451147 -0.18042532 0.03052056 0.3155034 -0.46008047
-0.25412914 -0.31655937 -0.26115486 -0.094427936 0.36533475 0.82731813 -0.4052609 0.23247527
0.124562174 -0.11719115 -0.2640157 0.4330548 0.08867203 -0.031038761 0.15976252 -0.19635239
-0.18437734 -0.52403915 -0.054269593 -0.117431134 -0.119092524 -0.10394861 -0.120671526 -0.24813181
-0.15217969 -0.049877573 0.056142252 -0.1753783 -0.15436053 -0.24411994 0.18246944 0.07613853
0.18897244 -0.08021601 0.17478253 -0.32157055 -0.105348125 0.60088056 0.13435127 0.05049294
-0.72422373 -1.0279273 -0.045460604 -0.02850476 0.09929793 0.05531075 -0.75653476 -0.15143558
-0.09896778 0.03623007 -0.20354633 -0.050644882 0.39393282 0.43984735 0.11182882 -0.049314965
0.16185072 0.10958064 -0.2619849 -0.5931875 0.302177 -0.12343882 -0.17723727 -0.11836424
0.20933132 0.62268895 -0.33029732 0.1385235 -0.22508675 -0.11347746 -0.19838467 0.5416984
0.18068725 -0.0056864503 -0.244173 0.011141129 -0.38117483 -0.29683378 -0.34898445 0.58303744
-0.30508286 -0.15505068 -0.6210057 -0.37975633 -0.57080555 -0.40024206 0.24125639 -0.009254188
0.37914875 0.2928719 0.34565058 -0.5726771 -0.03569713 -0.11953999 -0.08030463 0.38350457
00000000: 3a1e c7be f83e 77be 78f7 91be e095 033f
00000010: 8d61 e73e adbf cc3e c072 88be abf0 43be
00000020: b081 523e 9238 0a3f 0b86 26bd e800 0c3c
00000030: bdb9 3abd 9141 0d3e d66f b63d 4e5b 703e
00000040: b2d6 0dbe 4efd 0fbd f0c0 0dbe 2883 5e3c
00000050: a33d 243e 1b3c 983d 4256 413d 9f76 9cbb
00000060: 718e 6abd e4e8 763b bb88 e9be 3e5b 38bf
00000070: b792 0ebd 66d8 08bd dbff 36be a18e c63d
00000080: 23de 28bf d79f 893f 7a9c 30bc 239d 103d
00000090: 6256 993e b6dc f6bc a550 023f caa3 0dbf
000000a0: 80e5 68be 78d1 f6bc 1455 2eb9 9eea 2f3e
000000b0: f8b6 d33d de4f 8dbe 6705 823d 31f6 c23b
000000c0: a215 473e 1439 c3bd fbb9 043f a46e b33e
000000d0: 45dc 863b b38d 4d3c d75c 9dbd 7fd4 0d3e
000000e0: 2060 d6be 238d 35bf 8a77 1fbc f846 04bd
000000f0: 93e7 663e 5c19 b8bd 1bc8 5dbd 91be 6ebe
00000100: a2c7 16be 6f1d 213f 84ee ba3d c40b 48bd
00000110: 006c bdbe ffb3 1c3f 9af5 7abe 41b4 5b3e
00000120: 4761 2ebc 091d d6bb 4867 0abf f141 d43f
00000130: 3a27 f1bc 5689 913d deed 3fbe f5d5 bbbb
00000140: 0620 ba3e 3724 9dbe 315f 74be 3590 66be
00000150: 93e4 d83e 3594 be3d 2381 83be 3409 753f
00000160: e4ef bcbe 54c2 083e fc45 04bc 8355 b63b
00000170: 4345 42bf f0e7 dcbd 1f04 7bbd b78f 0dbc
00000180: 6941 7f3e 6ed7 b53d cadc abbe a8a7 47bf
00000190: 7f6b c43e 34c4 63be 2d9a adbe 32bc 3bbe
000001a0: 69e3 f03e c884 b03e d78a 6d3d b98f 273e
000001b0: 0360 743e 99f6 b83c a469 bdbe ba07 de3e
000001c0: cc83 963e f004 833e 6003 56bd b0d1 8cbd
000001d0: c8d1 0d3f 530d 6bbf 497a a13d 304a 36bd
000001e0: 4617 8abe d8fe db3d 195c 02bd 3f51 913e
000001f0: 529d 68bb 2b25 223e d243 813d d947 22be
00000200: 4044 2f3e c112 f8be fde9 99bd 8828 a1bc
00000210: 6908 dc3d a582 3a3e 6a4b 1abf 3c3b 9a3e
00000220: 1541 cc3e 4f91 50bc 90ea 8bbe 8932 58be
00000230: a743 9abe 1726 243f 04c1 f33e d43a 0abf
00000240: 35d0 12be 7c07 91bd c2b4 8fbd b493 50be
00000250: 4a71 88be e862 893e a97e ba3d 1083 043e
00000260: 807a 943e 0c99 9ebe 3ccb e83d e65b 0dbd
00000270: 6ac1 38be 4106 fa3c a989 a13e ab8f ebbe
00000280: 371d 82be 1214 a2be 17b6 85be 6f63 c1bd
00000290: 280d bb3e 1fcb 533f 5b7e cfbe ff0d 6e3e
000002a0: 741a ff3d ea01 f0bd 112d 87be 5cb9 dd3e
000002b0: ae99 b53d 0045 febc c998 233e 9a10 49be
000002c0: 6acd 3cbe 6e27 06bf cb49 5ebd bc7f f0bd
000002d0: c8e6 f3bd 02e3 d4bd a222 f7bd 4416 7ebe
000002e0: fed4 1bbe 6d4c 4cbd 6bf5 653d 5e96 33be
000002f0: b010 1ebe 94fa 79be 45d9 3a3e 85ee 9b3d
00000300: fe81 413e 4b48 a4bd 31fa 323e e5a4 a4be
00000310: c2c0 d7bd 4fd3 193f 6193 093e afd1 4e3d
00000320: ba66 39bf 1f93 83bf e634 3abd d082 e9bc
00000330: b75c cb3d 868d 623d 43ac 41bf ee11 1bbe
00000340: 9faf cabd fb65 143d 736e 50be 0271 4fbd
00000350: 90b1 c93e ac33 e13e 8206 e53d 7dfe 49bd
00000360: 32bc 253e d16b e03d e322 86be 23db 17bf
00000370: f2b6 9a3e 7ecd fcbd b07d 35be f368 f2bd
00000380: f35a 563e 8b68 1f3f bb1c a9be 1bd9 0d3e
00000390: 247d 66be df66 e8bd 5a25 4bbe bfac 0a3f
000003a0: 1406 393e 6755 babb 7d08 7abe 4889 363c
000003b0: 5929 c3be 99fa 97be 17ae b2be f141 153f
000003c0: d233 9cbe 9bc5 1ebe 3bfa 1ebf 6c6f c2be
000003d0: 5020 12bf 87ec ccbe ea0b 773e e19e 17bc
000003e0: c91f c23e 4ef3 953e 1df9 b03e f79a 12bf
000003f0: 2737 12bd 62d1 f4bd c176 a4bd b65a c43e

fc.0.bias f4 [100]
0.15420608 0.63468075 0.5067909 1.515432 -1.2944133 -0.7625462 0.35640073 0.24955352
-1.1675469 -1.4105649 0.12182866 -0.30452958 -0.014402485 0.34803292 -0.48731333 0.71066797
-0.06968499 0.40271673 -0.43022665 -0.1697462 -0.53093153 0.29138857 0.21609923 -0.80851454
0.6012657 0.5722112 0.19520031 0.072094016 1.0652351 -0.16809866 0.20397064 -0.62261254
-0.20392464 -0.06715081 -0.55466014 1.4037476 0.037330978 -0.03350894 -0.0102131255 0.32626095
0.017625809 -0.32210964 -0.79594857 0.36864653 0.3359243 -1.0298408 0.8260529 -0.104344085
0.20594811 -1.1281434 -0.24738994 -0.050484277 -0.14742158 -1.2933847 0.5549153 0.35593775
-1.2279396 0.20456778 0.10523911 -0.1280709 -0.75704235 -0.08872569 0.20992856 0.64271164
1.3832833 0.7579401 0.50619966 -0.23924942 -0.9655498 -0.601016 1.2247181 -0.4582681
-0.9005843 0.904893 -0.51165605 0.25831395 -1.1778634 -0.016127048 -0.37302682 -0.22617199
0.12299426 0.9154971 1.4100193 -1.2282037 -1.0472693 0.14303161 0.055073198 -0.1684398
1.2435844 0.7635487 1.0711361 0.45334986 -0.24200201 0.41448566 -0.24287783 0.08814881
-0.13682549 -0.20063604 0.002051616 0.041792646
00000000: 33e8 1d3e 707a 223f 0cbd 013f adf9 c13f
00000010: 56af a5bf 3a36 43bf 287a b63e f58a 7f3e
00000020: 2d72 95bf 648d b4bf 4e81 f93d 4deb 9bbe
00000030: 67f8 6bbc 5f31 b23e 2281 f9be 56ee 353f
00000040: 01b7 8ebd e330 ce3e ab46 dcbe f3d1 2dbe
00000050: 21eb 07bf e230 953e 1e49 5d3e cffa 4ebf
00000060: 8dec 193f 6f7c 123f 97e2 473e 07a6 933d
00000070: a059 883f 0e22 2cbe aedd 503e 8963 1fbf
00000080: 9fd1 50be 5d86 89bd 35fe 0dbf 00ae b33f
00000090: 5ee8 183d ac40 09bd f454 27bc ad0b a73e
000000a0: 0064 903c 8eeb a4be 49c3 4bbf 3dbf bc3e
000000b0: 45fe ab3e d3d1 83bf 3478 533f 5ab2 d5bd
000000c0: 10e4 523e 0167 90bf ca53 7dbe 9ac8 4ebd
000000d0: aff5 16be a18d a5bf ee0e 0e3f 793d b63e
000000e0: 202d 9dbf 377a 513e 9a87 d73d 0525 03be
000000f0: 87cd 41bf d1b5 b5bd 83f7 563e c088 243f
00000100: 6d0f b13f 5d08 423f 4d96 013f cdfd 74be
00000110: 462e 77bf 2fdc 19bf 90c3 9c3f 1ea2 eabe
00000120: b18c 66bf 11a7 673f e4fb 02bf ba41 843e
00000130: 3ac4 96bf df1c 84bc 5ffd bebe a199 67be
00000140: 6ae4 fb3d 055e 6a3f 837b b43f c735 9dbf
00000150: ec0c 86bf e176 123e 6f94 613d 7c7b 2cbe
00000160: c62d 9f3f ed77 433f fd1a 893f 791d e83e
00000170: 60cf 77be 7737 d43e f7b4 78be 5d87 b43d
00000180: fb1b 0cbe 8973 4dbe 6874 063b c42e 2b3d

fc.1.weight f4 [100, 100]
0.03838646 0.00506963 -0.07545677 0.16014011 -0.020595895 0.10251789 0.09244029 -0.0049408088
-0.08437509 -0.005730186 0.059855893 0.037947856 -0.093190186 0.09782982 0.04593921 0.09083266
-0.05820712 -0.02181215 0.095758595 -0.016845694 0.039885256 0.09732865 0.03234498 -0.15115334
0.11789367 0.06548794 -0.053672653 0.15192749 0.07844361 0.012458546 0.050740507 -0.04558977
0.15783331 -0.029465398 0.056229983 0.05101668 -0.09273154 0.0628477 0.008736225 0.085919544
0.03764078 -0.12724301 -0.057770424 -0.023558235 -0.008351935 0.022250459 0.12807247 -0.11769887
0.03000605 -0.0045162127 0.0944809 0.012257896 0.06913736 0.03993857 0.030637924 0.058606222
0.05323775 -0.0068182726 -0.045466375 -0.062117632 -0.06506681 0.013733058 0.036588196 0.15772428
0.010380144 0.012732688 0.11454952 0.10457101 0.17143065 -0.041562192 0.0453264 -0.053034045
-0.06588098 -0.020210695 0.097066864 0.028668541 -0.0015402024 -0.021605842 0.077039525 -0.04337412
0.0067095743 0.0907589 0.023961095 0.08622355 -0.002917644 -0.017030397 -0.094226755 -0.034115564
-0.060830206 0.06493469 -0.019428832 0.10945268 0.02367504 0.0028610681 0.05077077 0.010019268
-0.041875634 0.056243084 0.11533081 -0.023141764 0.0032144873 0.03559414 -0.015689887 0.023288287
0.43902236 0.10857858 0.028986648 0.06473222 0.16768415 0.061813332 -0.071220234 -0.016334867
0.09907836 0.035889953 -0.041619603 -0.12799335 -0.1080716 0.0070677144 -0.09921397 0.29596817
0.04408852 0.0018165421 0.050572284 0.07568544 0.021257639 0.009090318 -0.02621141 0.10122978
-0.0574862 -0.07866631 -0.027241873 0.045219377 -0.06105041 -0.2968255 -0.10999739 0.038917977
-0.10349634 0.0477049 -0.1151549 0.013726564 -0.08534065 0.07178906 0.17051454 -0.010367952
-0.04800018 0.1104735 0.030254569 0.04788647 -0.020288471 0.070932165 0.056756258 -0.04248222
0.050564185 0.12955302 -0.00063737785 0.04690633 0.053750936 -0.019480564 -0.06512973 0.15161769
-0.2463018 0.037309907 0.07721169 -0.07164971 -0.6716201 -0.24324985 0.03891568 0.099764556
-0.07300311 0.118907794 0.08586919 -0.043095134 -0.33511466 -0.02424961 -0.011332947 0.018879132
-0.31768063 0.09627195 0.0793265 0.065186344 -0.027988983 0.21387973 -0.06391894 -0.09367787
0.02230164 0.02694819 0.06918709 0.06638746 -0.15826094 -0.06377016 -0.14113985 0.02490222
0.0046383375 0.02108087 -0.018967403 0.1828583 0.00047551992 0.067580484 -0.01187765 0.21622056
0.060918655 0.19413818 -0.018577386 -0.016238993 -0.1811839 0.12806283 -0.039534666 -0.032126404
-0.08015944 0.06522373 0.069802515 -0.009300648 0.22885188 0.0893926 0.10587711 0.13881001
-0.1421957 0.14715421 0.105781466 -0.24994521 0.044242725 -0.10066422 -0.07136816 -0.010826855
-0.00060219585 0.009792914 0.04762265 0.09871582 0.10522411 -0.01846913 0.04111817 -0.043921072
-0.19510925 -0.017646454 -0.053343922 -0.02365953 0.14545242 0.22216237 0.087820776 0.10113902
-0.056191713 0.05200791 -0.06642816 0.14882112 -0.06853017 -0.0116840815 0.12104484 0.08527729
-0.02717323 -0.23585807 0.00412661 0.11350799 -0.053356748 -0.25849196 0.057243343 0.0082565015
00000000: 1f3b 1d3d 241f a63b 1489 9abd c5fb 233e
00000010: b9b8 a8bc e6f4 d13d 5651 bd3d 82e6 a1bb
00000020: d9cc acbd 49c4 bbbb 742b 753d 366f 1b3d
00000030: 7fda bebd 005b c83d c12a 3c3d 7906 ba3d
00000040: 976a 6ebd 65af b2bc 151d c43d fbff 89bc
00000050: b95e 233d 3e54 c73d 2b7c 043d f1c7 1abe
00000060: 3d72 f13d 8b1e 863d dbd7 5bbd e192 1b3e
00000070: 0ba7 a03d ee1e 4c3c 47d5 4f3d 57bc 3abd
00000080: 0e9f 213e 6b61 f1bc 6951 663d def6 503d
00000090: 09ea bdbd 4cb6 803d 6222 0f3c 96f6 af3d
000000a0: 382d 1a3d fe4b 02be aea0 6cbd 33fd c0bc
000000b0: 8ed6 08bc 9846 b63c 6e25 033e 1b0c f1bd
000000c0: 3fcf f53c bdfc 93bb 347f c13d 58d5 483c
000000d0: e397 8d3d a096 233d 62fc fa3c 140d 703d
000000e0: d40f 5a3d d16b dfbb f33a 3abd 0f6f 7ebd
000000f0: bf41 85bd 9f00 613c 81dd 153d 7982 213e
00000100: 7b11 2a3c c49c 503c f098 ea3d 5329 d63d
00000110: 848b 2f3e 1e3d 2abd 2da8 393d 3a3a 59bd
00000120: 9bec 86bd e690 a5bc feca c63d 4ada ea3c
00000130: 9ee0 c9ba bcfe b0bc e6c6 9d3d 10a9 31bd
00000140: fddb db3b cddf b93d 0f4a c43c f995 b03d
00000150: f235 3fbb 5583 8bbc f5f9 c0bd c3bc 0bbd
00000160: 1829 79bd 7bfc 843d 3729 9fbc ba28 e03d
00000170: 28f2 c13c c280 3b3b 03f5 4f3d db27 243c
00000180: c985 2bbd 265f 663d 8f32 ec3d cc93 bdbc
00000190: 26aa 523b 29cb 113d 1488 80bc 14c7 be3c
000001a0: 8ac7 e03e 725e de3d 6875 ed3c 5392 843d
000001b0: 65b5 2b3e fa2f 7d3d eadb 91bd b3d0 85bc
000001c0: 98e9 ca3d 5801 133d 5179 2abd b010 03be
000001d0: a554 ddbd 4998 e73b b230 cbbd 2489 973e
000001e0: 2a96 343d 0a19 ee3a e224 4f3d f800 9b3d
000001f0: 8024 ae3c 8fef 143c 50b9 d6bc 8f51 cf3d
00000200: a676 6bbd cd1b a1bd 592a dfbc f437 393d
00000210: ff0f 7abd 83f9 97be 5046 e1bd 7568 1f3d
00000220: e4f5 d3bd 3766 433d 55d6 ebbd 62e5 603c
00000230: 14c7 aebd 2506 933d 5d9b 2e3e 58de 29bc
00000240: d69b 44bd ee3f e23d 6ed8 f73c 9a24 443d
00000250: 0234 a6bc e244 913d 4079 683d d601 2ebd
00000260: 641c 4f3d 8ca9 043e b415 27ba da20 403d
00000270: f129 5c3d b495 9fbc bc62 85bd ab41 1b3e
00000280: 8a36 7cbe 46d2 183d 2a21 9e3d 15bd 92bd
00000290: 4bef 2bbf 7d16 79be 0c66 1f3d 5c51 cc3d
000002a0: a882 95bd ee85 f33d 30dc af3d 8684 30bd
000002b0: 2694 abbe 1ea7 c6bc d3ad 39bc 69a8 9a3c
000002c0: 09a7 a2be 3a2a c53d ef75 a23d 6b80 853d
000002d0: 2749 e5bc 4a03 5b3e efe7 82bd 2fda bfbd
000002e0: eeb1 b63c 73c2 dc3c f6b1 8d3d 26f6 873d
000002f0: 280f 22be ee99 82bd f786 10be beff cb3c
00000300: 32fd 973b cab1 ac3c 8761 9bbc 353f 3b3e
00000310: 344f f939 a367 8a3d 7a9a 42bc ec68 5d3e
00000320: d785 793d 29cc 463e 9a2f 98bc a307 85bc
00000330: 4688 39be e722 033e 1aef 21bd fa96 03bd
00000340: a22a a4bd 0594 853d 9ff4 8e3d bf61 18bc
00000350: 2658 6a3e 7813 b73d 19d6 d83d 3624 0e3e
00000360: c09b 11be 98af 163e f4a3 d83d a3f1 7fbe
00000370: dc37 353d 0b29 cebd 7829 92bd 1f63 31bc
00000380: aedc 1dba 7572 203c f80f 433d 852b ca3d
00000390: bd7f d73d 934c 97bc 876b 283d 95e6 33bd
000003a0: b8ca 47be 4c8f 90bc 287f 5abd a1d1 c1bc
000003b0: 7bf1 143e 887e 633e 61db b33d f921 cf3d
000003c0: 4829 66bd 3f06 553d 7d0b 88bd 9064 183e
000003d0: 8c59 8cbd 976e 3fbc 5be6 f73d dca5 ae3d
000003e0: 659a debc c784 71be 8338 873b e176 e83d
000003f0: 9b8c 5abd 0f59 84be ff77 6a3d 4746 073c

fc.1.bias f4 [100]
0.117091246 -0.1335588 0.24970157 -0.106613316 -0.13276324 0.06330751 0.15184094 0.017891295
0.07930423 0.009043372 -0.024103222 0.021041568 -0.038263228 -0.04718539 0.075311266 0.0609728
-0.14342673 0.22966726 -0.2500044 0.027156638 -0.378194 -0.006989618 0.16616274 -0.16948713
0.0890566 0.09794938 0.106714025 0.07545206 -0.017111387 0.02558865 0.036220778 0.31777793
0.04837079 0.27469492 0.021916134 -0.21250749 0.042907394 0.08929184 0.019532098 0.10968312
-0.0049737333 0.17379822 0.15010267 -0.023125974 0.09125409 0.06646691 -0.6300247 -0.066725865
-0.0920678 0.13169692 0.16639405 0.07106194 -0.01566538 0.036959387 0.004598496 0.175439
-0.094404995 0.10854832 -0.06717836 -0.049503386 -0.043867838 -0.72386193 -0.029972725 0.22164956
-0.016938997 0.5049651 -0.056138106 0.03295475 0.08291219 0.01124761 0.15487273 0.05015937
-0.3222413 0.18029092 0.0054788203 0.07149363 0.17716345 0.086177714 0.021566587 0.018133996
-0.0017035763 -0.23081586 0.32476583 -0.21239367 -0.38408175 0.026631918 0.08454022 0.15036218
-0.069212504 0.07577382 0.03789606 -0.00738529 0.042604104 0.102039106 0.029071955 -0.0832208
0.013179183 -0.026675437 -0.66866314 0.116926484
00000000: 89cd ef3d a3c3 08be c5b1 7f3e 1558 dabd
00000010: 16f3 07be 5ea7 813d 317c 1b3e c490 923c
00000020: 426a a23d a72a 143c 1f74 c5bc 5e5f ac3c
00000030: e7b9 1cbd 7845 41bd cb3c 9a3d 9dbe 793d
00000040: 75de 12be e52d 6b3e 9400 80be 9977 de3c
00000050: a5a2 c1be 2a09 e5bb 9126 2a3e 098e 2dbe
00000060: 4f63 b63d af99 c83d e28c da3d 9c86 9a3d
00000070: 2e2d 8cbc 4a9f d13c 3d5c 143d cab3 a23e
00000080: 7320 463d d0a4 8c3e 7789 b33c 909b 59be
00000090: aabf 2f3d a4de b63d c701 a03c 8ba1 e03d
000000a0: b3fa a2bb 29f8 313e 84b4 193e af72 bdbc
000000b0: 6de3 ba3d ce1f 883d 4c49 21bf 92a7 88bd
000000c0: 0b8e bcbd 8fdb 063e 3463 2a3e ec88 913d
000000d0: af54 80bc ba62 173d fbae 963b 48a6 333e
000000e0: 6857 c1bd 954e de3d cf94 89bd 10c4 4abd
000000f0: c3ae 33bd 044f 39bf 5c89 f5bc 1af8 623e
00000100: a7c3 8abc 6545 013f 12f1 65bd 8ffb 063d
00000110: decd a93d e547 383c f596 1e3e e973 4d3d
00000120: d0fc a4be 2f9e 383e ad87 b33b 416b 923d
00000130: 566a 353e f17d b03d 69ac b03c bf8d 943c
00000140: 894a dfba fe5a 6cbe b547 a63e ba7d 59be
00000150: 5da6 c4be 2e2b da3c 6c23 ad3d 8bf8 193e
00000160: 49bf 8dbd 4e2f 9b3d e638 1b3d 4e00 f2bb
00000170: a481 2e3d e1f9 d03d 4f28 ee3c ab6f aabd
00000180: 80ed 573c 7286 dabc 822d 2bbf 2777 ef3d

fc.2.weight f4 [4, 100]
-0.025096059 0.19382219 -0.2572756 0.06123493 0.70070183 0.03491224 0.15586297 -0.16092427
-0.089100055 0.036102664 0.049284477 -0.077514656 0.0061864536 -0.043683115 0.005736865 0.08714516
0.2968288 0.03566435 0.568197 0.07017337 0.07218021 0.070745856 -0.05411746 -0.32283923
-0.03669959 0.007125962 -0.06249004 0.19337782 0.40330482 0.016250473 0.16051099 0.2434071
0.08249056 0.12265079 0.033578802 -0.41030708 0.038510818 -0.12758362 -0.07601861 -0.10072289
-0.017328043 -0.0971466 -0.005157181 -0.07945529 -0.0016440416 0.16097617 -0.6272141 0.04210481
0.03323773 -0.014335574 -0.10343569 -0.040467713 0.06233655 -0.043929107 -0.18494134 -0.104710326
0.31931883 -0.018922266 0.12100198 0.0050503523 -0.0067802784 -0.2855797 0.10391429 -0.1008074
-0.0026642673 0.4464866 -0.017078983 -0.8420806 0.033499762 0.043044146 -0.09298086 0.042584956
0.10448654 -0.06705403 -0.13132767 0.036457855 0.041993488 -0.048241593 0.13995352 0.022013884
-0.41375658 -0.32636842 -0.11540772 -0.34413812 0.5294139 -0.10537839 0.08714563 0.008464172
0.11439254 0.17962776 0.06909301 0.38649327 0.0048105335 -0.059928752 -0.21749845 0.11688794
-0.20585968 0.036143538 0.056055848 -0.071721874 0.09085787 0.24556363 -0.02803035 0.0064350287
-0.15972234 -0.07554996 0.15127791 0.106765985 0.04356582 -0.09310737 0.053756207 -0.022443889
0.31021306 -0.014775717 -0.30772242 -0.01195428 -0.2879351 0.164552 -0.20655417 0.033195037
-0.4651992 -0.06598733 0.021584755 -0.13118173 0.015716806 -0.0011199671 0.09122583 0.00030256712
0.12715325 0.08514569 0.041605365 -0.26821482 0.04707486 0.19769709 0.059107915 -0.20335981
-0.010516933 0.018223442 0.004604958 -0.0030716215 -0.051609706 0.11546392 0.081947856 -0.082621455
0.009871028 0.033225242 -0.5258017 -0.071841255 -0.10201915 0.052963037 0.068678215 -0.0059510386
0.03237506 0.013358332 0.04533418 0.01775833 0.30101895 -0.043940876 -0.076276466 0.011557075
0.039512407 0.67779076 0.023874488 -0.092885725 0.010159049 -0.34441143 0.17362705 0.105674334
0.108713865 -0.06126499 0.00569804 0.08267635 0.69729304 0.04243041 -0.037333935 0.18305717
0.33912194 -0.0419937 0.07674588 0.07626948 -0.066320136 -0.1872032 -0.22643448 0.11429597
0.10909099 0.03519024 -0.056051783 0.10371377 0.00994191 -0.03340518 -0.02467098 0.20790052
-0.044361506 0.023912236 0.2554811 0.031735044 -0.006815848 0.023063546 -0.6291468 -0.014936639
-0.13487543 0.0016874524 0.0036861142 -0.02643186 0.0047189253 0.09946551 0.000836444 0.04037062
-0.13732006 0.08814993 -0.009061891 0.09831575 -0.0021101348 -0.1030238 0.009279158 -0.07324067
0.0005619746 -0.022160118 0.0084200995 0.062354174 -0.003667968 -0.15594932 0.098184414 0.0056693326
0.06925572 0.037657302 -0.16410033 -0.0020113522 -0.011432151 0.14065072 -0.045963865 0.0047663487
0.030076068 0.012636407 0.06463037 -0.0096174935 0.11811898 0.07405987 -0.011048052 0.10195912
-0.14602093 -0.016177684 0.010562913 -0.11413927 0.036809962 0.0012926663 -0.008262545 0.12332612
0.051576216 0.064469144 0.112197906 -0.047442015 -0.12265569 -0.16359857 0.0057600387 0.08369283
00000000: 4096 cdbc 5379 463e a1b9 83be 7ad1 7a3d
00000010: 3261 333f 2300 0f3d 8b9a 1f3e 55c9 24be
00000020: 177a b6bd 63e0 133d 85de 493d 01c0 9ebd
00000030: bcb7 ca3b 11ed 32bd 50fc bb3b 2979 b23d
00000040: f2f9 973e c814 123d 5c75 113f 0eb7 8f3d
00000050: 38d3 933d 34e3 903d 45aa 5dbd 2f4b a5be
00000060: 4f52 16bd e780 e93b 8ef5 7fbd d604 463e
00000070: f87d ce3e b61f 853c fe5c 243e b63f 793e
00000080: d0f0 a83d 5630 fb3d ed89 093d c513 d2be
00000090: 85bd 1d3d 48a5 02be a5af 9bbd cd47 cebd
000000a0: 8af3 8dbc ccf4 c6bd 92fd a8bb 75b9 a2bd
000000b0: e27c d7ba f0d6 243e 1a91 20bf 1876 2c3d
000000c0: 4924 083d c1df 6abc 17d6 d3bd 79c1 25bd
000000d0: 9c54 7f3d 02ef 33bd 4361 3dbe 5e72 d6bd
000000e0: c27d a33e de02 9bbc e3cf f73d 6d7d a53b
000000f0: 192d debb 8137 92be 04d1 d43d 1c74 cebd
00000100: fd9a 2ebb e499 e43e 39e9 8bbc 9892 57bf
00000110: 0c37 093d 0f4f 303d c06c bebd 906d 2e3d
00000120: 0afd d53d a053 89bd c37a 06be d554 153d
00000130: 5d01 2c3d fa98 45bd fa4f 0f3e 7656 b43c
00000140: e7d7 d3be c319 a7be e25a ecbd df32 b0be
00000150: ab87 073f a0d0 d7bd 6879 b23d 4fad 0a3c
00000160: a346 ea3d 57f0 373e a380 8d3d 72e2 c53e
00000170: aea1 9d3b da77 75bd eab7 5ebe f262 ef3d
00000180: e1cc 52be 3f0b 143d d19a 653d ebe2 92bd
00000190: b113 ba3d 0875 7b3e e89f e5bc efdc d23b
000001a0: 418e 23be f0b9 9abd 99e8 1a3e 20a8 da3d
000001b0: 1372 323d 14af bebd 782f 5c3d 3fdc b7bc
000001c0: 3fd4 9e3e d915 72bc cb8d 9dbe e2db 43bc
000001d0: 3b6c 93be 5280 283e f082 53be 85f7 073d
000001e0: 972e eebe 5e24 87bd 83d2 b03c 8154 06be
000001f0: 88c0 803c dccb 92ba 9cd4 ba3d dfa1 9e39
00000200: 7634 023e dd60 ae3d 636a 2a3d 7453 89be
00000210: 92d1 403d 1b71 4a3e 241b 723d 8e3d 50be
00000220: 374f 2cbc 5449 953c 30e5 963b 424d 49bb
00000230: b364 53bd 5978 ec3d 47d4 a73d 7035 a9bd
00000240: 18ba 213c 3117 083d f19a 06bf 8221 93bd
00000250: 6bef d0bd c5ef 583d 2aa7 8c3d ee00 c3bb
00000260: b69b 043d e8dc 5a3c 55b0 393d eb79 913c
00000270: 281f 9a3e 59fb 33bd d636 9cbd e359 3d3c
00000280: c3d7 213d b283 2d3f 6e94 c33c df3a bebd
00000290: 2472 263c b256 b0be 4acb 313e c96b d83d
000002a0: 60a5 de3d 00f1 7abd a0b6 ba3b 3852 a93d
000002b0: cc81 323f 82cb 2d3d 78eb 18bd 5773 3b3e
000002c0: 64a1 ad3e 9601 2cbd f22c 9d3d 2c33 9c3d
000002d0: dad2 87bd 32b2 3fbe 71de 67be 0114 ea3d
000002e0: 196b df3d a423 103d 8e96 65bd e367 d43d
000002f0: 65e3 223c dfd3 08bd cc1a cabc e0e3 543e
00000300: 69b4 35bd 98e3 c33c 6bce 823e 9bfc 013d
00000310: 7a57 dfbb c3ef bc3c c40f 21bf ceb8 74bc
00000320: c91c 0abe 822d dd3a bc92 713b a187 d8bc
00000330: 37a1 9a3b 93b4 cb3d ce44 5b3a aa5b 253d
00000340: a19d 0cbe f387 b43d 5378 14bc c559 c93d
00000350: 304a 0abb 24fe d2bd 9c07 183c 34ff 95bd
00000360: 7a51 133a 2389 b5bc 75f4 093c 1767 7f3d
00000370: 4b62 70bb 2eb1 1fbe e914 c93d cfc5 b93b
00000380: f1d5 8d3d 8b3e 1a3d eb09 28be e4d0 03bb
00000390: eb4d 3bbc be06 103e 9b44 3cbd 082f 9c3b
000003a0: 1662 f63c ef08 4f3c ed5c 843d b192 1dbc
000003b0: 5de8 f13d b3ac 973d e402 35bc f1cf d03d
000003c0: 8386 15be 1087 84bc 1110 2d3c d9c1 e9bd
000003d0: 0bc6 163d af6e a93a a05f 07bc 6892 fc3d
000003e0: 9541 533d 6608 843d 04c8 e53d 8f52 42bd
000003f0: e832 fbbd 6286 27be b5be bc3b 2567 ab3d

fc.2.bias f4 [4]
-0.091051795 -0.026843635 0.09679105 -0.063704506
00000000: 5d79 babd 2fe7 dbbc 633a c63d 8277 82bd
