model/unicycle-FC3-100-rk4-extra/epoch_100.pth (torch, 47077 bytes, 6 tensors)

fc.0.weight f4 [100, 6]
0	0xbeb2deb6	-0.3493554
1	0xbdbdb957	-0.092638664
2	0xbe32748b	-0.1742727
3	0x3bdf44fd	0.006813644
4	0xbe9d4348	-0.30715394
5	0xbec313c2	-0.38101012
6	0xbeba214d	-0.3635353
7	0x3deca137	0.11554187
8	0x3ee3e295	0.44508806
9	0x3e0e0f9e	0.13873145
10	0x3e42a4c6	0.19008169
11	0xbe748926	-0.23880443
12	0xbe3eaadd	-0.18619867
13	0x3dce26b0	0.10065973
14	0x3f0d4ee7	0.5519852
15	0xbee43e55	-0.44578806
16	0x3ecce041	0.40014842
17	0xbe970634	-0.2949692
18	0x3ec0d466	0.37662047
19	0xbc5f9f8f	-0.013648882
20	0xbe87f358	-0.26552844
21	0x3ed8ccc2	0.42343718
22	0x3eba3d0b	0.36374697
23	0xbea2870b	-0.31743655
24	0x3ec661f6	0.38746613
25	0xbea2e34e	-0.31814045
26	0x3ef2b957	0.47407028
27	0x3e0b0e1f	0.13579606
28	0x3d99dfc2	0.075133815
29	0xbe1a15ae	-0.15047333
30	0x3ed05261	0.4068785
31	0x3e3f024f	0.18653224
32	0xbef465bb	-0.47733864
33	0x3e9a5435	0.3014237
34	0x3e4a390f	0.19748329
35	0xbeae5a40	-0.3405323
36	0x3ee7e34c	0.452906
37	0x3dbe83f6	0.09302513
38	0xbcb89851	-0.022533568
39	0x3ceda5a1	0.029009642
40	0x3eb4dc1a	0.35324174
41	0xbda21a47	-0.07915168
42	0xbec58080	-0.385746
43	0x3d6e954b	0.058247846
44	0x3f1a6f99	0.60326535
45	0xbef75dbb	-0.48313698
46	0xbec14bb1	-0.3775306
47	0x3d908295	0.070561565
48	0xbe4d0acc	-0.2002365
49	0x3ea3b6a0	0.3197527
50	0x3ee23289	0.4417918
51	0x3f139aa7	0.57657856
52	0xbd98b3ab	-0.07456144
53	0xbe55d0ac	-0.20880383
54	0x3dccd511	0.10001577
55	0x3d9a4b3e	0.075338826
56	0x3f03861e	0.5137652
57	0x3ed76dad	0.42075863
58	0xbecca215	-0.3996741
59	0x3d4faa7a	0.05069969
60	0xbdd0f3ae	-0.10202728
61	0xbde543e9	-0.111945935
62	0xbedbf65a	-0.4296139
63	0xbe5a469a	-0.21315995
64	0xbe0fcfc7	-0.14044105
65	0xbead80af	-0.3388724
66	0xbddd99a3	-0.108203195
67	0x3d25fbe1	0.040523414
68	0xbf05485f	-0.52063555
69	0x3c9c0936	0.01904736
70	0x3e9650b0	0.29358435
71	0x3d4e7115	0.050400812
72	0x3e725025	0.23663385
73	0xbe89e445	-0.26931968
74	0xbbbab9b4	-0.005698407
75	0xbdd9f157	-0.10641735
76	0xbed37b5f	-0.41305062
77	0x3edb623b	0.4284838
78	0x3dd53bdd	0.10411809
79	0x3e3d9e4e	0.1851742
80	0xbf22506a	-0.6340395
81	0xbef61d63	-0.48069295
82	0x3e906f61	0.28209975
83	0xbeb2f1db	-0.34950146
84	0xbe373df5	-0.17894728
85	0x3e2dd864	0.16977078
86	0xbd8d871a	-0.06910534
87	0x3d3907db	0.045173507
88	0x3ebcf003	0.36901864
89	0xbead977a	-0.3390463
90	0xbdee36c4	-0.116315395
91	0xbe2c006e	-0.16797039
92	0xbef7ab0e	-0.48372692
93	0xbf08da5f	-0.5345821
94	0x3e80b60f	0.251389
95	0xbd57c765	-0.05268039
96	0x3e80f084	0.251835
97	0x3e27d45a	0.163896
98	0xbe91ed3d	-0.2850131
99	0xbe41e0c8	-0.18933403
100	0xbebf6d04	-0.3738786
101	0xbe95919b	-0.2921265
102	0x3dca01d9	0.09863634
103	0x3db497a9	0.088179894
104	0x3f6473c5	0.8923915
105	0x3f34fd29	0.7069879
106	0x3cc29d9e	0.023756798
107	0xbd5cb4ad	-0.053883243
108	0x3ea7f7a5	0.32806125
109	0xbeb91916	-0.36151952
110	0xbebea775	-0.37237135
111	0xbec21723	-0.37908277
112	0x3e3f0b5b	0.18656676
113	0x3ed406ca	0.4141143
114	0x3c2775a9	0.010220923
115	0xbd53eadc	-0.05173765
116	0x3eaed8d1	0.34149793
117	0x3f557100	0.8337555
118	0x3dca4505	0.09876446
119	0xbd33a2c6	-0.043856405
120	0x3e43b6e3	0.19112734
121	0xbd3d687d	-0.046242226
122	0xbf2e42d7	-0.6807074
123	0xbf1d29e9	-0.61392075
124	0xbe63fe57	-0.22264992
125	0xbdb4ad95	-0.08822171
126	0x3e98c2a5	0.29836002
127	0xbea35a5f	-0.31904885
128	0x3d96bfa2	0.0736077
129	0xbef05030	-0.46936178
130	0x3e8d5c1e	0.27609342
131	0xbdc95017	-0.09829729
132	0xbea1b70b	-0.31584963
133	0xbeae6344	-0.3406011
134	0xbe2093bb	-0.15681355
135	0xbf2088d1	-0.62708765
136	0x3ea53e74	0.3227421
137	0xbe986fb9	-0.29772738
138	0xbdd10e4c	-0.10207805
139	0xbdbe5256	-0.09293048
140	0x3eea2906	0.45734423
141	0x3db406f3	0.08790388
142	0x3e4af2d8	0.198192
143	0xbede957d	-0.43473426
144	0x3ec18607	0.37797567
145	0xbd49576e	-0.049155645
146	0xbe621777	-0.22079264
147	0xbf48e70c	-0.7847755
148	0xbd8b4148	-0.06799561
149	0xbecd7dcc	-0.40135038
150	0xbd2f7d80	-0.042844296
151	0xbcd31816	-0.025768321
152	0x3e77464d	0.24147911
153	0x3f2d72b0	0.67753124
154	0x3eb8b444	0.36075032
155	0xbe498230	-0.19678569
156	0xbdd50b95	-0.104026
157	0xbbe77f34	-0.0070647243
158	0x3f00b359	0.5027366
159	0x3ed330f8	0.41248298
160	0xbeb8a202	-0.36061102
161	0x3edef276	0.43544358
162	0x3e9b347f	0.3031349
163	0x3de3fa8c	0.111317724
164	0x3efbb313	0.4916006
165	0x3f036616	0.51327646
166	0x3ec1b3c8	0.37832475
167	0x3e3fc876	0.18728814
168	0x3e65efb9	0.22454728
169	0x3e859f55	0.26098123
170	0xbd8bfbfd	-0.06835172
171	0x3e8cb2ad	0.2748007
172	0xbe1dfc88	-0.15428364
173	0x3d12298f	0.035684165
174	0x3e9f3c5a	0.31100732
175	0x3e86976d	0.26287404
176	0xbe6da14d	-0.23206063
177	0x3e97a77f	0.29619977
178	0xbe8b28bf	-0.27179524
179	0xbdc46605	-0.09589771
180	0x3ebe8510	0.37210894
181	0x3ec6f3f9	0.3885801
182	0x3dd7ba7b	0.10533615
183	0x3ee62b16	0.44954747
184	0x3e6af498	0.22944868
185	0x3e1e22c6	0.15442953
186	0xbe7f26cd	-0.24917145
187	0xbcecd50c	-0.028910182
188	0x3e1c2947	0.15250121
189	0xbe813426	-0.252351
190	0xbdea6b10	-0.11446202
191	0xbddefbcf	-0.108878724
192	0xbea7ad73	-0.3274952
193	0xbe87d782	-0.26531607
194	0x3f05f383	0.52324694
195	0xbca96acb	-0.020680806
196	0x3ec13708	0.37737298
197	0x3e39a4ff	0.18129347
198	0xbeb0345a	-0.3441494
199	0x3ec3bef2	0.38231617
200	0x3e1117e1	0.14169265
201	0x3e1b1f6d	0.15148707
202	0x3e86d1bc	0.2633189
203	0xbe108c1b	-0.14115946
204	0xbe8fabaf	-0.28060672
205	0x3e604fcd	0.21905442
206	0x3ee8ed0a	0.45493346
207	0x3d518441	0.051151518
208	0xbed5b6fa	-0.41741163
209	0x3e53aa69	0.20670475
210	0x3ea8898c	0.3291744
211	0x3e78f66d	0.24312754
212	0xbe293ed0	-0.16527867
213	0xbec8ba16	-0.39204472
214	0xbec15f2e	-0.3776793
215	0x3e9a8a50	0.3018365
216	0x3da2ce93	0.07949557
217	0x3dcacfcb	0.099029146
218	0xbd94a30d	-0.07257662
219	0x3f2cd4e2	0.67512333
220	0x3ccb890f	0.024845628
221	0xbe5a837f	-0.21339224
222	0x3d890942	0.06691219
223	0xbebcce01	-0.36875919
224	0x3d5cf070	0.053940237
225	0xbc98f400	-0.018671036
226	0xbec0ab85	-0.3763086
227	0x3e629032	0.22125319
228	0xbddbf58e	-0.10740195
229	0x3ed380f7	0.4130933
230	0xbd5f8ff7	-0.054580655
231	0x3db70bbe	0.089377865
232	0x3eb8b76c	0.3607744
233	0xbe5649dc	-0.20926613
234	0xbe478160	-0.19482946
235	0x3e25134f	0.16120647
236	0xbe195b43	-0.1497622
237	0x3f0d82e0	0.55277824
238	0x3df310c1	0.1186843
239	0xbe995bb2	-0.2995277
240	0x3d687c08	0.05675891
241	0xbeb1272b	-0.34600195
242	0xbf04196c	-0.5160129
243	0x3d416108	0.047211677
244	0xbdc3180c	-0.09526071
245	0x3e7e25c6	0.24819097
246	0x3d503592	0.05083234
247	0x3e9e7e78	0.30955863
248	0xbe42ffb2	-0.19042853
249	0x3e873179	0.26404932
250	0xbe007b0a	-0.12546936
251	0x3e9c5b9d	0.30538645
252	0x3eb77a47	0.35835478
253	0x3dbcaa62	0.092121854
254	0x3e1f28f8	0.15542972
255	0x3e25656e	0.16151974

fc.0.bias f4 [100]
0	0x3e59c1c4	0.21265322
1	0x3d68d57d	0.056844223
2	0xbe614b27	-0.22001325
3	0x3c304981	0.010759712
4	0xbecb096e	-0.39655632
5	0xbe647330	-0.22309566
6	0x3ec97cb9	0.39352968
7	0x3e485975	0.19565375
8	0xbe2a6768	-0.16641009
9	0x3ebe4cef	0.3716807
10	0x3ee5f213	0.4491125
11	0xbe62896c	-0.22122735
12	0x3e3607d7	0.17776428
13	0x3dbc309d	0.0918896
14	0x3e0b3327	0.13593732
15	0x3d87fee7	0.06640416
16	0xbea42ee0	-0.32067013
17	0x3f21ae95	0.63157016
18	0xbe574277	-0.21021448
19	0xbf20a938	-0.6275821
20	0x3e9dfeab	0.3085836
21	0xbe16f708	-0.14742672
22	0xbeb32313	-0.34987697
23	0x3f501fc1	0.8129845
24	0x3f2e0d17	0.67988724
25	0x3ec5af0e	0.3861012
26	0xbe0325ae	-0.12807342
27	0x3f081067	0.5315003
28	0xbe8244c0	-0.25443077
29	0x3dab7dd6	0.08373611
30	0x3dc0f7f1	0.09422291
31	0xbead9033	-0.33899078
32	0x3eed062d	0.46293774
33	0x3f1f1875	0.62146693
34	0x3f3a1c49	0.7269941
35	0xbe89f4eb	-0.2694467
36	0xbdf42833	-0.1192173
37	0x3db89930	0.09013593
38	0xbe826908	-0.25470757
39	0xbe215982	-0.15756801
40	0xbe7f42ed	-0.24927874
41	0x3cd5b89b	0.026089003
42	0xbec01cf4	-0.3752209
43	0x3cd02efe	0.025413033
44	0x3e3c0440	0.18360996
45	0x3f060278	0.52347517
46	0x3f3a706a	0.7282778
47	0x3ef91796	0.48650807
48	0x3f64531e	0.89189327
49	0xbe42a062	-0.19006494
50	0x3f173ede	0.590803
51	0x3eab9bb5	0.33517233
52	0x3d903f98	0.070433795
53	0xbe168ae0	-0.14701414
54	0x3e704ff8	0.23468006
55	0xbf0c5faf	-0.548335
56	0xbefd8234	-0.495134
57	0xbef40c77	-0.4766576
58	0xbeb1f96a	-0.347606
59	0x3ebed9e0	0.372756
60	0x3ede35f9	0.43400553
61	0x3ea0e42d	0.31424084
62	0xbf3cc41a	-0.7373673
63	0x3edb9ca6	0.4289295
64	0x3f2717a1	0.6527043
65	0x3dedada7	0.11605387
66	0x3e80bdd7	0.25144836
67	0x3f101fd2	0.56298554
68	0x3e1cf8f6	0.15329346
69	0x3ce2f79b	0.027705958
70	0xbe0d2ac2	-0.13785842
71	0x3f0399ab	0.51406354
72	0xbd974893	-0.07386889
73	0x3e773635	0.24141772
74	0xbe58c4a8	-0.21168768
75	0xbedba589	-0.4289973
76	0xbc615f00	-0.01375556
77	0xbe4624d3	-0.19349985
78	0x3ca2c225	0.019867966
79	0xbeb70f59	-0.35753897
80	0xbeb3c111	-0.35108235
81	0x3e5a74fa	0.21333686
82	0xbf2a162d	-0.6644009
83	0xbbae1b47	-0.0053133103
84	0x3da122d2	0.078679696
85	0x3e560855	0.20901616
86	0x3ce9c9fb	0.028538695
87	0x3e20905b	0.15680067
88	0xbdd08d87	-0.10183244
89	0x3f10756c	0.5642917
90	0x3f05ac3e	0.52215946
91	0xbedcd4a5	-0.43130985
92	0x3dcd3297	0.10019415
93	0x3e9094eb	0.28238615
94	0x3f4c83c8	0.7988858
95	0xbedffe50	-0.43748713
96	0xbe73c7d3	-0.23806696
97	0xbeb73020	-0.35778904
98	0x3ed8a7c7	0.42315504
99	0x3d8e88b0	0.06959665

fc.1.weight f4 [100, 100]
0	0x3c6f88b7	0.014619998
1	0xbc591b18	-0.013251089
2	0xbd53fe7b	-0.051756363
3	0xbba7f01b	-0.0051250583
4	0xbdd691d0	-0.1047703
5	0xbc22226a	-0.0098959
6	0x3d0df75c	0.03465973
7	0x3d9bdde2	0.0761068
8	0xbd5487c5	-0.051887292
9	0xbdc25aa4	-0.094899446
10	0x3e32617f	0.17420004
11	0x3ce7ce6e	0.028296676
12	0x3deeb883	0.116562866
13	0x3da27282	0.07931997
14	0x3db9dee4	0.09075716
15	0x3e217262	0.1576629
16	0xbd9b0f3c	-0.07571265
17	0x3d782b21	0.060588006
18	0x3d9480bc	0.07251117
19	0xbe115c68	-0.14195406
20	0x3d8e2c19	0.06942005
21	0x3a6d9fce	0.0009064645
22	0xbc074094	-0.008255143
23	0x3e4a9aca	0.1978561
24	0x3e47aed0	0.1950028
25	0x3d4eb8d8	0.05046925
26	0xbc23adc8	-0.009990163
27	0x3de901c6	0.113772914
28	0x3d973cf9	0.073846765
29	0x3d941d80	0.07232189
30	0x3da7e6c4	0.08198312
31	0xbd2fe7e5	-0.04294576
32	0x3d4ebe33	0.050474357
33	0xbce52e28	-0.02797611
34	0x3d4e35c6	0.05034425
35	0x3decac14	0.11556259
36	0x38297895	4.040504e-05
37	0xbc94f100	-0.018181324
38	0x3dadbc36	0.08483164
39	0xbe01ccca	-0.12675777
40	0xbdc4f4c8	-0.09617001
41	0xbe05f964	-0.13083416
42	0xbd360e6b	-0.044447344
43	0x3ea9fc93	0.3320051
44	0x3cf80dfc	0.030280106
45	0x3db5854f	0.08863317
46	0x3b9821c1	0.0046426957
47	0x3e02e3d2	0.12782219
48	0x3e0aff52	0.1357396
49	0xbcc44430	-0.023958296
50	0x3d967ba1	0.07347799
51	0xbea7ebe7	-0.32797167
52	0xbc129b13	-0.008948105
53	0x3ddb0e49	0.10696084
54	0xbc086758	-0.00832542
55	0xbd9fcea6	-0.07803087
56	0x3cb46022	0.022018496
57	0xbd8b145a	-0.06790991
58	0xbe2b166c	-0.16707772
59	0xbcf98583	-0.030459171
60	0x3c976f18	0.01848559
61	0xbce8876a	-0.028384883
62	0xbe35cb5d	-0.17753358
63	0x3ca318a4	0.01990921
64	0x3e27963a	0.163659
65	0xbc52ba3f	-0.012861787
66	0x3d1e958a	0.03871683
67	0x3dac6765	0.084181584
68	0x3d188018	0.037231535
69	0x3e3003c9	0.17188944
70	0xbdc348ae	-0.09535347
71	0xbba56e01	-0.005048514
72	0xbbe46287	-0.006969753
73	0x3da73ad6	0.08165519
74	0xbcd14347	-0.025544776
75	0xbd93bee5	-0.072141446
76	0xbc6903ba	-0.01422208
77	0xbdb0114e	-0.085970506
78	0x3d05133f	0.032489058
79	0xbe0a1d97	-0.1348785
80	0xbcc30e89	-0.023810642
81	0xbd4b57a0	-0.049644113
82	0xbe1c91fa	-0.1529006
83	0xbc3cbc49	-0.0115195
84	0x3d0d5069	0.034500513
85	0xbd893c1a	-0.067009166
86	0xbd8fc25d	-0.07019494
87	0x3de6abe9	0.11263258
88	0xbd348f3d	-0.044081915
89	0x3e4bc495	0.19899209
90	0x3c52a95d	0.012857762
91	0x3cd8a2d5	0.026444832
92	0x3c129070	0.008945569
93	0xbd89b5b5	-0.06724111
94	0xbc619bcc	-0.013770055
95	0xbee1e8fc	-0.44123065
96	0xbd979843	-0.074020885
97	0xbcea7fbf	-0.028625367
98	0x3dc69b53	0.096975945
99	0xbd251015	-0.04029854
100	0x3cf563bb	0.029954782
101	0x3d9a5b4b	0.07536944
102	0xbd920f9f	-0.07131886
103	0x3d920671	0.07130135
104	0xbd8b0425	-0.067879
105	0x3b916b18	0.0044378154
106	0x3d98216d	0.074282505
107	0x3e1b76bf	0.15182017
108	0xbd0d0185	-0.034425277
109	0xbdd02cd6	-0.10164802
110	0xbe180c5e	-0.14848468
111	0xbd4352a7	-0.047686245
112	0x3ddab446	0.10678916
113	0x3d60235c	0.05472122
114	0xbd801042	-0.06253101
115	0x3c880697	0.016604705
116	0x3dca12e6	0.09866886
117	0x3d7389b4	0.059457496
118	0x3d660ec0	0.05616641
119	0x3d31269e	0.04324972
120	0xbda5e7d2	-0.08100857
121	0xbbfb926d	-0.0076773674
122	0xbb1de7a5	-0.002409437
123	0x3d88f6fe	0.06687735
124	0xbde2aa0f	-0.11067592
125	0xbdafe773	-0.08589067
126	0x3d87213b	0.06598135
127	0xbd82c386	-0.063849494
128	0x3d7ab4db	0.061207633
129	0x3ce15d14	0.027510203
130	0xbda8aa2d	-0.082355835
131	0xbc3c166a	-0.011479953
132	0x3d9732b9	0.073827215
133	0xbd265251	-0.040605847
134	0x3df313ab	0.11868986
135	0x3d47b186	0.048753284
136	0xbd68c115	-0.056824762
137	0x3c8d7e49	0.017272132
138	0x3c72d78e	0.0148219
139	0xbe4a3e73	-0.19750385
140	0xbd1f3138	-0.038865298
141	0x3d318f0a	0.043349303
142	0x3d34bf0a	0.0441275
143	0x3e12974a	0.14315525
144	0xbcc6796d	-0.024227822
145	0x3ce82c3d	0.028341407
146	0x3ce4d866	0.027935218
147	0x3dbb70e5	0.09152392
148	0xbda22305	-0.07916836
149	0x3d2675a1	0.040639523
150	0x3de90792	0.11378397
151	0xbdfe4457	-0.124153785
152	0xbda95e78	-0.082699716
153	0xbc62693c	-0.013819035
154	0x3da6614c	0.08124027
155	0xbd5cbeec	-0.053893015
156	0xbd545057	-0.05183443
157	0x3c12ba7b	0.008955593
158	0xbdcda5e3	-0.10041406
159	0xbd715daf	-0.058927234
160	0xbdbb63fd	-0.091499306
161	0xbd5bf625	-0.05370154
162	0xbe123809	-0.14279188
163	0xbc39ae40	-0.011333048
164	0xbd8e40d9	-0.069459625
165	0x3d809d76	0.06280033
166	0x3c235691	0.0099693695
167	0xba0ede60	-0.00054500066
168	0x3d8f5efc	0.07000539
169	0x3d7efbc9	0.06225184
170	0xbd1bbb6b	-0.038020533
171	0xbc953821	-0.01821524
172	0x3cf9a00a	0.03047182
173	0x3ca55a7f	0.020184753
174	0xbc8a18da	-0.016857553
175	0xbe14d460	-0.1453414
176	0xbc45aaf4	-0.012064684
177	0x3cdb3574	0.026758887
178	0xbdb3d6ac	-0.0878118
179	0x3cf0c3ab	0.029390177
180	0x3d65eea5	0.056135792
181	0x3c5a49c5	0.013323252
182	0x3d71b708	0.059012443
183	0x3dc959b0	0.0983156
184	0x3c562b74	0.0130718835
185	0x3d145d9e	0.036222093
186	0xbd518d46	-0.05116012
187	0x3d48c3d2	0.049014874
188	0x3d50a5b9	0.050939295
189	0xbd0a2050	-0.03372222
190	0xbd929586	-0.071574256
191	0x3d3f035c	0.046634063
192	0x3bcf9dcf	0.006335951
193	0xbb0e47a6	-0.0021710186
194	0xbd52281d	-0.051307786
195	0xbd371939	-0.04470179
196	0xbcc93118	-0.024559543
197	0x3d122e4e	0.03568869
198	0x3d2b1487	0.041767623
199	0xbc92283e	-0.017841455
200	0x3cf96bc3	0.030446893
201	0x3de3dce2	0.111261144
202	0xbd15e80e	-0.036598258
203	0x3c228a12	0.009920614
204	0x3d83b369	0.06430704
205	0xbc3c6727	-0.011499203
206	0xbd4b30c9	-0.049607072
207	0xbb7413cb	-0.0037243243
208	0xbdcd6c11	-0.10030378
209	0x3bcf1b16	0.0063203676
210	0xbc7ece60	-0.015552133
211	0x3cfe4fde	0.031043943
212	0xbd8ab351	-0.06772483
213	0x3d77bb3c	0.060481295
214	0x3c45fcad	0.012084168
215	0x3d36f0b9	0.044663165
216	0xbd859335	-0.06522218
217	0x3dd2c163	0.10290792
218	0x3da8da3c	0.0824475
219	0xbe14db9d	-0.14536901
220	0x39b451d2	0.00034393236
221	0x3dd93879	0.106064744
222	0x3c29f01a	0.010372186
223	0xbd8258d5	-0.063645996
224	0xbd04001e	-0.032226674
225	0x3cb82709	0.02247955
226	0x3ca961cb	0.020676514
227	0xbd041898	-0.032250017
228	0xbbbe930c	-0.005815869
229	0xbdaeac82	-0.08528997
230	0xbc69b7d2	-0.014265018
231	0x3d2f8770	0.042853773
232	0x3e07907e	0.13238713
233	0xbd82ba3c	-0.06383178
234	0xbd80f86c	-0.06297383
235	0x3c522794	0.012826819
236	0x3be32123	0.0069314404
237	0xbdc95df1	-0.09832371
238	0x3cd23a46	0.025662553
239	0xbcbd0e8f	-0.023078231
240	0xbd5e0192	-0.054200716
241	0x3db29c14	0.08721176
242	0x3d9cb1fa	0.07651134
243	0xbe99123a	-0.29896718
244	0x3d156d81	0.036481384
245	0xbd43647c	-0.04770325
246	0xbc9b3dad	-0.018950308
247	0x3c15b12d	0.00913648
248	0x3dfc05a9	0.12305767
249	0x3de5deb4	0.11224118
250	0xbd6ed713	-0.05831058
251	0x3e0623fd	0.13099666
252	0x3da546d1	0.08070148
253	0xba4aad9c	-0.0007731558
254	0x3de7adc7	0.11312442
255	0x3dce78c3	0.10081627

fc.1.bias f4 [100]
0	0x3e619913	0.2203105
1	0x3d950c92	0.07277788
2	0x3df3074e	0.11866628
3	0x3d97f577	0.074198656
4	0x3e060867	0.13089143
5	0xbd12e1c7	-0.03585985
6	0x3df098f3	0.11747923
7	0xbcdaea29	-0.026722984
8	0xbec54b0a	-0.38533813
9	0x3cee2b5a	0.029073406
10	0xbe09a8e1	-0.13443328
11	0x3da57b38	0.08080143
12	0x3e576eb8	0.2103833
13	0x3dfc0135	0.12304918
14	0x3c0c30ee	0.008556588
15	0x3d7c4a47	0.061594274
16	0x3e86c4e3	0.26322088
17	0xbc3f569e	-0.011678366
18	0xbc703129	-0.014660158
19	0xbd083b7b	-0.03325985
20	0xbcd3e7d2	-0.025867376
21	0x3bc49352	0.0059990073
22	0x3d9fc8f0	0.07801998
23	0x3b9e0ce5	0.0048233145
24	0x3e56ed5d	0.20988984
25	0xba8205a9	-0.00099199
26	0x3db18003	0.086669944
27	0x3d955ae8	0.072927296
28	0x3db6688f	0.08906662
29	0x3df233e6	0.11826305
30	0x3e1a70dc	0.15082115
31	0x3d2233e3	0.039600264
32	0x3dfc443a	0.12317701
33	0xbda8ff8e	-0.08251868
34	0xbce6f7a3	-0.028194254
35	0x3de0483f	0.1095128
36	0x3cd9ed2f	0.026602356
37	0x3e01399e	0.12619635
38	0xbe0cf76b	-0.13766257
39	0xba293b82	-0.0006455706
40	0x3daf911a	0.08572598
41	0xbc61ffa9	-0.013793864
42	0x3e23d384	0.15998656
43	0x3d612516	0.05496701
44	0x3d5cc045	0.0538943
45	0xbdb2a467	-0.087227635
46	0xbf195cd6	-0.5990728
47	0x3eaa6198	0.33277583
48	0xbca75c8e	-0.020429876
49	0x3d17e110	0.03707987
50	0x3d9acd64	0.075587064
51	0x3d6b0382	0.057376392
52	0x3d555c1b	0.05208979
53	0xbcf6d501	-0.030130865
54	0xbd06043b	-0.03271888
55	0x3e1cb7d4	0.153045
56	0xbed20340	-0.41018105
57	0x3d100f8c	0.035171077
58	0xbd4484e0	-0.047978282
59	0x3c68a2c4	0.014198963
60	0xbd2f1ef9	-0.042754147
61	0xbd624cb2	-0.055248924
62	0x3dfee816	0.12446611
63	0xbd2c1ff2	-0.042022653
64	0xbd13950b	-0.03603081
65	0xbd01ecae	-0.031719856
66	0xbc6dcc74	-0.014514077
67	0x3e32858b	0.17433755
68	0xbd05f9ae	-0.032708816
69	0xbd02a9b3	-0.03190012
70	0x3d1f0e80	0.038832188
71	0x3dc83db8	0.09777397
72	0xbc6c3071	-0.014415846
73	0x3d96d7a7	0.07365351
74	0x3e3e0243	0.1855555
75	0xbd9a01e6	-0.07519893
76	0x3ca87843	0.020565158
77	0x3afffe65	0.0019530772
78	0x3c423695	0.011853834
79	0x3e08bd25	0.13353403
80	0x3dbdf910	0.092760205
81	0x3bb473eb	0.0055069826
82	0xbd4e857f	-0.05042028
83	0xbdac5149	-0.084139414
84	0x3e619391	0.22028948
85	0x3e45187a	0.19247618
86	0xbca686f2	-0.020328019
87	0x3d93e4e7	0.07221394
88	0xbf2338ba	-0.6375843
89	0x3b7d6ec0	0.0038670748
90	0x3d272e31	0.040815536
91	0x3e1ef597	0.15523373
92	0x3df58822	0.11988856
93	0x3d60a3db	0.054843765
94	0x3e8ac5ff	0.27104184
95	0xba5d755f	-0.00084479706
96	0x3db4b470	0.08823478
97	0x3e061580	0.13094139
98	0x3be93082	0.0071163783
99	0x3d3b01d2	0.045656033

fc.2.weight f4 [4, 100]
0	0x3e270c75	0.16313346
1	0x3d6533b5	0.055957515
2	0xbd854bec	-0.065086216
3	0xbc13952d	-0.009007734
4	0xbd9a24a1	-0.07526518
5	0x3cede1f9	0.029038416
6	0xbd8959eb	-0.067066036
7	0x3c9684b6	0.018373828
8	0xbedd2fb1	-0.43200448
9	0x3d904a09	0.07045371
10	0x3dff83bd	0.12476299
11	0x3d125c09	0.035732303
12	0xbbbdc7f6	-0.0057916595
13	0xbda0a2a8	-0.07843524
14	0xbb80ff6f	-0.0039367
15	0x3d839b3a	0.064260915
16	0xbdef34e8	-0.11680013
17	0xbd228f5b	-0.039687496
18	0xbc95bc6b	-0.018278321
19	0x3db4d101	0.08828927
20	0x3dbdaee1	0.09261871
21	0x3c297f7d	0.010345337
22	0xbdc79e49	-0.097469874
23	0x3ec27d95	0.37986436
24	0x3e2515b3	0.16121559
25	0x3d548a30	0.0518896
26	0xbd1d1926	-0.03835406
27	0x3d30588e	0.043053202
28	0x3cc1e55d	0.02366894
29	0xbdb5043a	-0.08838697
30	0xbd6492b7	-0.05580398
31	0xbd7a219f	-0.06106722
32	0xbd903143	-0.07040646
33	0x3daaf4e1	0.08347488
34	0xbdc9e0f1	-0.09857357
35	0x3dd00216	0.10156648
36	0xbbf14dee	-0.0073640263
37	0x3da8f357	0.082495384
38	0x3d178e08	0.037000686
39	0xbd0f6bdf	-0.035014983
40	0xbd601311	-0.054705683
41	0x3d701dad	0.05862205
42	0xbd9fea7c	-0.07808396
43	0x3d309b79	0.04311702
44	0x3b9e2eab	0.0048273406
45	0xbdf20249	-0.11816842
46	0x3eeee422	0.46658427
47	0xbe9b9773	-0.30388984
48	0xbcfa666c	-0.030566417
49	0x3dff4703	0.12464716
50	0xbbe8eaab	-0.0071080527
51	0x3dc60e99	0.09670753
52	0xbd21a552	-0.039464302
53	0x3db297f2	0.087203875
54	0x3d5fa20a	0.054597892
55	0xbac36a8e	-0.0014909075
56	0xbf075fb9	-0.52880436
57	0x3b9b44cb	0.0047384254
58	0x3cd447d8	0.025913164
59	0xbdbf0a3c	-0.09328124
60	0x3ebe42c8	0.37160325
61	0x3dcd9095	0.100373425
62	0xbcc5e2eb	-0.024156054
63	0x3c881f03	0.01661635
64	0x3d942af8	0.07234758
65	0xbd4167cf	-0.04721814
66	0xbd9661d4	-0.07342878
67	0x3cc87e4f	0.024474291
68	0x3d79fb6c	0.06103079
69	0xbcb0187f	-0.021496056
70	0x3d2f3049	0.042770658
71	0xbdb9010e	-0.09033404
72	0x3d873e94	0.06603733
73	0xbd240e74	-0.040052846
74	0xbe193ef5	-0.14965422
75	0xbcb273cd	-0.021783734
76	0x3d3923c8	0.04520014
77	0x3d943cd9	0.07238168
78	0x3da4e6de	0.08051847
79	0x3dc62399	0.096747585
80	0x3d95dc26	0.073173806
81	0xbdbae0a4	-0.09124878
82	0x3c8b69db	0.01701825
83	0x3d07aa75	0.033121545
84	0xbe43833a	-0.19093028
85	0xbc004eaf	-0.00783126
86	0xbd50253c	-0.05081676
87	0x3d6b9da1	0.057523374
88	0x3ece4d1d	0.40293208
89	0xbcb4c76a	-0.022067744
90	0xbd64d54e	-0.055867486
91	0xbd9e5489	-0.077309676
92	0xbe073f3d	-0.13207717
93	0xbd31afed	-0.043380667
94	0x3e27df4f	0.16393779
95	0x3da09183	0.07840254
96	0x3d92e10d	0.07171831
97	0xbd205573	-0.03914399
98	0xbd2094cd	-0.039204407
99	0xbd878a03	-0.066181205
100	0x3e687237	0.2269982
101	0x3dabf8c6	0.08397059
102	0xbd925300	-0.07144737
103	0xbc521e07	-0.012824542
104	0x3e2867ad	0.16445799
105	0xbdc80131	-0.09765852
106	0xbbf64b2c	-0.0075162854
107	0xbe025152	-0.12726334
108	0xbe5874d0	-0.2113831
109	0xbd7f8faa	-0.062392868
110	0xbca1573c	-0.019694917
111	0x3cb69446	0.0222875
112	0x3e75750c	0.23970431
113	0x3dba6b00	0.0910244
114	0xbdf9c99b	-0.12196656
115	0x3b068439	0.0020525588
116	0xbd79e0c7	-0.06100538
117	0xbdcba315	-0.09943215
118	0xbe092955	-0.13394673
119	0x3d12b68f	0.035818633
120	0xbe0eb529	-0.13936295
121	0x3d231445	0.039814252
122	0x3c79080f	0.015199675
123	0x3da6e4bc	0.08149096
124	0xbe990957	-0.29889938
125	0xbd75bad0	-0.05999261
126	0x3cff6330	0.031175226
127	0x3d91102c	0.07083163
128	0x3d8cca31	0.068745025
129	0x3dccfc89	0.10009105
130	0x3ada4060	0.0016651265
131	0xbd530435	-0.051517684
132	0xbdf022b1	-0.11725367
133	0xbaf91d90	-0.0019006003
134	0x3db38e5d	0.08767388
135	0x3df09790	0.11747658
136	0x3ddb0cab	0.106957756
137	0x3db2f0fa	0.08737369
138	0x3e5fe43e	0.21864411
139	0x3df8525e	0.12125085
140	0x3dc3cfd2	0.09561123
141	0xbda36d54	-0.07979837
142	0x3ce3c283	0.027802711
143	0x3cd7b814	0.026332892
144	0xbd537e28	-0.051633984
145	0xbe5e98ae	-0.2173793
146	0x3e1936d7	0.14962326
147	0x3eacdc1c	0.3376168
148	0x3d70a0d9	0.058747146
149	0x3e43f59b	0.1913666
150	0x3db229fb	0.086994134
151	0xbb7b26ca	-0.003832268
152	0x3bef2cdf	0.00729905
153	0x3c4508ff	0.012026071
154	0xbc340b2c	-0.010988992
155	0x3cb699a6	0.022290062
156	0x3e4aa19b	0.1978821
157	0xbc575bca	-0.013144443
158	0x3c0f7f05	0.008758311
159	0x3c4c5814	0.012472171
160	0x3da976af	0.0827459
161	0x3d9c6042	0.07635547
162	0x3d9f7242	0.07785465
163	0xbe0cd781	-0.13754083
164	0x3dc61556	0.09672038
165	0xbdffeaa8	-0.12495929
166	0x3d8586aa	0.06519826
167	0x3e259e11	0.16173579
168	0xbd706a46	-0.0586951
169	0x3cc7976e	0.0243642
170	0xbda9dde6	-0.08294277
171	0xbc19fdbf	-0.009398877
172	0xbd0c23dc	-0.034213886
173	0xbcca27ab	-0.024677118
174	0xbe1fd76d	-0.15609522
175	0xbcd27046	-0.025688302
176	0x3cd86b33	0.026418304
177	0x3bdaef6f	0.0066813747
178	0x3dfd36b7	0.12363952
179	0x3dbac4d9	0.09119577
180	0xbdd4b3fe	-0.10385893
181	0xbdd4aff5	-0.10385124
182	0xbdcfd203	-0.101474784
183	0x3d3acc2c	0.04560487
184	0xbc5d0766	-0.013490533
185	0x3e330b00	0.17484665
186	0xbdc58809	-0.09645087
187	0xbc5bcdf3	-0.013415801
188	0xbe724c60	-0.23661947
189	0xbda97f31	-0.08276213
190	0xbc8814a0	-0.016611397
191	0x3cc1035a	0.023561168
192	0xbcf14843	-0.029453402
193	0xbda3718a	-0.0798064
194	0x3e8154d4	0.2526003
195	0xbdafd546	-0.085856006
196	0x3d8d02fe	0.06885336
197	0xbc9b54ad	-0.018961275
198	0xbe25d0b0	-0.16192889
199	0x3dcf8662	0.10133053
200	0xbd177864	-0.036980048
201	0xbc5d9269	-0.013523676
202	0x3e01ce76	0.12676415
203	0x3d924f82	0.07144071
204	0xbd3f31a9	-0.04667822
205	0x3cce1dc3	0.025160676
206	0xbd82550d	-0.063638784
207	0x3db184a8	0.0866788
208	0x3bcfce95	0.006341765
209	0x3e097fbd	0.13427635
210	0xbd098611	-0.03357512
211	0x3dc5ad0f	0.09652149
212	0xbd4091b9	-0.047013972
213	0xbdc5575d	-0.09635804
214	0x3d821cbb	0.06353136
215	0xbde659d0	-0.11247599
216	0x3d9ed21f	0.07754921
217	0x3dbda6c1	0.092603214
218	0xbd92681d	-0.07148764
219	0xbdb7d62e	-0.089763984
220	0xbd9f3b16	-0.077749416
221	0xbd409a58	-0.047022194
222	0xbd565075	-0.052322824
223	0x3c11ed9b	0.008906747
224	0xbd30438e	-0.043033175
225	0xbde1989b	-0.11015435
226	0x3dd490bf	0.103791706
227	0x3d07d23f	0.03315949
228	0xbbeea5c7	-0.007282946
229	0xbdee8de7	-0.116481595
230	0xbd8d33c2	-0.06894638
231	0xbc977542	-0.01848853
232	0xbd6e4efc	-0.058180794
233	0x3ba46d7a	0.0050179334
234	0xbd92cd85	-0.07168106
235	0x3c0c81c6	0.008575862
236	0x3def3039	0.116791196
237	0x3cfb6f00	0.030692577
238	0x3cd386e0	0.02582115
239	0xbc0f68f2	-0.008753048
240	0x3ddb2e32	0.107021704
241	0xbdc2b31f	-0.09506821
242	0xbc851ac6	-0.016248118
243	0x3d4a5edf	0.049406882
244	0xbd3c0fc4	-0.045913473
245	0xbcba9ba4	-0.022779293
246	0x3c74ce93	0.014941829
247	0xbca42fec	-0.020042382
248	0x3de9940b	0.1140519
249	0x3b157797	0.0022806877
250	0x3d3db356	0.046313606
251	0xbd045c7e	-0.03231477
252	0x3de42c9b	0.1114132
253	0x3c37bb23	0.01121405
254	0x3de76706	0.11298947
255	0xbde4ce2d	-0.111721374

fc.2.bias f4 [4]
0	0xbc827038	-0.01592265
1	0x3d8ef48d	0.06980238
2	0xbd1fb9a5	-0.038995404
3	0x3d903f09	0.07043273
