model/unicycle-FC3-100-rk4/epoch_820.pth (torch, 47077 bytes, 6 tensors)

fc.0.weight f4 [100, 6]
0	0xb8df0d1e	-0.00010635912
1	0xb92e0a38	-0.0001659774
2	0x3e79170b	0.24325196
3	0xbf414a32	-0.7550384
4	0xb9b5e50a	-0.00034693658
5	0x3a2d65ec	0.0006614614
6	0xba5f50da	-0.0008518823
7	0xbd465321	-0.04841912
8	0xbe0f5c17	-0.13999973
9	0x3f0f9a6c	0.56095004
10	0x3af20b5f	0.0018466524
11	0x3cbd6815	0.02312092
12	0x3e071baf	0.13194154
13	0xbe4a3385	-0.19746216
14	0xbc83580f	-0.0160332
15	0x3d80b936	0.06285326
16	0xbe86c723	-0.26323804
17	0xbe5d1e38	-0.21593559
18	0xbd147528	-0.03624454
19	0x3e54974f	0.20760845
20	0x3d9ad367	0.07559853
21	0x3f2daaca	0.6783873
22	0x3da3eca9	0.08004124
23	0xbb1af0a1	-0.002364196
24	0x3e0d3882	0.13791087
25	0x3e861e13	0.2619482
26	0x3e2d2cfb	0.1691169
27	0x3e217362	0.15766671
28	0xbd92b5e6	-0.071636006
29	0xbdd12639	-0.102123685
30	0x3e47fac0	0.19529247
31	0x3e859231	0.26088098
32	0xbeb0502b	-0.34436163
33	0xbe668473	-0.22511463
34	0x3e56af5d	0.20965333
35	0x3e6c8640	0.23098087
36	0xbc53acff	-0.012919663
37	0xbbd69b79	-0.0065492955
38	0x3e0e5a15	0.13901551
39	0xbd553328	-0.05205074
40	0x3c174226	0.00923208
41	0x3e9d38ce	0.307074
42	0xbde9f7ec	-0.114242405
43	0xbda43ad5	-0.08019034
44	0xbe40ca6c	-0.18827218
45	0x3e7270b4	0.23675805
46	0x3da35a9f	0.07976269
47	0x3f13055a	0.5743004
48	0x3e26f371	0.16303803
49	0xbe8b1d74	-0.27170908
50	0x3f22f33a	0.63652384
51	0x3d1d7749	0.038443837
52	0x3e81dfce	0.25366062
53	0x3e33aab9	0.17545594
54	0xbcb3d782	-0.021953348
55	0x3de0d74b	0.10978564
56	0xbe87ad3a	-0.2649935
57	0x3eed5f7d	0.46361914
58	0xbbe2b769	-0.006918837
59	0x3c0a4f1d	0.008441714
60	0xbc92ab7d	-0.017904038
61	0xbbe3840b	-0.006943231
62	0x3e92609d	0.28589335
63	0x3d5a27d0	0.053260624
64	0xbe1315fb	-0.14363854
65	0xbdbd935f	-0.092566244
66	0xbdf48856	-0.119400665
67	0xbcff0107	-0.03112842
68	0xbeb6c49f	-0.35696885
69	0xbf43daab	-0.76505536
70	0xbc1e85f0	-0.009675488
71	0xbc081b7c	-0.008307334
72	0x3e1401ac	0.14453763
73	0x3dd1899f	0.10231327
74	0x3e68d953	0.22739153
75	0xbe97fa0a	-0.29682952
76	0xbdcb5d4b	-0.099299036
77	0xbf38da1a	-0.72207797
78	0xbd0b9431	-0.034076873
79	0xbd77d958	-0.06051001
80	0xbe314b76	-0.17313942
81	0xbd6630da	-0.056198932
82	0x3daad933	0.08342209
83	0xbe7228ff	-0.23648451
84	0x3df9aa10	0.1219064
85	0xbe731ffe	-0.23742673
86	0xbee7e33a	-0.45290548
87	0x3e8154f3	0.25260124
88	0xbe623b6b	-0.22092979
89	0x3e96047a	0.2930029
90	0x3ddce3fe	0.107856736
91	0x3cc3f757	0.023921652
92	0xbd1a3e9c	-0.037657365
93	0xbf5bf2dd	-0.85917455
94	0x3c9258aa	0.017864544
95	0x3ce857ac	0.028362118
96	0xbe3238c3	-0.17404465
97	0x3e9438d7	0.28949615
98	0xbf2de72e	-0.6793088
99	0xbd26510c	-0.040604636
100	0xbe8a727b	-0.27040467
101	0xbe3f7f2c	-0.18700856
102	0x3cfc6be5	0.030813167
103	0x3d8d2764	0.06892279
104	0x3f1d5ebb	0.6147267
105	0xbe0883e0	-0.13331556
106	0xbc7580cb	-0.01498432
107	0x3cd08ff5	0.025459269
108	0xbe00bb3e	-0.12571427
109	0xbde6e330	-0.11273801
110	0xbe7a4c18	-0.2444309
111	0xbec4406c	-0.383304
112	0x3c8c9c10	0.01716426
113	0x3d4743c0	0.048648596
114	0x3e227f4d	0.15868874
115	0xbe2dd22d	-0.16974707
116	0x3e4401ac	0.19141263
117	0xbe7e1763	-0.24813609
118	0x3c73b990	0.0148757845
119	0xbd8b0aa3	-0.06789138
120	0x3e048458	0.1294111
121	0xbe60014d	-0.21875496
122	0x3ec947fa	0.39312726
123	0xbe9ad0a9	-0.3023732
124	0x3da9031b	0.082525454
125	0x3e23ad99	0.15984191
126	0xbcb3af6d	-0.021934235
127	0xbc7136b8	-0.014722519
128	0x3e1f7b2d	0.15574332
129	0x3f0bc109	0.54591423
130	0xbcca0f10	-0.024665385
131	0xbe85932f	-0.26088855
132	0x3d09663f	0.033544775
133	0xbe05946c	-0.130449
134	0x3e7ce995	0.2469848
135	0xbf2de7a6	-0.6793159
136	0x3d2005b8	0.039067954
137	0xbbc81f5d	-0.0061072544
138	0x3e4d0cf4	0.20024472
139	0x3da5992c	0.08085856
140	0xbec32c9f	-0.3811998
141	0x3f2fac17	0.68621963
142	0xbd652af8	-0.05594918
143	0xbbc35aaa	-0.0059617357
144	0xbe47bdd5	-0.19506009
145	0xbdd9606d	-0.10614095
146	0xbee824ab	-0.45340475
147	0xbf1d4e20	-0.61447334
148	0xbc0ed09c	-0.008716729
149	0xbeba1a23	-0.36348066
150	0xbe07d426	-0.13264522
151	0x3e24b068	0.16082919
152	0xbef1dee8	-0.47240376
153	0x3f628478	0.8848338
154	0x3ef53ef6	0.47899598
155	0x3e5c09f2	0.21488169
156	0x3d00feba	0.031492926
157	0xbd38b66c	-0.045095846
158	0x3ef94e4d	0.4869255
159	0xbedd6227	-0.43238947
160	0x3f308f58	0.68968725
161	0xbe8d7297	-0.27626488
162	0xbea8b85e	-0.3295316
163	0xbd8a249c	-0.06745264
164	0x3f0b6645	0.54452926
165	0xbe2d2275	-0.16907676
166	0xbe866e9a	-0.26256257
167	0xbe6b01d4	-0.22949916
168	0x3e7bc560	0.24587011
169	0xbec7e3ce	-0.3904099
170	0xbf27477e	-0.65343463
171	0xbe9d2b18	-0.3069694
172	0x3ebd471b	0.36968312
173	0xbeb9d01d	-0.3629159
174	0xbc191314	-0.0093429275
175	0x3cbdb5a1	0.023157896
176	0xbecad20b	-0.39613375
177	0x3f51db35	0.8197511
178	0xbb592055	-0.0033130844
179	0x3b6115c6	0.0034345253
180	0xbd940257	-0.07227009
181	0x3e4ef685	0.20211227
182	0x3e34fa66	0.17673644
183	0xbeb306db	-0.34966168
184	0x3d5783f6	0.052616082
185	0x3d5a5dda	0.05331216
186	0xbdc046b0	-0.093884826
187	0x3e2b8b89	0.16752447
188	0x3ea5959b	0.32340702
189	0xbe02eb07	-0.12784968
190	0xbdb15cc6	-0.08660273
191	0x3dcde1da	0.100528434
192	0xbe04cee5	-0.12969549
193	0xbd07e5f8	-0.0331783
194	0x3f20c353	0.6279804
195	0x3efc9069	0.49328926
196	0x3c94f63b	0.018183818
197	0xbd82459a	-0.06360932
198	0xbcbc98a3	-0.023022002
199	0xbd2d435e	-0.042300574
200	0x3d9db3cc	0.07700309
201	0x3e8d4248	0.2758963
202	0xbd4b8670	-0.049688756
203	0x3e2cb794	0.16866904
204	0x3d8404df	0.064462416
205	0x3c770eb5	0.01507919
206	0x3e7edff3	0.24890117
207	0xbf85771b	-1.0426973
208	0xbb98f4d0	-0.004667856
209	0x3d0cee9d	0.034407247
210	0x3d355fdb	0.044280868
211	0xbc9b13cb	-0.018930336
212	0xbeaccfa5	-0.3375217
213	0xbf635e7c	-0.88816047
214	0x3accc4e1	0.0015622639
215	0xbcaef9db	-0.021359375
216	0x3da62eed	0.08114419
217	0x3d9c7d8b	0.07641133
218	0xbe1ec269	-0.15503849
219	0xbe3083da	-0.17237797
220	0xbd03fb41	-0.032222036
221	0xbf05d80a	-0.52282774
222	0x391053eb	0.00013764172
223	0x3bb60146	0.005554351
224	0xbe953339	-0.29140642
225	0xbf61ab56	-0.8815206
226	0x3ad04c80	0.0015891939
227	0xba90a942	-0.0011036771
228	0xbcdf8c6c	-0.027288638
229	0x3d21430f	0.039370593
230	0xbed7f95d	-0.42182437
231	0x3ebff242	0.37489516
232	0xbf19350c	-0.5984657
233	0x3e7514e2	0.23933747
234	0x3c5f0317	0.0136115765
235	0xbdd45a5e	-0.10368799
236	0xbe9bcd92	-0.30430275
237	0x3f41c176	0.7568582
238	0x3aa73e9b	0.0012759747
239	0xbd8bf950	-0.06834662
240	0xbc66a5b4	-0.014077593
241	0x3cea5606	0.028605472
242	0xbef1e980	-0.4724846
243	0xbf0caee4	-0.5495436
244	0xbb7b2e81	-0.003832728
245	0xbd01e1c3	-0.031709444
246	0xbc5ac6b8	-0.013353042
247	0xbd0d6ac3	-0.034525644
248	0xbea3b387	-0.31972906
249	0xbf7431ed	-0.9538868
250	0x3b6d2870	0.0036187433
251	0x3c53867e	0.012910483
252	0xbe3c0b18	-0.18363607
253	0x3e6e7a85	0.23288925
254	0xbd90c3c8	-0.07068592
255	0x3dfc8aa8	0.12331134

fc.0.bias f4 [100]
0	0xbf8556bd	-1.0417095
1	0xbf4507ca	-0.7696501
2	0xbf243f18	-0.64158773
3	0x3f81b39c	1.0132937
4	0x3f8c8747	1.0978783
5	0xbf12bc3d	-0.5731848
6	0x3fb135d5	1.3844553
7	0x3e7b9e32	0.24572065
8	0xbeb437f4	-0.3519894
9	0x3e2cc1cc	0.16870803
10	0x3fc0c398	1.505969
11	0xbfb6b751	-1.4274694
12	0xbea1517d	-0.31507483
13	0x3fb68ea3	1.4262279
14	0x3de66130	0.11249006
15	0x3f61da00	0.88223267
16	0x3ebdeba9	0.37093857
17	0xbf2d86a6	-0.6778358
18	0xbfc191d6	-1.5122631
19	0xbe8c1a04	-0.27363598
20	0xbeebc4b0	-0.46048498
21	0x3fba97db	1.4577593
22	0xbf8e00db	-1.1094011
23	0x3e259fbf	0.1617422
24	0x3f3ab495	0.72931796
25	0xbeb7a1f7	-0.35865757
26	0x3c991fb0	0.018691868
27	0x3e3fd465	0.18733366
28	0xbee116d3	-0.43962726
29	0xbfa5b4cf	-1.2945803
30	0xbf38d341	-0.7219735
31	0x3f09552d	0.5364559
32	0xbf92133b	-1.1412119
33	0x3f6aaf06	0.91673315
34	0x3f8509d4	1.0393624
35	0xbf1ab687	-0.60434765
36	0xbf4ca657	-0.79941314
37	0xbef143a1	-0.4712191
38	0xbc864e01	-0.016394617
39	0x3f01c8a0	0.50696754
40	0xbe82b630	-0.25529623
41	0xbf62529f	-0.8840732
42	0xbedb5617	-0.4283912
43	0x3ee33b0a	0.4438098
44	0x3f4637cc	0.7742889
45	0x3ea29b99	0.31759337
46	0x3f6155bb	0.8802144
47	0x3f3035c6	0.6883205
48	0xbf4cff36	-0.8007692
49	0xbdd94e2c	-0.10610613
50	0xbf99f85e	-1.2028921
51	0xbf92e3d4	-1.1475778
52	0xbf9eece3	-1.2416042
53	0xbf084331	-0.53227526
54	0xbf2d96be	-0.6780814
55	0x3fad4a12	1.353823
56	0x3f4193c7	0.75616115
57	0xbf006cef	-0.5016622
58	0x3f79a4cb	0.9751708
59	0x3fa33069	1.2749149
60	0xbf406f52	-0.7516986
61	0xbf40c88a	-0.75306
62	0xbec217ed	-0.3790888
63	0xbf8a9a2b	-1.0828298
64	0xbe9a39b0	-0.30122137
65	0x3f4557ee	0.77087295
66	0xbe3254c8	-0.17415154
67	0x3f3518f5	0.70741206
68	0x3faad4b7	1.3346165
69	0x3f5b3666	0.8562988
70	0x3fc0e0bd	1.5068585
71	0x3f4e7b16	0.80656564
72	0x3fcca9de	1.5989339
73	0x3fa244af	1.267721
74	0x3f6d9103	0.92799395
75	0x3e95b6b3	0.2924095
76	0x3f7acb84	0.9796679
77	0x3fd65e52	1.6747534
78	0xbf7eb274	-0.9949105
79	0xbf3e7163	-0.74391764
80	0xbf4232aa	-0.7585856
81	0x3eb6cd38	0.35703444
82	0x3ec67456	0.38760632
83	0xbe740a26	-0.23831996
84	0xbf33dfb5	-0.70263225
85	0xbe916264	-0.2839538
86	0xbf2e2ea6	-0.6803993
87	0x3f960ae4	1.1722074
88	0x3fd929f0	1.6965923
89	0xbf4bd1ac	-0.7961681
90	0x3f4b50fe	0.7942046
91	0xbf4bf097	-0.79663986
92	0x3ed2f4dd	0.4120244
93	0xbf3bd863	-0.73377055
94	0xbf4b6e48	-0.7946515
95	0xbf9ea031	-1.2392637
96	0x3e704cc8	0.2346679
97	0x3f3fed78	0.74971724
98	0x3f7a9da3	0.97896785
99	0x3f155516	0.58332956

fc.1.weight f4 [100, 100]
0	0x3e78176d	0.24227686
1	0xbeae5109	-0.340462
2	0xbe3d6a99	-0.18497695
3	0xbde8e94d	-0.113726236
4	0xbea05615	-0.31315675
5	0x3da93ef4	0.082639605
6	0xbe85d0a2	-0.26135737
7	0xbd98e994	-0.074664265
8	0xbdf605fb	-0.120128594
9	0xbdfeaf46	-0.124357745
10	0xbef89cf1	-0.48557237
11	0x3e3b836d	0.18311854
12	0x3e3a7480	0.18208504
13	0xbe250bb3	-0.16117744
14	0xbe3c3d6c	-0.18382806
15	0xbddb6f7d	-0.10714624
16	0xbd65a9dc	-0.056070194
17	0x3dd7d37e	0.10538386
18	0x3e1e1420	0.15437365
19	0xbb27f715	-0.002562945
20	0x3e8caa2c	0.2747358
21	0xbf2d120e	-0.67605674
22	0x3e5da876	0.21646294
23	0xbe6cc552	-0.23122147
24	0xbe313814	-0.17306548
25	0xbe1477f6	-0.14498886
26	0x3d7ba31e	0.061434858
27	0xbd916361	-0.07099033
28	0x3dc722de	0.09723447
29	0x3d5b1e40	0.053495646
30	0x3a9fbe14	0.0012187385
31	0xbd8119cd	-0.06303749
32	0xbdf32a8c	-0.118733495
33	0xbe3f3ef2	-0.18676355
34	0xbe0906f3	-0.13381557
35	0x3e8121cc	0.25221097
36	0x3d6bce74	0.057569936
37	0x3db0929e	0.08621715
38	0xbe163c11	-0.14671351
39	0xbe5e53a8	-0.217116
40	0x3df92e8f	0.121670835
41	0x3eb8eb96	0.36117238
42	0xbdce3ddc	-0.100703925
43	0xbe0ff4f9	-0.14058293
44	0xbdc27185	-0.094943084
45	0x3c9da122	0.019241873
46	0xbdf64b81	-0.1202612
47	0xbe491423	-0.19636588
48	0x3cb36ad2	0.021901522
49	0xbc982162	-0.018570606
50	0xbe0830be	-0.13299844
51	0x3e537ad0	0.20652318
52	0x3e34fada	0.17673817
53	0x3ceb3673	0.028712487
54	0x3d82dbce	0.06389581
55	0xbe232bf0	-0.1593473
56	0xbe80e6cb	-0.2517608
57	0x3e4baa69	0.19889225
58	0xbe66ed9d	-0.2255158
59	0xbe142db4	-0.1447056
60	0x3dc03937	0.09385913
61	0xbe65f0ae	-0.22455093
62	0xbe055940	-0.13022327
63	0xbe56e68d	-0.20986386
64	0x3cf11ace	0.029431727
65	0xbe9ca31d	-0.30593196
66	0xbde6edcf	-0.11275827
67	0xbd0c1f52	-0.034209557
68	0xbe4df40c	-0.20112628
69	0xbdb41309	-0.08792693
70	0xbe69aa9c	-0.22818989
71	0xbddd8718	-0.10816783
72	0xbe1f59b5	-0.15561564
73	0xbe0b69aa	-0.13614526
74	0xbd903159	-0.07040662
75	0xbe541113	-0.20709638
76	0x3d8149f3	0.06312933
77	0xbece89ce	-0.40339512
78	0x3e29a417	0.16566502
79	0x3e176cef	0.14787649
80	0x3e41b5f2	0.18917063
81	0xbcb6e47f	-0.022325752
82	0xbdfc0f84	-0.12307647
83	0x3deba270	0.11505592
84	0xbc6a8eca	-0.01431627
85	0x3d891fbf	0.06695508
86	0x3cdb6873	0.026783204
87	0xbeec7fa9	-0.46191147
88	0xbef0fb63	-0.47066793
89	0x3e14fba3	0.14549117
90	0xbdd41bd4	-0.1035687
91	0xbe1f1731	-0.1553619
92	0x3d57d1fb	0.052690487
93	0x3e4d7e39	0.20067681
94	0x3efdb4e7	0.4955208
95	0x3ecd6ddf	0.40122887
96	0x3e8a30d9	0.26990393
97	0xbe001338	-0.12507331
98	0xbe2b3ba1	-0.16721965
99	0xbd715b31	-0.058924858
100	0x3cd0fdeb	0.025511703
101	0xbd4b10c4	-0.049576536
102	0xbd241a08	-0.040063888
103	0x3dfcd1ab	0.123446785
104	0x3cebeefc	0.02880048
105	0x3da60b7a	0.08107658
106	0x3dacea92	0.08443178
107	0x3dd2b47a	0.102883294
108	0x3de4a13b	0.11163565
109	0x3da6ea57	0.081501655
110	0xbddf9c8e	-0.10918532
111	0x39be4189	0.00036288452
112	0x3d5b1839	0.053489897
113	0x3d788687	0.06067517
114	0xbd8b4bde	-0.0680158
115	0xbd1f4888	-0.03888753
116	0xbc51d202	-0.012806417
117	0xbce383b7	-0.027772767
118	0x3d136e6e	0.035993986
119	0x3d405d2f	0.046963867
120	0xbb55b92e	-0.0032611596
121	0xbccd80e2	-0.02508587
122	0x3d87b390	0.06626046
123	0x3cf7b9ac	0.030239902
124	0xbdd90314	-0.1059629
125	0x3e5af99f	0.21384285
126	0x3e291821	0.1651311
127	0xbd791031	-0.060806457
128	0x3da1f9bf	0.079089634
129	0x3d0ec2be	0.03485369
130	0x3dc821d7	0.097720794
131	0x3dc6e5c9	0.09711797
132	0x3c829f85	0.015945205
133	0xbcb68a4e	-0.022282746
134	0xbc54b8f7	-0.012983552
135	0xbda48e68	-0.08034974
136	0xbce35092	-0.02774838
137	0x3c32e40b	0.0109186275
138	0xbe0eedce	-0.13957903
139	0x3c04f255	0.008114417
140	0x3d857a6c	0.06517491
141	0x3a77631d	0.0009437071
142	0xbccf8863	-0.025333589
143	0xbccd4254	-0.025056042
144	0x3b5925ae	0.003313403
145	0xbdbf1551	-0.09330238
146	0x3dec0a7a	0.11525436
147	0xbd41f90d	-0.047356654
148	0xba728d13	-0.0009252589
149	0x3c4399ec	0.011938553
150	0xbb1d0301	-0.002395809
151	0xbd550b87	-0.052012946
152	0x3d8aec9e	0.067834124
153	0x3e041fea	0.12902799
154	0xbdcd1ae8	-0.100148976
155	0x3ddf04c7	0.10889583
156	0x3cb4ba33	0.022061443
157	0x3d7de795	0.061988432
158	0x3dbd72fa	0.09250446
159	0x3e0584a1	0.13038875
160	0xbe02816e	-0.12744686
161	0x3d1167b6	0.035499297
162	0x3e1a64f8	0.15077579
163	0x3ce8b5af	0.028406946
164	0x3d10df29	0.035369072
165	0x3dc06851	0.09394897
166	0x3e2a8c85	0.16655166
167	0x3de17321	0.11008287
168	0x3d1e892a	0.03870503
169	0x3cb9d300	0.02268362
170	0xbcb8877f	-0.022525547
171	0x3da17e64	0.07885435
172	0x3d3adbf9	0.04561994
173	0x3dbc1083	0.09182837
174	0x3bb8994c	0.005633509
175	0x3c384309	0.011246451
176	0x3d069b3a	0.03286288
177	0x3d60d7e3	0.054893386
178	0xbc866913	-0.016407525
179	0xbd705b00	-0.058680534
180	0xbd207fac	-0.039184257
181	0xbd52940f	-0.05141073
182	0xbcaa8542	-0.020815495
183	0x3d1bc865	0.038032908
184	0xbdbf9bda	-0.09355898
185	0x3d49ce14	0.049268797
186	0x3e1c073b	0.15237133
187	0x3b9df086	0.0048199324
188	0xbd959036	-0.07302897
189	0x3d26f8e5	0.040764708
190	0x3dd48b22	0.103781
191	0x3d0c258d	0.0342155
192	0x3bf59ad1	0.007495262
193	0xbd8ced5b	-0.068812095
194	0x3da317b0	0.079635024
195	0x3d3bf567	0.04588833
196	0x3dd7fed6	0.10546653
197	0xbbe9ea5d	-0.007138534
198	0x3d763df5	0.06011768
199	0xbd8eade0	-0.06966758
200	0xbba0ff61	-0.004913256
201	0x3c56c7b3	0.013109135
202	0x3b32fd3f	0.002731159
203	0xbdad5b4e	-0.084646806
204	0xbd619a09	-0.05507854
205	0x3d013df0	0.03155321
206	0x3d4a6f50	0.049422562
207	0xbd197b00	-0.037470818
208	0xbd4b202f	-0.04959124
209	0xbd323f9c	-0.043517694
210	0x3ce9d814	0.028545417
211	0x3dfc26d2	0.12312092
212	0xbd0a4a96	-0.033762537
213	0xbe0d586e	-0.13803264
214	0xbd923e4c	-0.071407884
215	0x3bec0579	0.007202801
216	0x3d4083fc	0.04700087
217	0xbae3f1dc	-0.0017390805
218	0x3d3c18eb	0.0459222
219	0x3cd7cb2a	0.026341993
220	0xbd66e608	-0.05637172
221	0x3da4e905	0.080522574
222	0xbd9a6b65	-0.07540015
223	0xbda496d9	-0.080365844
224	0xbb130e30	-0.0022438876
225	0x3d99ac41	0.07503558
226	0x3d546f78	0.051864117
227	0x3d339dcf	0.04385167
228	0xbd2e1afd	-0.042506207
229	0xbc550f0d	-0.013004077
230	0x3c9fb89d	0.01949721
231	0x3cb1c7f9	0.0217018
232	0xbe03e946	-0.12881956
233	0x3d9c3aa6	0.07628374
234	0xbdc77e22	-0.09740855
235	0xbc8d27b3	-0.017230844
236	0xbda421a5	-0.0801423
237	0xbdbc1563	-0.09183767
238	0xbdb39e65	-0.08770446
239	0xbdae638f	-0.08515083
240	0xbdd5980f	-0.104293935
241	0xbc782fa7	-0.01514808
242	0xbd9ea8ef	-0.07747065
243	0xbdc84664	-0.09779051
244	0xbd4682b2	-0.048464485
245	0x3bde4c14	0.0067839716
246	0x3c71d2cd	0.0147597315
247	0x3d81df03	0.06341364
248	0xbd973a1a	-0.07384129
249	0xbd670922	-0.056405194
250	0xbd7422c1	-0.059603456
251	0x3d4d6952	0.05014927
252	0x3d40e424	0.04709257
253	0x3d8e9606	0.069622084
254	0xbc65d754	-0.014028389
255	0xbd801258	-0.06253499

fc.1.bias f4 [100]
0	0xbf03d297	-0.5149321
1	0x3e397d9c	0.18114322
2	0xbd3a59a8	-0.04549566
3	0x3dc74c50	0.09731352
4	0x3e2c2e65	0.16814573
5	0x3e1eea6a	0.1551911
6	0x3d3920b4	0.045197204
7	0x3e8033c0	0.25039482
8	0xbea586e5	-0.3232948
9	0xbd2b1240	-0.04176545
10	0x3d728025	0.05920424
11	0xba58c904	-0.00082697
12	0xbe6d8c1c	-0.23197979
13	0xbf3ffa50	-0.7499132
14	0xbefae343	-0.49001512
15	0xbe761567	-0.24031602
16	0xbf16c406	-0.5889286
17	0xbec8a60a	-0.39189178
18	0xbdf87806	-0.12132268
19	0xbed14dd4	-0.4087969
20	0xbea649ac	-0.32478082
21	0xbb55b7bc	-0.0032610735
22	0x3e81d2b8	0.25356078
23	0x3ee665ce	0.44999546
24	0x3c18aff0	0.0093192905
25	0x3e63d4b1	0.22249104
26	0x3ebebb08	0.3725207
27	0x3e4cf611	0.20015742
28	0xbbec6d6c	-0.0072151925
29	0xbeef19f9	-0.46699503
30	0xbed23678	-0.4105718
31	0xbdf5772e	-0.11985622
32	0x3e7198ad	0.23593397
33	0x3d9af297	0.075658016
34	0xbf3dcf87	-0.74144787
35	0xbea75666	-0.32683104
36	0xbdd071a6	-0.10177927
37	0xbd5e8cc5	-0.054333467
38	0x3dbde8e2	0.092729345
39	0x3d44dd3b	0.048062544
40	0x3caaa112	0.020828757
41	0x3c3e31e9	0.011608579
42	0xbf067333	-0.5251953
43	0xbceb25ca	-0.028704543
44	0x3d0ecad9	0.03486142
45	0xbec2246d	-0.37918416
46	0xbf2a6723	-0.66563624
47	0x3d2ddc12	0.042446204
48	0xbe5004e2	-0.20314363
49	0xbeb2c4a4	-0.3491565
50	0x3e329ea1	0.17443325
51	0xbdf568d4	-0.11982885
52	0x3c84f967	0.016232206
53	0xbf40e88b	-0.7535483
54	0x3d575bb4	0.05257769
55	0xbd612f96	-0.054977022
56	0xbebb670e	-0.36602062
57	0x3cd15c77	0.025556786
58	0x3d00f340	0.03148198
59	0xbf2ad742	-0.6673471
60	0xbd0c4323	-0.034243714
61	0xbd3491b2	-0.04408426
62	0xbecf929d	-0.40541545
63	0xbf0b4f78	-0.54418135
64	0x3dd4ed4f	0.103968255
65	0x3e24c56c	0.16090935
66	0xbed618fb	-0.41815934
67	0xbd35e26b	-0.044405382
68	0xbea50722	-0.32232004
69	0xbebfc2ce	-0.37453312
70	0xbef5cb72	-0.4800678
71	0xbe9f3ed2	-0.31102616
72	0x3e0f668b	0.14003961
73	0x3dfc6081	0.12323094
74	0x3d6fa896	0.058510385
75	0xbc13ed56	-0.009028753
76	0xbf0172e5	-0.5056594
77	0xbca17999	-0.019711303
78	0x3d9a8a9f	0.07545971
79	0xbf0b8796	-0.5450376
80	0xbe1e2d99	-0.15447082
81	0xbd4985b6	-0.049199782
82	0x3d2a9869	0.041649256
83	0xbe0d49e8	-0.13797724
84	0xbe79d316	-0.24396929
85	0x3e929a17	0.28633186
86	0xbe8cf8c4	-0.27533543
87	0xbd9b3bdf	-0.07579779
88	0x3e41aaac	0.18912762
89	0xbe229447	-0.15876876
90	0xbf26090b	-0.6485755
91	0xbc36f250	-0.01116617
92	0xbe8b64ab	-0.2722524
93	0x3e87a35d	0.26491824
94	0xbf2221a2	-0.6333257
95	0x3d3eb98a	0.046563663
96	0xbf355597	-0.70833725
97	0xbe980fe5	-0.29699627
98	0xbf065928	-0.5247979
99	0xbef6525b	-0.48109707

fc.2.weight f4 [4, 100]
0	0xbcdc0058	-0.026855633
1	0x3b3c43ec	0.0028727008
2	0xbda37074	-0.07980433
3	0xbdb59ea6	-0.088681504
4	0xbea17ca8	-0.31540418
5	0xbc1d0543	-0.009583774
6	0xbda42c69	-0.08016283
7	0x3b1e93cb	0.0024196978
8	0x3ee89f6b	0.45434126
9	0x3d7865d3	0.060643982
10	0x3de196f6	0.11015122
11	0x3dbae778	0.091261804
12	0x3c97d2bc	0.018533103
13	0xbd5ef7b9	-0.054435465
14	0xbd0b6f3d	-0.034041632
15	0xbe1cc73f	-0.15310381
16	0xbe9c1508	-0.30484796
17	0xbce2e67f	-0.0276978
18	0xbe1d0c3c	-0.15336698
19	0xbeaf3699	-0.34221342
20	0x3c63b783	0.013898733
21	0xbd47d6af	-0.048788723
22	0x3d89ec70	0.0673455
23	0x3d2af70f	0.04173952
24	0xbaa69d70	-0.0012711715
25	0x3e87b3c2	0.26504332
26	0x3d0f64fe	0.035008423
27	0xbdaf9270	-0.085728526
28	0xbc436b47	-0.011927432
29	0xbca54961	-0.020176591
30	0xbe7132c8	-0.23554528
31	0x3d3132ac	0.043261215
32	0x3da26c9b	0.07930871
33	0xbdea589d	-0.11442683
34	0xbc7e644f	-0.015526845
35	0xbc71917c	-0.014744159
36	0xbd958538	-0.073008
37	0x3da48474	0.08033076
38	0x3e4152bc	0.18879217
39	0xbdcab859	-0.09898443
40	0x3ca1913e	0.019722577
41	0xbc324f2f	-0.010883137
42	0xbf006819	-0.5015884
43	0x3e1d8137	0.15381323
44	0xbcfb3732	-0.030665968
45	0xbe4f78dd	-0.2026095
46	0xbaacf2a0	-0.0013194866
47	0x3c960efa	0.018317688
48	0x3c2d1726	0.010564601
49	0xbdc19a48	-0.09453255
50	0x3e5bce94	0.21465522
51	0xbf0c5ca3	-0.5482885
52	0xbe31df46	-0.17370328
53	0xbcbc2ffe	-0.022972103
54	0xbcee9c81	-0.029127361
55	0xbda394eb	-0.07987388
56	0xbb80d35a	-0.003931445
57	0xbd9e5f54	-0.07733026
58	0x3cdc5ae8	0.026898816
59	0xbd926b3d	-0.0714936
60	0xbd94faaf	-0.072743766
61	0x3cb6ef58	0.022330925
62	0xbd3e2eb5	-0.046431262
63	0x3c4dd50f	0.012563004
64	0x3cc79e88	0.024367586
65	0xbe6ec602	-0.23317721
66	0x3f780c30	0.96893597
67	0xbc0bbc84	-0.008528832
68	0x3e8c1ff1	0.2736812
69	0xbe9d0c33	-0.3067337
70	0xbd39fba3	-0.045405995
71	0x3da1a34c	0.078924745
72	0xbe673b29	-0.22581162
73	0xbc835c26	-0.01603515
74	0x3b80a5fc	0.003926037
75	0x3db1b2bb	0.08676668
76	0xbe0464f5	-0.12929137
77	0xbdba114a	-0.09085329
78	0x3d059e7c	0.032621846
79	0xbef80dd0	-0.48448038
80	0xbe725038	-0.23663414
81	0xbd3310dd	-0.043717254
82	0xbc990d89	-0.018683212
83	0x3de9bf78	0.11413473
84	0x3e74117c	0.23834795
85	0xbe861f73	-0.2619587
86	0x3db8141c	0.089882106
87	0xbcee3683	-0.029078728
88	0x3d1cd1fb	0.03828619
89	0xbe286ae5	-0.16447027
90	0x3d838afb	0.06422993
91	0xbd4ba311	-0.04971606
92	0x3f038da1	0.51387984
93	0xbdb5108d	-0.088410474
94	0xbda80b21	-0.08205248
95	0x3cd9344b	0.026514193
96	0x3f274469	0.6533876
97	0xbd8d7c25	-0.06908444
98	0xbc9d36a4	-0.019191094
99	0xbc30ca4d	-0.01079042
100	0xbc8b6d52	-0.017019901
101	0xbc598bea	-0.013277987
102	0x3c82c623	0.01596362
103	0x3ca6a0ed	0.020340407
104	0x3dc3420b	0.09534081
105	0xbd28d5b4	-0.04121943
106	0xbd5ccd08	-0.05390647
107	0xbbc09648	-0.00587729
108	0xbcc45277	-0.023965104
109	0xbd8312e5	-0.06400088
110	0xbbbeec66	-0.0058265207
111	0x3eaa5c1f	0.33273408
112	0x3d3c92c7	0.046038415
113	0x3d8a1c89	0.06743724
114	0xbd842220	-0.06451821
115	0xbf006f95	-0.5017026
116	0x3f3747cc	0.7159393
117	0xbbe37c58	-0.006942313
118	0xbe11eede	-0.14251277
119	0x3c3021bd	0.010750231
120	0xbc9e3374	-0.019311644
121	0xbd93f751	-0.07224906
122	0xbc0ab69e	-0.008466391
123	0xbcb6f604	-0.022334106
124	0x3dcd0b76	0.100119516
125	0xbe5cb35c	-0.21552795
126	0xbda6245a	-0.08112402
127	0xbd42a21e	-0.04751789
128	0xbd8b5e1b	-0.068050586
129	0x3c917e06	0.017760288
130	0x3e8c9afb	0.2746199
131	0xbeb2c21c	-0.3491372
132	0x3da906b0	0.08253229
133	0xbc7da395	-0.0154808955
134	0x3ddf4ffa	0.10903926
135	0x3d8f20eb	0.069887005
136	0x3cb55f5c	0.022140197
137	0xbcfb2c0b	-0.03066065
138	0x3df474f3	0.11936369
139	0x3d0e056a	0.034673132
140	0xbbaaa80a	-0.00520802
141	0xbc2333eb	-0.009961109
142	0xbf21016c	-0.62892795
143	0xbe943f6e	-0.28954643
144	0xbd5d8276	-0.054079495
145	0x3e9ed0cb	0.3101867
146	0x3d0c7c14	0.034298018
147	0x397dcb80	0.0002420377
148	0xbc2e6980	-0.01064527
149	0x3f0b0c71	0.5431586
150	0x3ead471c	0.33843315
151	0xbda10caf	-0.07863747
152	0x3e8a3f1b	0.2700127
153	0xbd01fc36	-0.031734668
154	0xbc86872d	-0.016421879
155	0xbd30e1aa	-0.04318396
156	0x3c5ba463	0.013405892
157	0x3e02b5eb	0.12764709
158	0x3d181855	0.03713258
159	0x3f89bc87	1.0760659
160	0xbc6b3911	-0.014356867
161	0x3d52c075	0.051453073
162	0xbced8560	-0.028994262
163	0x3b539a63	0.0032288067
164	0x3c6068d4	0.013696868
165	0xbe48d7cf	-0.19613574
166	0x3b6f0173	0.003646937
167	0xbd119a66	-0.035547636
168	0x3e467c95	0.19383462
169	0xbf2669ca	-0.6500517
170	0xbc9d9ee9	-0.019240813
171	0xbda095b7	-0.07841056
172	0x3e44bc22	0.19212392
173	0xbc3303bc	-0.010926183
174	0xbb4f65fc	-0.003164648
175	0xbbc0394c	-0.0058662053
176	0xbeed9004	-0.46398938
177	0xbda37d46	-0.079828784
178	0x3c63f49d	0.013913301
179	0xbf475243	-0.77859896
180	0xbe9186ef	-0.2842326
181	0x3ccee48a	0.02525546
182	0xbc5ac58e	-0.013352765
183	0x3db5b835	0.08873025
184	0x3f4d2f78	0.80150557
185	0xbe5cd7f7	-0.21566759
186	0xbf64cbdf	-0.8937358
187	0xbd2005ee	-0.039068155
188	0x3d51c32f	0.051211532
189	0xbe18a7a4	-0.149077
190	0xbd284a24	-0.04108633
191	0x3b06fbfd	0.0020596974
192	0x3d0c2f78	0.034224957
193	0x3d8e15f1	0.06937779
194	0x3d45d7bb	0.04830144
195	0x3d367ff3	0.044555616
196	0x3ea525a2	0.32255274
197	0x3bf8ff03	0.007598759
198	0x3cbd6ba2	0.023122612
199	0x3de2bca1	0.11071134
200	0xbd0c0845	-0.034187574
201	0x3dcdeeca	0.10055311
202	0x3c731f6d	0.014839035
203	0xbd699f88	-0.057036906
204	0xbab78ffd	-0.0014004704
205	0xbcf0cc86	-0.0293944
206	0x3e045243	0.12922005
207	0x3d578b87	0.052623298
208	0x3a05f2d8	0.0005109734
209	0xbd9dc65f	-0.07703852
210	0x3d98951d	0.07450316
211	0xbb84dd7d	-0.004054724
212	0xbd900495	-0.07032124
213	0x3c30440b	0.01075841
214	0xbc8a3949	-0.016873019
215	0xb903f994	-0.00012586109
216	0x3cdfdc9c	0.027326874
217	0xbc77b25c	-0.015118208
218	0xbb700770	-0.0036625527
219	0x3a2af634	0.00065216725
220	0xbcacae78	-0.021079287
221	0x3d573dae	0.052549057
222	0x3c2ffd3b	0.010741527
223	0xbd443c4f	-0.047909077
224	0x3bc2dfe8	0.005947102
225	0xb9d99621	-0.0004150132
226	0x3c90c217	0.017670674
227	0xbe143d5b	-0.1447653
228	0xbdf4dc7d	-0.11956117
229	0xbbcea8e1	-0.006306753
230	0x3a99a7a8	0.0011722939
231	0x3adf6cc2	0.0017045962
232	0xbc58160e	-0.013188852
233	0x3d96f1ed	0.073703624
234	0x3b73f349	0.0037223867
235	0x3cf19fda	0.029495168
236	0xbdaf420f	-0.085575216
237	0xbb273589	-0.0025514087
238	0xbb8a4b63	-0.0042204126
239	0x3d5a09a8	0.053231865
240	0x3da8a7c9	0.082351275
241	0x3dae0b00	0.08498192
242	0xbb05ee7f	-0.0020436344
243	0x397af1bf	0.00023931915
244	0x3dd45992	0.10368647
245	0x3c73d523	0.014882359
246	0x3c8b2c59	0.01698892
247	0x3e128505	0.14308555
248	0x3ca9fb6a	0.020749766
249	0xb9dba7d4	-0.00041895977
250	0x3a25b241	0.00063208124
251	0xbc5a5495	-0.01332583
252	0xba9576f6	-0.0011403251
253	0x3c4a0b62	0.012331815
254	0xbdad0589	-0.08448321
255	0x3db48dda	0.088161185

fc.2.bias f4 [4]
0	0xbd46137b	-0.04835842
1	0xbdfdb23c	-0.12387511
2	0x3d082ce9	0.033245955
3	0x3de8e088	0.11370951
