model/unicycle-FC3-100-rk4/epoch_900.pth (torch, 47077 bytes, 6 tensors)

fc.0.weight f4 [100, 6]
-0.00013139831 2.5225036e-05 0.24245384 -0.75271285 -0.00045460707 -0.00028402443 -0.0045242826 -0.050229758
-0.13267392 0.56251466 -0.0010459336 0.013380756 0.12940225 -0.19764169 -0.016469335 0.06189072
-0.26048574 -0.21292274 -0.036659922 0.20753549 0.069853716 0.6770003 0.06572536 -0.018564897
0.13965622 0.25469795 0.16601716 0.14820158 -0.07479494 -0.092782825 0.19669592 0.25810102
-0.35272732 -0.22790547 0.21220593 0.22631276 -0.012221754 -0.005389629 0.13782793 -0.05162783
0.0072275233 0.30914956 -0.11312178 -0.078372344 -0.18917532 0.23332292 0.07304697 0.57707924
0.16228452 -0.2712422 0.6386103 0.03573265 0.25849614 0.16684386 -0.020596879 0.10683381
-0.27171633 0.4650934 -0.0066187023 0.013733753 -0.016345963 -0.007442764 0.28454858 0.052279323
-0.14400165 -0.09091404 -0.11706479 -0.033162184 -0.3895137 -0.7514407 -0.0064606955 -0.006599354
0.14297536 0.09920341 0.22905853 -0.29234806 -0.090614 -0.7235754 -0.033058796 -0.060733415
-0.17911597 -0.04999292 0.08441626 -0.22245225 0.11834273 -0.23853593 -0.4557426 0.24727343
-0.21515092 0.28702265 0.10521941 0.024027117 -0.03215881 -0.8632885 0.010322084 0.023632098
-0.17422646 0.29031822 -0.683319 -0.037221648 -0.27622074 -0.17760083 0.029834304 0.066459544
0.61561793 -0.14409249 -0.019680131 0.019361433 -0.12380937 -0.11232354 -0.2530287 -0.36992887
0.011880487 0.042418163 0.15329364 -0.1645947 0.19113907 -0.25298074 0.00833432 -0.059523568
0.12938337 -0.21903355 0.39297643 -0.2969539 0.08793264 0.15452048 -0.020690966 -0.013753076
0.1543693 0.5450371 -0.02081323 -0.24779071 0.033945993 -0.12812814 0.25664052 -0.6806217
0.031965468 -0.012605361 0.19019377 0.09306484 -0.39707434 0.68191916 -0.068457335 -0.0072580064
-0.19181211 -0.10666501 -0.45511717 -0.61103576 -0.0029631164 -0.36305225 -0.13305382 0.16145998
-0.47049105 0.88611746 0.47784254 0.2138902 0.032436077 -0.046239387 0.4809415 -0.43704495
0.6910347 -0.27377144 -0.32917273 -0.06757252 0.5419726 -0.16955404 -0.25705394 -0.21973301
0.2442042 -0.3900467 -0.6563489 -0.30893314 0.364379 -0.35390243 -0.007588625 0.021793412
-0.39992467 0.81514245 -0.0016883793 0.00650608 -0.07002476 0.20151547 0.18533304 -0.3528405
0.050147206 0.05097674 -0.08914164 0.16237755 0.32431558 -0.13090205 -0.07671856 0.09553687
-0.12996076 -0.032954294 0.63230914 0.49165478 0.018711142 -0.06130646 -0.022928013 -0.04120904
0.07577993 0.27566645 -0.044146843 0.16561395 0.0630028 0.013784743 0.25658193 -1.045182
-0.0058941334 0.028696198 0.042790808 -0.018740209 -0.3413548 -0.88889855 -7.7932666e-05 -0.019918589
0.08143998 0.075120136 -0.15286483 -0.16904527 -0.037540134 -0.5264272 5.9616443e-05 0.0055240877
-0.29364368 -0.8832952 0.0006472414 -0.001718246 -0.027675673 0.04052512 -0.4158866 0.37899527
-0.59965026 0.23716627 0.015050266 -0.10639591 -0.30947137 0.7551322 -0.00021973327 -0.054613892
-0.012157441 0.020154476 -0.4778819 -0.57165986 -0.0024672395 -0.02186738 -0.013622876 -0.035009228
-0.32043216 -0.9551272 0.0020728202 0.013751692 -0.18099986 0.22919345 -0.07495068 0.12501177
00000000: f7c7 09b9 5a9a d337 d245 783e cab1 40bf
00000010: 5458 eeb9 1de9 94b9 6f40 94bb b8bd 4dbd
00000020: acdb 07be f600 103f b517 89ba f53a 5b3c
00000030: 0682 043e 9562 4abe b3ea 86bc 2081 7d3d
00000040: 635e 85be 6b08 5abe b728 16bd 2f84 543e
00000050: 770f 8f3d e44f 2d3f 049b 863d 6915 98bc
00000060: 0a02 0f3e c567 823e 6700 2a3e 28c2 173e
00000070: 172e 99bd ec04 bebd a86a 493e d125 843e
00000080: ad98 b4be 0d60 69be 834c 593e 88be 673e
00000090: c03d 48bc 7c9b b0bb c422 0d3e b477 53bd
000000a0: dcd4 ec3b da48 9e3e 64ac e7bd ae81 a0bd
000000b0: 2db7 41be 34ec 6e3e a699 953d 77bb 133f
000000c0: ea2d 263e 42e0 8abe f77b 233f 665c 123d
000000d0: 9b59 843e 1ed9 2a3e c9ba a8bc afcb da3d
000000e0: 671e 8bbe b920 ee3e b3e1 d8bb 8903 613c
000000f0: f8e7 85bc 6ee2 f3bb 5ab0 913e d822 563d
00000100: 2b75 13be 2431 babd aabf efbd 12d5 07bd
00000110: 576e c7be 6b5e 40bf 3eb4 d3bb 653f d8bb
00000120: 2268 123e 282b cb3d 528e 6a3e a5ae 95be
00000130: d593 b9bd 3d3c 39bf a968 07bd 9ac3 78bd
00000140: 2d6a 37be 60c5 4cbd 6fe2 ac3d 86ca 63be
00000150: ac5d f23d c342 74be 1857 e9be 3f35 7d3e
00000160: 8650 5cbe a2f4 923e 467d d73d 84d4 c43c
00000170: f5b8 03bd 7a00 5dbf f51d 293c 1a98 c13c
00000180: 6c68 32be 97a4 943e feed 2ebf ba75 18bd
00000190: ce6c 8dbe fedc 35be 1267 f43c f11b 883d
000001a0: 2399 1d3f fb8c 13be 3a38 a1bc de9b 9e3c
000001b0: c48f fdbd e209 e6bd fa8c 81be 5167 bdbe
000001c0: 60a6 423c abbe 2d3d 02f9 1c3e 838b 28be
000001d0: f6b9 433e b186 81be ac8c 083c fcce 73bd
000001e0: 137d 043e 554a 60be 3534 c93e 570a 98be
000001f0: 0716 b43d 9e3a 1e3e 1a80 a9bc 9554 61bc
00000200: fc12 1e3e 8d87 0b3f 8280 aabc d9bc 7dbe
00000210: f40a 0b3d 0634 03be 6366 833e 393d 2ebf
00000220: 39ee 023d b786 4ebc 28c2 423e c798 be3d
00000230: 544d cbbe 4192 2e3f 5c33 8cbd 92d4 edbb
00000240: 656a 44be 2f73 dabd 1e05 e9be d76c 1cbf
00000250: d830 42bb fce1 b9be 433f 08be c455 253e
00000260: 34e4 f0be 98d8 623f c7a7 f43e 0806 5b3e
00000270: b1db 043d 8365 3dbd f73d f63e 5bc4 dfbe
00000280: a6e7 303f c52b 8cbe 5489 a8be 7663 8abd
00000290: b7be 0a3f 939f 2dbe 939c 83be b101 61be
000002a0: aa10 7a3e 33b4 c7be 7b06 28bf 7c2c 9ebe
000002b0: e28f ba3e b332 b5be 00aa f8bb 1988 b23c
000002c0: edc2 ccbe 2dad 503f 9c4c ddba f430 d53b
000002d0: 2469 8fbd 125a 4e3e f2c7 3d3e 83a7 b4be
000002e0: 2867 4d3d fccc 503d e48f b6bd 4d46 263e
000002f0: b10c a63e 300b 06be 9f1e 9dbd d6a8 c33d
00000300: 6f14 05be 15fb 06bd 03df 213f 2dba fb3e
00000310: 1c48 993c 7c1c 7bbd 87d3 bbbc cfca 28bd
00000320: 8232 9b3d 2724 8d3e 52d3 34bd b496 293e
00000330: 9d07 813d 67d9 613c b55e 833e 86c8 85bf
00000340: 9323 c1bb 4a14 eb3c 6a45 2f3d 1185 99bc
00000350: 0ec6 aebe db8e 63bf c86f a3b8 4f2c a3bc
00000360: 01ca a63d 96d8 993d 9988 1cbe 341a 2dbe
00000370: afc3 19bd efc3 06bf ab0c 7a38 6803 b53b
00000380: 7758 96be a21f 62bf a3ab 293a c536 e1ba
00000390: 18b8 e2bc abfd 253d 17ef d4be ab0b c23e
000003a0: ae82 19bf b7db 723e 6495 763c 19e6 d9bd
000003b0: 0873 9ebe 5850 413f 3368 66b9 d1b2 5fbd
000003c0: 0130 47bc 001b a53c f0ac f4be 4d58 12bf
000003d0: 69b1 21bb 3823 b3bc 7c32 5fbc d665 0fbd
000003e0: af0f a4be 3783 74bf 27d8 073b c74e 613c
000003f0: 0758 39be b0b1 6a3e be7f 99bd 1603 003e

fc.0.bias f4 [100]
-1.0446416 -0.77415776 -0.64551955 1.0141732 1.1057917 -0.5757026 1.3866322 0.24707559
-0.35111746 0.17110515 1.5071143 -1.4386874 -0.31560823 1.4361361 0.1115505 0.8795551
0.37170354 -0.69279116 -1.5346489 -0.2836236 -0.47651008 1.4609461 -1.1404366 0.15710326
0.7285635 -0.3598556 0.0182617 0.18811487 -0.4398268 -1.31153 -0.7210702 0.5329172
-1.1515567 0.9151913 1.0648683 -0.60739857 -0.7971127 -0.47726303 -0.015829707 0.5052081
-0.25961867 -0.88356036 -0.42742944 0.44345507 0.7731202 0.3178514 0.88249665 0.688944
-0.79885805 -0.1051553 -1.2166685 -1.1562278 -1.2743285 -0.55341375 -0.6813567 1.3590773
0.7566595 -0.5052786 0.97614104 1.276969 -0.7532465 -0.75358695 -0.392975 -1.1001643
-0.3022645 0.7699315 -0.17548992 0.710854 1.3347919 0.85780764 1.5097398 0.81064767
1.5997801 1.2662942 0.9516169 0.30117333 0.987019 1.6771401 -0.9968262 -0.74129736
-0.75706255 0.4113359 0.3921913 -0.23704045 -0.7091683 -0.2698781 -0.6828655 1.172658
1.6987269 -0.7948408 0.79431814 -0.80400103 0.4150455 -0.7327675 -0.7984229 -1.2371093
0.2265638 0.7586728 0.9815745 0.58169705
00000000: d1b6 85bf 342f 46bf c540 25bf 6dd0 813f
00000010: 958a 8d3f 3f61 13bf 2a7d b13f 6201 7d3e
00000020: abc5 b3be 3036 2f3e 1fe9 c03f e926 b8bf
00000030: 6797 a1be 4fd3 b73f 9774 e43d 862a 613f
00000040: ed4f be3e c35a 31bf 606f c4bf 1d37 91be
00000050: 21f9 f3be 4800 bb3f d4f9 91bf addf 203e
00000060: 2383 3a3f fe3e b8be 9099 953c 2fa1 403e
00000070: fa30 e1be 37e0 a7bf 0e98 38bf 436d 083f
00000080: 3666 93bf fa49 6a3f 9b4d 883f 797e 1bbf
00000090: 940f 4cbf d25b f4be 4dad 81bc 5155 013f
000000a0: bdec 84be 0331 62bf 08d8 dabe 8b0c e33e
000000b0: 35eb 453f 6bbd a23e 4deb 613f a25e 303f
000000c0: f681 4cbf a95b d7bd cbbb 9bbf 46ff 93bf
000000d0: 321d a3bf 86ac 0dbf 656d 2ebf 3ff6 ad3f
000000e0: 70b4 413f f059 01bf 61e4 793f b873 a33f
000000f0: c3d4 40bf 13eb 40bf 0534 c9be 2fd2 8cbf
00000100: 6ac2 9abe 3b1a 453f a1b3 33be 87fa 353f
00000110: 76da aa3f 4899 5b3f 273f c13f 9b86 4f3f
00000120: 98c5 cc3f ee15 a23f 2a9d 733f 6433 9a3e
00000130: 47ad 7c3f 87ac d63f 0030 7fbf aac5 3dbf
00000140: dace 41bf 9e9a d23e 4ccd c83e bbba 72be
00000150: 0e8c 35bf 762d 8abe 46d0 2ebf a819 963f
00000160: e26f d93f b07a 4bbf 6f58 4b3f 03d3 4dbf
00000170: d880 d43e a796 3bbf 7165 4cbf 9959 9ebf
00000180: 5700 683e 6138 423f 7748 7b3f 19ea 143f

fc.1.weight f4 [100, 100]
0.24227686 -0.340462 -0.18497695 -0.113726236 -0.31315675 0.082639605 -0.26135737 -0.074664265
-0.120128594 -0.124357745 -0.48557237 0.18311854 0.18208504 -0.16117744 -0.18382806 -0.10714624
-0.056070194 0.10538386 0.15437365 -0.002562945 0.2747358 -0.67605674 0.21646294 -0.23122147
-0.17306548 -0.14498886 0.061434858 -0.07099033 0.09723447 0.053495646 0.0012187385 -0.06303749
-0.118733495 -0.18676355 -0.13381557 0.25221097 0.057569936 0.08621715 -0.14671351 -0.217116
0.121670835 0.36117238 -0.100703925 -0.14058293 -0.094943084 0.019241873 -0.1202612 -0.19636588
0.021901522 -0.018570606 -0.13299844 0.20652318 0.17673817 0.028712487 0.06389581 -0.1593473
-0.2517608 0.19889225 -0.2255158 -0.1447056 0.09385913 -0.22455093 -0.13022327 -0.20986386
0.029431727 -0.30593196 -0.11275827 -0.034209557 -0.20112628 -0.08792693 -0.22818989 -0.10816783
-0.15561564 -0.13614526 -0.07040662 -0.20709638 0.06312933 -0.40339512 0.16566502 0.14787649
0.18917063 -0.022325752 -0.12307647 0.11505592 -0.01431627 0.06695508 0.026783204 -0.46191147
-0.47066793 0.14549117 -0.1035687 -0.1553619 0.052690487 0.20067681 0.4955208 0.40122887
0.26990393 -0.12507331 -0.16721965 -0.058924858 0.024960352 -0.050253533 -0.04088285 0.12342647
0.029541457 0.0805297 0.08510054 0.10394083 0.11203148 0.08154372 -0.10868703 -0.0008000435
0.054385696 0.061133463 -0.0689403 -0.038496643 -0.012612574 -0.02867717 0.035011236 0.046578236
-0.0039011014 -0.023992345 0.06563443 0.029639369 -0.10596492 0.21405986 0.165629 -0.059679963
0.07784232 0.03452144 0.10146892 0.09733337 0.015150934 -0.022276126 -0.01250604 -0.08098251
-0.026848491 0.009359532 -0.13979107 0.0078220945 0.06540162 0.0007544706 -0.025855325 -0.024572082
0.003299602 -0.09271849 0.11573309 -0.047309663 -0.001547269 0.012097877 -0.0032096487 -0.051689856
0.06723735 0.12869371 -0.10097011 0.10934546 0.021675654 0.06288981 0.09250698 0.13100313
-0.12785551 0.034812402 0.15074849 0.028183665 0.034857143 0.09505372 0.16592512 0.11025034
0.039158385 0.022886246 -0.022688247 0.07899087 0.046258364 0.092638 0.0059795408 0.011394868
0.033128683 0.054875847 -0.016672052 -0.063807026 -0.03964588 -0.050810397 -0.020865675 0.038922627
-0.09438325 0.04931157 0.15213332 0.004516112 -0.073043264 0.040876154 0.104355305 0.03330385
0.007956705 -0.06850321 0.07934218 0.04491983 0.1054383 -0.006859498 0.06002546 -0.06932092
-0.004913256 0.013109135 0.002731159 -0.084646806 -0.05507854 0.03155321 0.049422562 -0.037470818
-0.04959124 -0.043517694 0.028545417 0.12312092 -0.033762537 -0.13803264 -0.071407884 0.007202801
0.04700087 -0.0017390805 0.0459222 0.026341993 -0.05637172 0.080522574 -0.07540015 -0.080365844
-0.0022438876 0.07503558 0.051864117 0.04385167 -0.042506207 -0.013004077 0.01949721 0.0217018
-0.12881956 0.07628374 -0.09740855 -0.017230844 -0.0801423 -0.09183767 -0.08770446 -0.08515083
-0.104293935 -0.01514808 -0.07747065 -0.09779051 -0.048464485 0.0067839716 0.0147597315 0.06341364
-0.07384129 -0.056405194 -0.059603456 0.05014927 0.04709257 0.069622084 -0.014028389 -0.06253499
00000000: 6d17 783e 0951 aebe 996a 3dbe 4de9 e8bd
00000010: 1556 a0be f43e a93d a2d0 85be 94e9 98bd
00000020: fb05 f6bd 46af febd f19c f8be 6d83 3b3e
00000030: 8074 3a3e b30b 25be 6c3d 3cbe 7d6f dbbd
00000040: dca9 65bd 7ed3 d73d 2014 1e3e 15f7 27bb
00000050: 2caa 8c3e 0e12 2dbf 76a8 5d3e 52c5 6cbe
00000060: 1438 31be f677 14be 1ea3 7b3d 6163 91bd
00000070: de22 c73d 401e 5b3d 14be 9f3a cd19 81bd
00000080: 8c2a f3bd f23e 3fbe f306 09be cc21 813e
00000090: 74ce 6b3d 9e92 b03d 113c 16be a853 5ebe
000000a0: 8f2e f93d 96eb b83e dc3d cebd f9f4 0fbe
000000b0: 8571 c2bd 22a1 9d3c 814b f6bd 2314 49be
000000c0: d26a b33c 6221 98bc be30 08be d07a 533e
000000d0: dafa 343e 7336 eb3c cedb 823d f02b 23be
000000e0: cbe6 80be 69aa 4b3e 9ded 66be b42d 14be
000000f0: 3739 c03d aef0 65be 4059 05be 8de6 56be
00000100: ce1a f13c 1da3 9cbe cfed e6bd 521f 0cbd
00000110: 0cf4 4dbe 0913 b4bd 9caa 69be 1887 ddbd
00000120: b559 1fbe aa69 0bbe 5931 90bd 1311 54be
00000130: f349 813d ce89 cebe 17a4 293e ef6c 173e
00000140: f2b5 413e 7fe4 b6bc 840f fcbd 70a2 eb3d
00000150: ca8e 6abc bf1f 893d 7368 db3c a97f ecbe
00000160: 63fb f0be a3fb 143e d41b d4bd 3117 1fbe
00000170: fbd1 573d 397e 4d3e e7b4 fd3e df6d cd3e
00000180: d930 8a3e 3813 00be a13b 2bbe 315b 71bd
00000190: a779 cc3c a6d6 4dbd c674 27bd 04c7 fc3d
000001a0: ed00 f23c c1ec a43d 3149 ae3d eede d43d
000001b0: c370 e53d 6500 a73d 4e97 debd 03ba 51ba
000001c0: 89c3 5e3d 1567 7a3d 9230 8dbd a8ae 1dbd
000001d0: f8a4 4ebc 62ec eabc f167 0f3d d2c8 3e3d
000001e0: 9fa9 7fbb 988b c4bc 586b 863d 43ce f23c
000001f0: 2304 d9bd 8232 5b3e a69a 293e fa72 74bd
00000200: cb6b 9f3d 5a66 0d3d f0ce cf3d b856 c73d
00000210: a03b 783c 6c7c b6bc 22e6 4cbc 28da a5bd
00000220: 5ef1 dbbc b958 193c 6425 0fbe 3e28 003c
00000230: 49f1 853d aac7 453a 8cce d3bc 644b c9bc
00000240: 233e 583b 31e3 bdbd 7805 ed3d c7c7 41bd
00000250: bccd caba 2d36 463c f858 52bb beb8 53bd
00000260: bcb3 893d 49c8 033e 6bc9 cebd 83f0 df3d
00000270: 2491 b13c 5fcc 803d 4d74 bd3d af25 063e
00000280: 8eec 02be 7397 0e3d d05d 1a3e 6ee1 e63c
00000290: 5dc6 0e3d 86ab c23d 46e8 293e eeca e13d
000002a0: 8b64 203d f07b bb3c b4dc b9bc f7c5 a13d
000002b0: 6979 3d3d feb8 bd3d 06f0 c33b 8ab1 3a3c
000002c0: f1b1 073d 7fc5 603d d493 88bc 42ad 82bd
000002d0: b863 22bd 901e 50bd 7eee aabc 556d 1f3d
000002e0: 014c c1bd eefa 493d d6c8 1b3e e5fb 933b
000002f0: b597 95bd c16d 273d 3cb8 d53d 9e69 083d
00000300: d75c 023c 694b 8cbd 277e a23d dbfd 373d
00000310: 09f0 d73d a4c5 e0bb 42dd 753d 20f8 8dbd
00000320: 61ff a0bb b3c7 563c 3ffd 323b 4e5b adbd
00000330: 099a 61bd f03d 013d 506f 4a3d 007b 19bd
00000340: 2f20 4bbd 9c3f 32bd 14d8 e93c d226 fc3d
00000350: 964a 0abd 6e58 0dbe 4c3e 92bd 7905 ec3b
00000360: fc83 403d dcf1 e3ba eb18 3c3d 2acb d73c
00000370: 08e6 66bd 05e9 a43d 656b 9abd d996 a4bd
00000380: 300e 13bb 41ac 993d 786f 543d cf9d 333d
00000390: fd1a 2ebd 0d0f 55bc 9db8 9f3c f9c7 b13c
000003a0: 46e9 03be a63a 9c3d 227e c7bd b327 8dbc
000003b0: a521 a4bd 6315 bcbd 659e b3bd 8f63 aebd
000003c0: 0f98 d5bd a72f 78bc efa8 9ebd 6446 c8bd
000003d0: b282 46bd 144c de3b cdd2 713c 03df 813d
000003e0: 1a3a 97bd 2209 67bd c122 74bd 5269 4d3d
000003f0: 24e4 403d 0696 8e3d 54d7 65bc 5812 80bd

fc.1.bias f4 [100]
-0.5149321 0.1813699 -0.04549566 0.09641448 0.16872768 0.155418 0.04490464 0.25052968
-0.32420823 -0.04105721 0.059595913 -0.00067480037 -0.23200586 -0.7499132 -0.49001512 -0.23995255
-0.5968673 -0.39189178 -0.12140503 -0.40867895 -0.32478082 -0.0029025334 0.25316995 0.449773
0.011129647 0.22255132 0.37285602 0.19987729 -0.007004403 -0.46714437 -0.4108601 -0.119662724
0.23530559 0.07548125 -0.74144787 -0.32683104 -0.10177927 -0.055753317 0.09299938 0.048065685
0.020695994 0.011331782 -0.53014004 -0.028787412 0.034834247 -0.37918416 -0.66563624 0.04241143
-0.20314363 -0.3490994 0.17441373 -0.12871537 0.015050177 -0.7535483 0.0524099 -0.054977022
-0.36602062 0.02461114 0.031573832 -0.6681216 -0.034223888 -0.04393141 -0.40541545 -0.54418135
0.10380414 0.16156934 -0.41482112 -0.044131048 -0.3231658 -0.37601882 -0.4800678 -0.31286097
0.14203143 0.123626314 0.058783453 -0.00868337 -0.50623906 -0.019711303 0.075563006 -0.5497026
-0.1556362 -0.04930635 0.04149766 -0.13637339 -0.24396929 0.2864133 -0.2729338 -0.07566136
0.18906331 -0.15876876 -0.6485755 -0.011017815 -0.273133 0.2643819 -0.6333257 0.04667496
-0.70833725 -0.29699627 -0.5247979 -0.48109707
00000000: 97d2 03bf 08b9 393e a859 3abd f474 c53d
00000010: f3c6 2c3e e525 1f3e eeed 373d 6d45 803e
00000020: 9ffe a5be 9b2b 28bd d81a 743d 16e5 30ba
00000030: f292 6dbe 50fa 3fbf 43e3 fabe 1fb6 75be
00000040: 4ccc 18bf 0aa6 c8be 33a3 f8bd 5e3e d1be
00000050: ac49 a6be 6e38 3ebb 7e9f 813e a648 e63e
00000060: 1f59 363c 7ee4 633e fce6 be3e a2ac 4c3e
00000070: 3185 e5bb 8c2d efbe 415c d2be bb11 f5bd
00000080: f3f3 703e ea95 9a3d 87cf 3dbf 6656 a7be
00000090: a671 d0bd 975d 64bd 7576 be3d 86e0 443d
000000a0: a58a a93c f0a8 393c 42b7 07bf 94d3 ebbc
000000b0: 5bae 0e3d 6d24 c2be 2367 2abf 9cb7 2d3d
000000c0: e204 50be 28bd b2be 8399 323e f6cd 03be
000000d0: 0595 763c 8be8 40bf c3ab 563d 962f 61bd
000000e0: 0e67 bbbe 4d9d c93c 9053 013d 040a 2bbf
000000f0: 592e 0cbd 6cf1 33bd 9d92 cfbe 784f 0bbf
00000100: 4497 d43d 6f72 253e 6f63 d4be c2c2 34bd
00000110: fd75 a5be 8a85 c0be 72cb f5be 502f a0be
00000120: b070 113e cb2f fd3d ebc6 703d b244 0ebc
00000130: e298 01bf 9979 a1bc c7c0 9a3d 4fb9 0cbf
00000140: 195f 1fbe 75f5 49bd 73f9 293d 77a5 0bbe
00000150: 16d3 79be c4a4 923e fbbd 8bbe 58f4 9abd
00000160: d099 413e 4794 22be 0b09 26bf 1184 34bc
00000170: 17d8 8bbe 105d 873e a221 22bf 3e2e 3f3d
00000180: 9755 35bf e50f 98be 2859 06bf 5b52 f6be

fc.2.weight f4 [4, 100]
-0.026855633 0.002958513 -0.07980433 -0.08900545 -0.3140511 -0.008679523 -0.080005124 0.0027424276
0.4522253 0.061587393 0.110704206 0.09071785 0.018855548 -0.054435465 -0.034041632 -0.16333388
-0.3494216 -0.0276978 -0.15443905 -0.34498188 0.013898733 -0.04865257 0.06743264 0.042168353
-0.001454119 0.26469293 0.03581762 -0.085734405 -0.0116494475 -0.020177599 -0.23169106 0.045963176
0.07951656 -0.11505739 -0.015526845 -0.014744159 -0.073008 0.08084775 0.19021253 -0.09907065
0.01968579 -0.011134434 -0.50974476 0.15812047 -0.030582031 -0.2026095 -0.0013194866 0.018126257
0.010564601 -0.08883086 0.20820563 -0.5725765 -0.17340916 -0.022972103 -0.028743127 -0.07987388
-0.003931445 -0.076959394 0.027005075 -0.07964664 -0.07257732 0.022503892 -0.046431262 0.012563004
0.024489414 -0.23161325 0.97759825 -0.00867992 0.27424765 -0.30292678 -0.045405995 0.08393701
-0.22837943 -0.016213316 0.004494375 0.08736538 -0.12835078 -0.09085329 0.033142474 -0.53922963
-0.21408376 -0.044019558 -0.018442767 0.113497294 0.23834795 -0.25956243 0.08339069 -0.029254539
0.038903046 -0.16447027 0.06422993 -0.049676728 0.50497556 -0.08869659 -0.08205248 0.026844684
0.6533876 -0.06908444 -0.019191094 -0.01079042 -0.017019901 -0.013050738 0.01596362 0.020328349
0.09846175 -0.041212976 -0.05358187 -0.006096642 -0.029388202 -0.064827465 -0.006279581 0.3334009
0.046750695 0.06743724 -0.06451821 -0.5089845 0.8150343 -0.006942313 -0.14269638 0.0038462956
-0.019311644 -0.0720313 -0.008900424 -0.022983203 0.10414071 -0.21686421 -0.0818666 -0.047572505
-0.06798167 0.017755965 0.27446806 -0.34864908 0.08164254 -0.015309533 0.10903926 0.069887005
0.022140197 -0.03525589 0.120196424 0.03514341 -0.005934761 -0.01056549 -0.66829795 -0.28791264
-0.054718845 0.3101867 0.034298018 0.00043474353 -0.01064527 0.5376276 0.34154463 -0.065273695
0.27146843 -0.031734668 -0.017209772 -0.04318396 0.013405892 0.12701038 0.037321884 1.0833793
-0.014476941 0.051285487 -0.028994262 0.0032288067 0.013711071 -0.20110847 -0.00849354 -0.036273368
0.18931364 -0.65922236 -0.019240813 -0.08524231 0.19110368 -0.010921424 -0.0029462595 -0.006114136
-0.46517706 -0.079828784 0.014072769 -0.84719205 -0.29933292 0.025611663 -0.0132094845 0.09213555
0.80150557 -0.21800588 -0.9023118 -0.038716573 0.051133025 -0.149077 -0.04108633 0.0025347127
0.05151196 0.06990961 0.04830144 0.044831753 0.32255274 0.007598759 0.023122612 0.11071134
-0.034187574 0.10097481 0.014839035 -0.056340173 -0.0013025284 -0.029896425 0.12948449 0.052404527
0.00063933484 -0.077521935 0.074343644 -0.0035244033 -0.07051984 0.01075841 -0.016873019 -0.0005697924
0.025376434 -0.015118208 -0.0038215814 0.00075350073 -0.021079287 0.05275067 0.010667487 -0.047927268
0.004624829 -0.00031762733 0.017410848 -0.14539595 -0.119783625 -0.0063042506 0.0010109269 0.0017020481
-0.013031982 0.0739402 0.0037223867 0.029495168 -0.085575216 -0.002073477 -0.0033662515 0.053387307
0.08253949 0.08534056 -0.0032124233 0.00039839055 0.103286766 0.014882359 0.01698892 0.14343743
0.020749766 -0.00044400204 0.0008299143 -0.011960112 -0.0013228591 0.012331815 -0.08467612 0.088161185
00000000: 5800 dcbc 9de3 413b 7470 a3bd 7d48 b6bd
00000010: 4ecb a0be 8f34 0ebc bad9 a3bd 4dba 333b
00000020: 138a e73e 1043 7c3d e3b8 e23d 48ca b93d
00000030: f376 9a3c b9f7 5ebd 3d6f 0bbd ff40 27be
00000040: 63e7 b2be 7fe6 e2bc 4525 1ebe 77a1 b0be
00000050: 83b7 633c eb47 47bd 201a 8a3d b9b8 2c3d
00000060: 2398 beba d585 873e 7fb5 123d 8595 afbd
00000070: 53dd 3ebc 7e4b a5bc 6c40 6dbe e243 3c3d
00000080: 94d9 a23d 35a3 ebbd 4f64 7ebc 7c91 71bc
00000090: 3885 95bd 8193 a53d 13c7 423e 8ee5 cabd
000000a0: 1844 a13c 336d 36bc a27e 02bf 55ea 213e
000000b0: 2b87 fabc dd78 4fbe a0f2 acba 847d 943c
000000c0: 2617 2d3c f4ec b5bd db33 553e 6094 12bf
000000d0: 2c92 31be fe2f bcbc b576 ebbc eb94 a3bd
000000e0: 5ad3 80bb e39c 9dbd bf39 dd3c c71d a3bd
000000f0: 6ba3 94bd 155a b83c b52e 3ebd 0fd5 4d3c
00000100: 069e c83c 062c 6dbe e143 7a3f 3936 0ebc
00000110: 306a 8c3e 3819 9bbe a3fb 39bd 2be7 ab3d
00000120: 4cdc 69be cad1 84bc 8d45 933b 9fec b23d
00000130: 636e 03be 4a11 babd 67c0 073d f40a 0abf
00000140: c638 5bbe da4d 34bd 4915 97bc 4571 e83d
00000150: 7c11 743e 5ee5 84be bdc8 aa3d 37a7 efbc
00000160: cd58 1f3d e56a 28be fb8a 833d d379 4bbd
00000170: 1446 013f 8fa6 b5bd 210b a8bd 62e9 db3c
00000180: 6944 273f 257c 8dbd a436 9dbc 4dca 30bc
00000190: 526d 8bbc c3d2 55bc 23c6 823c a387 a63c
000001a0: 50a6 c93d f0ce 28bd aa78 5bbd 57c6 c7bb
000001b0: 87bf f0bc 43c4 84bd f2c4 cdbb 86b3 aa3e
000001c0: a87d 3f3d 891c 8a3d 2022 84bd cf4c 02bf
000001d0: 16a6 503f 587c e3bb 001f 12be 2212 7c3b
000001e0: 7433 9ebc 2585 93bd 16d3 11bc 4547 bcbc
000001f0: b947 d53d a711 5ebe ada9 a7bd 63db 42bd
00000200: f939 8bbd f574 913c 1487 8c3e 2282 b2be
00000210: 3434 a73d d6d4 7abc fa4f df3d eb20 8f3d
00000220: 5c5f b53c 7b68 10bd 8b29 f63d 89f2 0f3d
00000230: 6278 c2bb e11a 2dbc 9315 2bbf 4969 93be
00000240: de20 60bd cbd0 9e3e 147c 0c3d 4aee e339
00000250: 8069 2ebc f6a1 093f f0de ae3e 37ae 85bd
00000260: e9fd 8a3e 36fc 01bd 82fb 8cbc aae1 30bd
00000270: 63a4 5b3c 020f 023e d5de 183d 2cac 8a3f
00000280: b130 6dbc bb10 523d 6085 edbc 639a 533b
00000290: 66a4 603c 61ef 4dbe 7d28 0bbc 6293 14bd
000002a0: 6fdb 413e ccc2 28bf e99e 9dbc 8593 aebd
000002b0: afb0 433e c6ef 32bc 0816 41bb 1759 c8bb
000002c0: b02b eebe 467d a3bd 7991 663c 94e1 58bf
000002d0: 2a42 99be 8dcf d13c 986c 58bc 90b1 bc3d
000002e0: 782f 4d3f ef3c 5fbe e8fd 66bf 4595 1ebd
000002f0: dd70 513d a4a7 18be 244a 28bd 6c1d 263b
00000300: 34fe 523d c52c 8f3d bbd7 453d 80a1 373d
00000310: a225 a53e 03ff f83b a26b bd3c a1bc e23d
00000320: 4508 0cbd e2cb ce3d 6d1f 733c f4c4 66bd
00000330: 9ab9 aaba 59e9 f4bc 9597 043e 21a6 563d
00000340: 0999 273a d2c3 9ebd 7b41 983d adf9 66bb
00000350: b56c 90bd 0b44 303c 4939 8abc 1f5e 15ba
00000360: 3de2 cf3c 5cb2 77bc 7f73 7abb 9486 453a
00000370: 78ae acbc 1611 583d afc6 2e3c 624f 44bd
00000380: e18b 973b 3887 a6b9 32a1 8e3c ade2 14be
00000390: 1e51 f5bd e393 cebb 1481 843a 4217 df3a
000003a0: 1884 55bc f66d 973d 49f3 733b da9f f13c
000003b0: 0f42 afbd 2ce3 07bb 549c 5cbb a6ac 5a3d
000003c0: 770a a93d 08c7 ae3d 8587 52bb 13df d039
000003d0: 0388 d33d 23d5 733c 592c 8b3c 43e1 123e
000003e0: 6afb a93c f2c8 e8b9 9b8e 593a 58f4 43bc
000003f0: c963 adba 620b 4a3c ac6a adbd da8d b43d

fc.2.bias f4 [4]
-0.047954835 -0.12451448 0.03301302 0.11333756
00000000: 4a6c 44bd 7301 ffbd a938 073d 861d e83d
