model/unicycle-FC3-300-rk4-extra/epoch_600.pth (torch, 376613 bytes, 6 tensors)

fc.0.weight f4 [300, 6]
00000000: 22b2 f43d 477c 9ebc 6bac d13e f14b 07be
00000010: dc41 533e c1c0 493e fadb 733e 347d 493e
00000020: b427 95be 8192 68bc 9447 34be 9060 b03e
00000030: 5512 81be bfd8 bc3d e3b3 16bf 7099 163e
00000040: acc3 88be 9cae ef3d 56e3 203e a047 4a3e
00000050: 9121 753e ef70 c03e 4342 e43e bbb1 68bb
00000060: 0570 b73e af1d 923d 2d3b 903e 4451 15bf
00000070: e810 d9be 84d7 9fbe b002 3c3e ed66 153e
00000080: dd34 a83e 6a7b 023e 3ed2 a33e 1b72 503e
00000090: 497b a73e c5f8 3b3d fdb1 9d3e 34e4 43bf
000000a0: 8858 053e e49b c1be 2c39 80be 3bee 9dbe
000000b0: 165b b93d 9c58 13bf 8daa cf3d 81f2 203e
000000c0: 70fe 753e 0ce1 1c3e bcee a23e 7c10 ad3e
000000d0: 9b98 5abe a0de 623e 1dd7 433e 699d 76be
000000e0: 81db b6be c652 b73e 36f4 383e e2c6 f3bc
000000f0: 6cfb 173e 71b7 f33d 3c46 88bc 4f75 96be
00000100: 60ab b23c 85f1 c23d 24a3 f8bd cb99 363e
00000110: 25c7 48bd 3c15 6dbe 0555 fdba c35d edbe
00000120: 274f af3e f234 843e 5e25 00bf db2b 78be
00000130: a625 803e fd01 933e 23b2 31be c6e0 99bd
00000140: 69cf d2be 2475 1cbe a7ed b9bd 7f4a 42be
00000150: 1c34 5f3e 1dcf 5abe fabc 7d3e fce9 fabe
00000160: ea2d cebd 1d30 1a3e 7392 bbbd e839 cdbd
00000170: 97ad 8ebd 2cfd 3e3e c075 9abe c227 3b3e
00000180: 4c1d 74bd 95db 583e 9742 d63e 1c35 873d
00000190: ddc3 d6be 21d8 87be ecfd 6cbd a819 30bd
000001a0: 6be9 7e3e 826d 1cbf 185c d6bd 1284 7a3e
000001b0: d642 0abe 0f0d 0b3e 41ed 5a3d 66f3 e1be
000001c0: 0004 58be 3a68 863d c336 a1be 5a32 66be
000001d0: d832 d0be f1d8 ddbd 97ae ccbb d0bb 85bd
000001e0: b7a1 413d 8ada a5bc 5197 c8be 41db 2f3f
000001f0: 98b4 83bb cb1a f13c 8bc5 843e c820 4abc
00000200: e759 04be d68c 8c3c e020 27be fa12 683e
00000210: 7b6a e43c 9e0f 93be 9755 b0be e61b 223f
00000220: 8679 a9bd a440 543e 6693 98be a3d2 5fbd
00000230: 21bc f4be d6ff 9d3e 51ed d0be 102d d4be
00000240: 63db a4be e2f5 003e 5b1b c8be 471d 12bf
00000250: ce09 72be c9bc ed3d 11e6 ac3d 75ad 0d3d
00000260: 3151 9abe a625 abbe b213 88be b7f7 dd3c
00000270: ea49 87bd f1f6 d6bc f53e 94be 11fe a1be
00000280: 08fd 6dbd e291 3dbe bf0d a23e e77f 3ebd
00000290: dbd1 99bc dcbe 143f f902 7a3e 9eb8 563d
000002a0: 26b0 09be 0b47 773e 471a 2e3e eb5a 8f3d
000002b0: 5e70 4d3e 9fc2 9f3e c05d 243d 4041 833b
000002c0: f2da 003f e71b 1abf 50ba 4fbe c74a f73d
000002d0: a6cc 85bb f46a d63a 1aef ccbe 54f3 503f
000002e0: db19 a53c 373c 9fbd 5517 933e de5f 5e3e
000002f0: 6c81 babd 6ce9 c8be 0613 60bd 90ba a6be
00000300: 1e1b 48be 1799 693e 32fd f7be b0c3 2a3d
00000310: 7e5c b1be c1ac 17bd 01c7 473e e8c6 26be
00000320: 1722 ca3d ba9f df3e a366 ecbd 1254 9fbe
00000330: a1bf 7ebd bc21 aabd 361c 853e 6d44 833e
00000340: 847d b53d 7a2d afbe d9d9 45be 2c83 343e
00000350: 21f4 37bd 38bf d13e e12d 293e ec70 4ebe
00000360: 81ee d43d 6b5c 723e e4b5 adbe 3dda 443e
00000370: 3423 77be 7917 d63e 7070 23be ae51 23be
00000380: cce8 a03e d203 7d3e 5390 0c3e 188b 8f3e
00000390: f119 a0be be00 98bd b5a9 113e 5cba aabe
000003a0: 3a81 d03e cd20 03bf a6aa 9d3e 0a6d c13d
000003b0: e71f e43e e7a9 babe 7c02 873e 4a37 073e
000003c0: 3799 363e 72d5 2b3e 610c 333e 3a22 77be
000003d0: 1923 bfbe 65a9 2a3d b75b a23e 828d ce3d
000003e0: df02 13bf 0873 203f ea8e 7c3e 4eeb 903e
000003f0: 8372 713e 7e85 bcbd 4dd5 9abe 3599 3e3e
0.11948039 -0.01934637 0.40951857 -0.13212563 0.20630592 0.19702436 0.23814383 0.19676667
-0.29131854 -0.0141950855 -0.1760543 0.3444867 -0.252093 0.092210285 -0.58868235 0.1470697
-0.26711786 0.11703226 0.15711722 0.19753885 0.23938586 0.37586161 0.44581804 -0.0035506326
0.35827652 0.07134568 0.28170148 -0.58327127 -0.4239571 -0.31219113 0.183604 0.14590044
0.3285283 0.12742391 0.3199634 0.20356028 0.32711247 0.045891542 0.30799857 -0.76520085
0.13022053 -0.37814248 -0.2504362 -0.30845818 0.090505764 -0.5755708 0.10139952 0.15717508
0.24022841 0.15320224 0.31822765 0.3380164 -0.21347277 0.22155237 0.19125028 -0.24083485
-0.35714343 0.3580534 0.18061909 -0.02975792 0.14842004 0.11900223 -0.016635053 -0.29386374
0.021810234 0.095187224 -0.121404916 0.17832105 -0.049018044 -0.23152632 -0.0019327706 -0.46360597
0.34240076 0.25821644 -0.5005702 -0.2423548 0.25028723 0.28712454 -0.1735311 -0.07513575
-0.41173866 -0.1527906 -0.09078532 -0.1897373 0.21797222 -0.2136807 0.2477912 -0.4900664
-0.10067351 0.15057416 -0.09158792 -0.1002081 -0.069667034 0.18651265 -0.3016796 0.18276885
-0.059598252 0.21177514 0.4184768 0.06601927 -0.41946307 -0.2653208 -0.057859346 -0.042993218
0.2489373 -0.61104596 -0.10466784 0.24464443 -0.13502058 0.135792 0.05344892 -0.4413101
-0.21095276 0.065628484 -0.31487092 -0.22480145 -0.4066379 -0.10832394 -0.0062463987 -0.06529963
0.047273364 -0.02024581 -0.39177945 0.6869393 -0.004019331 0.029431721 0.25931963 -0.012336917
-0.1292492 0.017157 -0.16321135 0.22663489 0.027882805 -0.28722852 -0.344403 0.6332382
-0.08275132 0.20727783 -0.29799956 -0.05464424 -0.4779978 0.3085925 -0.40806058 -0.4144063
-0.3219863 0.12593797 -0.3908337 -0.57075924 -0.23636553 0.116082735 0.08442319 0.03458925
-0.3014007 -0.3342716 -0.26577526 0.027095659 -0.06605895 -0.026240798 -0.28954282 -0.3163915
-0.058102638 -0.18512681 0.31651112 -0.046508696 -0.018776825 0.5810373 0.24415196 0.05242216
-0.13446102 0.24148194 0.17002212 0.06999763 0.20062396 0.31203172 0.04012847 0.004005581
0.50334084 -0.60198826 -0.20285916 0.120748095 -0.004083234 0.0016358779 -0.4002617 0.8162129
0.02015393 -0.07775157 0.28728738 0.21716258 -0.091067165 -0.39240587 -0.054705642 -0.3256421
-0.19541594 0.22812305 -0.4843536 0.04169053 -0.34640878 -0.037029985 0.19509508 -0.16286814
0.09869783 0.4367655 -0.11543014 -0.31118828 -0.06219447 -0.083072156 0.25998086 0.25638142
0.08861831 -0.34214383 -0.19321384 0.17628163 -0.044910554 0.409662 0.16521408 -0.20160264
0.103970535 0.23668067 -0.33927834 0.19223876 -0.24134523 0.41814783 -0.1596086 -0.15949127
0.3142761 0.24708489 0.1372693 0.28035808 -0.31269792 -0.074220166 0.14224894 -0.33345306
0.40723592 -0.51221925 0.30794257 0.09444626 0.4455559 -0.3645775 0.26369083 0.13204685
0.17831884 0.16780642 0.17485191 -0.2413415 -0.37331465 0.041665453 0.31710598 0.10085584
-0.57426256 0.62675524 0.24663892 0.28304523 0.23578839 -0.09205149 -0.3024086 0.18613131

fc.0.bias f4 [300]
00000000: 1f23 76be f51d 073e 69c7 7fbe 671e 1fbe
00000010: 42fb 15be fa2c a53d 3760 e2be df89 36bf
00000020: 0d49 d7be d098 953e 087f b73c ec88 62bd
00000030: a646 293e c4bc a43e b2e7 5d3e 8bde 453e
00000040: 9754 1cbe 6693 4fbd 8061 4fbf ef85 01bf
00000050: 278a 97be 94fd 273e 045d 07bf 854b ea3b
00000060: cacf e0be de8b f0be fe61 e83d b4fa 99be
00000070: 960e 573e 8bd1 233e 70dd bfbe 83a1 183d
00000080: 9027 1abf 86cd 4bbf 9e57 053f 57e2 0b3f
00000090: f720 943e 1ca9 b83e 0718 79bf 1986 14bf
000000a0: d0f6 9e3e c841 b23e 0c7d 4a3e e27f 44be
000000b0: e5d4 fabd 7e71 5d3e 034d dabe 35f1 b2be
000000c0: 08bc 83bf 7297 e9be 7ee4 07be fc7b 0d3c
000000d0: f9aa 96be f185 0e3f de51 10be 9a84 2ebf
000000e0: 7e93 c03e a2d2 053e ffc2 2dbf ed4e 1d3f
000000f0: 7ee8 b23e 7aea b6bd 5d24 2b3f 0520 4f3e
00000100: 2ef1 d23d a2f1 2cbe 4d6a c03e df20 163f
00000110: 7f68 82be a84e 0bbf 9d6b 39bf 6b56 123f
00000120: ad9c 41bf 544e 07bf 9c72 523f ea19 1a3f
00000130: 4a4e 2e3d 4f86 233f fa14 bdbd 6289 0b3f
00000140: 77e5 5fbe 15fa 103f 17ab ccbe a761 d9be
00000150: 003b 013f fd6c b03e 5dbd b9bb eac4 763e
00000160: eb48 00bf ba01 cb3e af11 0c3f 2738 6bbf
00000170: bce1 1a3f 6272 ec3e 537e 653f ef7e 10bf
00000180: 4590 d5be 2f31 b0bd dfa8 2abd 37e0 b33e
00000190: 1c82 1abf d1ce 0f3f 9b83 0dbf 36f1 cf3d
000001a0: 35cb a0be 1f22 f3be c9d3 e53e 59e8 01bf
000001b0: dad5 6dbf c818 cdbe 9745 063f 2ea7 b6be
000001c0: c2f1 c2bd 072a a8bd 3faa 13bf e353 90be
000001d0: dccd 3c3f e511 6ebe 63f2 ca3e eaee 33bf
000001e0: db00 f23d d213 54bf 1aaf d23e 7224 383f
000001f0: fa79 033e 56e1 4d3e 46db c03e a00e 883e
00000200: 7200 1bbf cfcd d2be c393 eabe fa52 21bf
00000210: 72ea 2ebe 5ef2 a1bf 93f7 a83e cb7c 14be
00000220: 19c0 bd3e cb77 3abe 19ff 66bf 387e ae3d
00000230: 1cba eebe 68af a1bd 05c9 863c 732b a7be
00000240: 3cec 0d3f 4edf d83e 565f 18bf ea7a e2be
00000250: 1e8e 04be cec8 52be 20ad 6f3e 62c1 08bf
00000260: 5e12 0abe c1d8 1bbf a731 eebc 64de 5bbe
00000270: b4ba abbe 18ae 643f 9c07 74be d611 1fbe
00000280: 5684 213f 1308 a23e 6eea 3cbf c18f 0abf
00000290: dbaf 21bf 7d1c 73bf 7f22 33bf b1e9 32bf
000002a0: 8dc2 09bf c9e6 66be 2fd5 e2bd 6c6f b5be
000002b0: 7bba acbe 59a3 ef3d 5ed1 f93e 969e a83e
000002c0: 7f84 e33e f584 973e c57f 22be f854 e7be
000002d0: 4051 043e 2e84 88be 311d d8be 4bf8 83be
000002e0: 8fd8 2bbf 22cf b5be ee20 4dbe 89ce c7be
000002f0: 1281 2abd 0777 2d3f 57b0 b03e 7cfb cebe
00000300: 3d0d 073f e1f2 983d d01f 10bf 22eb 113e
00000310: 9433 953e d4be 3a3f 191b 71be 1556 083f
00000320: 8726 2c3f e45e 30be b259 593f 1dbd a63e
00000330: de72 70be 7a0b 3a3d 71af 27bf eac7 453f
00000340: 106e babd 1364 00bf e51b 053f 10d8 f43e
00000350: 015e 16bf 748e 81bf 6695 56be 9b4b 4b3f
00000360: 110f 663f b864 373f c8b9 6a3c 58c8 0fbf
00000370: 3c4a 10be 5bdd 2cbc 24c2 31be 5f77 623e
00000380: 4c3e 693e 353b aebe 6e47 a3be e852 3f3d
00000390: 50d3 dfbd c472 c1be 1014 f53e f030 153f
000003a0: 4945 1bbe 08c3 eabd e211 4bbe 3f6f 813e
000003b0: abeb 043e 1940 fb3e 70db bfbd b0b1 a63e
000003c0: 95d0 94be 5c2a 93be c0c1 6a3b 6db9 6b3d
000003d0: 3944 aa3e a9ff 263f ddc7 e5be 6c57 a9be
000003e0: ef95 bc3e 5176 823d bf6b 81be db7a eebe
000003f0: cc4d 1abe df5e 133f 5c04 ef3e 48a8 143f
-0.24036835 0.13195021 -0.24978413 -0.15538941 -0.14646628 0.08065219 -0.4421403 -0.71304125
-0.4204792 0.2921815 0.02239944 -0.05530636 0.16530856 0.32175267 0.21670416 0.19323175
-0.15266643 -0.05067768 -0.8100815 -0.5059499 -0.2959759 0.16405326 -0.52876306 0.007150116
-0.4390853 -0.4698171 0.113468155 -0.30074084 0.21001658 0.15997903 -0.3747363 0.037263405
-0.6021662 -0.7961048 0.5208682 0.5464224 0.289314 0.3606652 -0.9730229 -0.58017117
0.31047678 0.34815812 0.19774264 -0.19189408 -0.12247638 0.21625325 -0.4263688 -0.3494965
-1.0291758 -0.45623356 -0.13270757 0.008635517 -0.29427317 0.5567313 -0.1409373 -0.68171084
0.37612528 0.13068631 -0.67875665 0.61448556 0.34943002 -0.089314416 0.6685236 0.20227058
0.102999076 -0.1688905 0.375811 0.5864391 -0.2547035 -0.54416895 -0.7242983 0.57163113
-0.75629693 -0.52853894 0.8220613 0.6019579 0.04255513 0.63876814 -0.092325166 0.54506505
-0.21864878 0.56631595 -0.3997428 -0.42457315 0.5048065 0.3445815 -0.005668326 0.24098554
-0.50111264 0.39649755 0.54714483 -0.91882557 0.60500693 0.46181017 0.8964588 -0.56443685
-0.4171163 -0.08603131 -0.041664954 0.35132 -0.6035478 0.5617495 -0.5527894 0.10153429
-0.31405035 -0.4748697 0.44888142 -0.5074516 -0.92904437 -0.4005797 0.52449936 -0.35674423
-0.09518768 -0.08211141 -0.5768165 -0.28189 0.73751616 -0.23249014 0.3963805 -0.7028643
0.118165694 -0.82842743 0.41149217 0.7193061 0.12839499 0.2010549 0.37667292 0.26573658
-0.60547554 -0.41172644 -0.45815858 -0.6301724 -0.17081621 -1.265209 0.33001384 -0.1450073
0.3706062 -0.1820976 -0.90233 0.08520168 -0.46626365 -0.07894784 0.016453275 -0.32650337
0.5543859 0.42357868 -0.5952047 -0.442344 -0.12944838 -0.20584413 0.23405886 -0.5342008
-0.13483569 -0.60877615 -0.02907641 -0.21471554 -0.3354088 0.89328146 -0.23831028 -0.15534148
0.63092554 0.31646785 -0.7379521 -0.541256 -0.6315896 -0.94965345 -0.6997451 -0.69887835
-0.53812486 -0.22548975 -0.11075818 -0.3543657 -0.33736023 0.11701078 0.48792547 0.3293349
0.44437024 0.29593626 -0.15869053 -0.45182014 0.1292162 -0.26663345 -0.4220977 -0.2577537
-0.6712732 -0.35509592 -0.20032093 -0.3902476 -0.041626997 0.67759746 0.34509537 -0.40426242
0.52754575 0.074682005 -0.5629854 0.14249852 0.29140913 0.7294743 -0.23545493 0.5325635
0.6724629 -0.17223698 0.8490249 0.32566157 -0.23481318 0.0454211 -0.6550208 0.7725817
-0.09103024 -0.501527 0.5199569 0.47821093 -0.5873719 -1.0121598 -0.20955428 0.7941224
0.8986674 0.7163806 0.01432652 -0.56165075 -0.14090818 -0.010550822 -0.17359215 0.22115849
0.2277767 -0.34029546 -0.31890434 0.046709925 -0.109289765 -0.37782872 0.4786687 0.582778
-0.15163149 -0.114629805 -0.1983104 0.25280187 0.12980525 0.4907234 -0.09368026 0.3255744
-0.29065385 -0.28743255 0.003582105 0.057549883 0.33255175 0.65233856 -0.44879046 -0.3307451
0.3683314 0.06370223 -0.25277516 -0.46578106 -0.1506874 0.57566637 0.46683013 0.58069277

fc.1.weight f4 [300, 300]
00000000: d94f e83c 0ce3 04bd ffde ecbc 882a 003c
00000010: 8b14 29bd 775a 0a3d 0efa 1dbc 92a9 393d
00000020: 2339 5bbd 4ea8 d43b 5377 d73c aea9 7c3d
00000030: 4000 a73c 7738 5b3d 0d76 c6bc 4f60 15bc
00000040: 861e 7a3d e075 003d 11bf 54bc e865 4cbd
00000050: 65ed 653b 520e 813c 4b56 d13c 3707 303d
00000060: e5d2 6cbd aca6 d9bb ec97 093d b001 613d
00000070: ffc7 173b eaed b23b 3b92 b3bc 9ed4 683d
00000080: 1103 03bc f61c 84bb 3b0f 513b f052 893d
00000090: 4fa7 863b 76b8 313c 40cb 00bb f2e1 fdbc
000000a0: 7186 e23c c77f 313d f057 273d f79e 313d
000000b0: ba65 8a3c a409 aabc cf33 3d3d 68da 1dbd
000000c0: 5ec2 c73c 422d 7a3d 3303 debc 9c12 b13c
000000d0: 7c2d f2bc 9c39 eabc ca72 66bd ef79 513c
000000e0: 4150 9c3d 066e 5a3d 62f1 203d 8b54 05bd
000000f0: c6bb cf3b 7248 b4bc 5061 52bc 3449 b53b
00000100: 3afb dabc 9552 62bd 9cdd d43c 8959 68bd
00000110: a558 d03c 8654 5f3c 7dd1 19bc 7120 e4bb
00000120: 6207 2bbd b85e a83c 20e9 48bd 64bf 643c
00000130: c0e5 253b e6b2 08bd e7f4 76bc 838d 8f3b
00000140: 197b 1f3d c366 ccbb 6d1c 2f3c 4b13 c7bc
00000150: c8ab ad3c 230f 2a3d e6a7 8a3d e420 1fbd
00000160: 07df 3dbd 89a8 e63c c4aa 6ebd 76b3 08bd
00000170: 2a2e 2fbd e50f 443c 62a8 1bbd 52f2 343d
00000180: 332e 88bb dbe3 2cbc dcba 2e3c 15e9 ba3c
00000190: 31fa eebc e5f8 ebbc 98c6 42bd ca4e e9bc
000001a0: 14c3 e8bb 0dde 0e3d 13c8 37bc d468 7bbd
000001b0: 5265 b5bc 7e9c 2d3d 4a8c 1ebb cc01 863d
000001c0: d8b7 5c3c df08 973c 5cd0 04bd 2a8a 803d
000001d0: 2bb1 683d 7d4e dc3c ab87 1c3b 2c94 c13c
000001e0: 61eb 1b3c 3171 3c3c 8b00 aebc 2af6 ea3b
000001f0: 29a1 333c fec8 87bc 58fb 1bbd f260 8a3c
00000200: b0d1 743c a26b 383d f651 f33c ed64 aa3c
00000210: 2697 1ebd e5fa 6fbd 2b5b b0bc 8d77 873c
00000220: 9dc1 8cbc 5293 65bc cf29 5ebc 2fcd 4f3b
00000230: f44a 943d 8e99 7ebd 7b08 813c a706 533b
00000240: 6767 433d 1454 803c e510 53bd 9d8c c23c
00000250: 4164 d93b 81dd 28bd c8cd 86bd f7b5 40bc
00000260: 755e 353d a77e 2bbd 6a83 8b3d 11ff c23c
00000270: 35b8 2b3d 9eea 473d 9f85 05bd 15ec 313d
00000280: c688 043c c44c c1bc 864c 0a3d 9371 fe3c
00000290: 1e31 ec3b e1e4 99bd 818e da3c 7949 1dbd
000002a0: df7c 153d 788e 223d 62fb 633c 67bb 963d
000002b0: d084 e4bc d77a 2e3d af21 0e3d ddc5 de3c
000002c0: 3c92 7a3d ee20 2d3d 3569 5cbc c71f 623c
000002d0: 375f 43bc f7b6 7d3c d326 58bb f65d f6bc
000002e0: fa4b 91bd b530 b8bc 3683 87bd 76be dabc
000002f0: e5bb c53c e6ab fc3c dd49 01bd 1071 263d
00000300: 2e7d 47bd 20fe 4c3c bfb1 c9bb 01e7 fd3c
00000310: 8cd0 55bc a58d 1dbd 0623 c33c 78d7 383d
00000320: 6447 403d 551c 36bc f4d0 88bd 51b0 14bd
00000330: d1e5 0cbd 5ff9 7e3d 9e89 1fbc f327 d33c
00000340: 2dcf a4bb 6881 493c 84ff a43c 3a15 2c3d
00000350: 8d22 9fba a24c f53c e617 dfbb a9da 7dbb
00000360: 38fb d63a ea67 a13c 2a66 9fbc f52d 963c
00000370: bdbc 3d3d adf6 bf3b a494 a9bc 3aea 123d
00000380: def3 0dbc 4a60 783c 19b1 debb 3e97 2fbc
00000390: 9998 54bd 174f 483d 1765 7a3d c1ed fdbc
000003a0: b394 7a3c dd45 3ebd 9616 9e3c 1b8d bfbc
000003b0: 0a1d d8bb 75c8 14bc 21cd 1c3d f493 2abd
000003c0: e6d7 7fbc 3bf1 9c3d fa08 2b3d 99ba ab3c
000003d0: 0a9b 1e3d 6ad6 4d3d 2e6e 4abc 3de2 c63c
000003e0: db12 8b3c 9c37 c43b 8440 9ebb e4ca 64bc
000003f0: 7977 083d 971b 183c 05c6 50bd 3ff2 473c
0.028358387 -0.03244309 -0.028914927 0.00782264 -0.041279357 0.03377768 -0.009642137 0.04532773
-0.053521287 0.00648979 0.026302015 0.061685257 0.020385861 0.053520646 -0.024226213 -0.0091172
0.061064266 0.031362414 -0.012985007 -0.049901873 0.0035084125 0.015753899 0.025553843 0.04297563
-0.057818312 -0.0066421833 0.03359215 0.05493325 0.0023159978 0.0054604905 -0.021920314 0.056843393
-0.007996337 -0.0040317727 0.0031899947 0.06705272 0.0041093 0.010847202 -0.0019652396 -0.030991528
0.027651997 0.04333475 0.040855348 0.04336449 0.01689421 -0.02075655 0.046191987 -0.038538367
0.024384674 0.061078317 -0.027101135 0.021615319 -0.029562704 -0.028591923 -0.056261815 0.012785419
0.07632495 0.053327583 0.0392927 -0.03255133 0.006339523 -0.0220072 -0.012840584 0.005532408
-0.026731122 -0.055254538 0.025984578 -0.056726012 0.025432894 0.013630992 -0.009388325 -0.006961875
-0.041755088 0.020552978 -0.04905045 0.013961647 0.0025313944 -0.033373736 -0.015073038 0.004380883
0.038935754 -0.006237836 0.01068793 -0.024301192 0.021200076 0.04151834 0.06770305 -0.038849726
-0.046355274 0.028156536 -0.058268324 -0.033374272 -0.042768635 0.01196668 -0.03800238 0.044176407
-0.004155898 -0.010552372 0.010664668 0.02281622 -0.029172035 -0.028805206 -0.047552675 -0.028479952
-0.0071033332 0.034879733 -0.011217135 -0.06137927 -0.02214304 0.04238557 -0.0024192506 0.065433115
0.013471566 0.018436847 -0.03242527 0.06276353 0.056809586 0.026892895 0.0023884575 0.023630224
0.009516568 0.011501596 -0.021240493 0.0071704583 0.010963717 -0.016575333 -0.038081497 0.01689193
0.0149425715 0.04502452 0.029702168 0.020800078 -0.038718365 -0.05858888 -0.021527847 0.016536498
-0.017182166 -0.014012175 -0.013559773 0.0031707992 0.07240859 -0.06215816 0.015751114 0.003220001
0.047706034 0.015665092 -0.051529784 0.02374869 0.0066342657 -0.041226868 -0.065822184 -0.011762134
0.044279534 -0.041868832 0.068121746 0.023803266 0.04192372 0.048807733 -0.032598134 0.043438036
0.00808925 -0.023596175 0.033764385 0.031060016 0.0072080037 -0.07514358 0.02667928 -0.038400147
0.03649604 0.03968665 0.013914915 0.07359963 -0.027895361 0.042597618 0.034700092 0.027193958
0.061174616 0.042267732 -0.013452818 0.013801522 -0.011924556 0.015485517 -0.0032982125 -0.030074101
-0.070945695 -0.022484163 -0.066168234 -0.026702147 0.024137447 0.030843686 -0.031564582 0.04063517
-0.048703365 0.01251176 -0.006155222 0.03099394 -0.01305021 -0.03846516 0.023820411 0.045127362
0.046943083 -0.011115153 -0.0668048 -0.03630096 -0.034398858 0.062249538 -0.0097374 0.025775885
-0.00502958 0.012298919 0.02014137 0.04201243 -0.0012141034 0.029943768 -0.006808269 -0.0038735068
0.0016401773 0.01970287 -0.019457895 0.01833246 0.046322573 0.0058582635 -0.02070076 0.035867907
-0.0086640995 0.015159676 -0.006796014 -0.010717211 -0.05190334 0.04890355 0.061131563 -0.030997159
0.015294242 -0.046453346 0.01929788 -0.023382714 -0.0065952586 -0.009080996 0.038281564 -0.041645005
-0.015615439 0.076631986 0.041756608 0.020963 0.038722076 0.05025331 -0.01235537 0.0242778
0.016976764 0.0059880745 -0.004829468 -0.0139643885 0.033317063 0.009283922 -0.050970096 0.012203752

fc.1.bias f4 [300]
00000000: ed4f c43c 7895 0fbd e83f b53d 6ab7 64be
00000010: 2882 dabc 3535 34bd 8000 77bd e29f febb
00000020: 36f0 d73c a4f9 12bd aa3c dabd e287 163c
00000030: 1180 813d 5595 6e3c fbee 5abd 699f 963d
00000040: ec9a 8cbc 8040 883d ab6b 3a3c cc28 063d
00000050: 7f93 9bbb c341 2abd b875 1ebe f15c 643d
00000060: 692f 2abd 91d9 cf3c c0f6 3b3e f02e 6cbd
00000070: 9767 f5bc 32aa 913d 9dcf 82bd 7d17 223d
00000080: 8c21 2bbd 9205 363e 6d96 ecbe f4ad 1b3e
00000090: 286b dbbb 8413 b33d b563 2bbc 3c12 44bd
000000a0: 16b0 433e de33 8fbc 3a3a 6abe 9285 66bc
000000b0: 1d46 a2bc af23 853c 7501 0c3c 9adb 18be
000000c0: 23b7 bcbc 5a1e 813d f223 33be cbc5 b23d
000000d0: 0409 30bc fa48 da3c 78cf 25bd ab1e 4bbd
000000e0: 7007 b63c d065 52bd 517e bdbd 0af6 46bd
000000f0: bf6b 70bd 94bc 9bbd 939f 61bd a92b a0be
00000100: d2ab 8b3d 477f 03bd 1867 83bd 4e95 73bd
00000110: 2e0a 29ba 185a 8a3c 2feb 33bd fdae 873d
00000120: d675 95be 0038 01bd fecb 223d c9ea 8abc
00000130: 45ee 81bd a3eb 36bd d772 773e 812b b13d
00000140: 59bc 6abd 07a5 383d 8605 20bd 289c 643d
00000150: 45a1 21bc c84d 7d3d 25e1 cebc 7a97 2cbf
00000160: 8631 38bc a400 41bd 9939 193d cbb3 6c3d
00000170: 65cd 0b3e d04a ddbd e0de 53bd 7d9a a8bc
00000180: abd8 543c bbe0 0d3d a1bb b03c 34ab 703d
00000190: 3a86 2f3e d19f 4abd f7b8 55bb 105f 013e
000001a0: 0f2d 983d fbda 853d a89f 5bbc ab51 533d
000001b0: 1b75 763e 85fd 223b aff3 7bbc e120 22be
000001c0: 365f 79bd fd67 953c 7f89 fbbc 6ecf f0bb
000001d0: 0b92 d6bc 2ba5 a5ba 7835 3e3d 45db 63bd
000001e0: fa99 6fbd d155 673d c5df b33d a8a9 193d
000001f0: 9a15 373d 77dd 793d 4045 cabd e72c d7bd
00000200: 2b4c 263d 1478 87bc 1ca8 1b3d c49e abbc
00000210: 517d 3fbd ece3 36be 99c5 0c3d e8f5 3e3e
00000220: cfa7 6abd f02a 3d3d a4bb cabc 8b0f 7c3b
00000230: 9951 71bd d1fa c53d 53eb 043c 8014 863c
00000240: 1b2c 363d 9b98 b9bc eb65 71ba 8d73 e83d
00000250: 8d2a 843c 056a 053d d807 903c ab30 2a3d
00000260: 29b5 3d3d 23f4 0bbc d343 483d d959 e53c
00000270: 1689 1bbd 672e 47be b4fe dbbb 7f36 80bd
00000280: ed84 34bd f530 63be be7a 41bc 9285 81bd
00000290: ce55 4a3d c56e ca3b f10b 2e3c 7204 113d
000002a0: cc93 9c3c 411f a9bd f3c0 8f3d d2a1 723d
000002b0: aac5 703e 57f2 9cbd b402 883d 619e 4cbd
000002c0: 4005 afbd 5d81 433d 5d10 d73b 8fa5 393d
000002d0: 3a01 393d 6e9c 3b3d 21f9 f1bc e3b2 05bc
000002e0: e502 1dbe 4bec 22bc c752 00be 9e43 143d
000002f0: 4c66 a43d a13e 8fbc 9048 ca3c b248 f0bc
00000300: 6bff d7bd dc9d 8e3e 28c8 8bbc 8024 953c
00000310: 3b38 163d d17c 763d b879 b3be c606 903c
00000320: ea30 1ebd 77ec 943b 6b26 2fbe 7c5f 89bb
00000330: 14a2 d5bd 2ed1 73bd c3ad 303d 30ed b7bc
00000340: e865 b3bd 9d4a aa3d 1d7f 43bd f7cf 753d
00000350: 4852 ab3c 9c95 183c 447c 183c 81a4 02bd
00000360: c77d 0bbd 4644 e5bc 715e 00bf 9a25 1d3d
00000370: 5d15 6c3d b79e 833c 5161 87bc 184d 0dbd
00000380: 8761 063d 6171 8a3c a6d2 7d3d 810c 17be
00000390: 35ef 81bc 475a a0bd 78f4 52bd 9cfd c5bd
000003a0: ba76 80be 2e4e 2ebe 904b ca3b a252 ebbc
000003b0: 8267 0dbe b096 a4be 1d76 bbbc c27b 2f3b
000003c0: 6902 433d 4382 0cbe 11bf 94bd ef5a b7bd
000003d0: 7d6c 5bbd 7071 813c cfbf 533b 95cc 51bd
000003e0: 58f0 00bc 1157 f03b bd88 2dbd e21d a53d
000003f0: d811 07bd 6174 e6bd 339a 04bd 224a e1bc
0.023963893 -0.035054654 0.0885008 -0.22335592 -0.026673391 -0.043996055 -0.06030321 -0.0077705244
0.026359659 -0.035882607 -0.10656102 0.00918767 0.06323255 0.014561971 -0.053450566 0.07354624
-0.017163716 0.066529274 0.011378209 0.03275375 -0.0047478075 -0.04156662 -0.15474594 0.0557527
-0.04154912 0.025372298 0.18355846 -0.05766195 -0.029956622 0.0711254 -0.06387255 0.03957318
-0.04178004 0.17775562 -0.46208516 0.15203077 -0.0066961236 0.08743957 -0.010460784 -0.047868952
0.1911014 -0.017480787 -0.22873774 -0.014069932 -0.019808823 0.016252367 0.008545269 -0.14927521
-0.023036545 0.06304617 -0.17494181 0.08729132 -0.010744337 0.026646126 -0.04048106 -0.049589794
0.022220343 -0.051366627 -0.092526086 -0.048574485 -0.058696505 -0.07604328 -0.055083822 -0.3128331
0.068198815 -0.032103803 -0.06416148 -0.05946856 -0.0006448355 0.016888663 -0.04392546 0.06625173
-0.29191464 -0.031547546 0.039745323 -0.016957657 -0.063442744 -0.044658314 0.24164902 0.08650876
-0.05730853 0.045079257 -0.039067768 0.055812985 -0.00986511 0.061841756 -0.025253842 -0.67418635
-0.011242276 -0.04711975 0.037408445 0.05778865 0.1365257 -0.10805285 -0.051726222 -0.020581478
0.012991111 0.034638148 0.021573843 0.058757022 0.17141047 -0.04946882 -0.0032611468 0.1263392
0.07430469 0.06535908 -0.013404764 0.051591557 0.2406811 0.0024870348 -0.015377923 -0.15832855
-0.060881816 0.018238062 -0.030705212 -0.0073489463 -0.026192686 -0.0012637725 0.04643771 -0.055629034
-0.058496453 0.056478325 0.08782915 0.037515312 0.044698335 0.06100222 -0.0987649 -0.10506611
0.040599983 -0.01653675 0.03800212 -0.020949729 -0.04675037 -0.17860383 0.03436813 0.18648493
-0.05728894 0.046183527 -0.024747677 0.0038461413 -0.05891571 0.0966698 0.008112746 0.016367197
0.044475656 -0.022655776 -0.00092086074 0.113501646 0.016133571 0.03257181 0.017581865 0.04155032
0.046315346 -0.008542093 0.048892807 0.027996944 -0.037972532 -0.19451295 -0.0067137126 -0.06260394
-0.04407208 -0.22186644 -0.011809049 -0.06324305 0.049398236 0.0061777555 0.010622964 0.03540463
0.019113444 -0.08257914 0.07019224 0.059236355 0.23512903 -0.0766341 0.066411406 -0.04995573
-0.08545923 0.047730792 0.00656323 0.045323905 0.045167185 0.04580348 -0.02953774 -0.008160326
-0.15333135 -0.009944032 -0.12531577 0.036197297 0.08027324 -0.017485918 0.024692804 -0.029331539
-0.10546764 0.27854812 -0.017063215 0.018205881 0.03667472 0.060177628 -0.35053802 0.017581355
-0.038620867 0.0045447904 -0.17104499 -0.004192291 -0.104313046 -0.05952566 0.043134462 -0.022451967
-0.087596714 0.083150126 -0.047728647 0.060012784 0.020913258 0.009313013 0.009306971 -0.031895164
-0.034055497 -0.027986657 -0.50144106 0.038365938 0.05763756 0.016066892 -0.016525896 -0.03449735
0.032807853 0.016899766 0.061968468 -0.14750864 -0.015861133 -0.07829719 -0.051502675 -0.09667513
-0.2509058 -0.1702201 0.0061735585 -0.028725926 -0.13809016 -0.32146215 -0.02288347 0.0026776646
0.04760972 -0.13721566 -0.072630055 -0.08952891 -0.05357026 0.015801162 0.0032310372 -0.051220495
-0.007869802 0.007334598 -0.042366732 0.0806234 -0.032976 -0.11252666 -0.03237362 -0.02750117

fc.2.weight f4 [4, 300]
00000000: 31ad 253b ac9b ce3b 7c68 653d 6559 553e
00000010: a30c 5dbc 4884 8ebc 5a40 573d 4f56 623c
00000020: c915 a0bc ee99 8d3d 60f2 b03c 24a0 90bb
00000030: 551a 51bd a2ac 5a3d 9f42 8c3c 26a3 79bc
00000040: f6d2 fbba 40b6 a5bd c130 cabd a598 e9bc
00000050: 7372 333c 5c0e 6bb9 3700 553e cbea 0d3d
00000060: 5716 ea3b 7cfb a83d f162 8dbb 4441 3dbb
00000070: de0e 913b 5e6a a43a d10d d63c 7329 cabc
00000080: e978 83bc 22fb 293e e408 ccbd 7aee 1b3d
00000090: 0afc e73b fdd2 093e 9065 53be 2b59 293c
000000a0: d9f5 9e3d d908 70b9 637b ab3e 9603 0bbc
000000b0: f013 593c 242d 10bc 4852 003c 3bbc a03d
000000c0: 6c4a 3abc cd86 0e3d 3ab3 083e 8869 f03c
000000d0: b9b5 233c 1756 423b efb7 b43c decb 8d3c
000000e0: 2c16 efbc 49d8 9c3c 488d 863d afbd 973b
000000f0: 0f1c 303d 5386 0f3e 84fd 083c a5fd 75be
00000100: 701d d7bc 4b12 e93c a215 883c 3ea7 ce3c
00000110: 5c67 82bb 8af9 40bd 82cf 1bbd 00d0 4c3c
00000120: 4fb5 14bd 26c4 e23c 6c97 51bc 5cd8 113c
00000130: 7d43 a23d ea8f 2d3d e2f7 24be 1367 d8bb
00000140: 9ea1 02bc a240 77bc 4fda f63c 71c7 f1bc
00000150: 5fe5 09bd 0d30 22bb 7a8e 3f3d eb02 38bf
00000160: eea8 3dbb ae7a a9bd aa1a ed3c 70fe 593d
00000170: 96c2 8e3c 4743 f83d fff0 b83b 4760 5cbc
00000180: ae4e a238 12ca f33c a17b f8bb 2160 06bd
00000190: a955 25bd 1122 a9bb 22b6 c53a 14ff 18bd
000001a0: 02de cb3c ab8d 04be 52d3 90bb e6cf 0f3c
000001b0: dd6e 26be 0437 02bd 1aea acba 412d 5abe
000001c0: d982 533d c496 e1bc 5285 85bc 71cb 6c3c
000001d0: 9bc7 e4bb 9dc8 14bd 13a5 edbb ff8e d23c
000001e0: 72e8 cb3c 7e08 79bc 12d4 d03c 94d0 5d3c
000001f0: 2aa1 59bd face 033d 6b16 573e 39fc 01be
00000200: 77c1 5abc 7403 e1bb 91d3 cb3c 8122 ce3c
00000210: e87a 87bc a2d9 77be 1664 5dbb 4ef9 ed3d
00000220: a586 b13b c2b5 0b3d 4fcf 523b 917a 4c3a
00000230: 78e9 d13c ea9d 4a3c 2536 b03c 195f 8c3c
00000240: c43c 06be cf63 a53c c98d 573c 30ac c2bb
00000250: 6cd1 9d3c f1f7 093d 107e a53c 45b6 253d
00000260: 5593 cd3b 3298 543c 13c0 2ebd de2b 18bd
00000270: 4d73 18bd 02b4 643e 6371 85bd 2d55 8e3c
00000280: 8904 e03c 8030 973d d00b 2fbc 8eaa 173b
00000290: af9e 373c 1aab a9bd d6a8 4ebc 32b1 29bc
000002a0: 65f6 40bd c5dd 283d 16b8 ad3c 00ac e63c
000002b0: b400 63be 2d40 0cbe d8b8 013a dc82 dcbc
000002c0: 9a99 8c3e 3656 16bd 98a4 c0bc 78c2 c8bc
000002d0: 567d 3a3b b367 95bd f96e 023d 102e d8bc
000002e0: f511 a63d d7da 06ba a206 7b3d b3ed f2bb
000002f0: a985 c1bc eb9d b23c a892 bfbc aa32 28be
00000300: 2465 bd3d 2349 943e 909f 4bbc b280 cfbc
00000310: d7c5 ff3c 2956 aebd 5761 443e 612e 1c3d
00000320: 5d93 c8bc e4bf 673b 15d4 34be 9d42 a33c
00000330: 079d 0b3d 6c8e 7d3c d113 a03c 8d35 00bd
00000340: a069 c4bd e5c8 463e 9d22 0bbe 5921 2b3b
00000350: 0410 76bc b951 013d 8ef4 8c3d 4e85 faba
00000360: d654 b43b 6834 8fbc 1094 9bbe 415e 503c
00000370: 924d c03a c8dc aa3b fa7f 2ebd e1b1 62bd
00000380: 4dd3 51bc 5633 cb3c 6944 a93d dfa4 0f3c
00000390: 6742 9e3b 5a1a 51bc c916 b83b 5a33 183d
000003a0: 6910 bbbd ef29 713d cb7a 82bc 58a4 963c
000003b0: 5191 6e3d 819d 15be 05e6 ca3c 647e e3bc
000003c0: 6e44 0fbc 4322 de3d b34b ee3c 71bf 8a3d
000003d0: a3ab 07bd 8537 adbc 308b eebc 464d 0f3d
000003e0: 1839 963c eda4 0fbd 1ab9 88bc 642d 8abd
000003f0: fe54 bf3c dcfa 843c 3444 9c3b 280c 073c
0.0025280232 0.0063051786 0.056007847 0.20834883 -0.013491782 -0.017397061 0.052551605 0.013814523
-0.019541638 0.069141254 0.021599948 -0.0044136215 -0.051050503 0.05338729 0.017121611 -0.0152366515
-0.0019212652 -0.08091402 -0.0987258 -0.02851517 0.01095258 -0.00022416696 0.20800863 0.034647744
0.0071437764 0.08251092 -0.0043147733 -0.0028878013 0.004426821 0.0012543907 0.026129635 -0.024677968
-0.016048865 0.16599706 -0.09962633 0.038069226 0.007079606 0.13459392 -0.20644212 0.010336201
0.077617355 -0.0002289148 0.33492574 -0.008484742 0.013249382 -0.008799825 0.007832117 0.07848402
-0.011370283 0.034796525 0.1334962 0.029347196 0.0099920565 0.0029653364 0.022060363 0.017309126
-0.029185377 0.019146102 0.06569916 0.0046307663 0.04299551 0.14016084 0.008361224 -0.24022539
-0.026259154 0.028451106 0.016611878 0.025226232 -0.0039796066 -0.04711298 -0.03803969 0.012500763
-0.03630572 0.027681421 -0.012792449 0.008901682 0.079230286 0.042373575 -0.16110185 -0.0066040843
-0.007973103 -0.015091093 0.030133395 -0.029514046 -0.03366601 -0.0024747879 0.046766736 -0.7187945
-0.0028939801 -0.082753524 0.028943378 0.053221166 0.01742677 0.12122207 0.0056439633 -0.013450689
7.739417e-05 0.02975944 -0.007583097 -0.03280652 -0.040364895 -0.0051615317 0.0015084187 -0.037352636
0.024886135 -0.12944667 -0.0044197226 0.008777594 -0.16253228 -0.03179075 -0.0013192326 -0.21306325
0.051638458 -0.027537711 -0.016298924 0.014452801 -0.0069818026 -0.036324132 -0.0072523444 0.025702951
0.024891112 -0.015199779 0.025491748 0.013538498 -0.053132214 0.03217981 0.21004646 -0.12693872
-0.01335179 -0.0068668667 0.024881156 0.025162937 -0.016538098 -0.24204114 -0.003378158 0.11619817
0.005417662 0.034108885 0.0032167023 0.0007800246 0.025624022 0.012366751 0.021510193 0.01713519
-0.13109118 0.020189194 0.013156363 -0.0059409365 0.0192649 0.03368372 0.020201713 0.04045703
0.006273667 0.012975739 -0.042663645 -0.03715121 -0.037219334 0.22334293 -0.065157674 0.0173746
0.027345913 0.073822975 -0.010683969 0.002314243 0.011207267 -0.08284588 -0.012613496 -0.010357188
-0.04710998 0.04122712 0.021205943 0.028158188 -0.22168237 -0.13696356 0.00049485033 -0.026917867
0.2746094 -0.03670331 -0.023515984 -0.024506792 0.0028456054 -0.0729517 0.031844113 -0.026389152
0.08108894 -0.0005144304 0.061285622 -0.00741359 -0.023623304 0.021803817 -0.02338536 -0.16425577
0.09247807 0.2896205 -0.012428179 -0.025329921 0.031222267 -0.085125275 0.19177757 0.038130168
-0.02448433 0.0035362178 -0.17659028 0.019929225 0.0340853 0.015475851 0.0195407 -0.03130107
-0.09590459 0.19412573 -0.13587423 0.0026112406 -0.015018467 0.031572077 0.068825826 -0.0019113214
0.0055032773 -0.017481044 -0.303864 0.012717784 0.0014671555 0.0052143075 -0.042602517 -0.05534542
-0.012806726 0.024804752 0.08265001 0.008767336 0.004829693 -0.01276263 0.0056179506 0.037158348
-0.09133989 0.05887788 -0.015927693 0.018388912 0.058244053 -0.14610864 0.024767885 -0.027770229
-0.008744342 0.10846379 0.02908883 0.06774796 -0.03312267 -0.021144638 -0.029119104 0.034985803
0.018337771 -0.035069395 -0.016689826 -0.06746939 0.023355957 0.0162329 0.0047688726 0.008242644

fc.2.bias f4 [4]
00000000: 3659 efbc e536 483d 4aaf 3f3c 57e8 27bd
-0.029217344 0.048880477 0.011699507 -0.04099306
