model/unicycle-FC2-50-rk4-extra/epoch_300.pth (torch, 3859 bytes, 4 tensors)

fc.0.weight f4 [50, 6]
00000000: 3e17 af3e 5795 8d3e fd31 a6be 3c87 5abc
00000010: b6a8 773e 6417 023f 1a71 03be b6fb 34be
00000020: 6155 dc3e 5466 94be d18d 69be 3eeb be3d
00000030: 0c1e cdbe c710 f03d 6130 d1be 11b1 d4be
00000040: 47a7 6bbc d9b5 18bf e123 95bc fdf9 cb3d
00000050: f164 6fbe be99 43be df3f 083f 68a4 763e
00000060: ffdb bbbd 8138 af3e b588 043c 94a0 043f
00000070: cb3e e0be 31c8 0cbf e0cc c8bd 4269 9fbe
00000080: 10ff 23bf f6c2 7abf 82da 29be 1ea6 2dbe
00000090: ee58 29bc ffbc e1bd bbce 7f3f b4f8 b3be
000000a0: 46c0 c0be 2d95 5f3d 72f4 cf3e b06b 13be
000000b0: 1ca7 49bd e528 093e 920d f73e 8648 90be
000000c0: 9d11 523d a88e 8dbe e715 fe3e 90ae 163e
000000d0: caf4 e13e df54 113e 32ac 203e 036e 783e
000000e0: d36e 84bf dde4 c3be bf05 18bf 7d77 a33e
000000f0: e6d3 3c3d b2d8 ffbc e124 a93f a3e8 db3e
00000100: 5540 d33d 3f18 2bbd e6dc b03e 4db5 3bbd
00000110: 4e4b 343f 1fab 06be 567b b2be 605c bbbe
00000120: 4732 c4be 10dc f33d aec7 863f 294b f0bd
00000130: 1a0f 2c3c 4b6e 243f bc9b 953d 034b a8be
00000140: 8392 0e3d 36cc 0bbf 707a d83e 0466 0a3f
00000150: 23d6 8a3c 465d b6bd 022d 923e 67eb 563e
00000160: bea9 febe 0fd2 4fbe 6389 3fbe bfcb 74be
00000170: 4c65 7d3f 832e 9f3e 9dd8 273f a6f0 abbe
00000180: f815 8fbc e3ef c93b fef8 743f b299 a3bf
00000190: 3657 4f3d 8fd2 9ebd 284d e4bc 699c 7f3d
000001a0: d002 4ebf 2071 b4bf afa0 f7bd 0f7c adbd
000001b0: a9f4 62bd 2d99 b2bd 1c2d 413e f14e ab3d
000001c0: 4d12 b6bd e719 e53e bc8c d0be 8f8c a0be
000001d0: 000f 103f f2cd 9f3d 033a 86be 7d94 0ebf
000001e0: d878 523e 4fe1 85be 52c0 bcbd 8c87 413f
000001f0: c1a7 cfbe 0e8b ff3e 11e3 703d 7b4a c1bd
00000200: 4b05 773f 0e9b f03f 3d6a ea3d d53f bb3d
00000210: f6cc 193e c266 90be 1e30 8dbf a490 4b3e
00000220: ab8c 8cbd 2bb2 4e3e 9502 babb f188 633d
00000230: 4c64 4dbf f1b9 913f 35af b0bd 2503 453d
00000240: 9df1 cfbd 4db9 64be 88e7 853f d99f 38bf
00000250: bdf3 79be b413 983c 86d6 b23e 3fe2 f33d
00000260: 3421 5c3f 08aa 25bc e8d5 afbe 6b92 dabe
00000270: 53bf 823e 266c c0be dbb8 073f 4a68 453c
00000280: fdfc dd3d 463e e5bd 7233 75be 9799 083e
00000290: f5c8 bdbe 9c08 e6bb c693 7b3e 32a0 893d
000002a0: 8862 7ebe acc4 9fbd fdcd 11bf 8b7e 20bf
000002b0: 09ad 3f3e 9586 cdbe ffe6 d3be 953e 7d3e
000002c0: 0839 86bf 8734 dabd 9767 1d3e d663 df3e
000002d0: e07e eb3d 3705 5ebe 9fa1 dcbe 34db 1fbe
000002e0: 0b26 eb3d 561e 48bd 8df7 81bc 98a6 363e
000002f0: 27e6 7abf 7422 d63e e472 fdbe 7770 233d
00000300: 206f 143d 0483 663d a28f 64bf 6a4d ff3f
00000310: 8350 e9bd 0aca 0c3e 01fa 81be 3ee5 a33e
00000320: 8719 3b3e a6dd 79bf 3b5b f83e 4fd9 2bbf
00000330: 8a0b bb3e a21a 89bc b8c2 f23d 9eff 663e
00000340: 2b2a 813e bb3d 03bf 95d2 223d 65db 613e
00000350: b3e7 acbf 86ea 0b3f ee7b f23e cf86 a4bd
00000360: 7653 a33e e85c 8bbc b7ac 2b3d 2168 103f
00000370: 450b 6fbe 073b ef3e 8a19 913e da8c 81bd
00000380: 9cd5 5dbe d050 a33f 89fd a5be 3417 e43e
00000390: 850e 58be 99cf 00be 095a 28bf 224f 46bf
000003a0: 15dd 10bf 3e4c 3dbe bf6b 8d3e b440 74bd
000003b0: 9b2c 87bf 5c97 1dbe 5fa7 0bbd e006 f4be
000003c0: 0c03 0bbe ead7 783e 0428 ac3e ad97 b1bf
000003d0: f228 04bc b09b 3b3e 32f9 af3d a37c 333e
000003e0: bd19 223f cc69 893f 4edd 773e 0f69 243e
000003f0: 948a be3e ff85 39bd 9805 a43e cc4b 863e
0.3419742 0.27653 -0.32460013 -0.013337906 0.24185452 0.5081694 -0.12836114 -0.17674145
0.4303389 -0.2898432 -0.22808005 0.09322213 -0.40061986 0.1172195 -0.40857223 -0.4154134
-0.014383144 -0.5965248 -0.018205585 0.09959791 -0.2337835 -0.19101617 0.5322246 0.24086154
-0.0917282 0.34222797 0.008089234 0.5180752 -0.43797907 -0.5499297 -0.09804702 -0.31134993
-0.6406107 -0.97953737 -0.1658726 -0.169579 -0.010336144 -0.11022376 0.9992482 -0.35150683
-0.37646693 0.054585624 0.40616184 -0.14396548 -0.049231634 0.13394506 0.4825254 -0.2818033
0.05128633 -0.276479 0.49626085 0.14715028 0.44132072 0.14192532 0.15690687 0.24260716
-1.0346321 -0.38260546 -0.5938377 0.319271 0.04610052 -0.031231258 1.321438 0.42950925
0.10315005 -0.04177117 0.34543532 -0.0458272 0.70427406 -0.13151215 -0.34859723 -0.36593914
-0.3831961 0.11907208 1.0529687 -0.11733086 0.010501647 0.64230794 0.073050946 -0.3286973
0.034807693 -0.54608476 0.42280912 0.54061913 0.016947811 -0.08904509 0.28549963 0.20988236
-0.49738878 -0.20294975 -0.18704753 -0.23905848 0.9898269 0.31090173 0.655649 -0.33582038
-0.01746653 0.00616263 0.9569243 -1.2781279 0.05062028 -0.077550046 -0.027868822 0.062405024
-0.8047304 -1.4097023 -0.12091195 -0.08470928 -0.055409107 -0.08720622 0.18864864 0.08364666
-0.08890209 0.44746324 -0.40732372 -0.31357238 0.5627289 0.07802953 -0.26216134 -0.55695325
0.2055391 -0.2614846 -0.0921637 0.75597453 -0.40557674 0.49910778 0.058810297 -0.09438034
0.9649245 1.8797319 0.114460446 0.09143034 0.15019593 -0.28203398 -1.1030309 0.19879395
-0.06862768 0.20185153 -0.0056765773 0.05555052 -0.80231166 1.138487 -0.08627168 0.048098702
-0.10153506 -0.22336312 1.0461283 -0.7211891 -0.24409385 0.018564083 0.34929293 0.119083874
0.85988164 -0.010111339 -0.34342885 -0.42689833 0.25536594 -0.3758251 0.5301644 0.01204879
0.10839269 -0.11193518 -0.23945406 0.1333984 -0.3706738 -0.0070200693 0.2456809 0.06720008
-0.24842274 -0.07801184 -0.5695494 -0.6269309 0.18718351 -0.4014174 -0.41387174 0.24730904
-1.0486155 -0.1065455 0.15371548 0.43630856 0.11498809 -0.21681677 -0.43092057 -0.15610963
0.114818655 -0.048857056 -0.015865112 0.17836988 -0.98007435 0.4182316 -0.49501717 0.039902177
0.03623879 0.05627729 -0.89281666 1.99455 -0.113923095 0.13748947 -0.2538605 0.32010835
0.18271457 -0.97603834 0.48507103 -0.6712846 0.3653224 -0.016736332 0.11853546 0.22558448
0.25227484 -0.5126607 0.039751608 0.22056349 -1.3508209 0.5465473 0.47360176 -0.08033525
0.31899613 -0.017012075 0.04191276 0.5640889 -0.23344143 0.46724722 0.28339797 -0.063256934
-0.21663517 1.2759037 -0.32419994 0.44548953 -0.21099289 -0.12579192 -0.6576238 -0.774645
-0.56587344 -0.18486115 0.27621266 -0.05963202 -1.0560488 -0.1538977 -0.034095164 -0.47661495
-0.13575381 0.24301115 0.3362428 -1.3874413 -0.008066403 0.18321109 0.08592452 0.17528014
0.63320524 1.0735412 0.24205515 0.16055702 0.37215102 -0.045293804 0.32035518 0.26229703

fc.0.bias f4 [50]
00000000: 32e9 ec3d 45d6 20bc ccf3 d93e 268a 3d3d
00000010: cbd0 89bd e3f7 0fbc 7ad4 993e 8119 b83d
00000020: 5589 113d 26e4 073e ef6a bc3f 9d39 35be
00000030: 1c78 10be 10d5 ca3d 5708 8a3d 8efe 2fbe
00000040: 9d0a f23f 6fd4 9c3f f27b 263e 3597 02be
00000050: 47be 193e 3a2b 893f 816a d1bd 947f ed3f
00000060: 447a 533c 1f94 edbd d1ac 05be ad92 0b3d
00000070: 2439 193e f702 f43e 5358 a13e 9028 9b3d
00000080: 499b 9b3e ec42 3bbe 8311 12bd 7f56 87be
00000090: ab58 073d df5e 19bf 7393 933d db77 7d3e
000000a0: ca3e 50bf 7f43 0abf 7454 febe c53a 27be
000000b0: 8dd2 0a3e 62b0 d1bb dc82 173c 8ffd 7a3d
000000c0: ead1 9b3c 5099 a4bf
0.11567916 -0.009816711 0.42568815 0.046274327 -0.06729277 -0.008787128 0.3004492 0.089892395
0.03553136 0.13270625 1.4720134 -0.17697759 -0.14108318 0.0990392 0.06739872 -0.17186949
1.8909489 1.225233 0.16258219 -0.12752993 0.15013991 1.0716317 -0.10225392 1.8554559
0.012907568 -0.116005175 -0.13054205 0.034075428 0.14963204 0.47658512 0.315127 0.07576096
0.3039191 -0.18287247 -0.03566123 -0.2643318 0.033043545 -0.59910387 0.07205858 0.24752752
-0.8134581 -0.5400924 -0.49673808 -0.16331013 0.13556881 -0.0063992003 0.009247508 0.06127697
0.019020993 -1.2859287

fc.1.weight f4 [4, 50]
00000000: a85f 963d b328 bdbd c4d8 203e 745c f33c
00000010: 7e6b 033e ef9a 173e f5b1 9ebe 6e4c a2bd
00000020: 7279 cbbd 2c9e b83e 2344 813d a881 3dbe
00000030: 6335 5bbe 5ef6 68bd e1db 5bbd 18da 91be
00000040: a713 913f e31f 80bf 85d9 e4bc 33dc e4bd
00000050: 0b50 163d 7287 433f dd5c 3e3e 71cb 92bf
00000060: 0b6e 04be be6d 0cbe 7ce1 14be 6218 c23d
00000070: b250 8c3c 66a4 fa3d ffe3 f93d 86a7 b93e
00000080: 8357 1abe 2d41 cbbd bca3 19bd 5d0a c63e
00000090: 21d6 7fbc cf1d 133d c1d7 b13d 2ba1 833e
000000a0: dc78 a9be 04c0 4bbe b3e0 d9bd 804d a3be
000000b0: d2a6 4b3e ba23 78be a946 aebd 5de6 1a3e
000000c0: ce77 d73d 80c4 8a3e 4fee cdbd 6e64 babd
000000d0: 120b ac3d 468f fb3c 2588 0a3d 4af6 813d
000000e0: ae9f 06bd 4cdb 23be ac5d e2bd fe67 5abe
000000f0: 1cba 40bf cf91 fc3d c487 8bbd 6e87 a3bc
00000100: 5e85 b43c 6f53 103e e18d 6cbd c837 003f
00000110: 9e3d 64ba e253 923d e534 27bd cb3d 473f
00000120: 5a05 1cbc dcc1 263e 1183 e13c b477 ddbd
00000130: 7a99 8abc ab26 bdbd 0e6b 9dbe 25e1 2abb
00000140: 9d36 c03d 87db 763e 07aa 71bf 493d c0bd
00000150: ae85 e23d 45f9 1c3e 7af7 cf3d da94 1c3e
00000160: 9db4 83be 7fe8 00be a3c5 73be c8ce 823e
00000170: bc17 2d3e d3ee 3f3e 0a6d 63bd dabd 7b3d
00000180: 90f4 0abe bf23 133d 0354 3a3e 822f 5cbd
00000190: dc49 143e 7dc6 d8bc 6daf 5d3d 0b58 493e
000001a0: b736 57be 9fed 03be 1dd5 55be 5324 ef3d
000001b0: 0c17 db3d 40ab 27be c3e0 c03c 4893 d3bd
000001c0: c2f3 0abd 8bca 453e 9195 4bbe 63e4 0c3e
000001d0: 4424 8e3d 54f9 06bd 41eb 11bd e92c b2bd
000001e0: 3bcf 42be 33ab 933c f77f 21bb 41b3 ec3d
000001f0: 7245 07bd 0344 93be 97be 92bd 7b22 293e
00000200: 6973 5b3c 2168 883b ba3d ab3d 2e4e 96be
00000210: e851 89bd 12bf 293e 8b88 a13e 13d3 3e3e
00000220: 7e22 c5bc e210 7dbc 75ac 03be 3265 87bc
00000230: 0f9a a63b a6eb 6b3e b711 3abd 130f 683c
00000240: 62f8 af3e b3da 783e 8399 7fbd 5609 1abc
00000250: ba9c 97be e6da f8bc 3317 803e 41d3 5b3d
00000260: 6240 77be ab32 4d3d 8a81 42be 8848 ae3a
00000270: efdb 2c3d e395 92bd 6bf7 7e3c bb83 f73d
00000280: 8559 033d 2bc7 79bd 4cc6 463e 6feb 223e
00000290: 8016 11bd 92de f9bd 44b6 bebb 0586 c4bc
000002a0: a516 103e 61a9 62be 9c5d fe3d 354d 073c
000002b0: 2446 24bd f6b3 adbb 0438 0ebd 5bbe 3bbe
000002c0: c230 93bd 1cc2 56bd 703d d5bd 8b8f b53d
000002d0: 4510 c03d fb38 7abc 0bbe fbbb 3b21 25be
000002e0: 5d55 8fbe 25ad c1bc 7e37 e03d 3c57 733d
000002f0: 61b2 b7bc 6378 32be 4bb9 c73d e190 c43c
00000300: 374e 343e cb87 b93c 3568 663e 257f ea3c
00000310: a1a7 223e 0af9 1cbe 29dc 673e 6494 a6bc
0.07342464 -0.092362784 0.1570769 0.029707171 0.12833974 0.14805196 -0.30995145 -0.07924734
-0.09935273 0.36058176 0.06311824 -0.18506491 -0.21407084 -0.05687558 -0.05367649 -0.28486705
1.1334122 -1.0009731 -0.027935753 -0.11174812 0.03669743 0.7637855 0.18590112 -1.1468335
-0.12932603 -0.13713738 -0.1453914 0.09477307 0.017128322 0.12238388 0.1220169 0.36260623
-0.15072446 -0.09924541 -0.037509665 0.38679782 -0.015615017 0.0359171 0.0868373 0.257089
-0.3310002 -0.19897467 -0.10638561 -0.31895065 0.19887856 -0.24232379 -0.08509571 0.15126939
0.10520898 0.27103043 -0.100552194 -0.09101187 0.08400549 0.030707967 0.033821244 0.06345804
-0.032867126 -0.16001624 -0.11053023 -0.21328732 -0.7528398 0.12332498 -0.068130046 -0.019962039
0.02203625 0.14094327 -0.057752494 0.50085115 -0.00087066914 0.071449056 -0.04082193 0.77828664
-0.00952276 0.16284889 0.027528318 -0.10813847 -0.016918886 -0.09235891 -0.3074574 -0.0026074138
0.09385417 0.2410718 -0.94400066 -0.09386689 0.110606536 0.15329464 0.10154624 0.15291157
-0.25723734 -0.1258869 -0.23805861 0.25548387 0.16903585 0.18743448 -0.05552391 0.061460353
-0.13569856 0.035922762 0.1819611 -0.053756244 0.144813 -0.026461834 0.054122377 0.19662492
-0.21016966 -0.12883614 -0.20882078 0.1167685 0.10697755 -0.1637392 0.023544675 -0.10330826
-0.03392387 0.19315545 -0.19881274 0.13758998 0.06940511 -0.03295262 -0.035624746 -0.08699972
-0.19024365 0.01802597 -0.0024642923 0.115576275 -0.033025213 -0.28762826 -0.071652584 0.1651706
0.013394215 0.0041628038 0.08361383 -0.2935652 -0.067050755 0.16576794 0.31549487 0.18635206
-0.024064299 -0.01544592 -0.12858756 -0.016527746 0.005084283 0.23039111 -0.04542705 0.01416375
0.3436919 0.24302177 -0.06240226 -0.00940164 -0.2961176 -0.030377816 0.250177 0.053668264
-0.24145654 0.05009715 -0.18994728 0.0013296762 0.042201933 -0.07157495 0.015561919 0.120856725
0.032067794 -0.060980957 0.19411582 0.15910123 -0.03542185 -0.12200655 -0.0058200676 -0.023989687
0.14071138 -0.22134925 0.12420198 0.008258154 -0.040105954 -0.005300994 -0.03472139 -0.18334334
-0.07187034 -0.05243121 -0.10412109 0.08865269 0.09378103 -0.015272374 -0.007682567 -0.16125958
-0.27994815 -0.023642132 0.10948084 0.059409365 -0.022423925 -0.17428736 0.09752139 0.023994865
0.17607962 0.022647759 0.2250069 0.02862508 0.15884258 -0.15329376 0.22642578 -0.02033443

fc.1.bias f4 [4]
00000000: cb70 833d 4ba6 843e f218 70be 1e37 1b3c
0.06417998 0.2590812 -0.23447016 0.00947359
