model/unicycle-ensemble-FC3-100-6/epoch_900.pth (torch, 47077 bytes, 6 tensors)

fc.0.weight f4 [100, 6]
000000 58 56 7d 3e e7 74 3b 3e 18 8e 20 bf f2 7e bc 3e
       0.24739969 0.18306313 -0.6271682 0.36815602
000010 27 a9 f5 be 54 71 1f 3e 47 ba b2 3c a2 d5 d9 bd
       -0.47980615 0.15570575 0.02181734 -0.1063645
000020 21 e8 9d 3e 72 a8 1e 3f 07 a7 b3 3c 3b ec 13 bd
       0.30841163 0.6197578 0.02193023 -0.03611396
000030 80 f6 a4 3e b0 ce d1 3d 4b 99 c9 be ab 17 a4 bc
       0.32219315 0.10244501 -0.39374766 -0.020030817
000040 6b be b9 3e cd 2a 97 be 82 d2 e6 bc b3 ea 6f 3e
       0.3627809 -0.29524842 -0.02817655 0.23429374
000050 13 08 dd be bf 3a c9 3e 66 67 a8 bc c2 1d d4 3c
       -0.43170223 0.39302632 -0.020557117 0.025893096
000060 78 10 0a be 38 c4 30 3e de cc 7d 3e 03 3b fa 3e
       -0.13482845 0.17262352 0.24785182 0.48873147
000070 3e a3 cc 3c 37 98 35 be 1c 38 b8 3d cc 61 21 3e
       0.024980184 -0.17733847 0.08995077 0.15759963
000080 c5 d7 5e 3f 9a 7e 43 bf ba 51 34 3d 0e 9d c4 bd
       0.8704799 -0.76365054 0.044023253 -0.09600268
000090 72 37 76 be 9f 71 08 bd d7 d0 aa 3f 91 7d 94 be
       -0.24044588 -0.033311483 1.3344983 -0.2900205
0000a0 89 a1 f6 3d 72 c3 aa bd 7f 5f 73 3d 2c 4b 62 3d
       0.12042529 -0.083380595 0.059417244 0.05524747
0000b0 90 e0 08 bc ff e5 66 3e f5 2f fb 3e 99 40 d7 be
       -0.008354321 0.22548674 0.49060026 -0.42041472
0000c0 d1 9e e0 bc 09 d1 ad 3d 6c 34 a5 3e ef 08 48 bd
       -0.02741948 0.08487136 0.32266557 -0.048836645
0000d0 58 e4 97 3d f2 29 7a bc 93 f9 9d be 16 ac 81 bd
       0.074166 -0.01526879 -0.30854473 -0.06331651
0000e0 73 b7 e3 3e 2b 92 91 3d c1 9f a8 be c4 49 98 3e
       0.44475898 0.071079575 -0.32934383 0.2974378
0000f0 a9 87 5e 3d 16 7f c5 bd c5 a6 92 3e 4a f8 84 be
       0.054328594 -0.0964338 0.2864286 -0.2597068
000100 96 2f 4c 3d 6e 40 de bc a6 d1 bf bd b3 f4 8b 3d
       0.04985007 -0.027130332 -0.09366159 0.06833782
000110 f1 20 16 bf 01 5d bd 3f 37 38 76 3d 8e 69 e2 3d
       -0.58644015 1.4794008 0.060112204 0.11055289
000120 ed 9f 06 3e 3b a0 d5 3d 5f 67 49 3e ce d8 94 be
       0.13146944 0.10430952 0.19668339 -0.2907166
000130 29 f1 30 3e ca e0 f7 bc 92 3e d4 bd 04 cf bc 3d
       0.17279495 -0.030258555 -0.10363497 0.092191726
000140 df 1d d5 3d b8 a0 1b bf ce ba 20 3e 2a 19 1d 3e
       0.10406088 -0.6079211 0.1569626 0.1534163
000150 bb a7 da bd 15 0f 20 3e 2a bb 5b 3e 12 66 44 bf
       -0.10676523 0.15630753 0.21458116 -0.76718247
000160 e1 8b 8a 3e 8f b9 86 3e c3 86 23 3e 5d 80 49 be
       0.27059844 0.26313445 0.15969376 -0.19677873
000170 c7 fe 90 be 27 7f 1c bf 56 0d 12 bd be 49 44 3e
       -0.2831938 -0.6113152 -0.03565725 0.19168755
000180 c3 ac 92 be 8b 49 61 be d0 07 3d 3e 78 ef 9b 3e
       -0.28647432 -0.2200071 0.18460011 0.30456138
000190 5a 7c 30 be 53 c5 46 3d 13 29 75 3d ca 9c 5e 3d
       -0.17234936 0.048528027 0.059853625 0.054348744
0001a0 6e 54 c6 3c b0 ad 99 bf fd 5e 5b bd 0f da 0a 3b
       0.024210181 -1.200613 -0.053557385 0.0021187102
0001b0 26 ea 57 bd 8d 23 24 3d 1c 72 a4 3e da 34 2f 3f
       -0.052713536 0.040072966 0.3211831 0.6844002
0001c0 cb 9a 1a bd 7d a0 b9 3c de 50 53 3e 5a 7a 7f bd
       -0.03774528 0.022659535 0.20636317 -0.062372543
0001d0 2d 75 5c 3e 83 dd a4 3e 9d 78 73 3e 1f f0 d7 3e
       0.21529074 0.3220025 0.23776479 0.42175385
0001e0 de 07 96 3e f0 a4 62 3d a2 58 24 3e 75 11 b5 be
       0.29302877 0.055333078 0.16049436 -0.3536488
0001f0 7b 9f 20 be 80 b2 46 3e a2 f0 32 3d 1b a0 78 3c
       -0.15685837 0.1940403 0.043686517 0.015174891
000200 73 08 fd 3d b9 c6 18 bf 3b 96 35 3e cb 79 c8 3c
       0.12355127 -0.59678227 0.1773309 0.024472138
000210 bb 84 0d be b2 25 af bd 9f ba 5c 3d 42 ec 16 bf
       -0.13820164 -0.08552112 0.053888913 -0.5895425
000220 b3 18 52 3e 6d 61 ab bd 67 6d ee 3c 18 04 91 3d
       0.20517235 -0.08368192 0.029104901 0.07080859
000230 73 16 33 3e f7 87 98 be 50 79 ea 3d b4 4f 2f bd
       0.17489032 -0.29791233 0.1144892 -0.04280062
000240 bd b4 17 be 2f a3 68 be 64 2e 33 3d 98 f6 9f be
       -0.1481504 -0.227185 0.043745413 -0.31242824
000250 15 7c b1 3e 44 cf 69 bc 04 e5 4b bb 40 a3 32 be
       0.3466498 -0.014270607 -0.0031111846 -0.17445087
000260 80 08 3f 3f 27 62 31 bf c5 63 a1 3c a4 75 a5 3c
       0.74622345 -0.69290394 0.019700894 0.020197697
000270 1d f7 11 3e d1 d8 f2 bc b5 81 4e bd d5 be b2 3e
       0.14254422 -0.029644402 -0.050416667 0.34911218
000280 9b 8c 49 3d a7 d9 83 bc 8c 84 76 3d d4 3a 95 3d
       0.049206357 -0.016094996 0.060185 0.07286611
000290 50 f2 22 bd 7a 81 94 3d 62 0a 1c 3c f1 9f 37 bd
       -0.03978187 0.07251258 0.00952396 -0.044830266
0002a0 78 5d 63 3e 7b 89 10 3d 70 2e aa be c7 a7 81 bd
       0.22203624 0.03528736 -0.33238554 -0.06330829
0002b0 0e 14 67 3e 42 a8 5c be 81 20 df 3d ae 10 a2 3d
       0.22566244 -0.2154856 0.108948715 0.07913338
0002c0 dc ce c1 3e d9 7f 98 be c7 1c 13 be a8 a0 91 be
       0.37853134 -0.2978504 -0.14366446 -0.28442883
0002d0 67 91 4c 3d 69 0c d1 bb 77 2b 0a bf a6 42 1f 3f
       0.049943354 -0.0063796532 -0.5397257 0.6221107
0002e0 40 cf 48 be a2 08 ab 3d 61 90 fc 3c 2d f7 6f be
       -0.1961031 0.08351256 0.030830564 -0.23434134
0002f0 17 4f 9e be e9 d5 b5 3e f4 bf 00 bf 1c b4 f5 be
       -0.30919716 0.35514763 -0.502929 -0.47988975
000300 1e 18 b9 bc 18 87 30 3e 82 5b 68 3e 46 59 85 be
       -0.022594508 0.17239034 0.22691157 -0.26044673
000310 7a 15 be 3e 0b 26 b5 3e 52 46 6d 3e a9 b1 3a 3d
       0.3712576 0.35380587 0.23171356 0.045579586
000320 3c 83 52 3f 9f 3a 9c 3e 41 ca 82 3d cd cb c9 3d
       0.822315 0.30513474 0.06386233 0.09853325
000330 22 82 14 be 01 47 c2 bc 68 ec c5 be 3a af 0d 3f
       -0.14502767 -0.023715498 -0.38656926 0.553455
000340 3c f9 79 3e ce 19 a5 3e e8 1a 06 3e 9c b4 f6 bd
       0.24411482 0.3224625 0.13096201 -0.12046167
000350 2c 73 b2 3e fe ef 8e bd 4f e5 dd 3e c8 c3 04 3f
       0.34853494 -0.069793686 0.4333901 0.5186124
000360 a2 c4 83 3e ec 2b d6 3d cd 7f 9b 3d e2 6d 36 3f
       0.25735956 0.10457596 0.075927354 0.7126142
000370 1f af 88 bd 83 d2 9c 3d f7 fd 9d 3d f7 e9 86 3b
       -0.06674027 0.076573394 0.077144556 0.0041172463
000380 db 45 76 be 53 35 76 be 24 b5 ab be 15 b6 61 be
       -0.24050085 -0.24043779 -0.33536637 -0.22042115
000390 b7 4d 1e b9 a1 4d 80 bb ea dc 9b be a4 44 38 bf
       -0.00015097005 -0.003915504 -0.30441982 -0.7197974
0003a0 e0 ca 03 bd 7c 78 21 bd 64 63 b7 3d 51 c4 e9 bd
       -0.0321759 -0.039421543 0.08954504 -0.114143975
0003b0 6c 85 29 be e6 0f 1c 3f 3c 48 51 be d6 d4 4d be
       -0.16554803 0.6096176 -0.20437711 -0.20100722
0003c0 57 55 30 3e 33 69 11 3c fd 4f fc 3e 7b a0 80 bf
       0.17220055 0.008875179 0.49279776 -1.0048975
0003d0 78 70 17 bd 43 78 77 bb 52 08 43 be 25 67 7f bd
       -0.036972493 -0.003776089 -0.19046143 -0.062354226
0003e0 95 81 19 bf 39 34 20 bf d9 6f 59 be 78 eb ff bc
       -0.5996335 -0.62579685 -0.21234073 -0.03124021
0003f0 3b 10 0d 3e 4b 88 66 3d 16 e7 d4 3e f3 4d 00 bf
       0.13775723 0.056282323 0.41582555 -0.5011894

fc.0.bias f4 [100]
000000 c9 58 68 bc a3 92 fe bc 2f 55 27 3e 34 94 a0 be
       -0.014181324 -0.031075781 0.16341089 -0.3136307
000010 72 0c 53 be 4b ad a6 be 34 8c b4 bf b5 f9 84 be
       -0.20610216 -0.32554087 -1.4105287 -0.2597176
000020 f9 4e 58 3f 9d a7 7d be d7 2a b3 3f 54 0e 12 3e
       0.844955 -0.2477097 1.3997449 0.14263278
000030 ed 3f 32 3f 20 70 85 3e e3 95 06 3d 86 3b 86 3e
       0.69628793 0.26062107 0.032857787 0.26217288
000040 0c 13 20 be 76 da bd be 44 a2 9d 3e 50 de c2 b9
       -0.15632266 -0.37080735 0.3078786 -0.000371682
000050 6f 19 09 3f 38 21 14 3f 41 71 68 bf dd 46 16 3f
       0.53554434 0.5786319 -0.9079781 0.5870188
000060 a9 f7 a6 3e d8 17 7e bf 6c 77 9b 3f f4 28 75 3f
       0.32610825 -0.9925513 1.214582 0.95765615
000070 4a df 68 3e 11 92 7e be 37 d3 5c 3f 57 e1 2f bd
       0.22741428 -0.24860407 0.8625979 -0.04293951
000080 06 d2 05 3d d6 6d 65 3f 3b cf 95 3e 2c 1b 01 be
       0.032670997 0.8962072 0.29259667 -0.12608021
000090 58 d8 91 3f 1d 51 2f bf 94 a8 d6 be 08 1f ab bd
       1.1394148 -0.68483144 -0.4192549 -0.08355528
0000a0 11 db 76 3f 6d ac ae bf 23 7e 97 be 72 6d 1b 3e
       0.9642802 -1.364637 -0.29588422 0.15178469
0000b0 cd 85 f1 be f6 89 ac be 57 41 0b bf 3b 03 a0 3f
       -0.47172394 -0.33699006 -0.54396576 1.2500986
0000c0 73 bf 63 3f 25 18 c5 be b1 79 7c 3f 8f eb 06 bf
       0.88964003 -0.38494983 0.98623186 -0.52703184
0000d0 d6 81 5d 3d 1c 08 89 3f 32 1f 1e 3f 93 dc e3 bd
       0.0540789 1.07056 0.6176635 -0.111260556
0000e0 fe 75 09 3d c5 1e d1 3d cb f3 e8 3c 87 db a6 3f
       0.03355979 0.10210947 0.028436562 1.3035744
0000f0 b5 bc 22 bf 84 12 82 3e af 39 a0 bc 92 66 13 3e
       -0.63569194 0.2540475 -0.019558756 0.14394596
000100 ef 4a c3 bf fd e8 c3 3c 32 71 2e 3f de 8e 54 bf
       -1.5257243 0.023914808 0.6814147 -0.830305
000110 56 4e ec 3d f9 6d 45 3f 09 69 b1 bf 34 ba 9e be
       0.11538379 0.7712093 -1.3860179 -0.31001437
000120 04 ce 30 3f 89 66 3b 3f 47 d5 43 bf cc c9 ac be
       0.69064355 0.7320333 -0.7649731 -0.3374771
000130 fe c0 a6 3e 22 e8 c9 bf a6 41 a2 bd 65 4e 42 3d
       0.32569116 -1.5773966 -0.07922678 0.047438044
000140 48 db d9 be ba 92 a1 be 86 fe 06 bc 8e 11 77 bf
       -0.4255011 -0.31557256 -0.008239394 -0.9651116
000150 90 be 09 3f e7 ca 90 3e 81 dc 53 bf ef 9a 83 bd
       0.538064 0.28279802 -0.8275834 -0.064260356
000160 cb 44 d9 be 5d ec ef 3e 04 e3 fa 3e fe e9 cd bd
       -0.42435297 0.46860018 0.49001324 -0.10054396
000170 57 d7 43 bf 8c b1 05 3f 06 47 6c bf e3 df 4c bf
       -0.7650046 0.5222404 -0.92295873 -0.80029124
000180 e6 62 e6 bc 6a 7a 98 3e d8 50 34 bd fc 7a 58 3f
       -0.02812333 0.29780895 -0.04402241 0.8456266

fc.1.weight f4 [100, 100]
000000 54 d1 9a 3d ec ae 05 3d f2 af 4a bd 1d 90 17 bd
       0.075594574 0.03263752 -0.0494842 -0.03700267
000010 04 8e 01 3e b7 d8 64 bb d1 a1 a4 3d 6f b0 21 3e
       0.12651831 -0.0034919211 0.080386765 0.1578996
000020 47 f6 7b bd 20 e6 48 3d fb e0 67 3d 9d fd c3 3c
       -0.061514165 0.04904759 0.056611042 0.023924643
000030 65 c9 fe 3d 06 74 94 bc 8f 6f 05 3e 36 64 c5 3d
       0.12440757 -0.01812173 0.13030837 0.09638254
000040 be 19 83 bd e8 d5 97 3d a1 ab d2 3d 17 28 99 3d
       -0.06401394 0.07413846 0.10286642 0.0747835
000050 0b cc 6c bb fa 0e ee 3d e9 60 50 3d c7 45 98 3d
       -0.0036132361 0.1162395 0.05087367 0.07435184
000060 ee 97 07 3e 15 04 10 3d 49 5f e7 3c f7 e5 ca bb
       0.1324155 0.035160143 0.028243678 -0.0061919647
000070 18 fd b8 3d 1f bd 9e 3d 7d 9a 27 3d ba 75 8f 3c
       0.09032649 0.07750916 0.040918816 0.017512191
000080 ca 82 4e 3d 5a 44 d6 3d fa e7 ce 3d 81 36 9b 3d
       0.0504177 0.10462256 0.1010284 0.07578755
000090 e1 8d 7d 3c ab 1e 0d 3d f6 5f 2d bc 09 54 b2 bd
       0.015475721 0.034453075 -0.010581961 -0.08707435
0000a0 4f 1d 91 bc 0a 37 ab 3d bc 61 cf bd 86 fc 3a bd
       -0.01771417 0.08360107 -0.10126063 -0.04565098
0000b0 ca 36 80 bd 88 ee 30 bd 6a 93 b7 3d 8f 96 8f bd
       -0.0626045 -0.04319623 0.08963664 -0.07011139
0000c0 02 bf 51 be b9 c2 34 3d b3 ff c7 3d 60 bc 08 3e
       -0.2048302 0.044131014 0.09765568 0.1335311
0000d0 03 91 2d 3c 23 8f 2e 3e 8d 30 28 3d b3 0b c0 bc
       0.0105936555 0.1704679 0.041061927 -0.023443079
0000e0 b0 12 40 ba fa 1e ce 3c 08 a0 80 3d 73 ff 7d 3d
       -0.00073270034 0.025161255 0.062805235 0.062011193
0000f0 fa 17 e2 bd 57 dd 3a 3e 47 45 07 bd 22 79 aa 3b
       -0.110397294 0.18248497 -0.033025052 0.0052024284
000100 e2 38 9c 3c 28 36 a9 bd e8 c6 c4 3d d0 5b cb 3b
       0.019070093 -0.082622826 0.09608251 0.0062060133
000110 68 5e 7c bd 71 94 1f 3b b1 6f 45 bd 47 3d 38 3d
       -0.06161347 0.0024349953 -0.04820222 0.044980314
000120 85 ba 3c bd 5e 6a b5 bc d4 11 3c bd e6 7b 95 3b
       -0.046076316 -0.022145446 -0.04591544 0.004561889
000130 b9 fe a3 bd 1b 08 ab 3e 59 e7 d2 bc bb 15 cf 3c
       -0.08007569 0.3340462 -0.02574508 0.025278917
000140 9f 93 dc 3c e9 04 9e 3d 25 28 ec 39 54 64 60 bd
       0.02692586 0.0771578 0.00045043338 -0.05478318
000150 3b 98 a1 bc 58 5b e7 3c f8 fb 45 bd 86 f1 d7 3d
       -0.01972591 0.028241798 -0.048336 0.10544114
000160 23 40 c0 3d f8 d9 42 39 b0 27 57 bd 49 89 dc 3b
       0.09387233 0.00018582481 -0.052528083 0.006730233
000170 8d ac 42 3d 95 40 ad bc f2 1a 77 bd d1 6d 94 3e
       0.04752784 -0.02114896 -0.06032843 0.28990033
000180 d0 54 0a 3d 72 49 c4 bd f8 1a 22 3d 94 a2 20 bd
       0.03377229 -0.09584321 0.0395765 -0.039217547
000190 fd e6 c2 bd 31 ee 2c 3d 00 59 81 3d ca 7d 87 bd
       -0.09516714 0.042219345 0.063158035 -0.06615789
0001a0 4c 55 42 bc 1a 09 52 bc c6 43 4e 3d 5a 2d 0e 3e
       -0.011861157 -0.012819553 0.050357603 0.13884488
0001b0 4c 6e 3f 3d 8b 80 65 bd df 92 27 bb 3e 83 49 3d
       0.046736047 -0.05603079 -0.002556972 0.049197428
0001c0 63 4d c0 3d 37 0b ae bc 62 e8 c2 3d e9 5f af bd
       0.0938976 -0.021245582 0.0951698 -0.08563215
0001d0 fb 18 73 bd c4 eb e9 3d 4a 89 02 3d b1 7a 01 bd
       -0.059349995 0.11421922 0.03186921 -0.03161115
0001e0 66 c2 55 3d 51 c5 12 3c c2 29 de bc 3a 70 6f bc
       0.052187346 0.008958177 -0.027119521 -0.014614159
0001f0 04 a4 cb bd 94 90 3b bd ae 43 6a bd a8 62 9f 3d
       -0.09943393 -0.045792177 -0.05719345 0.07782489
000200 e8 d5 34 bc d5 64 04 bd f2 3f 04 bd 27 ca fe 3c
       -0.011037327 -0.032322723 -0.032287546 0.031102253
000210 a0 05 80 bd 47 0f 8e bd 15 40 a1 3c 44 99 82 3c
       -0.06251073 -0.06936508 0.019683877 0.015942223
000220 8f 62 96 3d 73 cb e9 bd 74 cd fe bb 51 59 31 3d
       0.07343017 -0.11415758 -0.0077759568 0.04329807
000230 68 31 1a bd f5 c6 6b bd e6 c2 a6 bc 40 2d ae 3d
       -0.037644774 -0.057562787 -0.020356607 0.085047245
000240 6c b4 fc bc a4 e2 73 bd a7 95 cd 3d 1c 5e c9 3c
       -0.03084775 -0.059542313 0.100383095 0.024581008
000250 e4 fd 00 bd b4 58 10 3d ed 21 ef bc c5 e1 21 3d
       -0.03149213 0.035240844 -0.029190982 0.03952195
000260 ce 0f ad bc 25 82 0c 3e b0 0b ce 3c 59 fc c0 bc
       -0.0211257 0.13721521 0.025152057 -0.023557829
000270 79 9a ab 3c b0 9c 10 bd a0 7f e0 bc 5e 90 04 3e
       0.020947682 -0.03530568 -0.027404606 0.12945697
000280 40 af 12 3d db 87 50 bc d2 bf 4e bc 59 8c a6 3c
       0.035811663 -0.012727703 -0.012618976 0.020330595
000290 b2 c4 98 3d 11 84 8b 3d 3a b8 7c 3d 1d 67 f1 3d
       0.07459392 0.06812299 0.06169913 0.117872454
0002a0 95 fd 37 3e f2 e0 c0 3b bf 0e 6a 3d 60 4e e1 3d
       0.17967828 0.0058861906 0.05714297 0.11001277
0002b0 e6 b7 25 3d ab 11 ad 3d 4d 85 0a bc 00 8c 82 bd
       0.040458582 0.084506355 -0.008454633 -0.06374359
0002c0 1f d3 1a 3d e0 26 52 3e 5c 5e 76 3c be 23 54 bd
       0.037798997 0.20522642 0.015037145 -0.0517919
0002d0 08 45 a5 bd fd d9 c8 3d 9a b0 97 3d 8b ad 15 be
       -0.08069807 0.09807203 0.07406731 -0.14616983
0002e0 61 19 d7 3b 2e 34 29 3e a6 f7 59 3d a6 1f 8c bd
       0.0065643047 0.16523811 0.05321469 -0.06841974
0002f0 61 c4 2e be 0f ef cc bc 94 8d 94 3d cd d6 f0 3d
       -0.170671 -0.025016336 0.072535664 0.1175972
000300 e4 72 1a 3d 33 1d e8 3d da 82 3a be b2 93 64 3e
       0.037707224 0.11333694 -0.18213978 0.22321966
000310 5e 7c 87 3d 71 5f bd 3c de ba e5 3c e4 83 d7 3c
       0.06615518 0.0231168 0.028043207 0.026308008
000320 12 fe 11 3e f8 e4 d0 3d 0e 71 84 3b 79 12 dd 3d
       0.14257076 0.10199922 0.0040417975 0.10794539
000330 8a 64 2c 3d ae 27 e2 3b 9f 3d 6c bd 46 34 22 be
       0.04208807 0.006901703 -0.057675954 -0.15840253
000340 ed 87 de 3d f3 06 fd 3d 32 f5 9d 3d 33 13 0f 3d
       0.108657695 0.12354841 0.07712783 0.03493042
000350 3a 25 bd 3c 46 8d 0a 3d d6 6b 8c bd 00 47 06 3e
       0.02308904 0.033826135 -0.068565056 0.13113022
000360 9b a0 c6 3d 53 88 8a 3c 2f 62 8b bd 3f cb c7 3d
       0.09698602 0.016910708 -0.068058364 0.09755563
000370 48 6b ee 3d b7 d6 6c 3c 98 b2 84 bd ed 44 18 bd
       0.11641556 0.014455489 -0.064793766 -0.037175108
000380 43 41 83 3d eb 2f a5 b7 8f 97 13 3d f8 a4 7a 3d
       0.06408932 -1.9691846e-05 0.03603321 0.061192483
000390 9e c5 e5 bc 9b 8b ef 3c 8e 09 a3 ba c8 1a 13 bd
       -0.028048333 0.029241374 -0.0012438761 -0.035914212
0003a0 95 23 20 3d 8a 25 5c 3d c8 c1 ca bc 31 2e 42 bd
       0.039096434 0.053746738 -0.024750605 -0.047407333
0003b0 0b 5b ec bc 39 c2 0a bb 96 7e 95 3b 9f 51 14 bd
       -0.028852006 -0.0021172895 0.0045622094 -0.036210652
0003c0 ba 00 f5 3d 80 49 d3 bc 93 e7 a6 3d db 3d 54 bd
       0.11963029 -0.025791883 0.08149638 -0.051816802
0003d0 7f 05 9e 3d cc ee 8a 3d b2 c5 e6 3d 07 94 90 3d
       0.07715892 0.06783828 0.11268176 0.07059484
0003e0 64 57 63 3e dd 79 f7 3c 9e 80 b4 3d 10 8e 61 3d
       0.22201306 0.030209476 0.08813594 0.055067122
0003f0 81 5f 00 3e ed 4b 0d 3d c6 43 c3 3c ed fd 40 3e
       0.12536432 0.034496237 0.023836028 0.18846865

fc.1.bias f4 [100]
000000 61 c5 a8 3d a7 91 5b bc 93 6e db bc 45 63 c3 3e
       0.08240772 -0.013401425 -0.026786124 0.38161674
000010 7c 53 aa 3e 26 52 41 3e 4f e4 06 3e 64 12 bb 3d
       0.3326682 0.18878993 0.1317303 0.09134367
000020 a2 b8 95 3d 6c d5 a4 3d 49 c6 2b bc e8 09 d3 3e
       0.073106065 0.080485195 -0.010484287 0.41218495
000030 86 b3 0b 3e 3e e6 83 bd 42 c5 52 3e 5c 6e 22 3e
       0.13642702 -0.064403996 0.2058306 0.15862411
000040 f0 dc 43 3d b3 0d 27 3e 81 36 47 3d b0 07 07 bf
       0.047818124 0.1631382 0.048635963 -0.52746105
000050 87 89 ea 3d 98 83 04 3e 37 87 23 3d 15 95 72 bd
       0.114520125 0.12940824 0.039923873 -0.059224207
000060 85 16 46 bd 2f e9 7f bd 4d 4d 47 bd d8 98 39 3e
       -0.04836132 -0.06247824 -0.048657704 0.18124712
000070 8b 78 af 3e 0b 6a dc 3e 9d 6b 8d 3d 30 f4 f0 3c
       0.34271654 0.43049654 0.06905291 0.029413313
000080 a8 e5 a5 3e 77 de b6 bc c1 c5 44 3d ae 6c 24 bd
       0.32401776 -0.022322876 0.048040155 -0.040142708
000090 c2 d5 9a 3d ed b6 b0 3d da 34 e8 bc 36 ef dd 3e
       0.07560302 0.0862864 -0.028345514 0.43346566
0000a0 e2 55 5d 3e 32 c0 01 bc 1a d0 db bb 1e 80 c9 3e
       0.21614793 -0.007919358 -0.0067081572 0.39355558
0000b0 b5 90 e5 bc 49 2a 89 3e b7 b0 0c 3e 20 fc 91 bc
       -0.028023103 0.26790074 0.13739286 -0.017820418
0000c0 b8 97 0d 3b 11 84 59 3d 21 ac be 3d 9a 7f 94 3e
       0.0021605324 0.053104464 0.09310175 0.29003602
0000d0 47 e0 da 3e fa 60 8f 3d 34 a5 b6 3d f0 56 ca 3c
       0.42749235 0.07000919 0.08918229 0.024699658
0000e0 88 6a c3 3d 95 55 78 be 0c 99 91 bc a7 28 ef 3d
       0.095418036 -0.24251397 -0.017773174 0.11677676
0000f0 75 2d c6 3e 4c 91 6c bd 27 e2 75 bb 7a df 3a 3e
       0.38706556 -0.057755753 -0.003751883 0.18249312
000100 b1 5e 82 3e 16 14 80 3d ab 41 48 3d af 17 4a 3d
       0.2546287 0.06253831 0.04889075 0.049338993
000110 6c a3 5c 3e ec 13 68 3d dc e5 6e 3d 1c 77 0b bb
       0.21546715 0.056659624 0.05832468 -0.0021280712
000120 14 2c bf bc db 29 c4 bc 2c 6f cb be 09 9b 1a 3e
       -0.023336448 -0.02394574 -0.39733255 0.15098204
000130 a0 26 a0 3b 8d 21 08 3e 25 b3 f0 3d b9 10 8a 3e
       0.004887417 0.13294049 0.11752919 0.26965883
000140 ae 72 2e 3e f9 e7 25 bd e0 90 7e 3e b1 7a 09 3e
       0.17035934 -0.04050443 0.24859953 0.1342571
000150 db 5e f7 3d 1c 05 75 bd 86 d3 81 be b1 d7 fd bd
       0.12078639 -0.059819326 -0.25356692 -0.123946555
000160 ed 10 0e 3d 29 05 b3 be b4 83 e7 3c 44 25 57 be
       0.03468411 -0.34964874 0.028261043 -0.2101031
000170 76 f1 78 bd 88 55 24 be ac 21 aa 3c 38 49 83 bd
       -0.06077715 -0.16048253 0.02076801 -0.0641045
000180 c7 31 ef 3d 1a fa 19 be 7f 1e d1 bd f0 61 a7 bd
       0.11679416 -0.15036812 -0.10210895 -0.08172977

fc.2.weight f4 [4, 100]
000000 a8 11 8a bd e6 92 03 bd 28 52 80 3d 75 0c ba bc
       -0.06741649 -0.032122515 0.0626567 -0.022711018
000010 ff 74 92 be af 08 ae bd b4 4f 08 bd 25 c0 33 bd
       -0.28604886 -0.0849775 -0.033279136 -0.043884415
000020 ff 1c be bc 67 c7 47 3e 06 c1 4e 3d 64 03 04 bf
       -0.023207186 0.1950966 0.05047705 -0.51567674
000030 e2 3e 1b bd 2e 97 63 3d 7f c4 a7 bd 86 50 3d 3e
       -0.037901767 0.055564098 -0.081917755 0.18487749
000040 00 f9 cb 3d 53 22 7f 3d 81 b5 20 bd 90 62 8a 3f
       0.09959602 0.062288594 -0.039235596 1.0811329
000050 63 8d be bd 2c c4 25 3d e7 40 19 3d 54 07 98 3d
       -0.09304311 0.040470287 0.03741541 0.07423273
000060 b9 74 52 3c 40 91 db 3c 85 e8 d3 bc da 14 f8 bc
       0.012845212 0.026802659 -0.02586771 -0.03028338
000070 d9 e4 a8 3e 8d ff 32 be 47 68 d2 3e 62 f3 8b 3c
       0.32987097 -0.17480297 0.41095182 0.017083827
000080 de 4c 7a bd 3d 20 da bc 60 80 2b bd a7 b6 9e 3d
       -0.061108463 -0.0266267 -0.041870475 0.07749682
000090 bb 00 b9 3b 3e 6d 1a 3d 00 b0 02 3e 75 28 46 be
       0.005645839 0.037701838 0.12762451 -0.1935137
0000a0 a4 6c be bd e3 d1 80 3d 4a 3f 8a 3d a4 e3 34 be
       -0.09298065 0.06290033 0.06750353 -0.17664963
0000b0 ba ff 30 3d b9 ed 10 be 58 d4 b3 be a7 03 c0 bd
       0.04321263 -0.14153184 -0.35122943 -0.09375697
0000c0 4b 54 21 bd 0a 9e 51 3e 2e b4 7c be 68 51 75 3e
       -0.03938703 0.20470443 -0.24678108 0.23956835
0000d0 9d e4 70 3a dc b4 ac 3d db bc 89 3d 11 9b 14 3d
       0.00091893395 0.08432934 0.067254744 0.036280695
0000e0 b6 45 9d 3d 31 f2 1e 3e b7 22 a5 bd 47 e8 86 bd
       0.07679312 0.15522076 -0.08063262 -0.06587272
0000f0 d1 90 e3 bd 9c 10 bf 3d 4d b9 9a 3e b3 88 ac 3b
       -0.11111606 0.0932934 0.30219498 0.0052653193
000100 73 16 1e 3e 28 b2 94 3e 2a a4 a1 bd 29 ca 9f bd
       0.15438251 0.29042172 -0.0789264 -0.07802231
000110 fc 7b d1 3e 52 4f 70 3d 99 e9 85 3d 0b 8e f0 3d
       0.40914905 0.058669396 0.06538696 0.117458425
000120 b1 1e c4 ba 89 83 bb bd 20 61 3e 3e 4e a4 d1 3d
       -0.001496276 -0.09155948 0.18591738 0.10236417
000130 c4 75 48 bd 75 a4 5a bd 93 31 b2 bd e4 c6 71 bd
       -0.048940435 -0.053379495 -0.08700862 -0.059027568
000140 83 d8 47 bc ee 89 c8 3d 51 8c 30 bd 56 2a 4c be
       -0.0121976165 0.09791933 -0.043102566 -0.19938025
000150 2a e0 9d 3d 0e b7 3d bd a9 87 d1 bd 56 55 33 be
       0.077087715 -0.046317153 -0.10230953 -0.17513022
000160 34 7d fc 3c eb a2 d2 be 4d b7 27 bc 72 aa 80 3d
       0.03082142 -0.41139922 -0.010236573 0.0628251
000170 ca ad bb 3c ab 07 02 3e 40 c7 8c bd 06 aa 27 3e
       0.022910018 0.12698238 -0.068739414 0.16373453
000180 86 c1 9e bd e2 6c 78 be 6b 23 a2 be a5 3e fa be
       -0.077517554 -0.24260285 -0.31667647 -0.4887592
000190 8c ea 91 bc a0 0f 54 3d 45 6b 40 bd bb da 8d be
       -0.017812036 0.051772714 -0.0469773 -0.2770594
0001a0 66 6c 30 bd 86 37 07 3c 25 cd fc 3d f7 fb f7 bd
       -0.043072127 0.008252984 0.12343816 -0.12108605
0001b0 e0 b9 dc 3d a5 8a fb bd 94 91 5a 3c d9 8b 2f bf
       0.1077764 -0.12282304 0.013340373 -0.68572766
0001c0 d2 c9 89 3b 02 c2 60 3c 95 9a 37 3d 00 39 a2 bd
       0.004204967 0.01371813 0.044825155 -0.07921028
0001d0 5e 96 53 bd 08 b0 5d 3d 7c ac 75 3d ce 59 60 3f
       -0.051657073 0.054122955 0.059978947 0.8763703
0001e0 87 38 a9 3c 83 a7 3d bd 9f 20 ac 3d ae 84 94 3d
       0.020656837 -0.04630233 0.084046595 0.07251869
0001f0 0c ac 9f 3d 07 bc 08 3c 4f 2c f4 3c 27 c9 06 3e
       0.07796487 0.00834561 0.029806284 0.13162671
000200 83 7b 8c 3e be 88 6b 3e 89 70 e9 be 93 7b e6 3c
       0.27437982 0.23001382 -0.4559367 0.028135097
000210 e8 54 5d be 3f 19 a3 3c e4 4a b8 3d 19 02 4f bd
       -0.2161442 0.0199095 0.08998659 -0.05053911
000220 7a c6 86 bd 22 e2 61 3d 08 f6 8c 3d e4 ed a2 3e
       -0.06580825 0.055147298 0.06882864 0.3182212
000230 45 da 69 be 00 e0 6c 3d c2 13 79 3d b4 03 92 3e
       -0.2283717 0.05783081 0.06080986 0.2851845
000240 4e e2 b0 3a e3 8a 2e be 04 d0 30 3d a0 30 a3 bc
       0.0013495178 -0.17045169 0.04316713 -0.019920647
000250 cd e3 25 3e 6c b7 f2 3d 11 59 ed bd 93 eb c6 3d
       0.1620018 0.11851391 -0.11589254 0.09712901
000260 e7 ab e2 be 0b 77 0e 3d 0f d9 95 3d 07 2f 1b bd
       -0.44271776 0.034781497 0.07316791 -0.037886646
000270 89 15 e4 bc 4e ca 3b be 4a 19 c0 bc ae 9c a6 bd
       -0.0278423 -0.18338892 -0.023449559 -0.08135353
000280 df 4a 3c be a3 17 3c bd 8e aa 9f bd 84 31 8e 3d
       -0.18387936 -0.04592098 -0.077962026 0.06943038
000290 80 4e aa 3e c8 46 36 be 71 a7 b5 3d b8 67 e3 bc
       0.33263016 -0.17800438 0.088698275 -0.027759418
0002a0 1a 8b 80 3d 70 82 27 3d ae 2d c3 3d ec 84 10 bd
       0.062765315 0.04089588 0.09530197 -0.035283014
0002b0 a4 88 65 3c 29 9d 9a bd 9e 61 98 be 86 cd c4 3e
       0.014009628 -0.07549507 -0.29761976 0.38438052
0002c0 97 63 2d 3d e8 3e da 3d f2 86 43 3e 8b 64 65 be
       0.042331304 0.1065653 0.19094446 -0.22401635
0002d0 1c 86 3c 3d 76 af bf 3d a9 55 a4 3e d2 0b 40 3c
       0.046026334 0.093596384 0.32096604 0.011721568
0002e0 87 c2 2d 3e a5 c6 9f bd 7e 44 1f be 9e 0b ab 3d
       0.16968738 -0.0780156 -0.15553471 0.08351825
0002f0 3f 70 17 bc 8c 83 4f bc dc 24 2e bd 86 aa d3 bc
       -0.00924307 -0.012665641 -0.04251562 -0.025838148
000300 aa d8 5d bd 29 dc 88 bd 9b 25 e5 3b 1c 51 1c bf
       -0.054161705 -0.06682617 0.0069930083 -0.61061263
000310 e1 98 8b 3d 89 94 ea 3e 98 4e 8e bd fe de d6 3c
       0.06816269 0.45816448 -0.06948584 0.026229378
000320 aa bd c6 3d bb ed be bb 74 09 c4 bd 33 2b 64 3d
       0.09704144 -0.0058266795 -0.095721155 0.05570526
000330 2d 9a 68 3b 50 ac 0a 3e 73 4e a2 3d c9 be 00 bd
       0.0035492287 0.13542295 0.07925119 -0.031431947
000340 ce cf dc bc 38 90 98 bc b8 00 fb 3d 1f 5f 40 bc
       -0.026954558 -0.018623456 0.122559965 -0.011741429
000350 35 05 f4 bd a9 7b 59 bd f9 d5 29 3d e0 0f 37 3c
       -0.11915056 -0.053096447 0.041463826 0.0111732185
000360 f0 b1 b7 bd 34 63 83 3c d4 ee 8f 3d 39 31 5c bc
       -0.08969486 0.016038515 0.07027975 -0.01343947
000370 23 c6 a5 bd 1c db 83 3d 4f bd be 3d 5d 70 92 bd
       -0.08094432 0.06438276 0.093134515 -0.07150338
000380 57 da 23 bd 4d fb 50 bc 1f 7a fa bd 25 c5 b6 bd
       -0.040003147 -0.012755227 -0.12230324 -0.08924321
000390 2c 1c 66 3c f8 a4 f2 b9 f9 11 a1 ba 22 df 11 be
       0.014044803 -0.00046280748 -0.0012288681 -0.14245275
0003a0 fa 27 28 3c a3 ce 03 be 35 64 f1 bd a4 36 eb bc
       0.010263437 -0.12871794 -0.11786691 -0.028712578
0003b0 b0 58 12 be 11 27 08 3e aa 7d c0 bd 1c a7 d6 3c
       -0.14291644 0.13296153 -0.093989685 0.02620273
0003c0 a3 a8 8e bd 4e d6 6f bc bf e0 df 3d c8 bf 0f 3c
       -0.06965759 -0.014638497 0.10931539 0.008773752
0003d0 8e 79 8f bd 49 b6 ee ba ed 62 1a bc 0f 6f 13 be
       -0.070056066 -0.0018212284 -0.009423 -0.14397834
0003e0 ec b5 bf 3c 59 fa dd bc a4 4c 0b bc f4 be 38 bc
       0.023402177 -0.027096914 -0.008502159 -0.0112759955
0003f0 42 dd d3 bc df 55 ba 3d 82 83 60 bd 60 0e 2a 3d
       -0.02586234 0.0909841 -0.054812916 0.041517615

fc.2.bias f4 [4]
000000 a9 09 ef bd 9d 35 45 3d 53 c2 a4 3d 01 ad 0b 3d
       -0.116717644 0.048146833 0.08044877 0.034100536
