model/unicycle-ensemble-FC3-100-6/epoch_300.pth (torch, 47077 bytes, 6 tensors)

fc.0.weight f4 [100, 6]
0.27288178 0.20806342 -0.7539004 0.19714083 -0.3933709 0.27763227 0.09283195 -0.12540144
0.4080957 0.57631016 -0.082558215 -0.25191277 0.35284808 0.10164683 -0.4206349 0.021240154
0.26399466 -0.42601037 -0.0075570107 0.25913447 -0.52450836 0.34612152 -0.062395878 0.05453095
-0.10091051 0.23802568 0.14589071 0.42497048 0.01322929 -0.33689275 0.15708031 0.24347208
0.59859204 -0.77144283 -0.009853178 -0.1717865 -0.23032877 -0.07102197 1.3009682 -0.012705161
0.29598555 -0.19987306 0.0502292 0.04958291 -0.03672919 0.15142216 0.45786914 -0.3211382
-0.035387877 0.13724762 0.31833628 -0.029650636 0.091587566 -0.14873187 -0.31338704 -0.058691148
0.44149536 0.017217698 -0.33131322 0.4433708 0.05677787 -0.16368511 0.253548 -0.43463343
0.071454816 0.2336499 -0.09884415 0.06386792 -0.29391727 1.0094107 0.3824511 0.30601543
0.20478472 0.15595332 0.34424767 -0.33010972 0.29701203 -0.10399356 -0.17627524 0.0607891
0.09477428 -0.56851107 0.31718874 0.31562454 -0.155066 0.24841392 0.16362713 -0.6274695
0.34074488 0.39559546 0.18745182 -0.29280198 -0.3519216 -0.6884139 -0.18020642 0.19769026
-0.28816384 -0.25739068 0.13506165 0.33006135 -0.09921024 0.19669138 0.07793327 0.07035992
-0.11315931 -0.9643209 -0.15422831 0.08583929 -0.040560894 0.068059064 0.29847208 0.54286873
-0.22853781 -0.23817284 0.24651848 -0.0819121 0.3250794 0.3399642 0.24195457 0.40688413
0.30516025 0.06182358 0.18862268 -0.3019357 -0.26802957 0.20989665 0.043537833 0.016552797
0.020705556 -0.48780826 0.30165485 0.082078226 -0.16280262 -0.0926607 0.083780356 -0.5192395
0.3820959 -0.17350331 0.019170044 0.16742678 0.03319834 -0.28284755 0.22609288 0.10177743
-0.13589711 -0.27748498 -0.11156904 -0.3463105 0.30424145 0.17712043 0.104761414 -0.18191154
0.6947114 -0.5648834 0.05857371 0.096458 0.28553364 -0.039442472 0.004612041 0.2748001
0.2021156 0.15796445 0.08361088 0.13690145 -0.073103584 0.13196215 0.14807692 -0.25323695
0.21812053 -0.028990105 -0.36993676 -0.1057325 0.25613743 -0.33350435 0.11256789 0.11274127
0.291841 -0.094913326 -0.03762592 -0.2914837 0.033194844 0.0029017914 -0.54822874 0.5223646
-0.23763853 0.058404364 0.0674764 -0.28421554 -0.27341893 0.3276568 -0.47676098 -0.46409607
-0.039056994 0.18590137 0.261032 -0.16951717 0.35421017 0.36571798 0.2847747 0.07157356
0.6209895 0.5031983 0.16381972 0.2287034 -0.22023332 -0.047486596 -0.28180858 0.49184445
0.34583938 0.50424635 0.18527716 -0.14650351 0.37437624 -0.00085630565 0.43449065 0.40276787
0.3089119 0.14769779 -0.27430838 0.35237494 -0.11931888 0.14436784 0.08771376 -0.0071959863
-0.31308296 -0.27180398 -0.31305146 -0.2749557 6.0269194e-05 -0.012518078 -0.34391585 -0.63547236
-0.016096046 -0.0366786 0.13212943 -0.12034537 -0.251549 0.49990043 -0.27545473 -0.26717106
0.19632636 0.02040026 0.49652117 -0.9778529 -0.2100131 -0.1895185 -0.27358866 -0.10643142
-0.4633832 -0.6448814 -0.32924902 0.01611202 0.17744923 0.07117666 0.4278887 -0.42878562
00000000: 29b7 8b3e 940e 553e 9eff 40bf 49df 493e
00000010: e967 c9be d125 8e3e ad1e be3d 3c69 00be
00000020: ebf1 d03e 1089 133f 4814 a9bd b6fa 80be
00000030: 81a8 b43e 372c d03d 755d d7be d5ff ad3c
00000040: 4f2a 873e 081e dabe cda0 f7bb 46ad 843e
00000050: 2e46 06bf d736 b13e d292 7fbd d85b 5f3d
00000060: 2baa cebd 01bd 733e 6064 153e bb95 d93e
00000070: aabf 583c 357d acbe a9d9 203e bf50 793e
00000080: 543d 193f 477d 45bf 396f 21bc cde8 2fbe
00000090: 4edb 6bbe f773 91bd 2086 a63f 4f29 50bc
000000a0: 6b8b 973e 86ab 4cbe 22bd 4d3d 7317 4b3d
000000b0: 5971 16bd 690e 1b3e d36d ea3e 3a6c a4be
000000c0: e1f2 10bd a48a 0c3e f9fc a23e e4e5 f2bc
000000d0: 4392 bb3d 2b4d 18be 4474 a0be 2166 70bd
000000e0: ae0b e23e 210c 8d3c e3a1 a9be 7f01 e33e
000000f0: e98f 683d 129d 27be 0bd1 813e 4688 debe
00000100: e756 923d eb41 6f3e cd6e cabd 2fcd 823d
00000110: 537c 96be 5f34 813f a1d0 c33e 0eae 9c3e
00000120: 16b3 513e 3ab2 1f3e 3b41 b03e 2404 a9be
00000130: f611 983e 93fa d4bd 7f81 34be fefd 783d
00000140: 0519 c23d f189 11bf 9066 a23e 8a99 a13e
00000150: 9fc9 1ebe 3860 7e3e df8d 273e d7a1 20bf
00000160: 1d76 ae3e 7d8b ca3e 5ff3 3f3e 24ea 95be
00000170: 112f b4be e53b 30bf 0888 38be 516f 4a3e
00000180: 368a 93be b6c8 83be 9a4d 0a3e cdfd a83e
00000190: bd2e cbbd 7769 493e 7a9b 9f3d dd18 903d
000001a0: 11c0 e7bd bcdd 76bf 07ee 1dbe 82cc af3d
000001b0: 2e23 26bd 8d62 8b3d 55d1 983e 72f9 0a3f
000001c0: d105 6abe 95e3 73be 576f 7c3e 88c1 a7bd
000001d0: cf70 a63e ca0f ae3e f0c2 773e 1e53 d03e
000001e0: f73d 9c3e b93a 7d3d 4e26 413e 5197 9abe
000001f0: 2c3b 89be 26ef 563e ba54 323d bb99 873c
00000200: b39e a93c 01c2 f9be 8172 9a3e a118 a83d
00000210: bbb5 26be e5c4 bdbd 0995 ab3d e1ec 04bf
00000220: 13a2 c33e daaa 31be 7f0a 9d3c ed71 2b3e
00000230: fcfa 073d 65d1 90be e484 673e af70 d03d
00000240: 9d28 0bbe 8312 8ebe 4f7e e4bd 9c4f b1be
00000250: 89c5 9b3e 0f5f 353e 278d d63d 0547 3abe
00000260: 9bd8 313f 339c 10bf fdea 6f3d c68b c53d
00000270: 7731 923e 6e8e 21bd 9b20 973b 99b2 8c3e
00000280: 64f7 4e3e 6fc1 213e 2e3c ab3d e52f 0c3e
00000290: 55b7 95bd 1621 073e 7aa1 173e 46a8 81be
000002a0: fd5a 5f3e a87c edbc 5a68 bdbe 488a d8bd
000002b0: 7224 833e 15c1 aabe fe89 e63d e5e4 e63d
000002c0: 2f6c 953e eb61 c2bd a31d 1abd 5a3d 95be
000002d0: 51f7 073d fb2b 3e3b b858 0cbf b0b9 053f
000002e0: 8457 73be 6a39 6f3d 1131 8a3d b384 91be
000002f0: 91fd 8bbe a2c2 a73e 041a f4be 009e edbe
00000300: 3afa 1fbd ee5c 3e3e fca5 853e e995 2dbe
00000310: 095b b53e 633f bb3e fdcd 913e 2995 923d
00000320: 2bf9 1e3f 9bd1 003f 5bc0 273e 3931 6a3e
00000330: d884 61be 4e81 42bd 3749 90be 09d3 fb3e
00000340: dc11 b13e 4a16 013f 4cb9 3d3e 0405 16be
00000350: 3eae bf3e b379 60ba 8f75 de3e 9737 ce3e
00000360: b329 9e3e 173e 173e 2672 8cbe 7d6a b43e
00000370: 755d f4bd 2ad5 133e 46a3 b33d 4fcc ebbb
00000380: 694c a0be e429 8bbe 4848 a0be fec6 8cbe
00000390: 8ec9 7c38 a018 4dbc bd15 b0be 51ae 22bf
000003a0: dbdb 83bc 4d3c 16bd f04c 073e a277 f6bd
000003b0: 08cb 80be f3f2 ff3e 6708 8dbe a5ca 88be
000003c0: c709 493e 721e a73c 0638 fe3e 9154 7abf
000003d0: ad0d 57be 2311 42be d013 8cbe b7f8 d9bd
000003e0: 9040 edbe f316 25bf 5493 a8be 5bfd 833c
000003f0: 40b5 353e 12c5 913d 3a14 db3e ca89 dbbe

fc.0.bias f4 [100]
0.010456553 0.05860855 -0.03953703 -0.2051906 -0.25548574 -0.2710643 -0.35879442 -0.23945396
0.7399043 -0.18860449 1.0899001 0.5322043 0.57973117 0.21543902 -0.09989055 0.23071285
-0.019644132 0.080101535 -0.001863515 -0.059072774 0.5904089 0.5080572 -0.6537438 0.40757388
0.34559777 -0.6705577 0.8113009 0.6911251 0.31737894 -0.12512246 0.63137484 0.15263219
0.03528221 0.6401721 0.14289491 -0.04288244 0.98174185 -0.52935207 -0.4473136 -0.085868984
0.87184364 -0.9650056 -0.1787436 0.08890645 -0.30105054 -0.18543652 -0.5323967 1.0432346
0.8057391 -0.16509812 0.77170163 -0.4673877 -0.07815427 0.823207 0.44178948 -0.014296733
0.0008241206 0.07873784 0.060941447 0.96401083 -0.59828764 0.37755066 -0.0028390035 0.19164203
-1.0440655 0.08867002 0.468055 -0.6247855 0.11709044 0.6241299 -1.1327994 -0.09936935
0.7415375 0.62660545 -0.3041455 -0.26425278 0.38896957 -1.1597772 -0.20729633 -0.062341843
-0.34279883 -0.36776882 -0.08274648 -0.86721253 0.46953562 0.13541877 -0.62338054 -0.063073166
-0.29527467 0.40623733 0.3929836 -0.04462037 -0.47667712 0.5196863 -0.77469045 -0.72742647
-0.07758871 0.24084254 -0.04141685 0.45132914
00000000: f651 2b3c 850f 703d 95f1 21bd 7c1d 52be
00000010: 07cf 82be f1c8 8abe e7b3 b7be 6b33 75be
00000020: 5e6a 3d3f 8921 41be d981 8b3f 8a3e 083f
00000030: 4369 143f 0c9c 5c3e 6b93 ccbd fd3f 6c3e
00000040: bbec a0bc 460c a43d 3041 f4ba 4bf6 71bd
00000050: 0a25 173f 0910 023f c15b 27bf 86ad d03e
00000060: 31f2 b03e aba9 2bbf 6ab1 4f3f 93ed 303f
00000070: 7e7f a23e 1a20 00be c8a1 213f 9d4b 1c3e
00000080: 1484 103d 52e2 233f 0b53 123e 7fa5 2fbd
00000090: 6f53 7b3f 9e83 07bf 4a06 e5be 14dc afbd
000000a0: 2531 5f3f 9b0a 77bf 9008 37be 9614 b63d
000000b0: 4c23 9abe 12e3 3dbe 264b 08bf b688 853f
000000c0: eb44 4e3f 7b0f 29be 3d8e 453f 714d efbe
000000d0: 590f a0bd b2bd 523f 3b32 e23e d83c 6abc
000000e0: cc09 583a 4e41 a13d bd9d 793d 6ac9 763f
000000f0: 6129 19bf 524e c13e 930e 3abb cf3d 443e
00000100: f0a3 85bf a198 b53d e8a4 ef3e f1f1 1fbf
00000110: 1dcd ef3d fac6 1f3f 92ff 90bf 2882 cbbd
00000120: 67d5 3d3f 3769 203f f5b8 9bbe 244c 87be
00000130: 0527 c73e 9473 94bf 7d45 54be 295a 7fbd
00000140: 5483 afbe 324c bcbe fd76 a9bd a401 5ebf
00000150: f966 f03e 38ab 0a3e de95 1fbf 812c 81bd
00000160: 3e2e 97be 57fe cf3e 2535 c93e d9c3 36bd
00000170: 060f f4be 290a 053f 1d52 46bf 9f38 3abf
00000180: d4e6 9ebd 6d9f 763e b7a4 29bd 9d14 e73e

fc.1.weight f4 [100, 100]
0.09921447 0.02780847 -0.023075813 -0.03725537 0.11693101 -0.016373372 0.08125481 0.11631264
-0.06879639 0.047668725 0.06267728 0.043715104 0.120431185 -0.03397519 0.122235544 0.09687073
-0.06726852 0.044233758 0.08897824 0.068975374 0.003370276 0.1214559 0.055490226 0.06315903
0.12389458 0.04537673 0.03614697 -0.007099068 0.0946988 0.075295165 0.04192701 0.016156191
0.012060804 0.10230203 0.11319182 0.06760227 0.024402758 0.0068648453 0.042412624 -0.09042687
-0.019349214 0.07291971 -0.14378995 -0.056546595 -0.070582 -0.02874866 0.090351 -0.07516468
-0.17726737 0.026786748 0.06706322 0.12333466 0.012451538 0.102576315 0.042161275 -0.025750812
0.013346309 0.038835287 0.066613354 0.04374739 -0.08162168 0.16103287 -0.037959732 0.0002519097
0.011660013 -0.078573614 0.086533554 -0.021936871 -0.06266832 -0.013130377 -0.054275807 0.044995833
-0.0272309 -0.04512354 -0.042478405 -0.016783047 -0.10261012 0.25603783 -0.033117514 0.0410039
-0.005068395 0.08735669 -0.0076230154 -0.018916221 -0.018957736 0.013023435 -0.056341797 0.11631643
0.100608096 0.01468637 -0.061075684 -0.024772678 0.042608287 0.0032578944 -0.05015453 0.29694974
0.008848248 -0.064385 0.03223753 -0.046513062 -0.10912764 0.037060034 0.066051275 -0.05496052
-0.011529221 -0.0051681246 0.06763399 0.14091711 0.053929374 -0.048982706 -0.0044180066 0.052192573
0.09712681 -0.0445839 0.08837643 -0.09198172 -0.05783697 0.08252982 0.041999638 -0.025292797
0.040088132 0.0012984482 -0.028396249 -0.010888797 -0.103850745 -0.051679894 -0.05763045 0.08064337
0.005561699 -0.049807798 -0.033331215 0.033703573 -0.04326651 -0.06144714 -0.0062722685 0.01664541
0.07883115 -0.06109097 0.043355603 0.046357863 -0.019631071 -0.08623091 -0.025278986 0.07592284
-0.03247338 -0.052732658 0.095016696 0.023018813 0.016730618 0.03945066 -0.034235038 0.04363427
-0.028578565 0.12133886 0.026409952 -0.077743396 0.040390883 -0.036963344 -0.012927378 0.106811054
0.067660175 -0.049890865 -0.009844581 0.037952077 0.055029202 0.06766287 0.07130437 0.06600993
0.17437086 -0.004460167 0.050571855 0.11242844 0.055515766 0.07551827 -0.008387331 -0.07985337
0.024609001 0.05763701 0.016707413 -0.038934916 -0.0563391 0.10971359 0.06493939 -0.115778595
0.016530918 0.1428503 0.066698946 -0.05323088 -0.15124394 -0.012630912 0.07187312 0.084207475
0.05169933 0.13526265 -0.13224922 0.27440822 0.06421136 -0.001695444 0.032994077 0.027006289
0.1349366 0.09658411 -0.0108180195 0.11074427 0.05116157 0.01807726 -0.052900527 -0.12208328
0.100268304 0.122424416 0.0726492 0.03591685 0.03432486 0.031450585 -0.07124911 0.13276449
0.09293871 0.04503439 -0.06620617 0.102011524 0.12015406 0.006492328 -0.087605104 -0.03562124
0.06830671 0.00129768 0.04014017 0.06239235 -0.017716065 0.04374655 -0.0027840633 -0.036385365
0.045736365 0.06392013 -0.027173443 -0.046681803 -0.026316559 0.0042214 -0.04929491 -0.03433167
0.109130934 -0.018938439 0.08814072 -0.03949588 0.08773812 0.061802037 0.11931095 0.077657714
0.19999014 0.038127095 0.10801126 0.074730985 0.1255398 0.07951132 0.036013585 0.18520865
00000000: f530 cb3d 97ce e33c 7d09 bdbc 1699 18bd
00000010: 8679 ef3d 7321 86bc ec68 a63d 5235 ee3d
00000020: 1fe5 8cbd 4840 433d f25c 803d 9c0e 333d
00000030: a0a4 f63d 9229 0bbd a156 fa3d 2964 c63d
00000040: 14c4 89bd 752e 353d 393a b63d f642 8d3d
00000050: d9df 5c3b dfbd f83d b849 633d 8659 813d
00000060: 71bc fd3d f3dc 393d d80e 143d 4c9f e8bb
00000070: 72f1 c13d 5a34 9a3d a8bb 2b3d fd59 843c
00000080: ae9a 453c ba83 d13d 1dd1 e73d 0f73 8a3d
00000090: 4be8 c73c 7ff2 e03b dcb8 2d3d b931 b9bd
000000a0: 3e82 9ebc ee56 953d ac3d 13be 679d 67bd
000000b0: 4c8d 90bd 4f82 ebbc f209 b93d f1ef 99bd
000000c0: 9485 35be e26f db3c 7158 893d e296 fc3d
000000d0: 8901 4c3c 8813 d23d 4db1 2c3d 5ef3 d2bc
000000e0: 7aaa 5a3c c011 1f3d 956c 883d 7730 333d
000000f0: 4429 a7bd cde5 243e aa7b 1bbd bf12 8439
00000100: a409 3f3c 34eb a0bd 8138 b13d f4b4 b3bc
00000110: 4058 80bd cb20 57bc 4f50 5ebd 8d4d 383d
00000120: 5613 dfbc 76d3 38bd d6fd 2dbd 9a7c 89bc
00000130: 4125 d2bd 6417 833e 3ba6 07bd b5f3 273d
00000140: c714 a6bb 10e8 b23d 7dca f9bb 31f6 9abc
00000150: 414d 9bbc 3f60 553c a8c6 66bd 4f37 ee3d
00000160: 9e0b ce3d 1a9f 703c 7f2a 7abd 12f0 cabc
00000170: 0786 2e3d 6682 553b d66e 4dbd cc09 983e
00000180: 3ef8 103c 48dc 83bd 800b 043d 7b84 3ebd
00000190: 507e dfbd 43cc 173d e445 873d 481e 61bd
000001a0: 0fe5 3cbc 5f59 a9bb b083 8a3d 934c 103e
000001b0: 0ce5 5c3d 17a2 48bd edc4 90bb e1c7 553d
000001c0: 6cea c63d 9c9d 36bd b4fe b43d e960 bcbd
000001d0: 75e6 6cbd 6505 a93d d007 2c3d d732 cfbc
000001e0: 7433 243d b130 aa3a 409f e8bc ed66 32bc
000001f0: b3af d4bd 4cae 53bd e80d 6cbd 5a28 a53d
00000200: ea3e b63b 4303 4cbd 5086 08bd c20c 0a3d
00000210: 3938 31bd ffaf 7bbd 9a87 cdbb f45b 883c
00000220: 3a72 a13d 863a 7abd a595 313d bee1 3d3d
00000230: 57d1 a0bc d599 b0bd e015 cfbc 6f7d 9b3d
00000240: cf02 05bd 33fe 57bd 1d98 c23d f391 bc3c
00000250: a60e 893c 0497 213d 0a3a 0cbd d9b9 323d
00000260: 981d eabc 8280 f83d af59 d83c ee37 9fbd
00000270: e970 253d e066 17bd 5acd 53bc c1bf da3d
00000280: 6b91 8a3d 5d5a 4cbd 2a4b 21bc a373 1b3d
00000290: 4d66 613d d592 8a3d 0708 923d 3730 873d
000002a0: 468e 323e 9826 92bb 6f24 4f3d e240 e63d
000002b0: 8064 633d 53a9 9a3d 046b 09bc 2a8a a3bd
000002c0: d198 c93c c914 6c3d fcdd 883c 387a 1fbd
000002d0: d4c3 66bd 85b1 e03d f1fe 843d 541d edbd
000002e0: d96b 873c 5947 123e 7599 883d a008 5abd
000002f0: b1df 1abe e2f1 4ebc 3732 933d f874 ac3d
00000300: adc2 533d 4b82 0a3e 576c 07be 3c7f 8c3e
00000310: 3f81 833d a939 deba cc24 073d 4b3c dd3c
00000320: d22c 0a3e e4cd c53d 103e 31bc e4cd e23d
00000330: cb8e 513d c316 943c 39ae 58bd cc06 fabd
00000340: 7859 cd3d a7b9 fa3d 1bc9 943d 8c1d 133d
00000350: 3998 0c3d 54d2 003d 0eeb 91bd 6af3 073e
00000360: a656 be3d fb75 383d 1a97 87bd 6beb d03d
00000370: 5513 f63d 98bd d43b 4e6a b3bd 94e7 11bd
00000380: 63e4 8b3d ea16 aa3a 056a 243d 1f8f 7f3d
00000390: 4821 91bc 952f 333d d574 36bb d208 15bd
000003a0: 0e56 3b3d 8fe8 823d d79a debc 6b35 3fbd
000003b0: d395 d7bc ab53 8a3b 76e9 49bd 5d9f 0cbd
000003c0: 0a80 df3d c924 9bbc 1f83 b43d 6fc6 21bd
000003d0: 0bb0 b33d 2224 7d3d 4d59 f43d 020b 9f3d
000003e0: 37ca 4c3e 282b 1c3d 0235 dd3d 8f0c 993d
000003f0: 818d 003e d5d6 a23d fb82 133d 56a7 3d3e

fc.1.bias f4 [100]
0.07994518 -0.005191577 -0.035918016 0.36932975 0.3146133 0.18034591 0.12620354 0.1062685
0.08743175 0.061113007 -0.05706337 0.37743807 0.14814991 -0.08440403 0.2080474 0.10715065
0.047972564 0.14003067 0.061494883 -0.7645894 0.13507596 0.11485474 0.023896752 -0.05921464
-0.037496388 -0.06247824 -0.04873376 0.18434517 0.28446186 0.4320762 0.05325626 0.021185005
0.27282414 -0.0026360299 0.0546654 -0.01273084 0.07844042 0.058572564 -0.050402436 0.40153667
0.17450745 -0.040084943 -0.030659487 0.35351568 -0.044138648 0.25057465 0.121868335 0.008968159
-0.02521658 0.019277519 0.11741651 0.2319511 0.4047818 0.07000919 0.0761503 0.025742128
0.05450679 -0.23913673 -0.0038782856 0.14200675 0.35153535 -0.100571096 -0.03224678 0.16841504
0.22598462 0.01107958 0.060712814 0.064446025 0.1408783 0.020801777 0.042901415 -0.017494334
-0.021037515 -0.022675155 -0.33913118 0.10393091 0.0049494114 0.12609164 0.041488413 0.21019684
0.14392167 -0.060758494 0.2097574 0.12244526 0.0377933 -0.075297765 -0.1336099 -0.07589253
0.015176685 -0.36007902 0.041542478 -0.2036361 -0.103238806 -0.17063907 0.029088106 0.028608745
0.15375803 0.15660863 -0.033413235 -0.020521628
00000000: 4cba a33d 1b1e aabb c51e 13bd ca18 bd3e
00000010: ff14 a13e 99ac 383e 803b 013e 4da3 d93d
00000020: 6b0f b33d a251 7a3d 48bb 69bd 903f c13e
00000030: 9cb4 173e 05dc acbd 610a 553e cd71 db3d
00000040: e17e 443d 3364 0f3e 0fe2 7b3d 22bc 43bf
00000050: 5a51 0a3e f638 eb3d 1fc3 c33c 0d8b 72bd
00000060: d095 19bd 2fe9 7fbd 0d9d 47bd fbc4 3c3e
00000070: fca4 913e 1739 dd3e 3c23 5a3d 2d8c ad3c
00000080: 9baf 8b3e 3ec1 2cbb d4e8 5f3d 0395 50bc
00000090: 5fa5 a03d c9e9 6f3d c972 4ebd 3796 cd3e
000000a0: 15b2 323e 1c30 24bd 9b29 fbbc 0200 b53e
000000b0: baca 34bd 524b 803e 1b96 f93d 2fef 123c
000000c0: 0093 cebc e3eb 9d3c 1178 f03d 9784 6d3e
000000d0: 8f3f cf3e fa60 8f3d b0f4 9b3d 28e1 d23c
000000e0: 8342 5f3d 42e0 74be d62a 7ebb 386a 113e
000000f0: 71fc b33e 38f8 cdbd 3315 04bd fe74 2c3e
00000100: 8368 673e 2087 353c 00ae 783d 47fc 833d
00000110: 6742 103e 7d68 aa3c 65b9 2f3d 4750 8fbc
00000120: de56 acbc 3fc1 b9bc 9aa2 adbe bbd9 d43d
00000130: ac2e a23b 2b1e 013e c1ef 293d d73d 573e
00000140: 3460 133e e6dd 78bd a5ca 563e 95c4 fa3d
00000150: 26cd 1a3d b735 9abd 09d1 08be 8b6d 9bbd
00000160: a1a7 783c 475c b8be 7228 2a3d fb85 50be
00000170: de6e d3bd 02bc 2ebe 2e4a ee3c e35c ea3c
00000180: bf72 1d3e 035e 203e 51dc 08bd f91c a8bc

fc.2.weight f4 [4, 100]
-0.07007779 -0.03436512 0.06968475 -0.004709683 -0.2521988 -0.08551954 -0.03882732 -0.042305388
-0.014715686 0.19433853 0.04912298 -0.22507106 -0.04150665 0.060157094 -0.0878149 0.16338784
0.09979848 0.057452068 -0.049443543 0.8797552 -0.09448073 0.042317662 0.02692659 0.07422576
0.016010273 0.026802659 -0.018208193 -0.043956034 0.2948402 -0.14075346 0.38185608 0.024145417
-0.07088987 -0.029393055 -0.056592453 0.05876932 0.013055462 0.042979613 0.12781692 -0.17858583
-0.09227025 0.061972048 0.070481904 -0.14248447 0.05904586 -0.14447272 -0.26524457 -0.098911755
-0.015899733 0.17652313 -0.23244704 0.1937833 0.025854774 0.08432934 0.06796332 0.036601752
0.08169395 0.05352761 -0.091754116 -0.06721246 -0.109152466 0.099530004 0.22239274 0.0016883377
0.17549525 0.28924513 -0.08442155 -0.08277818 0.3453933 0.04880366 0.06631857 0.12362753
0.0126878675 -0.09627341 0.11928042 0.17468917 -0.055182073 -0.058118895 -0.016967332 -0.063809924
-0.013787861 0.09543037 -0.072858155 -0.12450781 0.0821843 -0.039403096 -0.083040275 -0.16174315
0.035961267 -0.4493501 0.0028224061 0.070725225 0.0336934 0.0731612 -0.073424034 0.0686865
-0.08546189 -0.06583567 -0.08159767 -0.46532357 -0.019228758 0.056133904 -0.05660757 -0.24435878
-0.07253898 0.0052326485 0.13886441 -0.13454978 0.09217399 -0.11368075 0.009648876 -0.73877966
0.0015951926 0.013350789 0.058666322 -0.05085083 -0.0517943 0.05704714 0.04917428 0.71908617
0.025186304 -0.054986674 0.09200763 0.072520524 0.0965929 0.00834561 0.038428888 0.14535573
0.2734253 0.21451819 -0.42279464 0.022162238 -0.16252248 0.017860726 0.1064757 -0.075795494
-0.07839279 0.055527013 0.0859599 0.30753118 -0.19301519 0.069508746 0.07045035 0.24732642
-0.019081678 -0.15083022 -0.083244845 -0.021519164 0.1380408 0.14267087 -0.14738268 0.12099757
-0.40070346 0.034781497 0.07125033 -0.038118396 -0.034526125 -0.069994204 -0.032715127 -0.10263319
-0.13878697 -0.05209166 0.0043509407 0.078183286 0.31704444 -0.14474517 0.09443603 -0.023144472
0.09854545 0.058390275 0.09782801 -0.042562176 0.001459118 -0.07997832 -0.18900895 0.3519735
0.046538915 0.113634236 0.12754841 -0.18364123 0.051315222 0.10518121 0.2811769 -0.054179262
0.1390227 -0.090499505 -0.1573393 0.07590263 -0.014886026 -0.0892141 -0.053885307 -0.020285398
-0.058658037 -0.062406037 0.001647973 -0.06535274 0.06340026 0.37436277 -0.1968164 -0.04443001
0.08234752 -0.00013911251 -0.09520573 0.08749178 0.01967505 0.117108814 0.07381673 -0.028919639
-0.06011046 -0.021734843 0.09240235 -0.039446503 -0.118340075 -0.05734257 0.030850958 0.0121606495
-0.08969476 0.017475896 0.11640552 -0.0028621082 -0.099117085 0.052568145 0.08611725 -0.07150328
-0.089469254 -0.012755227 -0.10396161 -0.080766454 0.035785742 0.001843678 -0.010171369 -0.12118347
0.02034284 -0.1213574 -0.09632531 -0.105182216 -0.13037091 0.12434655 -0.12667078 0.058580454
-0.08126449 -0.014536903 0.10040281 0.027682723 -0.099879466 -0.00030779242 -0.0070258956 -0.12854621
0.059877336 -0.043388665 -0.007402603 -0.015609285 -0.057501297 0.0909841 -0.05175632 0.041523322
00000000: f284 8fbd 71c2 0cbd e1b6 8e3d af53 9abb
00000010: 3320 81be de24 afbd 6509 1fbd 6a48 2dbd
00000020: 101a 71bc ae00 473e 2e35 493d 0779 66be
00000030: e102 2abd 4967 763d 4cd8 b3bd 244f 273e
00000040: 2563 cc3d dc52 6b3d 5085 4abd a337 613f
00000050: 1d7f c1bd 4955 2d3d 2795 dc3c ad03 983d
00000060: fa27 833c 4091 db3c 5929 95bc 3e0b 34bd
00000070: 4bf5 963e ad21 10be a482 c33e 9ccc c53c
00000080: b52e 91bd b4c9 f0bc 7dcd 67bd 19b8 703d
00000090: 94e6 553c 640b 303d 70e2 023e 34df 36be
000000a0: 2ff8 bcbd 67d6 7d3d d158 903d 73e7 11be
000000b0: 12da 713d a8f0 13be 23ce 87be 3f92 cabd
000000c0: 2840 82bc 7bc2 343e 9906 6ebe 216f 463e
000000d0: 64cd d33c dcb4 ac3d 5a30 8b3d b8eb 153d
000000e0: 284f a73d c43f 5b3d 95e9 bbbd b0a6 89bd
000000f0: 548b dfbd 63d6 cb3d ecba 633e 364b dd3a
00000100: 07b5 333e f017 943e 35e5 acbd 9b87 a9bd
00000110: 64d7 b03e 59e6 473d 08d2 873d 6e30 fd3d
00000120: c6e0 4f3c fe2a c5bd 4b49 f43d b8e1 323e
00000130: 9906 62bd 140e 6ebd 13ff 8abc c7ae 82bd
00000140: 7be6 61bc ff70 c33d a836 95bd f3fd febd
00000150: 3e50 a83d 2465 21bd 0511 aabd ff9f 25be
00000160: 1f4c 133d 3711 e6be 1ef8 383b 63d8 903d
00000170: 1702 0a3d 8ad5 953d 575f 96bd 82ab 8c3d
00000180: a506 afbd dad4 86bd ae1c a7bd e43e eebe
00000190: a185 9dbc aaec 653d 57dd 67bd 3039 7abe
000001a0: 518f 94bd a376 ab3b 7932 0e3e 6bc7 09be
000001b0: b8c5 bc3d 74d1 e8bd 5216 1e3c aa20 3dbf
000001c0: c815 d13a 45bd 5a3c 194c 703d f648 50bd
000001d0: 4326 54bd 43aa 693d f86a 493d 0816 383f
000001e0: 8253 ce3c b539 61bd 7f6e bc3d a485 943d
000001f0: 80d2 c53d 07bc 083c 9c67 1d3d 22d8 143e
00000200: 67fe 8b3e a8aa 5b3e 8a78 d8be 958d b53c
00000210: 4b6c 26be a850 923c ef0f da3d ab3a 9bbd
00000220: 668c a0bd 4b70 633d be0b b03d ba74 9d3e
00000230: c6a5 45be 9a5a 8e3d 4648 903d 2343 7d3e
00000240: 2e51 9cbc 3d73 1abe 467c aabd f548 b0bc
00000250: 915a 0d3e 5018 123e 7ceb 16be 93cd f73d
00000260: 0129 cdbe 0b77 0e3d b1eb 913d 0922 1cbd
00000270: 446b 0dbd 1f59 8fbd 4c00 06bd 5a31 d2bd
00000280: 2c1e 0ebe 115e 55bd 5692 8e3b 8f1e a03d
00000290: a653 a23e 1438 14be ad67 c13d 7a99 bdbc
000002a0: 32d2 c93d a42a 6f3d 0d5a c83d ad55 2ebd
000002b0: e03f bf3a accb a3bd 908b 41be df35 b43e
000002c0: 979f 3e3d 11b9 e83d 0d9c 023e 720c 3cbe
000002d0: e92f 523d 3f69 d73d 6bf6 8f3e 13eb 5dbd
000002e0: f75b 0e3e ce57 b9bd 8e1d 21be d772 9b3d
000002f0: 85e4 73bc e2b5 b6bd d7b6 5cbd 902d a6bc
00000300: 6943 70bd 799d 7fbd cc00 d83a a8d7 85bd
00000310: ffd7 813d 7aac bf3e 3d8a 49be 3efc 35bd
00000320: d1a5 a83d bbde 11b9 39fb c2bd e42e b33d
00000330: 922d a13c bfd6 ef3d 3a2d 973d e1e8 ecbc
00000340: 6336 76bd 450d b2bc 713d bd3d a892 21bd
00000350: 485c f2bd 0be0 6abd 26bb fc3c 763d 473c
00000360: e3b1 b7bd 9c29 8f3c 0466 ee3d 3592 3bbb
00000370: e6fd cabd b251 573d 3e5e b03d 5070 92bd
00000380: a83b b7bd 4dfb 50bc d3e9 d4bd e268 a5bd
00000390: 1294 123d 91a7 f13a d0a5 26bc 0a2f f8bd
000003a0: 07a6 a63c 3b8a f8bd 3446 c5bd c669 d7bd
000003b0: f47f 05be 67a9 fe3d fcb5 01be 0ff2 6f3d
000003c0: ff6d a6bd 312c 6ebc fd9f cd3d e1c6 e23c
000003d0: 9b8d ccbd 335f a1b9 7c39 e6bb 9ea1 03be
000003e0: f041 753d 50b8 31bd 8991 f2bb 16be 7fbc
000003f0: 7b86 6bbd df55 ba3d 6ffe 53bd 5c14 2a3d

fc.2.bias f4 [4]
-0.13386986 0.041612417 0.058971338 0.023704508
00000000: 2e15 09be c871 2a3d ee8b 713d f52f c23c
