model/unicycle-FC2-400-rk4-extra/epoch_500.pth (torch, 19347 bytes, 4 tensors)

fc.0.weight f4 [400, 6]
0	0x3e919603	0.28434762
1	0xbe1db236	-0.15400013
2	0x3e3bcb28	0.18339217
3	0x3e85a485	0.2610208
4	0xbccef7ec	-0.025264703
5	0xbf039a5e	-0.5140742
6	0xbe3e670d	-0.18593998
7	0xbe83abc9	-0.25717
8	0xbe844a99	-0.25838163
9	0x3eda38f5	0.4262158
10	0x3e88f80b	0.26751742
11	0x3e8b4686	0.27202243
12	0xbdcc35f9	-0.09971232
13	0xbd8db47f	-0.069191925
14	0x3ebc83dc	0.3681935
15	0xbf16ec00	-0.5895386
16	0xbe3568c0	-0.1771574
17	0xbc2df1b1	-0.010616706
18	0x3ea93939	0.3305147
19	0xbea7885c	-0.3272122
20	0xbe6c30c8	-0.23065484
21	0x3e3aa141	0.18225576
22	0xbc9f4d28	-0.01944597
23	0x3de845e5	0.11341456
24	0xbe0821a4	-0.13294083
25	0x3e2162d5	0.15760358
26	0xbc8bccc2	-0.01706541
27	0xbefb75d4	-0.49113333
28	0x3e76a840	0.2408762
29	0xbe87b916	-0.26508397
30	0x3ea29439	0.3175371
31	0xbd5a22b9	-0.05325577
32	0x3dde0af1	0.10841931
33	0x3f1583f3	0.58404464
34	0x3d260745	0.040534277
35	0xbe729d87	-0.23692904
36	0x3ca0ef1f	0.019645272
37	0x3e702cac	0.23454541
38	0x3dec60db	0.11541911
39	0xbf006566	-0.5015472
40	0xbe793ec6	-0.24340352
41	0x3e93b4c3	0.28848848
42	0x3e7343ad	0.23756285
43	0x3e4663f5	0.19374068
44	0xbe3da398	-0.18519437
45	0x3e7172ca	0.23578945
46	0xbd9bf297	-0.0761463
47	0x3e92437a	0.28567106
48	0xbbb96e2c	-0.0056588855
49	0xbe651bfe	-0.2237396
50	0x3e288486	0.16456804
51	0x3f2c4878	0.6729808
52	0x3dde4490	0.10852921
53	0xbe42513f	-0.18976305
54	0x3e830db5	0.25596395
55	0xbe5084b8	-0.20363128
56	0xbdcf0b2a	-0.10109551
57	0xbe5837f4	-0.21115094
58	0x3eac54d2	0.33658463
59	0x3e96ef6a	0.29479533
60	0x3e37bd61	0.17943336
61	0x3e71f0b0	0.23626971
62	0x3e69dbe5	0.2283779
63	0x3e18cbd6	0.14921507
64	0x3e329023	0.17437796
65	0xbebd3644	-0.36955464
66	0x3c44c8f8	0.012010805
67	0xbe31bb6b	-0.1735665
68	0xbe10bf2c	-0.14135426
69	0x3dde0553	0.10840859
70	0x3dc13af3	0.09435072
71	0x3e1cf46a	0.15327612
72	0x3e9960a8	0.29956555
73	0x3e909835	0.28241125
74	0x3d9e0e76	0.07717602
75	0x3d21f639	0.039541457
76	0xbea29157	-0.3175151
77	0xbea508a0	-0.32233143
78	0xbe95ff58	-0.29296374
79	0xbe6a1335	-0.2285889
80	0x3bc72d91	0.00607843
81	0x3f0e24dd	0.55525
82	0x3da61ec1	0.081113346
83	0xbea4337d	-0.32070532
84	0xbc839310	-0.016061336
85	0x3d589197	0.05287322
86	0xbf01f3e5	-0.5076278
87	0xbf65fa73	-0.8983528
88	0xbcc0eaa9	-0.023549395
89	0xbe2055a3	-0.15657668
90	0xbe4f7d53	-0.20262651
91	0xbebfe9e0	-0.3748312
92	0xbe3896b8	-0.18026245
93	0x3f0067ad	0.50158197
94	0x3ee3452f	0.4438872
95	0xbd433551	-0.04765827
96	0xbc597235	-0.013271858
97	0x3c19f879	0.009397619
98	0xbe8f3b92	-0.27975136
99	0xbf0a9a07	-0.5414128
100	0xbcd9eb76	-0.026601534
101	0x3edd93f8	0.43276954
102	0x3cf567b1	0.02995667
103	0xbd68ce9c	-0.056837663
104	0x3ea8b5d2	0.32951218
105	0xbe998d38	-0.29990554
106	0xbdad9479	-0.084755845
107	0x3eccb04c	0.39978254
108	0xbe02393f	-0.1271715
109	0xbda9c681	-0.08289815
110	0x3e863d50	0.26218653
111	0xbf03f81b	-0.51550454
112	0xbe3b1ff8	-0.18273914
113	0x3eb7c692	0.35893685
114	0x3e5bce31	0.21465375
115	0x3e98f44c	0.29873884
116	0xbe42e009	-0.19030775
117	0x3e955fec	0.29174745
118	0xbcba98f7	-0.022778017
119	0x3eb6bdac	0.35691583
120	0x3e71df16	0.23620257
121	0x3e84e352	0.25954682
122	0x3efd05db	0.4941853
123	0x3e22840c	0.15870684
124	0x3ec78f18	0.3897636
125	0x3d36ed22	0.04465974
126	0x3dd2c994	0.10292354
127	0x3cc90029	0.02453621
128	0x3f50eafb	0.8160855
129	0xbf8bacb9	-1.0912086
130	0x3c858d73	0.0163028
131	0xbd10e9e2	-0.035379298
132	0x3eb4992a	0.35273105
133	0x3eb60d61	0.35557082
134	0x3e1ebc9b	0.15501635
135	0x3e14d177	0.1453303
136	0x3d3c92eb	0.04603855
137	0x3dae21dc	0.08502552
138	0x3e40f5aa	0.18843713
139	0xbeb7333f	-0.35781285
140	0x3db0053e	0.0859475
141	0x3ebec41f	0.37259004
142	0xbe2b4d63	-0.1672874
143	0x3ce42b45	0.027852664
144	0x3e4ed68a	0.20199028
145	0xbe6c596d	-0.23080988
146	0x3e0fe322	0.14051488
147	0xbc541329	-0.012944021
148	0xbee280de	-0.44238943
149	0x3c9304b6	0.017946582
150	0xbd752b2a	-0.059855618
151	0xbd92e6fc	-0.07172963
152	0xbf10b54f	-0.56526655
153	0x3f4456dd	0.7669504
154	0x3caf7a1a	0.021420527
155	0x3c508f9d	0.012729553
156	0xbddd452a	-0.108042076
157	0xbeabec12	-0.33578545
158	0xbe2db8ad	-0.1696498
159	0xbdad7ac6	-0.08470683
160	0xbdfe6553	-0.1242167
161	0x3ec4b9ae	0.38422912
162	0xbec04275	-0.37550703
163	0xbe2e7160	-0.17035437
164	0xbe2b6744	-0.16738611
165	0x3e177b81	0.14793207
166	0x3ec9fee3	0.39452276
167	0xbe74c6ed	-0.23904009
168	0x3e1a54a1	0.15071346
169	0xbe0e9cd3	-0.13927011
170	0x3cbf7e23	0.023375576
171	0xbe527f07	-0.2055627
172	0xbecfef2d	-0.40612164
173	0xbaee2253	-0.0018168188
174	0x3c476b9e	0.012171654
175	0x3ea1eb31	0.3162475
176	0x3e078d9b	0.13237612
177	0x3ecd47a8	0.40093732
178	0xbe944a99	-0.28963163
179	0x3d1a87f6	0.03772732
180	0xbba05519	-0.004892957
181	0x3baf91ad	0.005357942
182	0x3f0b7ac6	0.5448421
183	0x3f83c754	1.0295205
184	0x3d4ad207	0.049516704
185	0x3d6db7a0	0.058036447
186	0xbea37b21	-0.31929877
187	0x3ebf9733	0.37420043
188	0x3e9b9723	0.30388746
189	0xbdfa0057	-0.12207096
190	0x3d7dbffc	0.06195067
191	0xbda03b5a	-0.078238204
192	0xbe306008	-0.17224133
193	0xbd580d56	-0.052747093
194	0xbdbe01f6	-0.09277718
195	0xbeb7c109	-0.35889462
196	0x3e82c52d	0.25541058
197	0x3e94516b	0.28968367
198	0xbea7290c	-0.32648504
199	0xbe1cb26e	-0.1530244
200	0x3e554936	0.20828709
201	0xbd61a9e1	-0.05509365
202	0xbeef6c8e	-0.46762508
203	0x3e4ecd4b	0.201955
204	0xbce44afa	-0.027867783
205	0x3d580af9	0.05274484
206	0xbf047238	-0.51736784
207	0xbf84e14e	-1.0381258
208	0xbca4f287	-0.020135177
209	0xbd3056a8	-0.04305139
210	0x3e302fb8	0.17205703
211	0xbdc2b222	-0.095066324
212	0xbed34028	-0.41259885
213	0xbd2e27d4	-0.04251845
214	0xbea75314	-0.3268057
215	0xbedf20b1	-0.4357963
216	0x3ebce86b	0.3689607
217	0x3d4fee86	0.050764583
218	0xbe5031cd	-0.20331497
219	0x3e19d5a0	0.15022898
220	0x3e5ccd7e	0.21562764
221	0xbe9177b1	-0.2841163
222	0x3e97712a	0.29578525
223	0xbe33e982	-0.17569545
224	0xbd84ac52	-0.0647818
225	0xbe7db931	-0.24777676
226	0xbeaaa48f	-0.33328673
227	0xbdfbdfb8	-0.1229853
228	0x3dfd13aa	0.12357266
229	0xbe6a38ec	-0.22873276
230	0x3e34a3f9	0.17640676
231	0xbe3a867e	-0.18215367
232	0x3d0e5e99	0.034758184
233	0xbdf49928	-0.11943275
234	0x3dd5e4ad	0.10444007
235	0xbe250eef	-0.16118978
236	0x3eb99c40	0.36252022
237	0xbe7cb03d	-0.24676605
238	0x3e5fa054	0.21838504
239	0x3e680497	0.22658001
240	0xbdd2fae7	-0.10301762
241	0xbe525b60	-0.2054267
242	0xbdf767ea	-0.12080367
243	0xbe554794	-0.20828086
244	0xbe39e559	-0.18153895
245	0x3eb407e0	0.35162258
246	0xbebc800e	-0.36816448
247	0x3e04f5e9	0.12984432
248	0xbeff66bb	-0.49883065
249	0xbe990e75	-0.29893842
250	0xbdd345fc	-0.10316083
251	0x3e9bf068	0.30456853
252	0x3dd75869	0.1051491
253	0xbe25d56c	-0.16194695
254	0xbe0c34c8	-0.1369201
255	0xbec765cd	-0.38944855

fc.0.bias f4 [400]
0	0x3ea5269b	0.32256016
1	0xbec66ff8	-0.387573
2	0x3df42174	0.11920443
3	0x3e98e709	0.29863766
4	0xbcc28e86	-0.023749601
5	0x3eb8b977	0.36078998
6	0x3c6a5266	0.014301872
7	0x3d570d01	0.052502636
8	0x3e26406c	0.16235512
9	0xbec4d11d	-0.3844079
10	0x3e09f60c	0.13472766
11	0xbdc16cfc	-0.09444615
12	0xbcdbd7f0	-0.026836365
13	0xbd1d949d	-0.038471807
14	0x3ed6e230	0.41969442
15	0x3de77e74	0.11303416
16	0x3e82e5c6	0.25565928
17	0xbe745ed5	-0.238643
18	0xbe429816	-0.19003329
19	0x3d15ee85	0.036604423
20	0x3d52778a	0.051383533
21	0x3f887fe7	1.0664033
22	0x3e9be4b7	0.30447933
23	0xbd139a9b	-0.036036115
24	0x3df25466	0.11832504
25	0x3d7a14af	0.06105488
26	0xbd80fa7c	-0.06297776
27	0xbd9fa354	-0.07794824
28	0x3e7bab6d	0.24577112
29	0x3cdc5beb	0.026899299
30	0xbfd44f04	-1.6586614
31	0xbe98f522	-0.29874521
32	0xbd753524	-0.059865132
33	0xbe91c96d	-0.28473988
34	0xbea9fbb1	-0.33199838
35	0xbc89f27c	-0.016839258
36	0x3e699e01	0.2281418
37	0x3ea7121b	0.32631
38	0xbea89736	-0.32927865
39	0xbb9fa33d	-0.0048717544
40	0xbe6711f7	-0.22565447
41	0xbd22b03f	-0.039718863
42	0x3e3e4a41	0.18583013
43	0xbecd30c3	-0.40076265
44	0xbf05270c	-0.52012706
45	0xbeb9f3bf	-0.36318776
46	0x3c87a342	0.01655734
47	0xbecdded7	-0.40209076
48	0x3e826e50	0.25474787
49	0xbe986049	-0.2976096
50	0x3e252469	0.1612717
51	0x3e4001b0	0.18750644
52	0x3e4a2e02	0.19744113
53	0x3df54ec2	0.119779125
54	0x3ec4e127	0.38453028
55	0xc001ff72	-2.0312161
56	0x3de99ba1	0.11406637
57	0x3e554618	0.2082752
58	0x3e72a4eb	0.23695724
59	0xbdad95d8	-0.08475846
60	0x3e091686	0.13387498
61	0x3fc6026b	1.5469488
62	0x3e04ea46	0.12979993
63	0x3df079bd	0.1174197
64	0xbed25673	-0.4108158
65	0xbeada88c	-0.33917654
66	0x3ee6f527	0.4510891
67	0x3d157056	0.036484085
68	0x3d18a575	0.037267167
69	0xbd9f916d	-0.0779141
70	0xbe28da71	-0.16489579
71	0x3e841775	0.25799146
72	0x3dad748f	0.084694974
73	0xbe808e6c	-0.2510866
74	0x3ea8cee0	0.32970333
75	0x3e29bd8c	0.16576213
76	0xbf74c801	-0.9561768
77	0x3e3961e8	0.18103755
78	0x3b7f4dbd	0.0038956248
79	0xbb98b4e4	-0.0046602357
80	0xbe78f496	-0.24312052
81	0x3e22344f	0.15840267
82	0xbcd2d687	-0.02573706
83	0x3eb3c1d8	0.3510883
84	0x3e95f8f6	0.29291505
85	0xbe351d64	-0.17686993
86	0x3e83b366	0.25722808
87	0x3db5ace4	0.08870867
88	0xbe10eaa3	-0.14152007
89	0x3da908ae	0.08253609
90	0xbf057399	-0.52129513
91	0x3cbc6a5b	0.022999933
92	0xbe4b6a48	-0.19864762
93	0x3ec6a389	0.38796642
94	0xbdb75b48	-0.089529574
95	0xbfb5dcde	-1.4208028
96	0x3ecd7059	0.40124777
97	0x3d560bbd	0.05225729
98	0x3a1a774a	0.0005892409
99	0xbdb591c8	-0.08865696
100	0xbe378de1	-0.17925216
101	0xbe91c287	-0.28468725
102	0x3d9330cb	0.07187041
103	0xbee7f2ab	-0.45302328
104	0xbdac043d	-0.08399246
105	0xbf15fd00	-0.5858917
106	0x3e627964	0.2211662
107	0xbe284986	-0.16434297
108	0x3ed76067	0.42065737
109	0xbe2ee6c4	-0.17080218
110	0x3d584883	0.052803528
111	0xbe5aeef0	-0.2138021
112	0x3e525215	0.20539124
113	0x3d1150e6	0.03547754
114	0xbea1f211	-0.31629995
115	0xbdc927d6	-0.09822051
116	0x3e8463c0	0.25857353
117	0x3e86f2c5	0.26357093
118	0xbde051ae	-0.10953079
119	0xbe799c01	-0.24375917
120	0x3ef2d313	0.47426662
121	0xbe0570c6	-0.13031301
122	0x3dd57c91	0.1042415
123	0xbff39d94	-1.9032464
124	0xbf330813	-0.69934195
125	0x3dcbe62f	0.099560134
126	0x3e13b227	0.14423428
127	0x3e252e80	0.1613102
128	0xbcf23990	-0.029568464
129	0xbe24524d	-0.1604702
130	0x3de23a49	0.11046273
131	0xbdc89a43	-0.09795048
132	0xbf482830	-0.7818632
133	0xbefd0381	-0.49416736
134	0x3e638856	0.22219977
135	0x3d2d8687	0.042364623
136	0xbeac36f5	-0.3363568
137	0x3d7735ab	0.060353916
138	0xbe66207a	-0.22473326
139	0xbea68cbc	-0.32529247
140	0x3d2ae4a4	0.041721955
141	0x3e2d9677	0.16951929
142	0x3d7a6beb	0.061138075
143	0x3e2c51f0	0.16828132
144	0x3e28eedb	0.16497366
145	0x3f0a9b02	0.54142773
146	0xbeb4da25	-0.3532268
147	0x3ea290b0	0.31751013
148	0xbeca3566	-0.39493865
149	0xbe68a7b3	-0.22720222
150	0x3eb94d27	0.36191675
151	0x3eba651b	0.36405262
152	0x3e72d8c6	0.23715505
153	0x3dd1dbf5	0.102470316
154	0x3e998d35	0.29990545
155	0xbea05f76	-0.3132283
156	0x3e3fd603	0.18733983
157	0x3d9e985f	0.07743906
158	0xbe58ea3c	-0.21183103
159	0xbfb6daf2	-1.4285567
160	0xbe174631	-0.1477287
161	0xbe6b36b9	-0.22970094
162	0xbdbb6d34	-0.09151688
163	0xbdc1ef81	-0.0946951
164	0xbeee17ba	-0.46502477
165	0xbf01f82a	-0.50769293
166	0x3dde9896	0.10868947
167	0xbe670d24	-0.22563607
168	0x3f856b94	1.0423455
169	0xbd184d93	-0.037183356
170	0x3e6e80b8	0.2329129
171	0x3e801784	0.2501794
172	0xbf37e357	-0.7183127
173	0x3d911b33	0.07085266
174	0xbe9fd81a	-0.3121956
175	0xbc8b8a18	-0.017033622
176	0xbe1d360b	-0.15352647
177	0x3dd64b1e	0.10463546
178	0xbfb2c3ef	-1.3966044
179	0x3c851264	0.01624412
180	0x3e2ce37a	0.1688365
181	0xbe6b7b1a	-0.22996178
182	0x3d930655	0.07178942
183	0x3e843ec2	0.2582913
184	0x3dbdff79	0.09277243
185	0x3da2702d	0.07931552
186	0x3d91b448	0.07114464
187	0xbe79140e	-0.24324057
188	0xbe160ed1	-0.1465409
189	0x3e377550	0.17915845
190	0xbece45c7	-0.4028761
191	0x3dceda5f	0.10100245
192	0x3e76e25b	0.24109785
193	0xbd658029	-0.056030426
194	0xbd770af0	-0.060313165
195	0xbd5b3bf4	-0.053523973
196	0xba5b05ba	-0.00083550403
197	0x3e943ab9	0.28951052
198	0xbe7520fc	-0.23938364
199	0xbee0567c	-0.43815982
200	0x3ceb7300	0.02874136
201	0xbd2649eb	-0.040597837
202	0xbecc1c66	-0.39865416
203	0x3ec92f0f	0.39293715
204	0xbed77079	-0.42077997
205	0xbe913c0c	-0.28366125
206	0xbe2049dc	-0.15653175
207	0xbe10c975	-0.1413935
208	0xbf0faa98	-0.5611968
209	0xbf2224e0	-0.63337517
210	0x3e0ab511	0.13545634
211	0x3ec91e52	0.39280945
212	0x3e1017a9	0.14071526
213	0x3db08529	0.08619148
214	0xbdd7b2ed	-0.10532174
215	0xbe46453e	-0.19362351
216	0x3f1dd15a	0.6164757
217	0x3c2a6fd0	0.010402635
218	0x3d7b8420	0.0614053
219	0xbdb560fe	-0.088563904
220	0xbe0f7039	-0.14007653
221	0x3e0e71d6	0.13910612
222	0x3ec37a58	0.38179278
223	0x3e9efb6d	0.31051198
224	0x3c1b6a79	0.009485834
225	0xbe90fd32	-0.28318173
226	0x3c209cb5	0.009802987
227	0xbe188e82	-0.14898112
228	0xbc897fab	-0.01678451
229	0x3e2e734e	0.17036173
230	0x3c7289da	0.014803374
231	0xbdb158f8	-0.086595476
232	0x3d02ea3d	0.03196167
233	0x3e8a927d	0.27064887
234	0x3d4ab43c	0.04948829
235	0x3e9417f4	0.28924525
236	0xbe8483cb	-0.258818
237	0xbc58d08f	-0.013233318
238	0xbf33e0c7	-0.7026486
239	0x3e5c218e	0.21497175
240	0x3da45814	0.08024612
241	0xbc8bad4b	-0.017050406
242	0x3e0a46c5	0.13503559
243	0x3ea6a6db	0.32549176
244	0x3e7e89c7	0.24857245
245	0xbeb1e5ae	-0.34745544
246	0x3e50b0be	0.20379922
247	0xbeb1b042	-0.34704787
248	0xbe7b90ec	-0.24567002
249	0xbe5460ef	-0.20740102
250	0xbede2ce6	-0.4339363
251	0x3caa2c3b	0.020773044
252	0x3e99faea	0.30074245
253	0x3f2d00c9	0.67579323
254	0x3df98298	0.12183112
255	0x3dbbbca5	0.091668405

fc.1.weight f4 [4, 400]
0	0x3c499bdd	0.012305227
1	0x3bd61fb9	0.0065345434
2	0xbdb8dce9	-0.0902651
3	0xbd02b20e	-0.031908087
4	0xbd6021ec	-0.05471985
5	0x3cd7ccf2	0.026342843
6	0x3c64f694	0.013974804
7	0x3c8f2b50	0.017476708
8	0xbcf63010	-0.030052215
9	0xbc709d7e	-0.014685987
10	0x3cc29ab6	0.023755413
11	0x3d4973e7	0.0491828
12	0xbd295037	-0.041336264
13	0xbcb4be7e	-0.02206349
14	0xbe12e5bf	-0.14345454
15	0xbcce8977	-0.025212033
16	0x3bf1aa4f	0.0073750387
17	0x3bac5689	0.005259339
18	0xbd8fadf2	-0.07015599
19	0x3cda9cdc	0.026686125
20	0x3c897532	0.016779516
21	0x3f0f4061	0.5595761
22	0xbcb6bbc9	-0.02230634
23	0xbcf90386	-0.030397188
24	0xbb16b40a	-0.0022995495
25	0xbb4ba508	-0.0031073708
26	0xbd0891c6	-0.033342145
27	0x3d827c39	0.0637135
28	0xbc093d04	-0.008376364
29	0xbd5341be	-0.05157637
30	0xbf82d62e	-1.0221612
31	0x3d28d1d0	0.041215718
32	0xbcdb1611	-0.02674392
33	0x3ccf55a6	0.025309395
34	0x3e48e627	0.19619046
35	0x3c98e995	0.018666068
36	0x3b8b7eb2	0.0042570466
37	0xbb5321c5	-0.0032216173
38	0xbd261081	-0.040543083
39	0xbd55c039	-0.05218527
40	0xbb60b37c	-0.0034286669
41	0x3d397e3c	0.045286402
42	0x3d1a8f41	0.037734274
43	0x3d92bd79	0.07165045
44	0xbd3b26c6	-0.045691274
45	0xbcec78ad	-0.028866136
46	0xbd161b84	-0.036647335
47	0xbd2d0bb4	-0.04224749
48	0xbc2614ec	-0.010136824
49	0xbd23d0a7	-0.03999391
50	0xbd2d006f	-0.04223674
51	0x3ca89117	0.020576997
52	0x3d7162d3	0.058932137
53	0x3d8636f2	0.06553449
54	0xbccbfaa9	-0.024899798
55	0xbf39a165	-0.72511894
56	0x3d220874	0.039558843
57	0xbcb139e4	-0.02163405
58	0x3d19139a	0.03737221
59	0x3df9a251	0.121891625
60	0xbc9d9058	-0.019233868
61	0xbf0335ea	-0.5125414
62	0x3c346dfa	0.011012549
63	0x3be32feb	0.0069332025
64	0xbb399c57	-0.0028321946
65	0x3b24e08a	0.002515825
66	0x3deec985	0.116595306
67	0x3cb2d84a	0.02183165
68	0xbd393be7	-0.045223143
69	0x3d7c4773	0.061591577
70	0xbd4f2690	-0.050573885
71	0x3daa6064	0.08319166
72	0xbd0a6e32	-0.033796497
73	0xbd78c245	-0.060732145
74	0x3d14ceba	0.036329962
75	0xbc802a21	-0.015645089
76	0x3c1ce7b5	0.009576728
77	0x3dce34d5	0.10068671
78	0x3c8c82a6	0.017152142
79	0xbdc77959	-0.09739942
80	0x3decc25b	0.11560508
81	0x3d438dfe	0.047742836
82	0xbb349886	-0.0027556731
83	0x3d5ca56e	0.053868704
84	0xbd0bfa5d	-0.034174312
85	0x3b30b416	0.0026962808
86	0xbcf014d0	-0.0293068
87	0xbcc788c9	-0.024357216
88	0xbca8a427	-0.020586086
89	0x3d0a194a	0.033715524
90	0xbcf50273	-0.029908394
91	0x3d5af974	0.053460553
92	0x3cd7338e	0.0262697
93	0xbcc41c9e	-0.023939427
94	0xbad6bcd2	-0.0016383177
95	0x3f5b277a	0.8560711
96	0xbcb0cea2	-0.021582905
97	0x3b631e32	0.003465545
98	0x3d14e6e9	0.036353026
99	0x3d2fc877	0.042915788
100	0x3d1a26e5	0.03763475
101	0x3b59138c	0.0033123223
102	0xbd25c2e1	-0.040469054
103	0x3d26084e	0.040535264
104	0x3c8368e2	0.016041223
105	0x3c977876	0.018490057
106	0xbd263a11	-0.04058272
107	0x3d151157	0.03639349
108	0xbd7c58a1	-0.06160796
109	0x3d2f1de9	0.042753134
110	0xbcc6d874	-0.024273135
111	0x3c997a80	0.01873517
112	0xbdcd750e	-0.10032092
113	0xbc370aa1	-0.011171968
114	0xbd817fc2	-0.06323196
115	0xbe63ccbc	-0.22246069
116	0x3b1bcc88	0.0023773033
117	0x3c962240	0.018326879
118	0xbd93e297	-0.07220953
119	0x3d3cb70d	0.04607301
120	0xbe915834	-0.28387606
121	0xbd0d1539	-0.034444068
122	0xbbf9bb04	-0.007621171
123	0xbe0c2703	-0.13686757
124	0x3e1221c7	0.14270698
125	0x3b8e73a9	0.004347284
126	0xbc17cade	-0.009264676
127	0xbd20c15e	-0.03924691
128	0x3d52cd76	0.051465474
129	0x3d34ef18	0.04417333
130	0x3c90acfb	0.017660609
131	0xbca50ac5	-0.020146737
132	0xbe1e23d1	-0.1544335
133	0x3d1070d2	0.035263844
134	0xbc5bb278	-0.0134092495
135	0xbd146ae4	-0.03623475
136	0x3d0dcdd2	0.034620114
137	0xbdc3faf3	-0.09569349
138	0xbd2d8368	-0.042361647
139	0x3d7ae436	0.061252795
140	0xbd57ff83	-0.05273391
141	0xbd18fccb	-0.037350457
142	0xbdf0e341	-0.11762095
143	0x3c833509	0.0160165
144	0xbd751dc2	-0.059842832
145	0x3d0bb0ac	0.034104034
146	0xbd24484e	-0.040108018
147	0xba0607fd	-0.00051128847
148	0xbd24e3a6	-0.040256165
149	0x3c896a5a	0.016774345
150	0x3bdfe44e	0.006832636
151	0x3d10b45a	0.035328247
152	0x3cec7ef2	0.028869126
153	0xbd983ac5	-0.074330844
154	0xbcbe51d2	-0.023232374
155	0xbb48e7a9	-0.0030655658
156	0x3d3a4f04	0.04548551
157	0x3cde6909	0.027149694
158	0x3dd664bc	0.10468432
159	0x3b6befbd	0.003600105
160	0xbce22566	-0.027605724
161	0x3bc949a9	0.006142814
162	0x3cb45df7	0.022017462
163	0xbd7ace52	-0.06123192
164	0x3b4d53f9	0.003133057
165	0x3d2cc081	0.042175774
166	0xbcb8a14d	-0.022537852
167	0xbd23db38	-0.040003985
168	0x3f3caff0	0.7370596
169	0x398c8db8	0.0002680847
170	0xbd56408d	-0.052307654
171	0x3d02ac75	0.03190275
172	0xbe63c796	-0.22244105
173	0xbd3e54e2	-0.04646767
174	0x3cd50b9d	0.026006514
175	0x3d1d9275	0.03846975
176	0xbd32838f	-0.043582495
177	0xbcb920ac	-0.022598587
178	0xbf833db7	-1.0253209
179	0xbda6ce40	-0.08144808
180	0x3d3b239b	0.045688253
181	0x3b403d78	0.0029333513
182	0xbd07f780	-0.03319502
183	0x3d26ad23	0.04069246
184	0x3d776bf5	0.06040569
185	0xbcf14dd6	-0.02945606
186	0xbd911100	-0.070833206
187	0xbd069fef	-0.03286737
188	0xbc052f3a	-0.0081289355
189	0x3d1fb895	0.03899439
190	0x3c440e17	0.01196625
191	0xbd537789	-0.05162767
192	0xbce67460	-0.028131664
193	0x3d2e89b5	0.042611796
194	0x3bde2eec	0.006780496
195	0xbd1042a2	-0.035219796
196	0x3d876f97	0.06613081
197	0x3db2a5ea	0.08723052
198	0x3c659995	0.014013668
199	0xbd103160	-0.035203338
200	0x3bdf7d4f	0.006820358
201	0x3d925172	0.07144441
202	0x3b6c5e3c	0.003606691
203	0xbd2861f8	-0.041109055
204	0xbcb3b38f	-0.021936206
205	0x3d349fda	0.04409776
206	0xbce37018	-0.027763411
207	0x3d7d9352	0.061908074
208	0x3cc3d945	0.023907313
209	0xbd077251	-0.033068005
210	0x3d138a82	0.036020763
211	0xbd49b2c9	-0.04924277
212	0xbd88ce86	-0.06680016
213	0x3d37a684	0.044836536
214	0xbe1c3a52	-0.15256622
215	0x3d145f28	0.03622356
216	0xbeae711b	-0.34070668
217	0xbd22a8ae	-0.039711647
218	0x3d20da45	0.039270658
219	0x3cb9765d	0.022639448
220	0x3c47f2bd	0.012203869
221	0xbd441b3b	-0.04787753
222	0x3d662135	0.056184012
223	0xbc2950b6	-0.010334184
224	0x3bc7bf48	0.0060958005
225	0xbc40699f	-0.011743932
226	0x3b8b9f69	0.0042609465
227	0x3d07863e	0.033087008
228	0xbd437fbb	-0.047729235
229	0xbcc9b23f	-0.024621127
230	0x3ae8a8a8	0.0017750459
231	0x3cb3bce0	0.021940649
232	0x3ddfdf3c	0.109312505
233	0xbccd13e9	-0.025033908
234	0xbd280bce	-0.041026883
235	0x3dcc3059	0.09970159
236	0xbd2c766c	-0.042105123
237	0x3cc7bfaa	0.024383385
238	0x3e08024f	0.1328213
239	0x3c069784	0.008214835
240	0xbc98426f	-0.018586366
241	0xbda1d5fe	-0.07902144
242	0xbcebeb19	-0.028798627
243	0xbc7c919d	-0.015415576
244	0x3e084191	0.13306262
245	0x3cbc8219	0.023011254
246	0xbc202cf3	-0.009776342
247	0x3b0826cc	0.0020775078
248	0xbc5a5844	-0.013326708
249	0xbc73327b	-0.014843578
250	0xbcf97c90	-0.030454904
251	0x3d3bd7bd	0.04586004
252	0x3d124385	0.035708923
253	0xbe78ca1d	-0.2429585
254	0x3d32ce61	0.04365385
255	0xbac614d9	-0.0015112414

fc.1.bias f4 [4]
0	0xbd08fa00	-0.033441544
1	0x3da5707f	0.080780976
2	0x3c2a0401	0.010376931
3	0xbd335db7	-0.043790545
