model/unicycle-FC3-100-rk4-so/epoch_580.pth (torch, 47077 bytes, 6 tensors)

fc.0.weight f4 [100, 6]
00000000: ee82 de3a c724 c2bb f419 413e 563f 42bf
00000010: 98bc a73c d0e7 1bbd a5e2 1fbd fd17 45bd
00000020: 655f 80be 6bbd 473f afe1 b4bc 2c08 0a3d
00000030: d5fa eb3d f87a 37be c4be fdbc ca9f 473d
00000040: bc86 a3be 0608 8abe aac1 d4bd b94d 3c3e
00000050: 0fbc ef3b 062f 1d3f 3fec 6a3c 4e54 163c
00000060: dc72 dd3d 6378 c73d e75d abbe 2d1b 7a3c
00000070: 7b73 e1bc ec30 66bc 6a0d 693e a6c3 6e3e
00000080: fa2c c3be 0a72 65be cf7f 893e e6a9 7a3e
00000090: 8d35 12bd 7348 5dbc 9d7d f53d 3239 0ebe
000000a0: 07b8 39bd 82f5 ed3d 03f9 e4bd 57bf 7fbd
000000b0: 03e0 6fbe e9e5 983e 91d6 053e ddf0 153f
000000c0: 6673 293e 418a 7dbe 6a7f 313f 2a47 9e3d
000000d0: 1123 953e df5f 333e c9c1 55bd 3172 423d
000000e0: ac32 a5be 3b61 113f fe2c 0cbd 065a ef3c
000000f0: e46b d3bc dc11 3cbc 580a 2d3e 56c6 70bd
00000100: 2dc5 43bd 672d 1b3b 18e2 ddbd bc82 0dbd
00000110: 33bc 01bf 7fd5 40bf b615 88bd ec19 32bd
00000120: ac13 0c3e a9d4 9b3d d64c 943e 508d b9be
00000130: 4266 25be 372c 37bf ab51 68bd 6e4e f0bc
00000140: eedf 0ebe f11b f4bc 8389 b73c 9b12 84be
00000150: 5f7f 053e d7a2 55be 295e e4be e7a8 b83e
00000160: 4d02 82be ab91 923e aa62 0f3e c4e5 e03c
00000170: f53a 3a3d 1dc0 5bbf 6447 6b3d fbfe 34bd
00000180: 8e5c 30be bdc3 843e 7694 38bf ecca a1bd
00000190: ddb7 9abe 93ce 3abe a753 32b9 e144 03bb
000001a0: 5a4a 643f 85f5 91be d884 b23d 9de2 afbc
000001b0: dd18 c2bd b14c dfbd 0ff8 48be 9986 04bf
000001c0: 804c 39bd 6909 a53d a170 ed3d f57d 03be
000001d0: 70f2 273e ea68 81be f9e1 e0bb 9055 a0bd
000001e0: 19dc 1a3e 9d24 34be ad45 d63e 81d3 8bbe
000001f0: 7c16 823d 83c5 d73d 72cb e7bb acef 0ebc
00000200: ffe7 95bc 4041 013f 9009 54ba d5ad 0a3d
00000210: 7d39 253c cbbb 04be 51ed 983e 508b 43bf
00000220: 2301 2b3c 2e55 393c 4d1a 2a3e 92dc 323d
00000230: 5b95 0ebf 1c84 4e3f af39 d2bc cf76 57bd
00000240: ccd1 45be c14e bbbd 7543 f1be 62f3 22bf
00000250: 17d2 0dbd a875 91be bb81 40be 4059 0e3e
00000260: eddc f1be 9219 643f 82e7 c13e 451b 2d3e
00000270: 83a4 443d 2b59 4ebd 979a f73e f6f3 ecbe
00000280: 29b4 343f 5c76 68be c6c8 b0be 74d5 b1bd
00000290: 5351 193f 2899 43be 7a39 28be 7e8c 95be
000002a0: cbb2 623e dfed b7be 33fe 35bf e96d b6be
000002b0: 91d8 ae3e 2930 71be bede 3ebc c0b6 763c
000002c0: 8059 fabe 6c88 4c3f 257b 73bd b175 123d
000002d0: f3e1 18bd bec7 343e 82a3 363e e35d c8be
000002e0: d608 8e3d ddc7 47bc 164d 14bd bab7 513d
000002f0: 7dab 303f dd4b c6be 8f53 173d 7d3d 30bc
00000300: 265a 36be f439 82bd 2d65 c03e 7e9e 4c3f
00000310: 833a 87bd 3bf8 843c 46b7 59bd 54c2 2abd
00000320: 5f00 ee3d d212 a33e cb8e 97bd 4319 653c
00000330: 80d1 3d3d 456b 463c 9261 f13e b6f3 99bf
00000340: 2091 443d 9c12 8abd e6e7 9d3c f36b a8bc
00000350: d586 babe 00b0 5ebf 7a27 26bc 2c2a 4dbd
00000360: 2179 ab3d 01ed 8c3d 5443 02be 53bb 4cbe
00000370: 2e75 60bd 6d36 05bf b19e 3d3b 4bac 733b
00000380: 7b34 98be f67f 68bf dead eabc 812c 3dbd
00000390: 1317 2abd dce3 313d a686 d7be 5c98 cd3e
000003a0: 2200 1dbf 0850 4a3e 0701 3bbb 4ee0 cabd
000003b0: 8f0d 99be 74ab 143f a634 293c 7055 1f3b
000003c0: 0f05 55bc fe83 993c ee7e edbe 932d 3cbf
000003d0: c667 84bd 8fa4 0dbd 783c 12bc 9f52 83bc
000003e0: 8574 9cbe 19d9 81bf 8af4 c7bc 2bec 46bd
000003f0: 9b48 a5bd 4423 f73d eb2d 9fbe eeba 6f3e
0.0016976276 -0.0059247944 0.18857557 -0.7587789 0.02047567 -0.03806287 -0.039034504 -0.04811858
-0.2507278 0.78023404 -0.02208027 0.0336992 0.11522452 -0.17918003 -0.030974753 0.04873637
-0.31938732 -0.26959246 -0.10388501 0.18389024 0.0073161195 0.6139988 0.014338552 0.009175373
0.10812923 0.09739759 -0.3347008 0.015265268 -0.027520886 -0.01404975 0.22759023 0.23316821
-0.38120252 -0.22406784 0.26855323 0.24478874 -0.0356956 -0.013506043 0.119868495 -0.13889006
-0.045341518 0.116190925 -0.11180308 -0.062438335 -0.23425297 0.29862908 0.13070132 0.58570653
0.16547927 -0.24759771 0.69335043 0.07728417 0.29128316 0.1751704 -0.05218676 0.047472183
-0.32265222 0.56788987 -0.034222595 0.029217731 -0.025808282 -0.011478867 0.16898477 -0.058782898
-0.047795463 0.0023678185 -0.108341396 -0.034548506 -0.50677794 -0.7532577 -0.06644766 -0.043481752
0.13679379 0.07608921 0.2896487 -0.36240625 -0.1615229 -0.7155184 -0.05671851 -0.029334273
-0.1395261 -0.02979848 0.022404438 -0.25795445 0.1303687 -0.208629 -0.44603088 0.36066362
-0.2539238 0.2862676 0.14002481 0.02745331 0.045466382 -0.85840017 0.05744113 -0.04418848
-0.17222807 0.25930586 -0.72101533 -0.079000324 -0.30218402 -0.18242864 -0.00017006566 -0.0020030069
0.8917595 -0.2850763 0.08716744 -0.021470362 -0.094773985 -0.109032996 -0.19625877 -0.5176788
-0.04523897 0.080584355 0.11593748 -0.12841018 0.16401076 -0.25275356 -0.0068628755 -0.0782882
0.15123023 -0.17592092 0.41850033 -0.27309802 0.06351945 0.10535719 -0.007073813 -0.008724134
-0.0182991 0.5049019 -0.0008088583 0.033857185 0.010084507 -0.12962262 0.29868558 -0.7638445
0.010437283 0.011311812 0.16611595 0.043667383 -0.5569665 0.8067033 -0.025662271 -0.05260354
-0.19318312 -0.091458805 -0.47121778 -0.6365262 -0.034624185 -0.28410077 -0.18799488 0.13901234
-0.47238865 0.8910152 0.3787194 0.16904934 0.048008453 -0.050378006 0.4836013 -0.46279877
0.705874 -0.227014 -0.34528178 -0.08683291 0.59889716 -0.19101393 -0.16428176 -0.2920875
0.22138517 -0.3592367 -0.71091 -0.3563073 0.34149602 -0.23553528 -0.011649786 0.015058219
-0.48896408 0.79895663 -0.05944361 0.03575677 -0.037324857 0.1765432 0.17835811 -0.3913413
0.06935279 -0.012193647 -0.036206327 0.051200606 0.6901167 -0.38729754 0.036944922 -0.010756847
-0.17807826 -0.0635871 0.3757719 0.7992934 -0.06602957 0.016231647 -0.0531533 -0.041689232
0.116211645 0.31850296 -0.074002825 0.013983074 0.046342373 0.012110536 0.47144753 -1.20275
0.047989964 -0.06741831 0.019275617 -0.020559287 -0.36430994 -0.86987305 -0.010141248 -0.050089046
0.08372713 0.068811424 -0.12720996 -0.19993334 -0.05479925 -0.5203617 0.0028933699 0.0037181552
-0.2972754 -0.9082025 -0.02864736 -0.04618502 -0.04152591 0.043430194 -0.42094916 0.40155303
-0.6132833 0.19757092 -0.0028534548 -0.09906064 -0.29893157 0.58074117 0.010327494 0.00243124
-0.013001694 0.018739697 -0.46385902 -0.7350704 -0.06465106 -0.034580763 -0.00892555 -0.016030608
-0.30557647 -1.0144378 -0.024408597 -0.04856507 -0.08070489 0.12067273 -0.3108972 0.23411152

fc.0.bias f4 [100]
00000000: 5752 92bf 9170 15bf dfde 46bf e931 8e3f
00000010: 18e7 b93f e402 11bf 2adc bd3f 9496 803e
00000020: 5e74 b6be 2ebf 3c3e 042e d13f e6d3 00c0
00000030: 4dd8 a1be 7c68 c23f 468b 143e 5681 653f
00000040: b151 bd3e fd08 13bf 3ed7 01c0 1373 2fbf
00000050: d7a7 50bf 59ad db3f 90d3 c6bf 5d9c ac3e
00000060: af9a 3c3f a6ff a5be 8d7e 9fbc 9984 5e3e
00000070: 32cd e9be fe28 a5bf e2c0 41bf 6ef5 403f
00000080: 35d5 abbf f1a3 7e3f 65c9 a63f 069e 26bf
00000090: a8fd 4cbf 6fc7 2abf cf07 813c 82cd de3e
000000a0: 241b 25bf dddc 85bf 5599 f8be fba6 f03e
000000b0: 4be6 5f3f fae0 923e 48e2 673f 6347 373f
000000c0: 073f 80bf c797 0ebe bd15 a6bf 470d c1bf
000000d0: 78b4 fcbf 2434 1dbf 4ab2 27bf 0877 bc3f
000000e0: 1147 703f eedf 13bf c7df 843f 5a8a ab3f
000000f0: 1bb5 42bf 699d 0abf d43b 63bf 9c51 8fbf
00000100: 81ae abbe 7164 4f3f 14e1 3dbe 2e68 323f
00000110: cf9b b53f 762f 613f 648f ce3f 8c16 4f3f
00000120: 9077 e03f 1348 b73f e7a7 703f c52b d4bc
00000130: fbbc 243f a48a e83f 538e 94bf e4e8 83bf
00000140: 2df9 50bf bbfc 0a3e d25f db3e 54d5 06bf
00000150: d99d 38bf e3b5 18bf e829 2dbf 0772 ad3f
00000160: 63b6 ec3f 7eaf 51bf 5980 4c3f 40ca 60bf
00000170: ccc9 d03e 3f7b 4abf fbc1 6abf 4f16 bcbf
00000180: 042e dbbb 990b 6a3f ed79 8d3f 1e17 123f
-1.1431378 -0.5837489 -0.77683824 1.1108981 1.4523649 -0.56645036 1.4832814 0.25114882
-0.35635656 0.18432304 1.6342168 -2.0129333 -0.31610337 1.5188136 0.14506254 0.89650476
0.36976388 -0.5743559 -2.0287623 -0.68534964 -0.81506103 1.7162277 -1.5533314 0.33713046
0.7367353 -0.32421607 -0.019469524 0.2173027 -0.45664364 -1.2903135 -0.7568494 0.75374496
-1.3424441 0.99468905 1.3030211 -0.65084875 -0.8007455 -0.6671056 0.015750794 0.43516165
-0.6449454 -1.0458027 -0.48554483 0.47002396 0.87460774 0.28687268 0.9057965 0.715933
-1.0019234 -0.13925086 -1.2975384 -1.5082177 -1.9742575 -0.61407685 -0.6550642 1.4723825
0.9385844 -0.57763565 1.0380791 1.3401597 -0.76057595 -0.5414644 -0.88763165 -1.119678
-0.33531573 0.81012636 -0.18542892 0.69690216 1.4188174 0.87963045 1.6137509 0.8089378
1.7536488 1.431887 0.940062 -0.025899777 0.6435086 1.816731 -1.1605934 -1.0305448
-0.8163021 0.13572972 0.42846543 -0.5266926 -0.72115856 -0.5965254 -0.6764207 1.3550423
1.849316 -0.81908405 0.79883343 -0.8780861 0.4077896 -0.7909431 -0.9170224 -1.4694308
-0.006688835 0.91423947 1.1052834 0.57066524

fc.1.weight f4 [100, 100]
00000000: af4e 6c3e 0951 aebe f9ed 44be 4de9 e8bd
00000010: fa1a a3be 49e7 923d 7c70 8cbe 7056 acbd
00000020: a7a7 02be 46af febd d97a fdbe 68d7 2f3e
00000030: 71a8 313e 0782 30be 8899 44be de20 f3bd
00000040: 10ad 87bd 7ed3 d73d b2fa 123e 7ca5 3fbc
00000050: caa6 883e 0e12 2dbf 9b69 523e 52c5 6cbe
00000060: 7994 3cbe f677 14be ecd5 503d 07c6 a0bd
00000070: bd82 b13d 401e 5b3d 9bec 14bc c601 93bd
00000080: 8c2a f3bd 6695 3dbe 8cdc 14be f496 763e
00000090: 2c04 463d c908 993d f651 1fbe 57e8 65be
000000a0: daa3 e13d c00e b33e dc3d cebd f9f4 0fbe
000000b0: e299 d2bd 7f6e 163c 234b 06be 782b 4fbe
000000c0: d26a b33c a345 cebc be30 08be 8855 483e
000000d0: f500 2b3e 7336 eb3c cedb 823d a5fe 2ebe
000000e0: 3c8a 84be f82b 413e 5dc1 6ebe 76c9 20be
000000f0: 3739 c03d aef0 65be 4059 05be 8de6 56be
00000100: cc3e b43c 6fda 9fbe 82c7 fbbd 20c2 3bbd
00000110: 1d7d 5abe 0913 b4bd 2d85 75be 4ac9 f4bd
00000120: aa9a 2cbe 018e 15be 0bfc a7bd 76ce 5ebe
00000130: 2dd3 533d 8b78 d4be 7bae 1e3e ef6c 173e
00000140: b9f6 373e 8b76 0abd 0b81 03be 01ab d33d
00000150: ca8e 6abc df8d 623d 7368 db3c 4b01 f3be
00000160: 0c83 f6be 4290 083e e58b ebbd 3117 1fbe
00000170: 034b 2f3d bad7 443e a4d0 f73e a186 c73e
00000180: 1676 843e 7dd5 0bbe a13b 2bbe e544 87bd
00000190: 3183 033c 3f4c 79bd c3f9 2fbd 0aab f13d
000001a0: 24bb 073d 928e c33d 9220 ab3d a4e5 e03d
000001b0: f019 df3d 4f0a 943d 929a b8bd a0d0 03bc
000001c0: 4d39 7b3d 9a90 633d db4a 95bd c057 27bd
000001d0: e900 8cbc 388c f8bc 14c1 023d 9b9a 213d
000001e0: 43c5 50bc 85fa 97bc a1e3 6a3d 800d 2d3d
000001f0: 8947 e5bd 9ca5 5b3e b5ca 313e 9f7b 7dbd
00000200: fab3 993d 9973 313d 60d0 f43d e11d d83d
00000210: 3b84 293c b8e8 d6bc 4dcc 62bc 9d25 c0bd
00000220: 7677 4dbc 5579 07bc 6516 16be e305 383b
00000230: 42e1 693d e9ec bbbb 6232 edbc 7eda ebbc
00000240: cdb0 f5ba aa09 c7bd 03d3 003e 5167 55bd
00000250: 4feb f0bb 7ccb 453c f26e 88bc 167b 7cbd
00000260: 740b 733d 27d1 fd3d 8425 dfbd 6820 e23d
00000270: 6a93 453c a159 8c3d 0c2c b73d f8b1 043e
00000280: fe3b 01be a0bc 643c a142 103e b6b4 b63b
00000290: fd63 e63c 9b53 c83d 7260 303e b09f ce3d
000002a0: d871 143d 3af1 be3c f18e babc 8b78 9b3d
000002b0: 458d 3e3d 0f97 c23d a174 413c 1f0f 013c
000002c0: 1370 d43c de2d 553d 807a 8dbc c1f2 bbbd
000002d0: 55cf 3abd 3434 59bd 7c3f b6bc 61a8 9e3c
000002e0: dae9 dabd fc83 3c3d c71a 1d3e e956 373b
000002f0: 72f0 a5bd a2aa 4e3d 0b26 c73d 739b b33c
00000300: 34b0 1e3b b52d 7abd 2a84 7e3d d46a 163d
00000310: a9d3 d23d 78d4 87bb 02d6 663d f48a a9bd
00000320: 61ff a0bb b3c7 563c 3ffd 323b 4e5b adbd
00000330: 099a 61bd f03d 013d 506f 4a3d 007b 19bd
00000340: 2f20 4bbd 9c3f 32bd 14d8 e93c d226 fc3d
00000350: 964a 0abd 6e58 0dbe 4c3e 92bd 7905 ec3b
00000360: fc83 403d dcf1 e3ba eb18 3c3d 2acb d73c
00000370: 08e6 66bd 05e9 a43d 656b 9abd d996 a4bd
00000380: 300e 13bb 41ac 993d 786f 543d cf9d 333d
00000390: fd1a 2ebd 0d0f 55bc 9db8 9f3c f9c7 b13c
000003a0: 46e9 03be a63a 9c3d 227e c7bd b327 8dbc
000003b0: a521 a4bd 6315 bcbd 659e b3bd 8f63 aebd
000003c0: 0f98 d5bd a72f 78bc efa8 9ebd 6446 c8bd
000003d0: b282 46bd 144c de3b cdd2 713c 03df 813d
000003e0: 1a3a 97bd 2209 67bd c122 74bd 5269 4d3d
000003f0: 24e4 403d 0696 8e3d 54d7 65bc 5812 80bd
0.2307689 -0.340462 -0.19231404 -0.113726236 -0.3185652 0.071730204 -0.2742957 -0.08414924
-0.12759267 -0.124357745 -0.49507788 0.17172015 0.17349412 -0.17237101 -0.19199193 -0.11871503
-0.06624806 0.10538386 0.14353445 -0.011697169 0.2668975 -0.67605674 0.20548098 -0.23122147
-0.18416013 -0.14498886 0.05098526 -0.07850271 0.086675145 0.053495646 -0.009089614 -0.07178073
-0.118733495 -0.18514022 -0.14537257 0.24081022 0.048343822 0.07472379 -0.1555861 -0.22451912
0.1101758 0.3497219 -0.100703925 -0.14058293 -0.10283257 0.009181618 -0.131146 -0.20231426
0.021901522 -0.02517969 -0.13299844 0.19563878 0.16699584 0.028712487 0.06389581 -0.17089327
-0.25886714 0.18864429 -0.2331595 -0.15701851 0.09385913 -0.22455093 -0.13022327 -0.20986386
0.0220026 -0.3122134 -0.122939125 -0.04583943 -0.2133679 -0.08792693 -0.23976584 -0.11952455
-0.16855875 -0.14604951 -0.0820237 -0.21758446 0.051715065 -0.41498217 0.15496247 0.14787649
0.17965211 -0.033804458 -0.12842195 0.10335351 -0.01431627 0.05531108 0.026783204 -0.47461924
-0.48146856 0.1333628 -0.11501292 -0.1553619 0.042796146 0.19222918 0.48401368 0.389699
0.25871342 -0.13655658 -0.16721965 -0.066049375 0.008026884 -0.06086373 -0.0429628 0.11800201
0.033137456 0.095486775 0.08355822 0.109813005 0.10893619 0.07228529 -0.09013857 -0.008045346
0.061333943 0.055557825 -0.07289668 -0.04085517 -0.017090278 -0.030340299 0.031922415 0.039454084
-0.012742343 -0.018552074 0.05734599 0.042249203 -0.11195285 0.21449894 0.17362483 -0.061885472
0.07505031 0.043323133 0.11953807 0.10552574 0.010346468 -0.026234016 -0.013842654 -0.09382174
-0.012540689 -0.008268674 -0.1465698 0.002807968 0.05709959 -0.005735029 -0.028954688 -0.028790709
-0.0018744707 -0.0971864 0.12580495 -0.052100483 -0.0073522697 0.01207244 -0.016654465 -0.06164082
0.059337094 0.12393408 -0.108958274 0.11041337 0.012059072 0.06853033 0.08943948 0.12958515
-0.12620541 0.013960987 0.14087917 0.0055757416 0.02812385 0.097815715 0.17224291 0.10089052
0.036241382 0.023308385 -0.022773238 0.07591351 0.046521444 0.095014684 0.011807592 0.00787714
0.025932347 0.052045695 -0.017270327 -0.09177161 -0.045607883 -0.0530283 -0.022247069 0.019367399
-0.10689135 0.046024308 0.15342246 0.0027975386 -0.08102502 0.050455697 0.09724053 0.02192471
0.0024213912 -0.061078746 0.06213776 0.036722973 0.10294277 -0.0041452013 0.056356438 -0.08278456
-0.004913256 0.013109135 0.002731159 -0.084646806 -0.05507854 0.03155321 0.049422562 -0.037470818
-0.04959124 -0.043517694 0.028545417 0.12312092 -0.033762537 -0.13803264 -0.071407884 0.007202801
0.04700087 -0.0017390805 0.0459222 0.026341993 -0.05637172 0.080522574 -0.07540015 -0.080365844
-0.0022438876 0.07503558 0.051864117 0.04385167 -0.042506207 -0.013004077 0.01949721 0.0217018
-0.12881956 0.07628374 -0.09740855 -0.017230844 -0.0801423 -0.09183767 -0.08770446 -0.08515083
-0.104293935 -0.01514808 -0.07747065 -0.09779051 -0.048464485 0.0067839716 0.0147597315 0.06341364
-0.07384129 -0.056405194 -0.059603456 0.05014927 0.04709257 0.069622084 -0.014028389 -0.06253499

fc.1.bias f4 [100]
00000000: ddc6 06bf cf5a 363e a859 3abd 9175 b43d
00000010: dd8c 3f3e 021d 1b3e 1c61 0b3d 6f06 7d3e
00000020: d0e0 a9be 9526 13bd 67c5 7d3d c2a6 f83b
00000030: 081d 6bbe 7c75 42bf 8060 febe 5fad 87be
00000040: 28cb 1bbf 0aa6 c8be 439a 04be a6ad d4be
00000050: ac49 a6be c10f 30bc a28b 823e 4dcb e73e
00000060: 4a8f 953c 8ca6 6d3e aa21 bf3e 81ae 463e
00000070: cd54 fabb 6c5d efbe b28c 4fbf adf5 00be
00000080: 517d 783e 49b7 893d f947 42bf 6656 a7be
00000090: a671 d0bd 7df0 babd d773 db3d 9bce 193d
000000a0: a620 933c ec41 9f3b 0983 09bf 79ae 15bd
000000b0: 1723 d13c 6d24 c2be 2367 2abf 4c42 203d
000000c0: e204 50be 570a b9be 76b4 2c3e 013d 2abe
000000d0: 25ba 963c 8be8 40bf 40a0 4c3d 962f 61bd
000000e0: 0e67 bbbe c894 ef3c 90f2 123d 63e8 2abf
000000f0: a132 35bd c0e3 2fbd 4086 d7be 784f 0bbf
00000100: 7d12 d03d 2a36 2e3e 3a3e bebe 8e1f 4fbd
00000110: 6b35 afbe 04be 18bf bae5 f5be 0df4 0abf
00000120: dc4f 223e 8a64 023e 7159 553d 0581 9aba
00000130: eb72 05bf 9979 a1bc 5cee 953d ced8 0ebf
00000140: 198e 20be 8cf4 6bbd b174 293d c1c6 15be
00000150: 6477 81be 5d81 8f3e ac66 8fbe ce96 9bbd
00000160: cb07 433e 4794 22be 7615 26bf 1a1e 8dbc
00000170: 74b5 8dbe 36c8 823e 6a5b 26bf 0bf4 483d
00000180: 9755 35bf e50f 98be 2859 06bf 0af2 fdbe
-0.5264719 0.17808078 -0.04549566 0.088114865 0.18706079 0.15147784 0.034028158 0.24709485
-0.3317933 -0.035925467 0.061955836 0.0075882385 -0.22960293 -0.75960517 -0.49683 -0.2649946
-0.60856867 -0.39189178 -0.12949471 -0.41538733 -0.32478082 -0.0107459435 0.25497156 0.45272294
0.018256802 0.23208064 0.3733037 0.19402505 -0.0076395036 -0.46750963 -0.8107406 -0.12593718
0.24266554 0.06724412 -0.7589107 -0.32683104 -0.10177927 -0.09127901 0.10715454 0.03755055
0.017959904 0.0048601534 -0.5371557 -0.036543343 0.025529427 -0.37918416 -0.66563624 0.039125726
-0.20314363 -0.361407 0.16865715 -0.16624834 0.018399308 -0.7535483 0.049957514 -0.054977022
-0.36602062 0.02924575 0.035875857 -0.66760844 -0.044237737 -0.04294181 -0.42094612 -0.54418135
0.10159776 0.1701285 -0.3715685 -0.050567202 -0.34220442 -0.5966494 -0.4802683 -0.5427864
0.15850776 0.12733665 0.05208725 -0.0011787718 -0.52128476 -0.019711303 0.07320854 -0.5579957
-0.15679206 -0.057606265 0.04137105 -0.146266 -0.252864 0.28028384 -0.2800802 -0.07597123
0.19045942 -0.15876876 -0.64876497 -0.017226268 -0.276775 0.25543374 -0.64983237 0.049060863
-0.70833725 -0.29699627 -0.5247979 -0.49598724

fc.2.weight f4 [4, 100]
00000000: a13b 0ebd 649e 843b 7470 a3bd f9fe 98bd
00000010: b125 b2be de66 c1ba 79f1 9fbd a432 0c3c
00000020: 24e4 e33e 5472 5d3d 414d e53d 7197 bf3d
00000030: 9562 9d3c ca34 bcbd 1f93 23bd 6d3c 32be
00000040: 64f8 cebe 7fe6 e2bc c855 07be 7cd0 a2be
00000050: 83b7 633c a231 44bd 4bf9 933d 588f 4f3d
00000060: 5db6 7ebc a130 793e 3c44 3b3d 285e aabd
00000070: b589 41bc a555 a5bc b0c2 7abf 6c74 ae3b
00000080: 2bfc bd3d 060d f0bd 7288 e8bc 7c91 71bc
00000090: 3885 95bd a970 fe3d 6d72 473e c798 babd
000000a0: f8b8 a03c 3fb3 d7bb 990b 05bf 9c59 163e
000000b0: a8bf a5bc dd78 4fbe a0f2 acba 1458 863c
000000c0: 2617 2d3c 7bdf 5cbe 50c1 4e3e f941 13bf
000000d0: a17c 1fbe fe2f bcbc fcaf c0bc eb94 a3bd
000000e0: 5ad3 80bb 08c0 8abd fd88 fe3c eb27 433d
000000f0: 4233 8cbd de9f e33c 3e51 6cbd 0fd5 4d3c
00000100: 0aec ce3c b66d 6fbe a5f4 5a3d 0f24 c2bb
00000110: 55fb 973e e5bc 0ebf b6fb 39bd e93f 3d3d
00000120: 7e5e 84be b670 57bc 35a6 153b 861d b63d
00000130: 0d8b cabd 4a11 babd dc99 f53c 0f77 1bbf
00000140: 2262 f7be 1378 1dbd 67d4 7bbc d1a1 d73d
00000150: 6d25 6c3e 99a1 7abe fd8a a73d 6472 c1bc
00000160: 7f6f 323d e56a 28be fb8a 833d 43a1 21bd
00000170: e3bc ed3e d407 a0bd 5553 c0bd 8aa0 f73c
00000180: 6944 273f 257c 8dbd a436 9dbc 92c6 b2bc
00000190: 204d d3bc 3be0 29bc 23c6 823c 33ce a33c
000001a0: 7ac9 1e3e 030f 00bd 822e 3cbd aaec 28bb
000001b0: f8ee 22be f18d 4cbd 3292 caba ee0b a63e
000001c0: 2f59 4c3d f5f7 b03d ff9f 90bd debf f8be
000001d0: bf3b 6d3f 587c e3bb 8a3e d8bd 7ab0 14bd
000001e0: 7433 9ebc 86f9 81bd 577b 78bc 2a8d c7bc
000001f0: fda8 e73d c8c2 89be f974 aebd 40e5 2ebd
00000200: f0a6 67bd a56b 913c 792a dd3e ce45 c7be
00000210: 18bf b03d f3fe 2abc 935b bd3d eb20 8f3d
00000220: 5c5f b53c c27d f3bd 801e 093e 1007 f73c
00000230: 748c edbb 9dc3 b1bb a08b 36bf 0d34 9cbe
00000240: 4878 48bd cbd0 9e3e 147c 0c3d b1c1 883b
00000250: 8069 2ebc b6e1 423f a869 9a3e 9519 93bd
00000260: 3fbf 913e 36fc 01bd 7d7f 0bbc aae1 30bd
00000270: 63a4 5b3c 0c54 073e ade9 f43c ffab cd3e
00000280: affb 03bc fb10 3b3d 7164 2dbd 639a 533b
00000290: 9912 2d3c bea8 65be f7e5 2f3f 1cba dfbc
000002a0: 40e9 173e 77ba 55bf 4da1 9dbc 0773 f6be
000002b0: be09 473e 94e5 acbb 9288 d7ba df13 94bb
000002c0: 24be e8be 467d a3bd 8a3e 783c 80c7 6ebf
000002d0: 29f1 d3bd 9ba8 d43c dc61 01bc 20cd a93d
000002e0: 4e82 4b3f 7b5e 63be 0faf 66bf e78c ddbc
000002f0: 4070 4e3d a4a7 18be 554a 28bd d1e8 8d3b
00000300: 8c0c b33d 15d3 853d 3e95 113d a0cf 253d
00000310: a225 a53e 03ff f83b a26b bd3c 46a8 c83d
00000320: 4e26 debc d49e d43d 6d1f 733c 9773 6bbd
00000330: 7b92 f2ba 029e f7bc e695 073e 7ea8 5d3d
00000340: 7ad7 63ba 1412 a4bd 2d07 a43d cf9f 06ba
00000350: 5fa5 8ebd 9fca b3bb 2802 b6bc 5b64 d8ba
00000360: 34ec ae3c 5cb2 77bc 2aa6 243b a588 ea3a
00000370: 78ae acbc a2c6 5f3d de57 133c 0e4d 44bd
00000380: 9e92 0fb8 2e0c dc3a 6e60 893c 8ddf 1dbe
00000390: 3829 febd cba0 cebb 6afb 17bb 89d6 693a
000003a0: 629d 0abc d066 993d ea97 ca3b da9f f13c
000003b0: 0f42 afbd 488c b4b9 2373 b53a 584b 623d
000003c0: c73b af3d 2c85 ae3d fa63 4dbb 3fc7 eaba
000003d0: b9a6 d13d 23d5 733c 592c 8b3c 2c9e 173e
000003e0: 6afb a93c 86cb a33b cdaa 743a 3ba0 83bc
000003f0: 97cc 043a 620b 4a3c fe95 b2bd da8d b43d
-0.034724835 0.004047202 -0.07980433 -0.07470507 -0.3479438 -0.0014755388 -0.07809729 0.008556996
0.44509995 0.05406411 0.11196376 0.09355057 0.019212047 -0.09189756 -0.039935227 -0.17405863
-0.40423882 -0.0276978 -0.13216317 -0.31799686 0.013898733 -0.047898896 0.07225283 0.050673813
-0.0155464085 0.24334957 0.04571937 -0.0831874 -0.011812617 -0.02018244 -0.9795332 0.005323937
0.09276613 -0.11721234 -0.028385375 -0.014744159 -0.073008 0.12423832 0.19477244 -0.09111171
0.01961945 -0.006582647 -0.5197082 0.14682621 -0.02023299 -0.2026095 -0.0013194866 0.01639942
0.010564601 -0.21569626 0.2019093 -0.5752254 -0.15574886 -0.022972103 -0.023521416 -0.07987388
-0.003931445 -0.06774908 0.03107118 0.04764549 -0.06845714 0.027786192 -0.057694666 0.012563004
0.025259037 -0.23381695 0.053455967 -0.0059247087 0.2968394 -0.5575698 -0.045406066 0.046203528
-0.25853342 -0.013149431 0.0022834663 0.0889235 -0.09889803 -0.09085329 0.029980592 -0.60728544
-0.48317057 -0.03844459 -0.015370465 0.10528911 0.23061152 -0.24475707 0.08180807 -0.023614116
0.043563362 -0.16447027 0.06422993 -0.03946043 0.46433172 -0.07813993 -0.09390894 0.030227918
0.6533876 -0.06908444 -0.019191094 -0.021823201 -0.025793612 -0.010368402 0.01596362 0.019995784
0.15506545 -0.031264316 -0.04594279 -0.0025775828 -0.15911472 -0.049940053 -0.0015454947 0.32430977
0.04988974 0.08641044 -0.07061767 -0.48583883 0.9266929 -0.006942313 -0.105588034 -0.036301114
-0.019311644 -0.06346421 -0.015166125 -0.024359304 0.11311529 -0.2690642 -0.085184045 -0.0426991
-0.05655569 0.017751524 0.43196467 -0.38920444 0.08630198 -0.010436761 0.09245982 0.069887005
0.022140197 -0.11889221 0.13390541 0.030154735 -0.0072494093 -0.0054249302 -0.713068 -0.30508462
-0.048942834 0.3101867 0.034298018 0.0041734804 -0.01064527 0.7612566 0.30158734 -0.07182614
0.28466222 -0.031734668 -0.008514282 -0.04318396 0.013405892 0.13215655 0.029896582 0.40170285
-0.0080556115 0.04567049 -0.042332117 0.0032288067 0.010563516 -0.22427651 0.68710274 -0.027310424
0.14835072 -0.8348765 -0.019241953 -0.48134634 0.1943731 -0.0052763913 -0.0016443899 -0.0045189704
-0.45457566 -0.079828784 0.015151629 -0.9327316 -0.10348732 0.025959304 -0.007896867 0.082910776
0.79495704 -0.2220401 -0.9011087 -0.027044727 0.05040002 -0.149077 -0.041086514 0.0043307324
0.087426275 0.06534401 0.03554272 0.04048121 0.32255274 0.007598759 0.023122612 0.097977206
-0.027117874 0.103818566 0.014839035 -0.057483282 -0.0018506789 -0.030226711 0.13240775 0.054115765
-0.00086914713 -0.08011261 0.08009181 -0.00051355077 -0.06965136 -0.005486801 -0.022217825 -0.00165094
0.021352865 -0.015118208 0.0025123456 0.0017893506 -0.021079287 0.05463279 0.008993117 -0.047925048
-3.4230405e-05 0.0016788298 0.016769614 -0.15417309 -0.124102056 -0.006305789 -0.0023190626 0.0008920213
-0.008460375 0.07490313 0.0061826603 0.029495168 -0.085575216 -0.00034436793 0.0013843518 0.055247635
0.085563235 0.08521494 -0.0031340108 -0.0017912163 0.10236878 0.014882359 0.01698892 0.14806432
0.020749766 0.004998627 0.00093333126 -0.016067615 0.00050658867 0.012331815 -0.08720015 0.088161185

fc.2.bias f4 [4]
00000000: 86bd 26bd 92f7 fabd 0649 e63c 36df e83d
-0.040708087 -0.122542515 0.028110992 0.11370699
