model/unicycle-FC4-100-rk4-extra/epoch_200.pth (torch, 88055 bytes, 8 tensors)

fc.0.weight f4 [100, 6]
0	0xbd02952e	-0.03188055
1	0x3db6198b	0.08891591
2	0xbe9068d8	-0.2820499
3	0xbf00265e	-0.50058544
4	0x3c922b6f	0.017842976
5	0x3bf641c0	0.007515162
6	0x3e02a691	0.12758853
7	0xbde13f4c	-0.10998401
8	0xbe47c2f0	-0.19507957
9	0xbebe8f40	-0.37218666
10	0xbeaee1ce	-0.3415665
11	0xbeafb2cf	-0.34316108
12	0xbe622390	-0.22083879
13	0xbe96462e	-0.29350418
14	0x3ee04b26	0.43807334
15	0x3ea1fa18	0.3163612
16	0x3e3e8f61	0.18609382
17	0xbeb13c98	-0.34616542
18	0xbe6e32bc	-0.23261541
19	0x3e322f81	0.17400934
20	0x3e8f043c	0.27932918
21	0xbeb7b41d	-0.35879603
22	0xbea52887	-0.32257482
23	0xbe9dceeb	-0.30821928
24	0x3cbbb10b	0.02291157
25	0xbeccdb1d	-0.4001092
26	0xbe60700b	-0.21917741
27	0x3ebf84fd	0.3740615
28	0x3e8c8917	0.2744834
29	0xbd88a43a	-0.06671949
30	0xbe8de135	-0.27710882
31	0xbe667e31	-0.22509076
32	0xbdae88f1	-0.08522213
33	0xbf3a797d	-0.72841626
34	0xbea0272f	-0.31279895
35	0x3e5b8ba4	0.21439987
36	0xbe607f43	-0.21923546
37	0xbe20b6ed	-0.1569478
38	0x3e556771	0.20840241
39	0x3ea3f19e	0.32020277
40	0x3ed9e314	0.4255606
41	0x3dc0b401	0.09409333
42	0xbe37cb8b	-0.17948739
43	0xbd65e905	-0.056130428
44	0xbe47af9e	-0.19500586
45	0xbee730da	-0.45154458
46	0xbe923574	-0.28556406
47	0xbdea2bc3	-0.11434128
48	0xbbf289d9	-0.0074016866
49	0xbe81d98e	-0.25361294
50	0x3ef39537	0.4757478
51	0x3e367afc	0.17820352
52	0x3d12c5e0	0.03583324
53	0xbc99d91d	-0.018780285
54	0xbe876fab	-0.26452383
55	0xbccf9b62	-0.025342647
56	0x3e747f08	0.23876584
57	0xbed7dc81	-0.4216042
58	0xbd6e7bed	-0.058223654
59	0x3ef07f98	0.46972346
60	0xbe4e6536	-0.20155796
61	0xbd3b1214	-0.045671538
62	0xbeea4003	-0.45751962
63	0xbf28bc9c	-0.65912795
64	0x3e371a9d	0.17881246
65	0xbe09965e	-0.13436267
66	0xbe5e2c85	-0.2169667
67	0x3e92bdae	0.2866034
68	0x3c176546	0.009240454
69	0x3eb19b82	0.34688956
70	0x3e9c21c0	0.304945
71	0x3eaa43e8	0.33254933
72	0x3e049de3	0.12950854
73	0xbd0046d0	-0.031317532
74	0x3ed9a08a	0.42505294
75	0xbef9aff9	-0.4876707
76	0x3e0353ca	0.12824932
77	0xbe9f09bd	-0.31062117
78	0x3e493ece	0.19652864
79	0x3d3902a2	0.045168526
80	0xbe037090	-0.12835908
81	0xbed1db3e	-0.4098758
82	0x3df1f6b4	0.11814633
83	0x3eb3acd0	0.35092783
84	0x3ebaf9b8	0.36518645
85	0x3e5efd01	0.21776201
86	0x3eb3073f	0.34966466
87	0x3f13b4ec	0.5769794
88	0x3e8f6497	0.2800643
89	0xbe130b57	-0.14359795
90	0x3ea5b740	0.3236637
91	0xbdd32e47	-0.10311561
92	0x3ea9c6c3	0.33159456
93	0x3f17f976	0.5936502
94	0xbddcc524	-0.10779789
95	0x3e921585	0.28532043
96	0x3d87d96b	0.06633266
97	0xbe99a244	-0.3000661
98	0x3dd38f66	0.103300855
99	0xbee26ad5	-0.4422213
100	0x3ea503d4	0.32229483
101	0x3da5da93	0.0809833
102	0x3d2dc0c4	0.042420164
103	0xbd45c8e9	-0.048287306
104	0xbe27835c	-0.16358703
105	0x3ea8711f	0.32898805
106	0xbe9008c0	-0.28131676
107	0x3dd6c970	0.1048764
108	0xbdae9a5f	-0.08525538
109	0xbcbe47c2	-0.023227576
110	0xbdc05982	-0.09392072
111	0x3f54591d	0.82948476
112	0xbceef398	-0.029168889
113	0xbe8a064e	-0.26957935
114	0x3e1a8a5d	0.15091844
115	0x3e3ea411	0.18617274
116	0x3e9bf800	0.30462646
117	0xbf050a3f	-0.5196876
118	0xbec164fa	-0.37772352
119	0xbe8304e3	-0.25589666
120	0xbd773c93	-0.060360502
121	0xbc40eda9	-0.011775413
122	0xbeae3d72	-0.34031254
123	0xbf51d3fd	-0.81964093
124	0xbd5b3c46	-0.053524278
125	0x3c9a761c	0.018855147
126	0xbea7c51f	-0.3276758
127	0x3dc84f6b	0.09780773
128	0xbe0bc18c	-0.13648051
129	0xbf41daa9	-0.75724274
130	0x3e94f01f	0.29089448
131	0xbe1d3d38	-0.15355384
132	0xbe648de6	-0.22319755
133	0xbe3eba5b	-0.18625776
134	0x3f0cefc7	0.5505337
135	0x3f3494be	0.7053946
136	0xbde603ab	-0.11231168
137	0x3e03d2dc	0.12873405
138	0x3d013abe	0.03155016
139	0xbe9922c6	-0.29909343
140	0xbe6bc952	-0.23026016
141	0x3e00f869	0.12594761
142	0x3e10cf5a	0.14141598
143	0x3e648337	0.2231568
144	0xbe24500e	-0.16046163
145	0xbd52963b	-0.051412802
146	0xbf1af059	-0.6052299
147	0x3e550033	0.20800857
148	0xbe0521d5	-0.13001187
149	0x3e3d72d5	0.18500836
150	0x3dfca8eb	0.12336906
151	0x3e2c0675	0.16799338
152	0x3ea5d24f	0.32387015
153	0x3e50b1d3	0.20380335
154	0x3e993901	0.29926303
155	0xbea15e4d	-0.31517258
156	0x3e1a2ad1	0.15055396
157	0x3c868ae2	0.016423646
158	0x3eb72c84	0.3577615
159	0x3eeffeea	0.46874171
160	0xbed1c4b7	-0.40970394
161	0x3ec4b821	0.3842173
162	0x3ea5c517	0.3237693
163	0x3e0e07d6	0.13870177
164	0xbe96b133	-0.29432067
165	0xbe8bd17d	-0.27308264
166	0xbec93380	-0.39297104
167	0x3e8027b3	0.25030288
168	0x3e7b187c	0.24521059
169	0xbd593e1b	-0.053037744
170	0x3f32322c	0.69607806
171	0x3e8da9a0	0.27668476
172	0x3e8b480e	0.2720341
173	0xbeb31d5e	-0.34983343
174	0x3de78e66	0.11306457
175	0xbed3024c	-0.4121269
176	0x3eab6f8a	0.33483535
177	0x3e2a37bf	0.16622828
178	0xbeec3734	-0.46135867
179	0xbd765c4d	-0.06014662
180	0x3dff30d3	0.12460484
181	0xbeb9ee30	-0.36314535
182	0xbd3c9e00	-0.046049118
183	0xbe380cf7	-0.17973696
184	0xbec22152	-0.37916046
185	0x3d8b2b81	0.06795407
186	0xbe77b9e3	-0.24192004
187	0x3e45321c	0.19257396
188	0x3f0a48a7	0.5401711
189	0xbe7cef19	-0.24700584
190	0xbdb65f35	-0.08904878
191	0xbddb7676	-0.10715954
192	0x3e4f8ebf	0.20269297
193	0x3ea1e9f2	0.316238
194	0xbe8f77b2	-0.28021008
195	0x3f051dfb	0.5199887
196	0xbed7aa79	-0.42122248
197	0xbee417e4	-0.44549477
198	0xbcc15b30	-0.023603052
199	0xbe69dd2d	-0.22838278
200	0x3d7cbe44	0.06170489
201	0x3f33eafa	0.7028042
202	0xbdc10ad8	-0.094258964
203	0x3cebbe26	0.028777193
204	0xbcba995d	-0.022778207
205	0x3e863bcb	0.26217493
206	0xbebaa7ee	-0.36456245
207	0x3c71a010	0.0147476345
208	0x3eda08c5	0.42584816
209	0xbe9035f0	-0.2816615
210	0xbd8f8cb5	-0.070092596
211	0xbdd042b7	-0.10168975
212	0x3e93a1b7	0.28834316
213	0x3cd3413c	0.025787942
214	0x3e0043e3	0.12525897
215	0x3da4948e	0.08036147
216	0x3c6c1cdc	0.0144111775
217	0x3ead57de	0.338561
218	0xbe662d4a	-0.22478214
219	0xbec8f7ce	-0.3925156
220	0x3ccc8c10	0.02496913
221	0xbddbfb36	-0.10741274
222	0xbdc4f75c	-0.096174926
223	0x3c95c6f8	0.018283352
224	0xbe1eca0e	-0.15506765
225	0xbd12b344	-0.035815492
226	0xbe84fcc0	-0.25974083
227	0x3e2e5138	0.1702317
228	0x3cf6f633	0.030146694
229	0xbe46abab	-0.19401424
230	0xbe073896	-0.1320518
231	0x3dea70a3	0.11447265
232	0xbd1d2477	-0.038364854
233	0xbe1fb366	-0.15595779
234	0xbc23f97b	-0.010008211
235	0xbe89ede3	-0.26939306
236	0x3d768713	0.06018741
237	0x3f21b32b	0.63164014
238	0xbe273217	-0.16327702
239	0xbe88c287	-0.26710913
240	0x3cabb8fc	0.02096223
241	0xbec90bee	-0.39266914
242	0xbeb7a8ac	-0.35870874
243	0xbe9eab67	-0.30990145
244	0x3e94f6f9	0.29094675
245	0xbee20b10	-0.44149065
246	0x3b13fbc6	0.0022580489
247	0x3cec8c71	0.028875561
248	0xbe0ad762	-0.13558725
249	0x3e435ede	0.19079158
250	0xbd0de495	-0.03464182
251	0x3e37d1e8	0.17951167
252	0x3ea714bf	0.32633016
253	0xbe7bf20f	-0.24604057
254	0xbef4dd08	-0.47824883
255	0x3ef277be	0.4735698

fc.0.bias f4 [100]
0	0xbf27babd	-0.65519315
1	0xbebc7f72	-0.36815983
2	0x3f314eba	0.6926075
3	0x3dd53ae7	0.10411625
4	0xbf2884dc	-0.6582773
5	0xbf603e2d	-0.8759487
6	0x3ecf3f2e	0.4047789
7	0x3d75a335	0.0599701
8	0xbf5e7bd7	-0.86907715
9	0xbe9f9b25	-0.31173053
10	0xbe883b25	-0.26607624
11	0x3e503fc8	0.2033683
12	0x3eb8d2f6	0.3609845
13	0x3f0e8917	0.5567793
14	0x3d9729d8	0.07381028
15	0xbeaac600	-0.33354187
16	0xbecb5f29	-0.3972104
17	0xbbb962a5	-0.0056575113
18	0x3e5fcbff	0.21855162
19	0x3e81cd52	0.2535196
20	0x3e110592	0.14162281
21	0x3e9153ec	0.2838434
22	0x3f1718e5	0.5902236
23	0xbee6315d	-0.44959536
24	0x3effd3c7	0.4996626
25	0x3e748479	0.2387866
26	0xbe753585	-0.23946197
27	0x3ef01011	0.46887258
28	0x3e8dfbae	0.2773108
29	0x3e5d223f	0.21595095
30	0x3e869615	0.26286379
31	0x3e93844a	0.28811866
32	0xbe75411f	-0.23950623
33	0xbf70085b	-0.9376275
34	0x3e374759	0.1789831
35	0x3f5abb3c	0.85441947
36	0x3da51508	0.08060652
37	0x3e1677a2	0.14694074
38	0xbeab20f3	-0.33423576
39	0x3ed84736	0.4224183
40	0xbd7a0ff7	-0.06105038
41	0x3f83314a	1.0249417
42	0xbe2f978e	-0.17147657
43	0xbeee81cd	-0.46583405
44	0x3f10463c	0.5635717
45	0xbe37b827	-0.17941342
46	0xbf14ff6b	-0.58202237
47	0xbea22307	-0.3166735
48	0xbe5b9f13	-0.21447401
49	0xbdb34f42	-0.087553516
50	0xbd759520	-0.05995667
51	0xbe88023a	-0.265642
52	0x3f025e3b	0.50925034
53	0x3efc510a	0.49280578
54	0x3ea4e56a	0.3220628
55	0x3bbd61ab	0.005779465
56	0x3e44fc3a	0.19236842
57	0xbf531414	-0.8245251
58	0x3f16cf8b	0.58910435
59	0x3f2cf243	0.6755716
60	0xbe90f3a6	-0.2831089
61	0x3e9788a0	0.29596424
62	0x3f274dbe	0.65353
63	0x3c96c9b5	0.018406728
64	0xbe9fc86b	-0.31207594
65	0xbe9730d0	-0.29529428
66	0x3e4eef1f	0.20208405
67	0x3cf13337	0.029443366
68	0x3f2685df	0.6504802
69	0xbde06439	-0.10956616
70	0xbd00b1cd	-0.031419564
71	0xbe7c0faa	-0.2461535
72	0x3d6d2cca	0.057904042
73	0x3e87045b	0.2637051
74	0xbebd3d9d	-0.3696107
75	0xbeb6e462	-0.35721117
76	0xbedb9a98	-0.42891383
77	0xbe94dbb3	-0.29073867
78	0xbefd3b7b	-0.49459442
79	0x3f2815a5	0.65658027
80	0x3ef1f951	0.47260526
81	0xbd920254	-0.0712935
82	0x3e3244ee	0.17409107
83	0x3e903c76	0.28171128
84	0x3f487993	0.7831051
85	0x3ed11cf2	0.40842396
86	0x3df532f3	0.119726084
87	0x3d0e32d0	0.034716427
88	0xbe8429d4	-0.25813162
89	0xbe0df263	-0.13861994
90	0x3da58f65	0.08083991
91	0xbd2a9093	-0.041641783
92	0xbf286aaf	-0.65787786
93	0x3f171ef5	0.5903161
94	0x3f086991	0.5328608
95	0x3f2fcef0	0.68675137
96	0x3d950743	0.07276776
97	0xbe385293	-0.1800025
98	0x3ec0156a	0.37516338
99	0x3eb1a54a	0.34696418

fc.1.weight f4 [100, 100]
0	0x3de6b841	0.112656124
1	0xbc9fa51f	-0.019487916
2	0x3d1a0a86	0.037607692
3	0x3cd1e5e5	0.025622318
4	0xbd364458	-0.04449877
5	0x3df3624f	0.11883985
6	0xbdace250	-0.08441603
7	0x3ddcda5b	0.107838355
8	0x3e201f4a	0.15636936
9	0x3c7e110e	0.015506996
10	0xbdbdf226	-0.09274702
11	0xbd5dabfa	-0.054119088
12	0x3dc29162	0.09500386
13	0xbd62d94a	-0.055383004
14	0xbe01e326	-0.12684307
15	0x3d4de78c	0.05026965
16	0x3dab79b5	0.08372823
17	0x3cb875f5	0.022517184
18	0xbe0cac18	-0.13737524
19	0xbcc94159	-0.024567293
20	0xbd61230c	-0.054965064
21	0x3d30231d	0.043002237
22	0xbdc730ff	-0.09726142
23	0x3c4e8759	0.012605512
24	0xbdeb4074	-0.11486903
25	0x3d3107c2	0.04322029
26	0x3d141bcd	0.036159325
27	0xbcd8587d	-0.026409382
28	0x3d75067c	0.059820637
29	0xbba717ea	-0.0050992863
30	0x3d83a68b	0.0642825
31	0xbcf1a52b	-0.029497704
32	0xbd68c73b	-0.056830626
33	0x3d6f7513	0.05846126
34	0xbdb8d57f	-0.09025096
35	0xbde390c1	-0.11111594
36	0xbd58d966	-0.052941702
37	0xbcb76151	-0.022385271
38	0xbc7a0173	-0.015259135
39	0x3d82e791	0.06391824
40	0xbda55271	-0.08072365
41	0xbe8bd174	-0.27308238
42	0xbd43d5db	-0.04781137
43	0xbbd012d5	-0.006349901
44	0xbdaf0a40	-0.08546877
45	0x3d8d1bbf	0.06890058
46	0x3db80b21	0.08986498
47	0x3ce5a09d	0.028030688
48	0xbcfd3d7d	-0.030913109
49	0x3e6a250d	0.22865696
50	0x3da03cea	0.078241184
51	0x3d8580c4	0.06518701
52	0x3d2697ed	0.04067223
53	0x3c3eb962	0.011640878
54	0xbda69023	-0.08132961
55	0x3d03f57a	0.032216527
56	0x3d9b88be	0.07594441
57	0x3d7ec10e	0.06219583
58	0x3d829287	0.06375604
59	0xbdbe53f3	-0.09293356
60	0x3c969193	0.018379962
61	0xbd05d28d	-0.0326715
62	0xbdb38915	-0.08766381
63	0x3dd5b6ec	0.1043528
64	0xbd780bf2	-0.060558267
65	0x3da1ecb3	0.07906475
66	0x3d04eb0d	0.032450724
67	0x3d1edb56	0.038783394
68	0xbe193918	-0.14963186
69	0x3b0727cd	0.0020623088
70	0x3d03f601	0.03221703
71	0xbd02f05e	-0.031967513
72	0xbd74cf65	-0.0597681
73	0x3c21583d	0.009847698
74	0x3ecc25c0	0.3987255
75	0xbd2ed423	-0.042682778
76	0x3ddf8d0f	0.10915577
77	0x3d02657e	0.03183507
78	0xbd50234b	-0.050814908
79	0xbde81975	-0.113329805
80	0xbd29f565	-0.041493792
81	0xbd2cca15	-0.042184908
82	0x3b2d559d	0.0026448735
83	0xbbabadd6	-0.0052392287
84	0xbd82534e	-0.06363545
85	0xbd1c852f	-0.03821295
86	0xbdc17dbc	-0.0944781
87	0xbdf599a6	-0.11992197
88	0x3e01432d	0.12623282
89	0xbb339de3	-0.002740734
90	0xbd91323e	-0.07089661
91	0xbc0cbd32	-0.00859003
92	0xbbb54ae0	-0.0055326074
93	0x3bc2009b	0.0059204823
94	0x3cab5322	0.020913664
95	0xbddb9507	-0.10721784
96	0x3d79e7ae	0.061011963
97	0x3dd4041c	0.10352346
98	0xbd09cc9a	-0.03364239
99	0xbe0b2b7b	-0.13590805
100	0x3d0557c2	0.032554395
101	0x3d2cdb86	0.04220154
102	0xbd4aced2	-0.049513645
103	0x3d3d4bd1	0.046214882
104	0xbd9e9b21	-0.07744432
105	0x3cc64a6b	0.024205407
106	0x3d05d6a1	0.03267539
107	0xbcffd36d	-0.031228745
108	0xbde91470	-0.11380851
109	0xbcdc71e0	-0.026909769
110	0x3d3fac74	0.046795323
111	0xbd78ed0c	-0.06077294
112	0xbc8503fa	-0.016237248
113	0x3d8ecfdc	0.0697324
114	0xbce9a40b	-0.028520605
115	0x3c90c845	0.017673621
116	0x3cb3d41b	0.021951726
117	0x3d35d3ed	0.04439156
118	0x3c99a4f8	0.018755421
119	0x3a117722	0.0005549063
120	0xbd5a66a8	-0.053320557
121	0x3dbf5d94	0.093440205
122	0x3d2c0d9d	0.04200517
123	0x3ca7d89a	0.020489026
124	0x3dcfa2ed	0.101384975
125	0x3dc5cd4f	0.096583
126	0xbccb9f82	-0.024856333
127	0x3de50f15	0.11184517
128	0x3c847a2b	0.016171535
129	0xbc113a1b	-0.008863951
130	0xbc6efe76	-0.014587035
131	0x3db9f7ac	0.09080443
132	0x3dcac6ae	0.099011764
133	0x3cb9ac23	0.022665089
134	0xbd6c487a	-0.057686307
135	0x3cee3c9b	0.029081633
136	0x3d084e79	0.033277962
137	0x3d985ad2	0.074391976
138	0xbc93608f	-0.017990379
139	0xbda7cf4a	-0.08193834
140	0xbd06c28e	-0.032900386
141	0x3dee1cb4	0.116265684
142	0x3d6f45e4	0.058416262
143	0x3d1b1db0	0.03787011
144	0x3d71c445	0.059025068
145	0xbd3f5973	-0.046716165
146	0xbcaafd43	-0.020872718
147	0x3c88d9c8	0.016705409
148	0x3d3e9928	0.04653278
149	0x3d48a1f5	0.04898258
150	0xbcc7c11f	-0.02438408
151	0x3d5b5ee4	0.05355729
152	0x3bd9ae33	0.0066430806
153	0x3d09ee3f	0.033674475
154	0x3d12fbd1	0.035884682
155	0xbd8025d2	-0.06257214
156	0xbdbe970e	-0.09306155
157	0x3d05d4db	0.032673698
158	0xbd4b059c	-0.049565896
159	0xbc11eaf6	-0.008906117
160	0x3daa60ce	0.08319245
161	0xbcfece79	-0.031104313
162	0x3d8110e4	0.0630205
163	0xbcd4dd3f	-0.025984405
164	0xbde105c2	-0.10987426
165	0xbd712807	-0.058876064
166	0x3ca8dcdb	0.020613125
167	0xbd95379c	-0.07285997
168	0xb7f67b0e	-2.9382787e-05
169	0xbe12878b	-0.14309518
170	0x3cd26a4f	0.025685458
171	0xbcac1850	-0.021007687
172	0xbd26ab8f	-0.040690955
173	0xbd98a7fe	-0.07453917
174	0x3de69622	0.11259104
175	0x3dcb845f	0.09937357
176	0xbbf90568	-0.0075995214
177	0xbd0e7ea9	-0.03478876
178	0xbce6f981	-0.028195145
179	0xbe141588	-0.14461339
180	0x3dbd8fa7	0.09255915
181	0xbd110d09	-0.035412822
182	0x3df9f4f3	0.122049235
183	0xbd8c4f73	-0.06851091
184	0xbd723c0b	-0.059139293
185	0xbd34f053	-0.044174504
186	0xbc9d9874	-0.019237734
187	0x3d885a45	0.066578425
188	0x3d1e1aca	0.038599767
189	0xbd8ea8e4	-0.06965807
190	0x3d2c10e3	0.042008292
191	0xbd82a16d	-0.06378446
192	0xbd83f06d	-0.06442342
193	0xbddd6722	-0.10810687
194	0x3d27c39f	0.040958043
195	0xb93f2d2c	-0.00018232007
196	0x3d8fb81c	0.07017538
197	0x3d4c46d2	0.049872227
198	0x3db1468d	0.086560346
199	0x3d07b6d1	0.03313333
200	0xbd3b59ee	-0.04574006
201	0x3cd4aeec	0.025962315
202	0x3dce3351	0.100683816
203	0xbdbb1c89	-0.09136302
204	0xbd99a02c	-0.075012535
205	0x3da80d52	0.08205666
206	0x3db137eb	0.08653244
207	0x3d0d4d0a	0.0344973
208	0xbdd037b8	-0.101668775
209	0x3c733717	0.014844677
210	0x3ddac184	0.106814414
211	0x3d32572f	0.043540176
212	0x3d3d97af	0.046287235
213	0x3dde5482	0.10855962
214	0x3cb6398c	0.022244237
215	0x3ced3882	0.02895761
216	0xbdb9507b	-0.090485536
217	0xbdc6a24e	-0.09698926
218	0x3d93a1a8	0.07208568
219	0x3d886648	0.066601336
220	0x3e53f5a9	0.2069918
221	0x3d38541e	0.045002095
222	0xbcc51e71	-0.024062367
223	0xbda46097	-0.080262356
224	0x3dcebc9f	0.1009457
225	0xbbcc485a	-0.006234211
226	0x3cdccc47	0.026952876
227	0x3dfac825	0.12245206
228	0x3ce78e69	0.028266149
229	0xbdb1818f	-0.086672895
230	0x3d6d40c9	0.057923112
231	0x3ddf690d	0.10908709
232	0xbd1c770b	-0.038199466
233	0xbda821e4	-0.08209589
234	0x3cc02a08	0.023457542
235	0x3d8c200d	0.06842051
236	0x3d913598	0.070903
237	0x3db88ae9	0.0901087
238	0xbcec5b20	-0.028852046
239	0x3c2ca8fe	0.010538338
240	0xbdb04022	-0.08605982
241	0x3dc71aca	0.097219065
242	0xbd1ba0f2	-0.037995286
243	0xbd842473	-0.06452265
244	0x3d831205	0.06399921
245	0xbd9e95b0	-0.077433944
246	0x3c2ade87	0.010429031
247	0x3d8dfeca	0.06933363
248	0xbcbf27dd	-0.023334438
249	0xbd923424	-0.07138851
250	0x3b78eca3	0.0037982843
251	0x3d09db18	0.03365621
252	0xbd9d2470	-0.076729655
253	0x3977f024	0.00023645215
254	0x3d701241	0.05861116
255	0x3db34f10	0.08755314

fc.1.bias f4 [100]
0	0xbebb20e3	-0.36548528
1	0xbd2f0929	-0.042733345
2	0x3e0bd42c	0.13655156
3	0x3e1a9a70	0.15097976
4	0x3dc2bb6b	0.095084034
5	0x3d35113a	0.04420588
6	0x3de25467	0.11051255
7	0xbea9d0fd	-0.33167258
8	0x3dd8dde7	0.105891995
9	0x3e5b9b47	0.21445952
10	0xbe931ac9	-0.28731373
11	0x3e830f73	0.25597724
12	0x3de56df6	0.11202614
13	0xbe164166	-0.14673385
14	0x3e50e7ba	0.20400897
15	0xbac6bca1	-0.0015162417
16	0x3e010397	0.12599026
17	0x3e784dd4	0.24248439
18	0xbe2b6c7f	-0.16740607
19	0xbcf21306	-0.029550087
20	0x3d2c4bca	0.042064466
21	0xbe86d6b9	-0.26335695
22	0x3d5dff2e	0.054198436
23	0x3e70680e	0.23477194
24	0xbebcc55a	-0.36869317
25	0xbd6a2d28	-0.05717197
26	0x3e2c193f	0.16806506
27	0x3d321ed0	0.043486416
28	0xbe170ed2	-0.14751747
29	0x3e2c862c	0.16848058
30	0x3e684357	0.22681938
31	0x3dfffb00	0.12499046
32	0xbd59f33a	-0.053210475
33	0x3d878a6a	0.06618197
34	0xbe705c2d	-0.23472662
35	0x3e14f244	0.14545542
36	0x3dc6fd02	0.09716226
37	0xb8cbafec	-9.712562e-05
38	0x3d9ed849	0.07756097
39	0xbc80b88d	-0.015713
40	0x3d059884	0.032616153
41	0xbd311fbf	-0.043243166
42	0x3eb06e5b	0.34459195
43	0x3ea87c44	0.32907307
44	0xbd6d28fd	-0.057900418
45	0xbde72585	-0.11286453
46	0xbdbd4d36	-0.092432424
47	0xbd041769	-0.03224889
48	0xbc8d8daf	-0.017279474
49	0x3de09293	0.10965457
50	0xbea9a9e0	-0.33137417
51	0x3e3f6eba	0.18694583
52	0xbb1ef227	-0.002425322
53	0x3da61051	0.08108581
54	0xbd3e8147	-0.046510007
55	0xbded1843	-0.11576893
56	0xbb9fea01	-0.0048801904
57	0x3e9b7665	0.30363765
58	0x3d1a242f	0.037632164
59	0xbe3effbf	-0.18652247
60	0xbd9577e9	-0.07298262
61	0x3e04c993	0.1296752
62	0xbeab0f12	-0.33409935
63	0xbdf531b2	-0.11972369
64	0x3d26c933	0.040719222
65	0xbdce1034	-0.10061684
66	0x3e27f15e	0.16400668
67	0xbc81a9a0	-0.015827954
68	0x3e0ca942	0.13736442
69	0xbd6f5b8f	-0.058436926
70	0x3c94cf28	0.018165186
71	0x3e2db5fd	0.16963954
72	0x3d84af5c	0.0647876
73	0x3dc75e14	0.09734741
74	0xbe1e0d4e	-0.15434763
75	0x3d4c8c04	0.049938217
76	0xbe040957	-0.12894188
77	0xbe1f0e55	-0.15532811
78	0xbef03c27	-0.46920893
79	0x3d39b7b6	0.045341216
80	0x3de9e352	0.11420311
81	0x3cc81b39	0.024427043
82	0xbd36c6aa	-0.044623055
83	0x3e2d1cc9	0.16905512
84	0xbdc73aa9	-0.097279854
85	0x3d645909	0.055748973
86	0xbd8d30e0	-0.06894088
87	0x3e4c372d	0.19942923
88	0xbd8034e1	-0.06260086
89	0x3db043e1	0.08606697
90	0x3e3923a2	0.18079999
91	0x3ba3cff2	0.0049991542
92	0x3e4973c9	0.19673075
93	0xbe761edc	-0.2403521
94	0x3c53ea3b	0.012934263
95	0xbeb1acef	-0.3470225
96	0xbcb38452	-0.021913681
97	0xbe58babc	-0.21164984
98	0x3dfbbcf6	0.12291901
99	0xbcb41430	-0.021982282

fc.2.weight f4 [100, 100]
0	0x3c8b4473	0.017000413
1	0x3d3813c7	0.044940736
2	0xbdfbe42f	-0.12299382
3	0x3ddbda20	0.107349634
4	0xbc66c7c6	-0.014085716
5	0x3d51c71b	0.051215272
6	0x3d2fea09	0.042947803
7	0x3d8b2a67	0.06795197
8	0xbcbedc53	-0.023298418
9	0x3dbf839f	0.093512766
10	0xbd3b76a3	-0.045767438
11	0x3d01d7aa	0.031699814
12	0xbd8f9422	-0.07010676
13	0x3d921fb5	0.07134954
14	0x3dd1eb61	0.10249973
15	0x3d27e83e	0.040992968
16	0x3d3ff37d	0.046863068
17	0x3dd80460	0.105477095
18	0x3db22d67	0.08700066
19	0x3db4bbf3	0.08824911
20	0xbc1cf3c3	-0.009579602
21	0xbd87b943	-0.06627133
22	0xbb1d258b	-0.0023978676
23	0xbd0e8dfc	-0.034803376
24	0x3e51a25a	0.20472088
25	0x3dc7440d	0.097297765
26	0x3dc1de7b	0.09466263
27	0x3d8c7303	0.06857874
28	0x3d3fc981	0.04682303
29	0x3da72582	0.08161451
30	0xbd8cc284	-0.068730384
31	0xbd1dccf9	-0.038525555
32	0x3d8cb971	0.06871308
33	0xbb755843	-0.0037436641
34	0x3c52e393	0.012871641
35	0x3dbaffea	0.09130843
36	0x3cf27e6b	0.029601296
37	0xbc3bd3e9	-0.011464098
38	0xbd611393	-0.054950308
39	0xbd38e387	-0.045138862
40	0x3d9eef6c	0.0776051
41	0x3d3ab298	0.045580477
42	0x3dae1ce5	0.08501605
43	0xbb971593	-0.004610726
44	0x3d9a4bbf	0.07533979
45	0xbcc62b14	-0.024190463
46	0xbd6da963	-0.058022868
47	0x3bf2b77b	0.0074071265
48	0x3d933f9b	0.07189866
49	0x3d23a1d9	0.03994927
50	0xbe8ef0e6	-0.27918166
51	0xbd923ef4	-0.071409136
52	0x3d8945c7	0.06702762
53	0x3d800b4c	0.06252155
54	0xb9f6f0bc	-0.00047100137
55	0xbc8dcc8c	-0.01730945
56	0x3da0447c	0.07825562
57	0xbdd7b8dc	-0.10533306
58	0xbd75268f	-0.059851225
59	0x3d6eac44	0.058269754
60	0xbd1737f4	-0.036918595
61	0x3d899740	0.06718302
62	0xbe06e82f	-0.13174509
63	0x3c898462	0.016786758
64	0xbbd0a3d6	-0.006367187
65	0x3d6b6630	0.0574705
66	0x3d8e42e1	0.0694635
67	0x3d19b3c5	0.037524957
68	0xbd92d6fb	-0.071699105
69	0xbd823001	-0.06356812
70	0xbcede5e0	-0.029040277
71	0xbd018e78	-0.03163001
72	0xbd1f4e0d	-0.038892794
73	0xbcaa6f35	-0.02080498
74	0x3de688b4	0.11256543
75	0x3cd5171c	0.026011996
76	0xbe167598	-0.14693296
77	0xbd9baf4c	-0.076017946
78	0xbdf1b37f	-0.11801814
79	0xbd4b915f	-0.049699184
80	0xbc1512b1	-0.009098695
81	0x3d9ec00e	0.07751475
82	0x3d8f4301	0.06995202
83	0xbdd3ff85	-0.10351471
84	0xbdba3e40	-0.090939045
85	0xbda4bd3b	-0.08043905
86	0x3bcb878c	0.006211227
87	0x3dad74fc	0.084695786
88	0x3d7f2b4e	0.062297158
89	0x3d7ecbe0	0.06220615
90	0x3d8f8e40	0.07009554
91	0x3c791a70	0.015204057
92	0xbd6f68cc	-0.05844955
93	0x3da04360	0.07825351
94	0x3cecc386	0.028901827
95	0x3e9f35f5	0.31095853
96	0xbe18b254	-0.14911777
97	0xbe0b4734	-0.1360138
98	0xbdabfdb5	-0.08398
99	0x382cf263	4.1233736e-05
100	0xbd32f923	-0.043694627
101	0xbc909990	-0.01765135
102	0x3cfcc7e1	0.030857028
103	0x3d19d0ef	0.03755277
104	0x3bb46e03	0.0055062785
105	0x3d1e24f7	0.03860947
106	0x3df6eeff	0.12057304
107	0x3d75255a	0.059850074
108	0xbda4dad6	-0.08049552
109	0x3c24192b	0.010015766
110	0xbb4ff26e	-0.0031730193
111	0xbd92eb23	-0.07173755
112	0xbb5e1a7d	-0.00338903
113	0x3d71982e	0.05898302
114	0xbe05115e	-0.12994906
115	0x3cc57eff	0.024108408
116	0xbd21575b	-0.03938995
117	0x3d7d8cdd	0.061901916
118	0xbc38de69	-0.011283495
119	0x3de235a5	0.11045388
120	0x3d4f9951	0.050683323
121	0xbd8754d7	-0.06607979
122	0x3db552b7	0.08853667
123	0xbcce5ae3	-0.025189823
124	0x3b9d83b1	0.0048069586
125	0x3dc31ba7	0.09526759
126	0x3d8aa28a	0.06769283
127	0xbd6c1283	-0.05763484
128	0xbcd08359	-0.025453256
129	0xbd182c6e	-0.037151746
130	0x3da4b21c	0.08041784
131	0xbd00b011	-0.03141791
132	0x3db8da5f	0.09026026
133	0x3d067435	0.032825667
134	0x3d2292cc	0.039690778
135	0xbc31d0c7	-0.010852999
136	0x3d217406	0.03941729
137	0xbc9e0df1	-0.019293757
138	0x3cad5ed5	0.021163383
139	0x3d8b917c	0.06814858
140	0xba3d07e5	-0.0007210954
141	0xbcfc1167	-0.030770017
142	0x3e089557	0.13338219
143	0xbca37aef	-0.01995608
144	0xbdd42137	-0.10357898
145	0x3c722ba7	0.014780915
146	0x3d816e50	0.063198686
147	0x3dc682af	0.09692895
148	0xbdac0766	-0.08399849
149	0xbd19a352	-0.03750927
150	0xbd0d94f1	-0.03456587
151	0x3c92f613	0.017939603
152	0xbd83d41a	-0.064369395
153	0x3d238e86	0.039930843
154	0x3db5ecde	0.088830695
155	0x3ce52064	0.027969547
156	0xbd7038fd	-0.0586481
157	0x3d95ff50	0.073240876
158	0x3db96d7c	0.090540856
159	0x3db92662	0.09040524
160	0xbc6995f1	-0.01425694
161	0x3d85309d	0.06503413
162	0xbd8868de	-0.06660627
163	0xbda600da	-0.08105631
164	0x3b9afb93	0.004729697
165	0xbd8d97af	-0.06913697
166	0x3d7c6466	0.061619185
167	0x3d96e820	0.07368493
168	0x3baa1751	0.005190768
169	0xbd48adad	-0.048993755
170	0x3d1f602f	0.038910087
171	0xbd902942	-0.07039119
172	0xbd9ced4e	-0.0766245
173	0xbc4bcb26	-0.012438571
174	0xbe7eb38b	-0.24873178
175	0x3d51b79e	0.0512005
176	0x3d84b009	0.064788885
177	0xbd23a4f1	-0.039952222
178	0x3dad07a4	0.08448723
179	0xbd80183b	-0.062546216
180	0x3d23721e	0.039903753
181	0x3c8fefcc	0.017570399
182	0xbbddb507	-0.006765965
183	0x3df97d5a	0.12182112
184	0xbd7d86dd	-0.061896194
185	0x3dcee5d6	0.101024315
186	0xbd711cfa	-0.058865525
187	0xbd3323c9	-0.0437353
188	0xbccdb1d4	-0.02510921
189	0xbdbecc00	-0.09316254
190	0x3d9c1a70	0.0762223
191	0x3d2bd0e5	0.041947264
192	0x3b215dcd	0.002462256
193	0xbd5e9723	-0.054343354
194	0xbd849a9c	-0.06474802
195	0xbd3f7bf7	-0.04674908
196	0x3d13203f	0.035919424
197	0x3cc4e7c7	0.024036301
198	0x3d68dd18	0.056851476
199	0x3d72975c	0.05922638
200	0x3bf5321b	0.0074827797
201	0xbd27efca	-0.041000165
202	0x3dbbab20	0.09163499
203	0xbdaeda2c	-0.08537707
204	0x3dfaf735	0.12254182
205	0x3dd35014	0.10318008
206	0x3da38f85	0.079863586
207	0x3dd10b55	0.102072395
208	0xbc2e8a35	-0.010653068
209	0xbdbe48d5	-0.09291235
210	0x3c6bae7a	0.01438486
211	0x3a514757	0.0007983348
212	0x3dbb0b87	0.09133058
213	0xbd447107	-0.047959354
214	0x3e6ba08f	0.23010467
215	0xbd5be45c	-0.053684577
216	0xbd0c4012	-0.03424079
217	0x3d53ccc2	0.051708944
218	0x3d8ee0b5	0.06976453
219	0x3de6701e	0.112518534
220	0x3d35f7b5	0.044425685
221	0x3dadce2d	0.084865905
222	0x3da09a5c	0.07841942
223	0x3d8a5fdc	0.06756565
224	0x3d4def24	0.05027689
225	0xbd685800	-0.05672455
226	0xbcb85b7e	-0.022504564
227	0x3e058bf7	0.13041674
228	0xbd03ba6e	-0.032160215
229	0x3d83c7f4	0.064346224
230	0xbce0b4ce	-0.027429964
231	0x3d648cc1	0.055798296
232	0x3ddb6125	0.10711888
233	0xbc9d0925	-0.0191694
234	0x3d83681e	0.06416343
235	0xbd198386	-0.037478946
236	0xbd81f64d	-0.06345806
237	0x3de0a0c6	0.10968165
238	0x3d2f3f02	0.0427847
239	0x3d4c1603	0.04982568
240	0x3d66fbb8	0.0563924
241	0xbd9fcbff	-0.07802581
242	0x3db235db	0.08701678
243	0x3e14091b	0.14456598
244	0xbdb7d70e	-0.08976565
245	0x3d6e239f	0.05813944
246	0xbc22c6cb	-0.009935091
247	0x3d2a239b	0.041537862
248	0xbdae07b1	-0.08497561
249	0xbd913dfd	-0.070919015
250	0x3dae0cff	0.084985726
251	0x3e032131	0.1280563
252	0x3db01414	0.085975796
253	0xbd935974	-0.07194796
254	0x3d14a359	0.036288593
255	0x3d3d9b74	0.04629083

fc.2.bias f4 [100]
0	0x3d1bedcb	0.038068574
1	0x3db68cb8	0.08913559
2	0xbcc98c69	-0.024603086
3	0x3dd0631f	0.10175156
4	0xbeb5c18c	-0.35499227
5	0xbd2f9868	-0.042869955
6	0xbb05f96f	-0.0020442863
7	0x3cd56c6d	0.026052678
8	0x3da38b43	0.079855464
9	0x3dc3d26d	0.0956162
10	0xbd6e2972	-0.058144994
11	0xbd62041a	-0.055179693
12	0x3db5bdbf	0.08874082
13	0x3df810a9	0.12112553
14	0xbc4379fc	-0.011930939
15	0x3c3bd8ce	0.0114652645
16	0xbdb438ba	-0.08799882
17	0x3de1b0d5	0.11020056
18	0x3d834ba1	0.064109094
19	0x3d5580e8	0.052124888
20	0x3e352c30	0.17692637
21	0x3d217dcf	0.03942662
22	0x3900a822	0.00012269666
23	0xbd1ce112	-0.03830058
24	0xbd52d058	-0.051468223
25	0xbd0ccaf8	-0.034373254
26	0x3dc0e85a	0.094193175
27	0x3cf92c23	0.030416554
28	0xbcad907a	-0.021187056
29	0x3e143c96	0.14476237
30	0x3dc493d9	0.09598512
31	0x3e4f42b3	0.20240287
32	0x3d7b080e	0.06128698
33	0xbd1a278a	-0.037635364
34	0x3d3c8ebc	0.04603456
35	0x3c9be004	0.019027717
36	0xbcb001b6	-0.02148519
37	0xbda88580	-0.08228588
38	0x3d33ce4e	0.04389792
39	0x3dc41bc7	0.095756106
40	0xbe1634d2	-0.14668587
41	0xbb9335b4	-0.004492486
42	0xbd8d5540	-0.06901026
43	0xbd3799ca	-0.0448244
44	0xbb4e2763	-0.0031456582
45	0x3d0a5be8	0.033779055
46	0x3da534ef	0.08066737
47	0xbd7e775d	-0.062125552
48	0x3e36fa68	0.1786896
49	0xbc7190f2	-0.01474403
50	0x3c8d26a3	0.017230337
51	0xbbfdf840	-0.007750541
52	0x3d7bf897	0.06151637
53	0x3de6ab56	0.112631485
54	0x3d9aafa2	0.075530306
55	0xbd50bcf6	-0.050961457
56	0x3d49ebef	0.04929727
57	0xbd358733	-0.04431839
58	0x3c3385f8	0.010957234
59	0xbd824172	-0.06360139
60	0xbd9487ea	-0.07252486
61	0xbdd25b72	-0.10271348
62	0x3dd75f37	0.10516208
63	0x3d5ca4b6	0.053868018
64	0x3df58af3	0.11989393
65	0x3e85841f	0.26077363
66	0x3e1c6863	0.15274195
67	0x3e71a687	0.23598681
68	0x3de08664	0.10963133
69	0xbd80d921	-0.06291414
70	0x3e404874	0.18777639
71	0xbd4aa643	-0.049474966
72	0x3d761028	0.060074
73	0xbd670f51	-0.05641109
74	0xbc5d4556	-0.0135053005
75	0xbd92e6c6	-0.07172923
76	0xbd6a5e51	-0.057218853
77	0x3e1b3662	0.15157464
78	0x3dd6c634	0.10487023
79	0xbd8746a2	-0.06605269
80	0x3d4e8978	0.05042407
81	0xbd61d751	-0.055136982
82	0x3db6accd	0.08919678
83	0x3d7f9b52	0.062403984
84	0x3de74d92	0.11294092
85	0x3e055662	0.13021234
86	0x3d40b465	0.047047038
87	0x3e19f3e4	0.15034443
88	0x3dc754c8	0.097329676
89	0xbbbbd74f	-0.005732454
90	0x3d8b7136	0.06808703
91	0x3e66db39	0.22544564
92	0x3cc5c2d2	0.02414075
93	0x3e057c4c	0.13035697
94	0xbd1ac67e	-0.037786953
95	0x3d79778a	0.060905017
96	0x3da51e84	0.08062461
97	0xbdb9a607	-0.0906487
98	0x3d8f0325	0.06983022
99	0x3d36124e	0.04445105

fc.3.weight f4 [4, 100]
0	0x3cf3aeab	0.029746374
1	0xbd3a6bbf	-0.04551291
2	0x3dc84210	0.097782254
3	0xbe0ed317	-0.13947712
4	0x3ea89bae	0.32931274
5	0xbdb6b1b3	-0.08920612
6	0x3b0368b6	0.0020051426
7	0x3d3d4ffc	0.046218857
8	0xbd1798f3	-0.037011098
9	0xbe5c6785	-0.21523865
10	0x3daff89b	0.085923396
11	0xbda5d1ff	-0.08096694
12	0xbca99cdb	-0.020704677
13	0x3d832eab	0.064053856
14	0xbda43e6a	-0.08019717
15	0xbbf27f09	-0.0074003977
16	0x3d99650c	0.07489976
17	0xbc790806	-0.015199667
18	0x3c9bd869	0.01902409
19	0xbdf6a57a	-0.12043281
20	0x3d294151	0.041322056
21	0x3da5c020	0.080932856
22	0x3df0b662	0.11753537
23	0xbe045761	-0.12923957
24	0xbd61f0e9	-0.05516139
25	0xbd0d10f3	-0.034439992
26	0xbce6371d	-0.028102452
27	0xbe493af0	-0.19651389
28	0x3de3a1b2	0.11114825
29	0xbde75091	-0.11294664
30	0x3dbd39b2	0.0923952
31	0xbeb4ee9b	-0.35338292
32	0xbd44d329	-0.04805294
33	0xbd2f1607	-0.042745616
34	0xbdc0ec8e	-0.09420119
35	0x3db108ec	0.0864428
36	0x3db196f7	0.086713724
37	0x3da4383d	0.08018539
38	0xbc8f6542	-0.017504338
39	0x3d9ab3cf	0.07553827
40	0xbceb2500	-0.028704166
41	0xbdfaa68b	-0.12238797
42	0x3dc17bf4	0.0944747
43	0x3dc296c2	0.09501411
44	0xbc356be0	-0.011073083
45	0xbd633441	-0.055469755
46	0xbdb545a7	-0.08851176
47	0xbac21f30	-0.001481032
48	0x3d9bf20b	0.076145254
49	0xbd3debd2	-0.046367474
50	0xbd9ed399	-0.07755203
51	0x3d3e0637	0.046392646
52	0xbe4301ba	-0.19043627
53	0xbd15b3cc	-0.03654842
54	0x3cc25a6f	0.023724763
55	0x3d20c7a3	0.03925289
56	0xbde023a3	-0.10944297
57	0x3cd33a87	0.025784744
58	0xbe128056	-0.14306769
59	0x3d2ee345	0.04269721
60	0x3da19378	0.078894556
61	0x3e618c98	0.22026289
62	0xbdae4a96	-0.0851032
63	0xbe1002ce	-0.1406357
64	0x3d225f2e	0.03964155
65	0x3c486c2d	0.012232822
66	0xbdc58562	-0.096445814
67	0x3e9e0226	0.30861014
68	0xbc5a42a9	-0.013321557
69	0xbb9c8757	-0.004776876
70	0xbe8fad18	-0.28061748
71	0xbe71ffc9	-0.2363273
72	0x3d85c470	0.06531608
73	0xbd3bb388	-0.04582551
74	0xbcc3845e	-0.023866829
75	0x3d900e5b	0.07033988
76	0x3d0fb9d5	0.035089333
77	0xbd3fd524	-0.046834126
78	0xbdd8f9f5	-0.105945505
79	0x3db7c385	0.08972839
80	0xbdf869f1	-0.12129582
81	0xbb8065eb	-0.0039183996
82	0xbdba8785	-0.091078795
83	0xbd868648	-0.06568581
84	0xbda8d3db	-0.08243533
85	0xbe171c7c	-0.1475696
86	0xbcd858d9	-0.026409553
87	0xbd1ca156	-0.0382398
88	0x3d708577	0.058721032
89	0xbd08f7d3	-0.03343947
90	0xbd7c49b9	-0.061593745
91	0xbe85fa82	-0.26167685
92	0x3dcc7ae9	0.09984381
93	0x3e890511	0.26761678
94	0xbd739a01	-0.05947304
95	0xbd2c9a3f	-0.042139288
96	0x3d916e37	0.071011
97	0x3d7f7c45	0.062374372
98	0xbdaa90b0	-0.08328378
99	0xbddc30d2	-0.10751499
100	0xbdf9e531	-0.12201918
101	0xbc8e7993	-0.017391955
102	0x3d11edbc	0.03562711
103	0xbc679404	-0.014134411
104	0xbe38acda	-0.18034688
105	0xbce64395	-0.028108397
106	0x3d6d0de2	0.057874568
107	0x3d0c4fe8	0.034255892
108	0xbdd19725	-0.10233907
109	0x3e90169d	0.28142253
110	0x3bbb238f	0.005711026
111	0x3dd02373	0.101630114
112	0xbda3d467	-0.07999497
113	0x3daa742d	0.0832294
114	0xbdd3dd69	-0.10344965
115	0x3d5aecf6	0.05344864
116	0xbd61a450	-0.05508834
117	0xbd5d51a4	-0.054032937
118	0x3c9dd4f3	0.019266581
119	0xbb8a8926	-0.004227775
120	0xbe3491c6	-0.17633733
121	0x3dc62343	0.096746944
122	0xbdb4f077	-0.088349275
123	0xbdf5c8a7	-0.12001162
124	0xbc1fb46a	-0.009747604
125	0xbc750fb1	-0.014957354
126	0x3dbf53d4	0.09342161
127	0xba5e883c	-0.00084889284
128	0x3ba40e49	0.0050065857
129	0x3dacab5d	0.084311225
130	0x3d900ff4	0.07034293
131	0x3dc19b34	0.09453431
132	0x3dabdfe5	0.08392314
133	0x3e2b1207	0.16706096
134	0xbcc380cf	-0.023865132
135	0xbd107f16	-0.03527745
136	0xbd3fb5a6	-0.046804093
137	0xbd42266b	-0.04739992
138	0x3c7060f7	0.014671556
139	0x3db3ec00	0.08785248
140	0xbe4016d3	-0.18758707
141	0x3d6631ef	0.056199964
142	0xbd47a5d2	-0.048742123
143	0x39fd72dc	0.00048341497
144	0x3d9bea0c	0.07613
145	0xbd644388	-0.055728465
146	0xbb938586	-0.004502001
147	0x3d558c58	0.052135795
148	0x3e0e0825	0.13870294
149	0x3b64a6d0	0.0034889467
150	0xbdc207b1	-0.09474123
151	0x3ca7256d	0.020403588
152	0xbe7fef59	-0.24993648
153	0x3e10654f	0.14101146
154	0x3d90b53e	0.07065819
155	0xbd33afdb	-0.04386888
156	0x3d8ba9fc	0.06819531
157	0x3dde4205	0.10852436
158	0xbe2bfd57	-0.1679586
159	0x3e0b359c	0.13594669
160	0xbdbdb2b2	-0.09262599
161	0x3c6aa344	0.014321152
162	0x3cf80591	0.030276092
163	0x3d36eb6a	0.044658102
164	0x3d90cd5a	0.07070418
165	0xbea5a7ea	-0.3235467
166	0xbc10e288	-0.008843072
167	0x3e9b1e7b	0.30296692
168	0xbcb8861c	-0.022524886
169	0x3cad9db8	0.02119337
170	0x3dce0ebf	0.10061406
171	0xbeda7cb1	-0.42673257
172	0xbce99113	-0.02851156
173	0xbd970e13	-0.07375731
174	0x3d4bb773	0.049735498
175	0xbd50a07a	-0.050934292
176	0xbcee4c74	-0.02908919
177	0x3d117bcd	0.035518456
178	0xbe2e9171	-0.17047669
179	0x3de6070f	0.11231815
180	0xbde574d4	-0.11203924
181	0xbd3c9fad	-0.046050716
182	0xbcd6115e	-0.026131328
183	0xbd2ed7eb	-0.042686384
184	0xbd196edd	-0.037459243
185	0xbe47ddfb	-0.19518273
186	0xbd158b68	-0.0365099
187	0x3db83c8d	0.08995924
188	0x3d91f0fc	0.07126042
189	0xbd5e072e	-0.054206066
190	0xbdb6f7f2	-0.089340106
191	0xbc7fbb76	-0.015608659
192	0x3c8e0ad2	0.017339144
193	0xbe24057d	-0.16017719
194	0x3c44ec65	0.0120192515
195	0xbd53ddd5	-0.051725227
196	0x3d135361	0.03596819
197	0xbce3d83b	-0.027813068
198	0x3dce2820	0.10066247
199	0xbe5a7228	-0.2133261
200	0x3c683936	0.014173796
201	0xbd50093c	-0.050790057
202	0xbda82404	-0.082099944
203	0xbd1aca0b	-0.03779034
204	0x3bdfc44f	0.0068288217
205	0xbc8698a3	-0.016430205
206	0xbde2a25c	-0.11066124
207	0xbcdccccf	-0.02695313
208	0xbd995c58	-0.07488316
209	0xbc76d756	-0.0150659885
210	0x3e0128c8	0.12613213
211	0x3da2898c	0.07936391
212	0xbde41a2f	-0.111378066
213	0x3dd641ca	0.10461767
214	0xbd99ad6b	-0.0750378
215	0xbb8efd25	-0.0043636733
216	0x3c92180d	0.017833734
217	0xbda83ebf	-0.08215093
218	0xbc90bd0d	-0.017668271
219	0xbd8fddca	-0.07024725
220	0xbc86b95c	-0.016445808
221	0xbdf14545	-0.1178079
222	0xbd8bb5b8	-0.068217695
223	0xbc2e2f14	-0.0106313415
224	0x3d798687	0.06091931
225	0xbd90f808	-0.07078558
226	0xbdc8995c	-0.09794876
227	0xbd74201c	-0.059600934
228	0x3dcc2ed2	0.09969868
229	0x3baf8c33	0.005357289
230	0xbd800578	-0.06251043
231	0x3d1a4297	0.03766116
232	0x3ddb197d	0.10698221
233	0x3c157078	0.009121053
234	0x3d85c65f	0.06531977
235	0x3d8808b7	0.06642287
236	0x3de7c016	0.11315934
237	0x3de77690	0.11301911
238	0x3d4e6883	0.05039264
239	0xbdaee900	-0.08540535
240	0x3bc0a895	0.0058794715
241	0xbb8b3be3	-0.0042490824
242	0x3daf521c	0.08560583
243	0x3da943a9	0.08264858
244	0x3dc6f59f	0.09714817
245	0x3d42d45f	0.047565814
246	0x3cc63e58	0.02419965
247	0x3d8cf7a6	0.06883173
248	0xbdee415d	-0.11633561
249	0xbda4a679	-0.08039565
250	0xbdba913e	-0.09109734
251	0xbdde2818	-0.10847491
252	0x3d8287cc	0.063735574
253	0x3daff784	0.08592132
254	0x3daf1bd7	0.08550232
255	0x3ddb9a43	0.107227825

fc.3.bias f4 [4]
0	0x3c9c3e1c	0.019072585
1	0xbc9159c1	-0.017742993
2	0xbcd80d6f	-0.026373593
3	0xbbd42964	-0.0064746607
