model/unicycle-FC3-200-rk4-extra/epoch_900.pth (torch, 171877 bytes, 6 tensors)

fc.0.weight f4 [200, 6]
00000000: b031 32bd d694 48be 528f 9e3e 842b b6be
00000010: d97b 853e c717 55be e528 5bbd 5f5d be3d
00000020: 4da1 aebe 7a3f 11be 1fc0 a43e a682 d4be
00000030: c311 4dbe c41c e43d e8fb 9b3e 2f57 43bc
00000040: 4f4d 523e 7bf5 86be 5273 ffbd 1ca6 893d
00000050: d3f7 f0bd 5898 afbe 3abd e0be dbae 4bbe
00000060: 5619 c33d bbd7 03be a551 c4be cd19 febe
00000070: beac 393e 4392 a9be 3195 93be ab99 f3bd
00000080: f924 15bf 3eb0 273f 236a a6be 7cfb b93e
00000090: 9244 86be 5fb0 36be c9df 19bd 7ed4 32bf
000000a0: 24bb acbe aba5 a7be 20cc 4b3e 91d7 2abe
000000b0: ca4d a83e e976 a6be 7755 91be 97b4 b3be
000000c0: 206f ae3e 720b 80bd 0e2a 653e e12b 033f
000000d0: fc43 91be 43ac cabd 7a7c 093c 3f05 773c
000000e0: 1834 893f 5a4f 1bbe bb82 c03d 0b1f e6bc
000000f0: befc 283c b0f6 c63c 3a66 dbbe f626 26bf
00000100: 076e 0cbd ea02 96bd 58b3 9e3e 64af 183d
00000110: 1a78 b83e 050b 01bf 63ba fabe 4684 37be
00000120: c928 84be e6a5 793e 668c d83d fe66 ef3e
00000130: fcb6 fb3d 7864 533d 4b34 973d 2c77 84be
00000140: 8332 29bd f3e8 4b3e 1a66 693d d2d9 153e
00000150: 4113 673e 2031 e7bd a4fd bebe d429 e3be
00000160: 65b2 b03e 366d bf3e 4966 813e 6ea4 46be
00000170: b772 373e 2bba 6c3e 3ebb 8abe b313 bd3e
00000180: b5e7 38be 02b1 0cbd 0613 263e f38d a53d
00000190: 196b 983e 3329 93bc 3509 853d 7972 453e
000001a0: b43c c73d 84ac 86be a014 82be 0e87 82bd
000001b0: fa22 0e3e f716 143c 7f57 13be 218e ae3e
000001c0: fa70 4d3e c8e9 0d3e 8218 703e 3746 3fbe
000001d0: b37a de3d 75cd 7cbe 0b46 e23e bd6f b53e
000001e0: d392 d1bd 033f a83d 468e 34bd 16b9 ae3e
000001f0: 67c9 eabe 15cf e0be 33f4 4cbe 54b0 f3bd
00000200: 58c8 5fbe 2361 80bc ebc4 78be 3308 bdbe
00000210: ab81 193d 708e 533a cc87 6fbe 304c 50be
00000220: 2838 c6be 85fe e73e 961d 353d d199 343d
00000230: a0b5 133f 1901 09bf 4089 df3c ffa7 e8bc
00000240: 5583 dd3c 9962 ea3d 4241 363e 6bfd d7be
00000250: 860a 0dbe 27c4 7d3e 438b 84bd 8ea8 293b
00000260: 06d0 47bd b7db 473f 13e5 78bb 26ce c43c
00000270: 3321 943e 5c63 b33c 777c ff3e 1084 8c3f
00000280: a461 8e3d f887 d43d 1f67 91bc 2c2e c53c
00000290: e375 86be 513b 29bf 90ab 55bd 6b3f b7bd
000002a0: 5328 3fbe 476b 303d bf94 e4be 0906 533e
000002b0: 7af1 e7be e8fa 283e 0c1d c9be d04b 83be
000002c0: 052d a6be 4a12 4fbf a278 48bd d086 b73d
000002d0: 7191 59be 29d9 173e c3a7 5dbe d076 083f
000002e0: f5b4 b2be d531 c8b9 a1f8 183e 726d a9be
000002f0: 9cda a23e 7f64 083f 78d6 cb3d ddd6 c33e
00000300: f3e7 643e 629d d2bd 5c9a c6bc 505e 2fbf
00000310: ede1 d6bd 44f2 1e3e 2c62 debd 1a71 e83d
00000320: 2d11 c33e a4da 053f 4cd4 3dbe 1493 a13e
00000330: c2cb 733e 759a 1dbd 2a13 efbe 85e7 ac3e
00000340: 2d25 1fbd fbbd b23e 5272 9fbe 73ea 03be
00000350: 62f8 31bf 85d0 8d3d 2ab2 a3bd ce8c 4abd
00000360: 2edb cabd eabd 53be a920 8a3e 1296 e53e
00000370: 6ed0 cabe 2646 83be f682 f7bd 685b d13d
00000380: 5a0c 0fbe 9230 bebe 365b 653e a2ac 54be
00000390: aa42 30bc 31e9 753e 34ab 9f3d bd6e 2f3e
000003a0: 9e88 9a3e 44b7 a33e fea4 703e 7803 54be
000003b0: 9adf 01bf 7c16 8d3e 2ca4 dabc 57c3 d43d
000003c0: 9c70 c63d a657 a43d 566a b83d d732 16bf
000003d0: fdf4 953e 5bee 3abe 0a9f 0f3e a118 45be
000003e0: ea3f ccbe 9145 143d 6df1 6c3e 74bf febd
000003f0: 2388 33be c04a 1abe 1d58 fa3e f520 e3be
-0.043504417 -0.19588026 0.3096872 -0.35580075 0.2607105 -0.20809852 -0.053505797 0.09295153
-0.34107438 -0.1418437 0.32177827 -0.41505927 -0.20026307 0.11138299 0.30465627 -0.011922642
0.20537303 -0.26359162 -0.124731675 0.06721136 -0.11766019 -0.34295917 -0.43894368 -0.19890921
0.09526317 -0.12875263 -0.3834354 -0.4962906 0.18132302 -0.331194 -0.28824762 -0.11894544
-0.5825954 0.655033 -0.3250285 0.3632468 -0.2622419 -0.17840718 -0.037566934 -0.6985549
-0.33736527 -0.32743582 0.19902086 -0.16683795 0.32871848 -0.32512596 -0.28385517 -0.35098717
0.34069157 -0.06252183 0.22379324 0.5123883 -0.2837218 -0.098961376 0.008391494 0.015076934
1.0719023 -0.15166989 0.09399935 -0.028090974 0.010314165 0.024287552 -0.4285143 -0.649032
-0.034284618 -0.073247746 0.30996203 0.03727664 0.3602913 -0.5040744 -0.48970327 -0.17921552
-0.25812367 0.24379691 0.10573654 0.46758264 0.12290761 0.051609486 0.07383021 -0.2587217
-0.041307937 0.19913082 0.056982137 0.14633873 0.22565939 -0.11288667 -0.37302887 -0.4436785
0.34511104 0.3738801 0.2527335 -0.19398662 0.17914854 0.23117892 -0.2709598 0.36929092
-0.18057139 -0.034348495 0.16218194 0.08083715 0.2976921 -0.017963981 0.06495897 0.19281949
0.09728375 -0.26303494 -0.2540636 -0.06373416 0.1388053 0.009038678 -0.14388846 0.3409281
0.20062628 0.13858712 0.23446849 -0.18679129 0.10863247 -0.2468775 0.44194064 0.35436812
-0.102330826 0.082151435 -0.044080995 0.34125584 -0.45856783 -0.4390799 -0.2001503 -0.11898866
-0.21853769 -0.015671318 -0.24293868 -0.36920318 0.037477177 0.0008070236 -0.23391646 -0.20341563
-0.3871472 0.4531137 0.04421767 0.044092003 0.5769901 -0.535173 0.027287126 -0.02840042
0.027040163 0.11444587 0.17798331 -0.4218553 -0.13773546 0.24781857 -0.064718746 0.002588782
-0.04878237 0.78069633 -0.0037978336 0.02402408 0.2893158 0.021897964 0.49899647 1.0977802
0.06952217 0.103774965 -0.017749367 0.024069868 -0.26261815 -0.66106135 -0.052165568 -0.08947643
-0.18667726 0.043071058 -0.44644734 0.20607771 -0.4530142 0.16501963 -0.39279974 -0.25643778
-0.32456222 -0.8088728 -0.04894317 0.0896126 -0.21246888 0.14828934 -0.21646027 0.53306293
-0.34903684 -0.000381841 0.14938594 -0.33091313 0.3180741 0.53278345 0.09953016 0.38249865
0.22354107 -0.10283925 -0.024243526 -0.68503284 -0.10492311 0.15522105 -0.108585685 0.113496974
0.38099042 0.52286744 -0.18538016 0.31557524 0.23808196 -0.03847738 -0.4669431 0.33770385
-0.038853813 0.3491057 -0.31141907 -0.12882404 -0.6951963 0.069245376 -0.079929665 -0.049450688
-0.099050865 -0.20677915 0.26978043 0.44841057 -0.39612144 -0.25639457 -0.12085526 0.102225125
-0.13969555 -0.3714643 0.22398075 -0.20768979 -0.010758081 0.24014737 0.07796326 0.17132087
0.30182356 0.31975758 0.2350044 -0.20704448 -0.50731814 0.27556217 -0.026689611 0.103888206
0.09689447 0.0802453 0.09004657 -0.58671325 0.29288474 -0.18254988 0.14025512 -0.19247676
-0.39892513 0.036199156 0.23138972 -0.124388605 -0.17532401 -0.15067577 0.4889535 -0.44361082

fc.0.bias f4 [200]
00000000: 6fcd ebbe e432 893e 26d4 debe 968b 7abe
00000010: 0ada abbe 4642 adbd 9e38 9b3d e01f 59be
00000020: e707 0abf e68a 78bf b03a cdbe 4347 5cbe
00000030: bac8 83be 5bf1 1a3f 16b5 c5be 88e6 0e3f
00000040: a682 41bf f9cc 003f 8058 463f 64fe f43c
00000050: 4dda a0be c7e3 183e 79ed e13d 0d1f 063d
00000060: 21d1 883e 4211 fbbe be27 84bf c7a6 fc3e
00000070: 6ddc 44bf 8ae9 febe 7585 34bf 72e2 07bf
00000080: 3597 97bf 17dc 633d e30f 8cbe a70d f63e
00000090: e802 ed3e 6d4e dfbe e014 95be 2c2a 29bf
000000a0: 5b22 ce3e 1b05 013f bbd7 023f 34eb 943e
000000b0: 3d0f a53e 10c6 273f 748e ddbe a6b1 27bf
000000c0: fb67 abbe 7cc4 5e3f 5887 afbe 1bce 8c3f
000000d0: d02b c03d 16fb 433f 51d0 433f 17a1 6dbf
000000e0: e228 263d 88c2 e6be 5d3f a7be cbd1 1fbf
000000f0: 211d 063f 727a f03e dbe1 bbbd 414e e5be
00000100: 1563 3e3d 7505 2fbf 7d48 88be 30a4 b33d
00000110: 92d9 a4be f480 053f 8fbe b2bd dfe0 1a3f
00000120: 14f1 b33f 598a f7be a76c 183f 90fc 923f
00000130: 595b 3d3e 3053 debe f142 393f 6fe8 b03e
00000140: 5821 cf3e 8fdb 05bf def8 1dbf 194e f93d
00000150: ab98 fbbe 6a00 35bf 6b0d 0e3e 1762 1c3f
00000160: 3d22 963e 2c83 98bd 5b24 05be 512c 803e
00000170: a96b e7be a39c 093f 2616 183f 2508 363f
00000180: 4ae7 053d 1786 213f e090 08bd fa23 30bd
00000190: 02f1 493e 4f20 043f 43cc ffbe b5fa 3ebf
000001a0: d93f 6abf 337a af3d c7f2 2f3e 5ee7 573f
000001b0: 80e6 473e 4f4b 5cbe 682a 2ebf 6548 43ba
000001c0: bc2a bcbe 1439 acbe c9ef 133f 329b 4d3e
000001d0: 001e 7bbf 1456 4e3d 9867 cebe 8806 aa3e
000001e0: 6858 f2be 67de 1d3f 1917 b1bd cd03 113e
000001f0: 8690 43be ecff 3dbf 9df5 83be 76ea 0abf
00000200: 82ac 583f 6381 0fbf 3d87 05bf 464a 7a3e
00000210: d1f3 9ebe 411a 09bd 12b7 00be 3a7f 133f
00000220: 158f 5dbf c5dc aabe b6fd babe 009a 81bf
00000230: a0e4 073f 81fc 423f bd17 ac3e 1632 5a3d
00000240: 4838 473f ec10 13bd 76ae 11bf c902 f13e
00000250: 0c2a 923e c0b9 7c3e 5fe6 44bf 296b 2d3f
00000260: 8779 613f da16 36bf c824 83be 389f 603e
00000270: dc86 e63d 76c3 cd3e 188d 643f 0e12 a03e
00000280: f10b 5c3f b617 52be 667d b43e b386 db3d
00000290: 9053 893e 0ba0 18bf 9a1f 12be 267c f7be
000002a0: 59f7 743d 02cf 50bf d8db 863e 8fb5 9dbe
000002b0: 9a23 513f 52f4 433d 0ccb c63e a393 7ebf
000002c0: a4ab b0bc e776 4f3f 9869 c33e 1f3f 493e
000002d0: ccb0 5d3f b29e e0be 90fb e7bd 54fb b53d
000002e0: ec07 743e 4552 7abe 3a9f dc3e bf07 e13d
000002f0: e88f c33e e037 29bf e7d1 d33e 047c b6bd
00000300: 6fab 56be 2ea9 3dbf 8ec9 95bf 63d4 623e
00000310: 5af9 dbbe 9acf 4ebf 13f9 5f3f 583e 4cbf
-0.4605517 0.2679664 -0.4352123 -0.2446731 -0.33564788 -0.08459906 0.07579158 -0.21203566
-0.5391831 -0.9708694 -0.40083838 -0.21511559 -0.2573908 0.6052453 -0.3861472 0.5582051
-0.7558998 0.50312763 0.7747879 0.02990646 -0.3141655 0.1493064 0.110316224 0.032744456
0.26722053 -0.49036604 -1.0324628 0.4934599 -0.76898843 -0.4978755 -0.7051614 -0.53079903
-1.184302 0.055629816 -0.2735587 0.4805729 0.4629128 -0.43614522 -0.2911749 -0.66079974
0.40260586 0.50398415 0.5111043 0.29085696 0.32238188 0.65536594 -0.43272746 -0.65505445
-0.33477768 0.8701856 -0.34282947 1.1000398 0.093833566 0.76555 0.7648974 -0.9282393
0.040566333 -0.4507029 -0.3266553 -0.62429494 0.523882 0.46968418 -0.09173938 -0.44786265
0.04648121 -0.683677 -0.26617804 0.08771551 -0.32197243 0.5214989 -0.087277524 0.60499376
1.4057946 -0.48347738 0.5954079 1.1483326 0.18491878 -0.43422842 0.7236777 0.34552333
0.40455127 -0.52288145 -0.61707866 0.12173099 -0.49139914 -0.70703757 0.13872306 0.61087173
0.29322997 -0.07446894 -0.1300215 0.2503381 -0.45199326 0.53754634 0.59408796 0.7110618
0.032691278 0.6309523 -0.03334129 -0.04300306 0.19720843 0.516118 -0.49960527 -0.746013
-0.91503674 0.085682295 0.17182456 0.84337413 0.19521523 -0.21513103 -0.68033457 -0.00074494473
-0.36751354 -0.33637297 0.5778776 0.20078734 -0.9809265 0.05037506 -0.4031341 0.33208108
-0.47333074 0.61667484 -0.08646984 0.14161606 -0.190981 -0.7421863 -0.25773326 -0.5426401
0.84638226 -0.56056803 -0.5215948 0.24442396 -0.31045392 -0.033472303 -0.12569836 0.5761601
-0.8654645 -0.3337156 -0.3652169 -1.0125122 0.5308323 0.7616654 0.3361186 0.053270422
0.77820253 -0.03590481 -0.5690683 0.47072437 0.28547704 0.24680233 -0.7691402 0.6774164
0.8807606 -0.7112862 -0.25614 0.21935737 0.11256191 0.40188187 0.8927779 0.31263775
0.8595572 -0.20516858 0.3525192 0.10719051 0.26821566 -0.59619206 -0.14269868 -0.48336905
0.0598062 -0.8156587 0.26339602 -0.3080258 0.8169495 0.047840424 0.38826787 -0.99444026
-0.02156622 0.81040806 0.381665 0.19652985 0.86597896 -0.43871075 -0.113272786 0.08885828
0.23831147 -0.24445446 0.4309023 0.109878056 0.3819573 -0.66100883 0.4137108 -0.08910373
-0.20963834 -0.7408627 -1.1702135 0.22151332 -0.42963678 -0.80785525 0.8748943 -0.7978263

fc.1.weight f4 [200, 200]
00000000: 859c 993d 0b4e 3cbc 422f 4c3d cbfc ce3d
00000010: dd87 613d 2c71 e6bd aea4 a93d 9caf 77bc
00000020: 2dca 89bb 40ce cb3d b5f2 8d3d 4d2f ee3d
00000030: 2554 cfbb e7e0 f9bc fa50 10bd e45b 373d
00000040: abcd 9a3b 6309 ca3c 240c d4bd 70f4 9f3d
00000050: 10f0 1abe e770 88bd 9d27 2a3b 0481 013e
00000060: 59fa c73d 9cd0 d4be bc19 53be 933d 843b
00000070: 53aa 583c 7103 a73d 83bc 393b 247d edbc
00000080: 380b 703d f46a e8bd 374f 123c d629 d4bd
00000090: 75b2 fd3c a56c d53b d3b8 853c 77b6 43bd
000000a0: eb6b 9c3d 5112 1abd 0b03 af3d e3c0 69bd
000000b0: c6e8 d7bb 5835 cabd a801 383d 6231 8a3d
000000c0: 87c2 0c3d ff7a a1be 74d6 9ebc 49a1 193d
000000d0: 13b7 89bd cf25 00be 0e6b e13d 16a2 de3c
000000e0: f0e2 86bd 604a c0be 48c3 ce3d 3907 593c
000000f0: 9fed 04bd 73a8 8ebd 60cd 153e 6312 173e
00000100: e48f 73bd 8672 84bd f653 61bd f791 efbd
00000110: 3f0c d33d 313a feba 03fb 03bc 34cb b9bd
00000120: 93d4 a3bd ca0a 903c 5d56 4abc 79a8 f2bd
00000130: 7cdc d03d 7ee3 0abe 41e5 33bc 6f7c 993d
00000140: 5471 0c3d 334e 1bbf d12f 843d c5a6 773c
00000150: 08c9 683d 4103 0fbd 7b02 aebc 751a f8bc
00000160: fabf 01bf 87c0 b03c 6163 61bd 7517 15bd
00000170: f4a7 db3c 3ced 6ebd 5a87 71bc 866f 83bd
00000180: 552c a83b 897e 42be 8a1e 0ebd 1b30 e63c
00000190: 1c03 473d 0793 0e3e bc5c bd3d c3af dd3c
000001a0: ba85 1cbd 4ff8 093a dadf 7c3c 2146 d73d
000001b0: 46c5 c33c b32f 833d e248 863e b4e7 293d
000001c0: 34ea a5bd 3274 a6bd 704b b03d e089 3bbd
000001d0: 7f1f bd3c ff3c 63bc 34f7 7b3d 6944 d83c
000001e0: ef7e 513d 7437 8a3d 75c9 e43b 76a4 db3d
000001f0: a042 3b3d 5365 ad3d 9b3d 37bd 705b 84bd
00000200: 0bf9 1a3e 6f72 1d3d b928 29bf ad39 bdbd
00000210: 5b64 1abc c5c4 72bd f9b8 8ebc 9c21 debd
00000220: 1eca aebb eb83 b43d 6fcd 023b b68c f73c
00000230: 573c 3fbc 9fbb 80be dd79 a23d 0b45 6c3d
00000240: d884 07bd 8696 38bc 7040 f1bd 6a4a 3ebc
00000250: 243c b2bd f5bd 10bd 2925 b9bc 8c4e ad3d
00000260: d5ae abbd 12d8 7b3d 1ecb 92bc 625f 913d
00000270: 0b32 13be 2827 c1bc 61ff 01be d39d 61bd
00000280: cc6c 2ebf 1e99 0ebd 900c 853d 4bd8 ebbc
00000290: aa6d 613d d4ed 21be 7948 d2bc d85a 083d
000002a0: 461c b3bb 6c00 393d 17a8 463d 3c87 6b3d
000002b0: d3e1 78be 3da7 983d 7654 afbc 9f07 11bd
000002c0: e4f5 533c 1c83 14be fc31 c4bd c4ab 4abe
000002d0: 665c ce3c f02c 5a3c bbfe 843c 9e38 683d
000002e0: 355f bcbd 465a a6bd db60 e8bd 0f82 ae3d
000002f0: 4cb6 20ba 1394 28bd 80a2 cb3d 0bec 593d
00000300: c295 a03d ad6f bb3c 5706 533e 2a38 debd
00000310: aa73 7d3d ff02 473d 2834 413d 4ce3 923d
00000320: d9d5 f83c 0845 03bc 2136 af3c 5d3f b93d
00000330: 5061 7d3b 2f65 1fbd 85e1 0b3b cc54 26bc
00000340: b1b1 713d 66e5 cfbb 16d7 883b 52de 303d
00000350: 8760 9d3d 4c96 83bd bcc2 883d 2a02 8b3d
00000360: 7fcd 903d 3902 9cbb 731c b53c 74d9 583c
00000370: 7d75 a0bc e75a 56bd 7697 ecbc bd42 3cbd
00000380: a9c4 84bc 92ef 583d fce0 fdbc 45b7 933d
00000390: 7aad 973d 6558 90bc 8bec 5dbb f378 113d
000003a0: a8fe 57bd 7bfe a7bc d3b0 4cbc aa6f 7fbd
000003b0: 2514 f33b 754a 643d 5061 ba3d 2dfa 563d
000003c0: 2f8b 2a3d b291 42bd 4b86 84bc ba8d 7bbd
000003d0: ec7c 113d 081e d939 6ece 9dbd cfa8 323d
000003e0: 53f7 573d 2513 c73c 4fdc 9ebc f559 8cbc
000003f0: 4e1c 663c b1f2 08bd d60b ed3c ff26 cc3d
0.07500557 -0.011493216 0.049849756 0.1010681 0.05506121 -0.112520546 0.08283363 -0.015117552
-0.0042050094 0.099514484 0.06931058 0.11630116 -0.0063271695 -0.03050275 -0.035233475 0.044765368
0.0047242246 0.024662679 -0.10353878 0.07810295 -0.15130639 -0.066621594 0.0025963553 0.12646872
0.09764547 -0.41565406 -0.20615286 0.0040356605 0.013224202 0.08154953 0.0028341122 -0.028990336
0.05860445 -0.11348525 0.008930019 -0.10359542 0.030968884 0.0065131956 0.016323483 -0.047781434
0.07637771 -0.037615124 0.08545502 -0.057068717 -0.006589028 -0.09873456 0.044923455 0.067477
0.034365203 -0.3153915 -0.019389369 0.03750733 -0.06724372 -0.12514423 0.11006747 0.027176898
-0.06586254 -0.37556744 0.10095841 0.013246351 -0.032453176 -0.06965723 0.14629126 0.14753108
-0.059463397 -0.06467156 -0.055011712 -0.116977625 0.1030507 -0.0019396004 -0.008055451 -0.09071961
-0.0799953 0.01758327 -0.012349692 -0.1184854 0.10198304 -0.13563344 -0.010979951 0.07494437
0.034287766 -0.606662 0.06454433 0.015115445 0.056832343 -0.034915213 -0.021241417 -0.030286053
-0.5068356 0.02157618 -0.055026416 -0.036399323 0.026813485 -0.058331713 -0.014741743 -0.06417756
0.005132238 -0.18993582 -0.034697093 0.02809911 0.04858695 0.13923274 0.09246203 0.027061349
-0.03821347 0.0005263136 0.01543423 0.10511423 0.023897778 0.06405582 0.2622748 0.041480735
-0.08101311 -0.08127631 0.086081386 -0.045785785 0.023086308 -0.013869523 0.06151505 0.026399808
0.051146444 0.06748858 0.0069820234 0.10724728 0.045717835 0.08466592 -0.044736486 -0.06462753
0.15134065 0.03843921 -0.6607776 -0.092395164 -0.009423341 -0.059269685 -0.017422186 -0.10846254
-0.005334153 0.08814224 0.0019958874 0.030218463 -0.011672101 -0.25143144 0.079334 0.057683032
-0.033085674 -0.011266356 -0.117798686 -0.011614421 -0.08702877 -0.035337407 -0.022600727 0.08462247
-0.08382956 0.061485358 -0.01791912 0.07098271 -0.14374559 -0.023578241 -0.12695076 -0.055082154
-0.6813476 -0.034813993 0.06496537 -0.02878966 0.055036224 -0.1581338 -0.025669323 0.03328976
-0.005466017 0.045166418 0.048500147 0.057502016 -0.24304895 0.07453773 -0.021402579 -0.03540766
0.012937043 -0.1450314 -0.09579846 -0.19792086 0.025190543 0.013316378 0.016234746 0.05669462
-0.09197847 -0.08122687 -0.11346599 0.085209005 -0.000613068 -0.04115684 0.09943104 0.053203624
0.07841064 0.0228804 0.20607887 -0.10850556 0.061877884 0.04858684 0.04716888 0.0717226
0.030375408 -0.008012064 0.021388115 0.09045289 0.003866274 -0.038914856 0.0021344137 -0.010152053
0.05900735 -0.006344485 0.004176031 0.04318077 0.07684427 -0.06425151 0.06677768 0.06787522
0.07070445 -0.004761007 0.022108292 0.013235439 -0.019587273 -0.052332785 -0.028880816 -0.045962084
-0.016207056 0.052962847 -0.03099107 0.0721269 0.07406135 -0.017620275 -0.0033862914 0.035515737
-0.052733094 -0.020507088 -0.01249333 -0.06236235 0.007418173 0.05573507 0.09100592 0.05248468
0.041636642 -0.047502227 -0.016177317 -0.061414458 0.035519525 0.0004141184 -0.07705389 0.04361802
0.0527261 0.024301121 -0.01939216 -0.017132739 0.014044834 -0.033434574 0.028936308 0.099683754

fc.1.bias f4 [200]
00000000: b551 2ebe 5d54 55bc 7dd8 523d c49d 803c
00000010: 767d 69bd e0dd 473c ff31 8bbc c366 26bf
00000020: a99b 013b 2ff5 e13d edc3 523d 6f17 e1bc
00000030: 6668 063d a31c 8cbd 4054 9c3e ff85 eb3c
00000040: 6e28 b53c 13d1 aa3c 9ecc 46bc a2cd 8d3c
00000050: fdd7 db3d 1593 c7bd 80fb 0f3e 0db1 03bd
00000060: c27f 403d b877 9abd d5c5 803c ba4b 31be
00000070: 63dc eabd 4699 1dbd b62b 873d ed51 3d3d
00000080: aee2 be3d 3c9e 45bc c74d 89bc f732 633d
00000090: 9b8a 253d 6f04 1bbe ff76 0abd cbaa 68bd
000000a0: b9b3 5f3c 45f0 393d 5cc7 be3d 090f 353e
000000b0: 57ae c6bd 9b6f 80bd 7761 11bc 63c6 bc3c
000000c0: 9a24 4cbe e8ea 5ebc 8809 c83c 6f30 89bc
000000d0: b0cd 5e3c dbf9 c4bc 857e 26bd 0ad7 d03d
000000e0: 1aa0 6e3e bf75 303e f2fe 53bd febf 07bd
000000f0: c92e 96bd d860 6c3d 6227 0dbf 7b07 ccbd
00000100: c3fb 0f3d 4f42 883d d707 45bd 81ce 99bc
00000110: 167a 643d 0d9f 273d 3aeb 69bd ddd1 7a3d
00000120: 3e0a 81bf d0b7 05bd 4be0 98bd 60e0 c33d
00000130: ae94 ff3b 4e86 fbbd d8a5 c0bb 28b2 613c
00000140: 4f1b 01be b43a fc3c 0d86 873c a917 013d
00000150: ad20 193e 89a0 ce3b 98c5 cc3c b237 293e
00000160: eb13 183d 7b7e 7ebd 73f5 11bd 3d62 00bc
00000170: 1dd9 2a3d 6b39 dd3d 3bdf 18bd d698 ffbc
00000180: 7708 8a3d 2aa7 26bd 9862 d73d 6dd1 1d3c
00000190: 05ca 033c 77b2 0ebc b1ef 4d3e 5031 ea3c
000001a0: da7e 47bd cfd1 3cbb 35bf 6bbc 42a3 0f3d
000001b0: cda6 c6bd 118c 863d 5d48 13bf 447a 4b3d
000001c0: 48d2 a43d 3e31 35bc 25bd 2dbe c0b8 4e3c
000001d0: 560d 9cbd 71af 48be 0220 603d bb96 7c3c
000001e0: 9307 023e 2816 e2bd f42b 273d 1d86 a03d
000001f0: d6f4 1bbf f1d1 4fbd 3ef2 d33b d803 6b3c
00000200: ac28 a73d 6f5b 37bd 5dcb 303d 843b 853c
00000210: 3297 303e 5dfd 003e b707 d03d 7ac4 803d
00000220: 6918 a4bc f72d 1ebc 1479 85bc 37c0 e93c
00000230: 6c3e d03e 353e 6b3d 5e22 c93c f38f 923d
00000240: 5bcf fa3c 7a50 47bd 6ec2 8cbc 70ca bd3b
00000250: 2583 afbb 37e2 9e3c 8798 e43d f051 99be
00000260: a2f9 053c 7d94 1c3b 62f0 ab3c 1f07 b9bd
00000270: 2cc3 cebb 30ac 72bd d14f f63d 6d91 f63c
00000280: 6c78 de3d 5bb1 6c3d 3a8c 0cbd a346 edbe
00000290: 8098 cabd 468c 193e 447a 7cbd 8df3 c33d
000002a0: 0cee 94bd 6eaa 033d 4853 c43c c53e a23c
000002b0: dfc0 da3d 2fd2 5e3d ddae 4dbc 763a e0bb
000002c0: 2c63 1fbc 9f7e 2a3c c17a 01bd c8ca b33d
000002d0: 99cf 66bd 116f 893d 6a3b 9dbe 1415 8dbc
000002e0: f847 2ebd 01f5 cfbc 50db 033e 226c 473d
000002f0: b957 9b3d 5067 ef3c a199 99bb 4139 b7bc
00000300: 7fb9 cb3c a23a 0839 1717 15bf f47d b1bc
00000310: 0061 6dbc b542 c03c 1bf9 51bd 1a92 2a3e
-0.17023356 -0.013020602 0.05147599 0.015700229 -0.057004414 0.012198895 -0.016991613 -0.6500055
0.0019776619 0.11033093 0.05145638 -0.027476994 0.032814406 -0.068413995 0.30533028 0.028750418
0.022114005 0.020851647 -0.0121337455 0.017309967 0.10734556 -0.097448505 0.14060783 -0.03215127
0.04699684 -0.07542366 0.015719334 -0.17314044 -0.11467817 -0.03847625 0.06600134 0.04622071
0.093205795 -0.012061652 -0.01676072 0.055468526 0.040415388 -0.1513841 -0.03380489 -0.056803506
0.013653689 0.045395155 0.093153685 0.17681517 -0.097012214 -0.06271287 -0.008873335 0.023043817
-0.19935837 -0.013605811 0.024418607 -0.016746728 0.013598844 -0.024044922 -0.040648002 0.101972654
0.23303261 0.17232417 -0.051756807 -0.033142082 -0.07333142 0.057709545 -0.5513822 -0.09962364
0.035152208 0.06653272 -0.04810318 -0.018775227 0.055780493 0.040923167 -0.057109095 0.061235297
-1.0081251 -0.032646 -0.074646555 0.095642805 0.0077997064 -0.12281476 -0.005879145 0.013775386
-0.12608074 0.03078971 0.016543413 0.031516705 0.14953871 0.0063057584 0.024996564 0.16525152
0.03712837 -0.06213234 -0.03563447 -0.007835922 0.04171096 0.10801967 -0.037322264 -0.031200808
0.06739896 -0.040686764 0.10516852 0.0096324505 0.008043771 -0.0087095415 0.20110966 0.028587967
-0.04870496 -0.002881158 -0.014388849 0.035067804 -0.096997835 0.06569684 -0.5753229 0.04967715
0.080479205 -0.0110591035 -0.16966684 0.01261729 -0.07619731 -0.19598176 0.054718025 0.015416796
0.12698202 -0.11039382 0.0408134 0.0783808 -0.60920465 -0.050737325 0.0064680865 0.014344178
0.081620544 -0.044764932 0.043162692 0.01626373 0.17245176 0.1259665 0.101577215 0.06287475
-0.02003117 -0.009654514 -0.016293086 0.028534038 0.40672624 0.057432372 0.02455252 0.071563624
0.030616453 -0.048660733 -0.017182555 0.0057919547 -0.00535621 0.019394977 0.11161905 -0.29945326
0.008177193 0.0023892217 0.020988647 -0.09034561 -0.0063098874 -0.059246242 0.120269425 0.030098641
0.108628124 0.057786327 -0.034313418 -0.46342954 -0.09892368 0.14994916 -0.06164004 0.09567938
-0.07271966 0.032144956 0.023965493 0.019805321 0.106813185 0.054399665 -0.012553898 -0.0068429066
-0.009728234 0.010406165 -0.031611208 0.08778912 -0.056350324 0.06710637 -0.30709392 -0.017221965
-0.042549103 -0.025385382 0.1287663 0.048687108 0.07585091 0.029224068 -0.0046875034 -0.022366168
0.024868725 0.00012991813 -0.5823836 -0.021666504 -0.014488459 0.023469308 -0.051262956 0.16657296

fc.2.weight f4 [4, 200]
00000000: 1a0f 33be 36e5 99bc 8dbe 973b 195a 16be
00000010: 55b7 a0bc dfdf e13b 8304 fabc 81c9 733d
00000020: 98b7 70bd 4b0d 1abe 2c73 943a 8c34 03bd
00000030: 41cd 22bd 00c4 af3c a40c 3abd e720 dabd
00000040: 4773 373d b17e 45bd 9eba 823d 263f 4a3e
00000050: daf6 693d abf6 3a3c 36e5 a6bd a2fa 653e
00000060: cbf0 d7bd 9fe6 973b 8ac3 cc3a 01f9 cd3c
00000070: 0179 683e a27b 433c 5fcb 12bd ac7e 773c
00000080: 6d9e 32bd 8f81 333b 87bc c83b 690e 65bd
00000090: 7268 36bd 43df 0f3f ebf6 2cbd daf4 b53b
000000a0: a702 d33c e7bc 143d 38fc 803d a3f8 303d
000000b0: f758 30be 0a02 15bc 115e 003d df40 b03a
000000c0: d4f1 273d 11f3 993c ac71 443c 594a a73c
000000d0: b71f 513d 35da 3dbb 7126 b5bc ad06 ac3d
000000e0: c51f 4abe fc9d 3fbe f936 0ebe 3414 01bd
000000f0: 3ea8 893c 048d 1abb 65d7 6c3e e50f 7dbb
00000100: 27c4 28bd 6604 f23c ab0c e2bd 105b 91bb
00000110: 5389 02bd 153a 983c c490 293d 7e53 3dbd
00000120: f752 a3bf e120 d3bb 3c72 033c 1e64 963d
00000130: dc4d 923c 08b6 0c3d 866b 15bd 8efd 7a3d
00000140: 0a8d 25be 1087 03be c28a 4cbe ea4f 74bc
00000150: 9367 503e 89e6 293b 89bb 863c 6ca2 583e
00000160: 5e02 cbba 50bd 0a3d 4d27 25bd 1b02 503c
00000170: 3ea7 fd3a 045d 23bd 38f3 4c3d 8113 dabd
00000180: 6117 dabc 5572 d83c 9670 f83c 8ae1 41bc
00000190: 7343 95bc 740a 80bd 768c 063e a301 083d
000001a0: 984f afbd d10d ce3c 4037 923c 3a3c c3bc
000001b0: 6eb5 083d bf5c 363c a2a5 c13e 40a7 11bc
000001c0: d7d0 12bd 9659 8dbd 240e bb3e 2b5e 113d
000001d0: 2f24 41bd 8c21 c2be 3250 ffbc 4865 5f3c
000001e0: 65a7 6d3b 9e3b 8d3b 1e78 9e3b fbb9 61bd
000001f0: 9ea2 01be f0eb 76bb b327 c43c dd60 0dbd
00000200: 1053 8a3d 0fc6 dc3c 40f1 c0bc 3b0a edbc
00000210: 95ed ab3d 069c 8a3d c57c 903c 6c97 483c
00000220: e7cb 84bb 58d6 513d 3410 b63b 5cfd 8d3b
00000230: cbd5 563e 8a35 0b3d 138d 99bd 6d64 1bbc
00000240: eb42 a93c fa20 78be c764 543d 2f68 373d
00000250: 7e39 14bd 79ac fdbd 8724 40bd 4e16 b63d
00000260: d0c3 a93c 5c43 c13c cb73 96bb 5c44 08bc
00000270: 112e 34bd c064 b43d 7af3 43bd de07 a1bd
00000280: 7a1d 82bc 5dac 083d 648a e73c 2193 adbe
00000290: 4154 04bd 9a78 9a3d 5a6b 66bb 6120 d4bb
000002a0: 7c3a 8bbd 700b 863c 42aa ebbc 69dd e5bb
000002b0: 9a54 49bd 2b2b 6c3b 53a3 92bc 62f5 043d
000002c0: fb0c 413d 3d01 0fbe afd5 023d a99b 5c3c
000002d0: 843c 13bd e137 ce3c 0235 1d3f 7b4d 773e
000002e0: c4e1 923c b1cd 863c dada 163e a5cf e5bc
000002f0: 96d1 0a3d d37d 6c3c 8a87 763c db48 6abc
00000300: 1ec8 103c 9407 6bbb 70cd 023e 2fba f83a
00000310: 5b55 d23d cea7 c53c 99b7 943c 1a39 3a3e
00000320: fc97 52be 6a7b ccbb ace1 c03b b291 373e
00000330: 7e74 68bd ba08 0dbd f730 043d 2452 27bf
00000340: 4ee9 98bd 9b7d 00bd 3869 373d 1f7e 4d3b
00000350: 0fe3 c93d c03c 4dbd efcb 073e 5844 b23d
00000360: a4e6 53bd 3fae 293d 89f0 e53d 425a a23d
00000370: 8636 1b3d 7e8e 9a3d 3eb6 423c 447a 1cbe
00000380: b75b 54bd 5ac3 07bd bd88 63b9 b44e d1bd
00000390: ead2 6dbe e8e1 80bd f61f 43bb 77af 033d
000003a0: 0418 2e3c b02b cd3b a096 c03c 7d46 87bd
000003b0: 37dc 84bd 6dfd f53e 4fde 02bd 0fa1 14bb
000003c0: bb30 993a 4ae5 98bc 34f5 583d 3c64 05be
000003d0: 254d 043f 9839 073c 303e 733d b45e 053d
000003e0: 22e0 0dbd cd31 73bd 6ac6 bd3c fa20 58bd
000003f0: 4170 4ebd bc52 343d 3752 133d 5068 c2bd
-0.1748623 -0.018786054 0.0046308697 -0.14682807 -0.01961867 0.0068931426 -0.03051973 0.05951834
-0.05876884 -0.15044133 0.0011325828 -0.032032534 -0.039746527 0.021455765 -0.04542221 -0.10650807
0.04478767 -0.048216525 0.06383251 0.19750652 0.05712018 0.011411349 -0.08149187 0.2245889
-0.105439745 0.0046356465 0.001562224 0.025143148 0.2270241 0.011931332 -0.03583848 0.0151058845
-0.043608118 0.0027390455 0.00612599 -0.055921946 -0.0445332 0.56200045 -0.042227667 0.00555287
0.0257581 0.036312964 0.06298107 0.04320587 -0.17221437 -0.009094724 0.03133971 0.0013447067
0.04100211 0.01879266 0.011989992 0.020421194 0.051055636 -0.0028969173 -0.022113057 0.08399711
-0.19738682 -0.1871261 -0.13888158 -0.031513408 0.016803857 -0.0023582587 0.23129041 -0.003861421
-0.04120269 0.029543113 -0.110375725 -0.0044359043 -0.031869244 0.018582383 0.041397825 -0.046222202
-1.2759694 -0.0064431285 0.008022841 0.073433146 0.017859392 0.034353286 -0.036479495 0.061276965
-0.16167083 -0.12844491 -0.19974807 -0.014911631 0.2035201 0.0025924763 0.016446846 0.21155709
-0.0015488376 0.03387195 -0.040320683 0.0126958145 0.001935221 -0.03988363 0.05003664 -0.10648251
-0.026622476 0.026421705 0.030327123 -0.011833558 -0.018220639 -0.06251994 0.13139519 0.033204686
-0.08560103 0.025153073 0.01784861 -0.02383243 0.03337615 0.011130511 0.3782168 -0.008889973
-0.035843696 -0.06901853 0.36534226 0.035490196 -0.047153648 -0.3791622 -0.03116617 0.013634987
0.0036263105 0.0043100854 0.0048360964 -0.055109005 -0.1265969 -0.003767725 0.023944711 -0.034516204
0.06754124 0.02694991 -0.023552537 -0.028935542 0.083949246 0.0676804 0.01763762 0.012243133
-0.0040526274 0.051229805 0.005556131 0.0043331813 0.20979993 0.033986606 -0.07497611 -0.009484393
0.020661792 -0.2423133 0.05185392 0.04477709 -0.03618764 -0.12386412 -0.046909835 0.08890973
0.020723253 0.02359169 -0.0045914403 -0.008317079 -0.043989245 0.08808279 -0.04783962 -0.07862829
-0.015883196 0.033367503 0.028264232 -0.33901313 -0.032306913 0.07542534 -0.0035159201 -0.0064735864
-0.067982644 0.016362876 -0.028767709 -0.0070149195 -0.049152948 0.0036036472 -0.017900145 0.032460578
0.04713152 -0.13965316 0.031942066 0.013464847 -0.035946384 0.02517313 0.6140901 0.2415065
0.017929919 0.016455503 0.14731923 -0.028053114 0.033891283 0.014434296 0.0150469635 -0.014299597
0.008836774 -0.0035862671 0.1277368 0.0018976385 0.102701865 0.024127867 0.018153952 0.18185845
-0.2056579 -0.006240298 0.005886277 0.17926672 -0.05675172 -0.03443215 0.03227326 -0.6535971
-0.07466374 -0.031369787 0.04477808 0.0031355692 0.09857761 -0.050106764 0.13261388 0.08704442
-0.051733628 0.04142594 0.11227519 0.079273716 0.037893794 0.075467095 0.01188427 -0.15281016
-0.05184528 -0.033145286 -0.00021699346 -0.102200896 -0.23224989 -0.06293088 -0.002977369 0.03214976
0.010625843 0.0062613115 0.023509324 -0.066052414 -0.06487315 0.4804491 -0.03195029 -0.0022679006
0.0011687496 -0.018664021 0.05296822 -0.13026518 0.51680213 0.0082534775 0.05938548 0.03256102
-0.034637578 -0.059373666 0.0231659 -0.052765824 -0.050400022 0.044024214 0.035967078 -0.09492552

fc.2.bias f4 [4]
00000000: f02c 68bd f803 7b3d 5404 473d 4488 f4bb
-0.05668348 0.06128308 0.048588112 -0.007462533
