model/unicycle-FC2-1000-rk4-extra/epoch_400.pth (torch, 45715 bytes, 4 tensors)

fc.0.weight f4 [1000, 6]
00000000: 64a8 213c 433b 46bc dc51 fcbe bcf3 2fbf
00000010: 4b2a cd3c 9cfe d6bb 65ce b33d 6665 3b3d
00000020: 119f 873e 5155 07bf 565b e3be 32a0 623e
00000030: 4f1f 8d3e 6e1f 603e f476 1dbd 027c 88be
00000040: d950 8fbe 8ada d7bc e1c0 85be cc92 62be
00000050: 35dd 883e d25a 9bbe 8c6a 09ba 7b71 b53e
00000060: 7ba5 8b3e 763b ae3e 2f22 fc3d d5cf 143f
00000070: 2e92 97bd ff7a e2be ba30 823e 2187 30be
00000080: 6a96 7cbc 4f5b 00be c47b 83be a6b6 a2be
00000090: 605a ca3d 8e95 013e da39 aabe 47bd 9ebe
000000a0: 1d71 873e 845b b93e 4977 253e f9ec b53e
000000b0: aed0 d13e a9b3 88be f340 b73d 96dd ecbd
000000c0: cc24 183c 2584 04be 4e0f f23c 2a68 923e
000000d0: 6369 d33d 0e8c e8bd cc3d 073e c55b b63e
000000e0: 19b5 7ebe c705 83be fd6c 92be 2edc 24be
000000f0: 433a 943e e0d0 85be fffd 4dbc bc96 eabd
00000100: af9b a53e c514 92be 579b c6bd 1634 4fbd
00000110: 121d d43e 4556 933e 71c8 653e 47b4 2cbe
00000120: 182d 86be 1941 c33e 575e 223f c0be 4c3e
00000130: 034f dabe 0106 b3bd 22c6 4f3e 2f2f 873d
00000140: a15c 2fbe e624 fd3e c540 5cbe f538 e7bd
00000150: 0fe0 81be f3da b4bd 65bb 483e 5614 60be
00000160: 190e 843e 298d 3f3e 8f67 bd3d a087 0fbe
00000170: f7a3 37be d9ad cbbe 75c1 e23d fa70 883d
00000180: 1096 e43d e576 a6bc 4200 d7bd 2f43 a23e
00000190: 6fb2 6d3e cf36 9abe 7533 7fbd 59a3 053c
000001a0: 00a5 17bf 6c8d aabe 886f 173e a223 5dbe
000001b0: 98f4 323e ec7c 7a3e 8ded 4abe 36fe d43d
000001c0: 69d6 afbe 28cf 0b3d 99ee 70be 2f8e 393e
000001d0: 32a8 573e df9b 80bd 8a38 1abe eee6 9c3e
000001e0: cc25 dfbd 6875 29bd 7cf3 90be 2edb 19be
000001f0: d13d 853d 2835 a23e 00fc b5bc a576 cd3c
00000200: d2d1 12bf c4e1 fbbe 671e e2bd 84bf 823b
00000210: 3d17 93be 10dc 89be d233 5cbe 43ed 223d
00000220: e072 9a3e 5dc6 8cbd eb85 903e ad53 003e
00000230: 7101 a0be ea81 cabd b1bf 833e 4c95 17be
00000240: 500b 42be f006 b23d 0306 4cbe 967b f8be
00000250: a897 a73e 0e80 9c3e 32ee 363d 4f87 b73e
00000260: 4f50 213d 2a04 113f 5ce2 a63c 19d0 8d3e
00000270: 186b c2bd c132 8a3e d7b4 813d 2a98 d0bd
00000280: aaf5 083e 35bb b4be 48ea dcbd 5efa 933c
00000290: cee2 49be 86a0 bc3e 4952 00be cf92 cfbe
000002a0: 229d bbbe 6295 c3be b899 8c3e eb90 d6bc
000002b0: 39ba 94be 5962 cc3d 59c8 bc3d 7d37 afbd
000002c0: d2f7 a83e 1235 9bbe 8953 b4be aa49 d5bd
000002d0: 184b 9abe e322 8c3e 66e2 a2bd 6c08 adbe
000002e0: 6196 e1bc 4705 f1bd 1748 523e f030 babe
000002f0: 9404 28be 5fb5 d7be 386f 0fbd 1b44 4b3e
00000300: 141f b03e 35f9 7abe 6115 063f 5d7f cc3e
00000310: de99 583e 83e1 9f3e 3ab9 5dbe d74a 0bbe
00000320: e47c 38be b5a4 5f3e eec8 993d ffbd 26bc
00000330: b115 e03c 0221 bcbd 9c70 c3bd 6f9f 733d
00000340: 7a95 973e 288c 3dbe b405 9b3e 0458 ac3e
00000350: d7b9 893e 63dc 3fbd 1ad1 8ebe 78df c6be
00000360: d43a 713c 9096 a23e 3c0c f4bd f129 863d
00000370: 19ed 8bbe baed b0bd 050d 94be a39c 083e
00000380: 0c58 da3b c247 273e 1a2b 013e 434a 0f3e
00000390: 34bc aebe fe7f 723e 3790 a23c cf5e 7d3e
000003a0: 76fa 893e f1a9 cebe 8352 7f3e 5a2f 39bd
000003b0: 7b22 cdbe 841f 67bd af5b fb3e f6e1 673e
000003c0: 0803 05be 8d0a 133e 5af8 bb3c fa44 113e
000003d0: 85d5 c1bd 0b0b 553e a397 68bc 7faa 28be
000003e0: 60f3 d33e 6427 dd3d 66fd c4be 472c b8be
000003f0: 5963 88bd 1bd0 913c c33b a63f 1c76 e4be
0.009866808 -0.01209909 -0.49281204 -0.68731284 0.02504458 -0.0065611135 0.08779601 0.045750998
0.26488546 -0.5286456 -0.4440562 0.22131422 0.2756295 0.2188699 -0.03844352 -0.2665711
-0.2799137 -0.026349325 -0.26123717 -0.22126311 0.26731268 -0.30342728 -0.0005242012 0.3543814
0.2727469 0.3402974 0.123112075 0.58129627 -0.074009284 -0.44234464 0.254278 -0.17239048
-0.015416721 -0.12534831 -0.25680363 -0.31779975 0.09880519 0.12654707 -0.33247262 -0.31003782
0.26453486 0.36202633 0.16158785 0.35532358 0.40979522 -0.2669957 0.08947935 -0.11565702
0.009286117 -0.12941034 0.029548313 0.28595096 0.10322835 -0.11354838 0.13207167 0.3561689
-0.24873771 -0.25590345 -0.28598776 -0.16099617 0.289507 -0.2613592 -0.012572764 -0.114545316
0.3234534 -0.2853147 -0.096975975 -0.050586782 0.4142843 0.28776756 0.22439744 -0.16865645
-0.2620628 0.38135603 0.634252 0.1999464 -0.42638406 -0.087413795 0.20290425 0.066007964
-0.17125179 0.49442214 -0.21509083 -0.112901606 -0.25366256 -0.08830824 0.19602735 -0.21882758
0.25792006 0.18706192 0.09248268 -0.1401658 -0.17933641 -0.39781073 0.11072055 0.066621736
0.11161435 -0.020320365 -0.10498096 0.31691882 0.23212598 -0.3011994 -0.062304933 0.008156621
-0.59236145 -0.3331102 0.1478864 -0.21595624 0.17476118 0.24461716 -0.19817181 0.104000494
-0.3434327 0.034133106 -0.23528518 0.18120645 0.21060255 -0.0627973 -0.1506063 0.30644935
-0.10895881 -0.041371733 -0.28310764 -0.15025017 0.06505931 0.3168118 -0.02221489 0.025080988
-0.5735141 -0.49195683 -0.11040955 0.0039901156 -0.28728667 -0.26925707 -0.21504143 0.03977705
0.30165768 -0.06873772 0.2822717 0.1253192 -0.312511 -0.098880604 0.25732186 -0.14803046
-0.18949628 0.086927295 -0.19924168 -0.4853179 0.32732892 0.30566448 0.044660755 0.3584542
0.03938323 0.5664698 0.020371608 0.27697828 -0.09493083 0.26991847 0.063333206 -0.10185273
0.13374963 -0.35299078 -0.10786873 0.01806372 -0.19715425 0.3684122 -0.1253139 -0.40541694
-0.3664332 -0.38199908 0.27461028 -0.02619215 -0.29048327 0.09979696 0.09217901 -0.085555054
0.33001572 -0.30313927 -0.35219982 -0.10414441 -0.30135417 0.27370366 -0.07953338 -0.33795488
-0.027537527 -0.11768585 0.20535313 -0.3636546 -0.16407996 -0.42130563 -0.035018176 0.19850199
0.3439871 -0.24509127 0.5237637 0.3994092 0.21152446 0.3122674 -0.2165269 -0.13602768
-0.18016392 0.21840174 0.075090274 -0.010177135 0.027354093 -0.09185983 -0.09542963 0.05947822
0.2960623 -0.18510497 0.3027779 0.336609 0.26899597 -0.046841037 -0.27893907 -0.38842368
0.014723498 0.31755495 -0.11916396 0.065509684 -0.2732933 -0.08639093 -0.28916183 0.13341002
0.006663328 0.16335967 0.12614098 0.13993172 -0.34127963 0.23681638 0.019844158 0.24743198
0.269489 -0.4036403 0.2493382 -0.045211174 -0.4006537 -0.05642654 0.49093387 0.22644791
-0.12989438 0.14359494 0.022945572 0.14186469 -0.09464554 0.20804994 -0.014196309 -0.16471289
0.41396618 0.10798529 -0.38474578 -0.3597128 -0.06659574 0.017799428 1.2986988 -0.4462136

fc.0.bias f4 [1000]
00000000: 36d4 203f 970d ccbd a30c 783e a1e2 82bd
00000010: 4ea0 90be 3643 393e 3a16 bf3e 2daa b13b
00000020: fddf 8abe a781 ccbe 14cd 2c3e f6af 88be
00000030: 6db8 27bd cd4c 6cbe 9ef9 dcbe 7f98 25be
00000040: eff0 b43e e131 a7be 62d9 a83e afe0 ab3c
00000050: 5ba4 003d f7b9 d8bd 039e 7fbe 2fc5 933e
00000060: 5b19 c23e 567d 3c3d 36c8 6a3e 5fcf f63e
00000070: 7106 c2bd e71b 80be d9ca f0be 5626 b0be
00000080: 3ef8 773d 6820 c0be c85a 2a3d 6308 9c3e
00000090: 6486 9a3e 0755 853e 084c d4be 7d39 d7bb
000000a0: 2cdc 9e3e f125 4bbe bfac ffbe 596f 8d3e
000000b0: 663a 89bc c043 05be f489 113e 40f4 02be
000000c0: 7465 b8bd 63ee aa3e e8b7 94bd 0f89 653e
000000d0: c2ef c53e 9eb6 883d a36f 9ebe 8b32 f23d
000000e0: 5038 953e 1be2 c63c 81cf 1fbe 561f 2b3d
000000f0: 8b22 aebe ea8c a13e 4467 e5be 5548 993d
00000100: 2831 11be ba2c d3be 060b 513e 8131 70bf
00000110: 239f a1be 5da7 483e 395c b93e b58e 47be
00000120: eb39 aabd 30c4 163e 888a dfbe 4fb1 62be
00000130: c95a 883d cceb d0be 0277 993e 04cd b13e
00000140: 98d9 d83c 5553 c1be 920b 3abd 8536 52be
00000150: 2630 dfbf 9438 97be 1c63 8a3d 5a8e 6b3e
00000160: 567e 793e f1e2 83bd 8e6d 983e 44db 00be
00000170: 8632 e23e 9a84 43be f1fe 41be 753c a53e
00000180: 7b55 81bd 58b7 edbd e641 a43e 1b9e 6fbe
00000190: 3629 cd3e b137 24be 2650 973e fa14 9dbe
000001a0: a448 773e ac87 a4be d499 e03e 781a 883d
000001b0: a449 abbe a5a3 e4ba dcf3 4bbf ba58 b93e
000001c0: e93f 403e dc37 2e3d 9280 12be afaa 1dbe
000001d0: 436c 253e e305 61bd d2dd b0be 8dc3 24be
000001e0: da82 213e 607a cebf 3655 d03e 13d9 ce3d
000001f0: 6abf 823e aa4f d6bd 99dc b7be 6501 9cbd
00000200: 2276 663e 21c2 0dbf c53d 9fbe c6ff 663e
00000210: 4f86 06be db85 c0bb 9e5b 98be d465 e8bd
00000220: 286f 153e ddb8 673f b878 d0be 6bb8 1e3e
00000230: 131f fb3d 648e bb3d 1202 aebe caa1 4f3e
00000240: 0183 80be ded9 6cbf d5ed 8dbd 3caa f03d
00000250: 395a bbbe 9e97 c9bc e84c 093d 42b3 cfbd
00000260: 7329 a83e eec0 643e 9ef4 633e 37ff 8bbe
00000270: 0449 d83e 11e6 b93e e28b 97be 3b0b af3e
00000280: b304 f3bd aa99 81be 29da 30bf 81d5 ac3e
00000290: fb07 833e 8fc3 89be 42d3 bf3d f9c2 9abd
000002a0: bd9f 48be 497a a1be e972 c33e b3d1 a6bc
000002b0: 9d0e c1be 34c0 e63d 18a8 45be aad9 9e3b
000002c0: 0a31 8ebd f154 81be 989c 753e f416 01be
000002d0: 2564 8b3e e4f1 6cbe 7ecf 1e3d 6980 0cbe
000002e0: 5047 d2bd d0af 95be 16c5 033e badc ae3e
000002f0: 81f8 1ebd d89c 763d 1bff 703e ff56 bfbd
00000300: 3577 4fbe b2fe 8abd 14d9 dbbd 3f34 93be
00000310: 52cf 5cbe 36d2 02c0 c138 8bbe 2093 44be
00000320: e3aa 81be d91f 9abe 0e22 fa3c d830 83be
00000330: ed2e 403e 2fec e2be 84be 603e 2170 803e
00000340: f552 0c3e a4c9 b2bc c299 c3be 0717 123e
00000350: c961 5d3e d236 b8be 348d b2bd 9512 403e
00000360: 712e b83e 8cbc c3be 17ec 903e 429a 8a3b
00000370: 75a5 6dbe 4281 cc3e a6eb a9be a853 893d
00000380: 66fc 893e 9b73 c1be 50a8 39be 4422 7cbe
00000390: 4f8f a0be 4739 d6be d70f 84be 8513 5ebd
000003a0: 3c79 dabe f241 c3be 6bcc 0f3e 29fa f8be
000003b0: 78d7 e33d b8e5 74be 43bb e93e b54f 783e
000003c0: c0e3 213e aa6f fa3d 1055 473d 5f74 cb3e
000003d0: 9d1b b0be f5e4 27be c4f5 8a3e 84d3 53be
000003e0: b799 f7bd 2041 053e 4022 cabd 0de5 cdbd
000003f0: 83b7 523d 9fe9 a83c 71ea b03e 3fc0 9cbe
0.6282381 -0.099635296 0.2422357 -0.06390882 -0.28247303 0.18092045 0.37321645 0.005421898
-0.27124014 -0.39942667 0.16875106 -0.26696748 -0.040947367 -0.23076172 -0.43159193 -0.16171454
0.35340068 -0.32655242 0.3297835 0.02098116 0.03140674 -0.10582345 -0.2496262 0.28861377
0.3790997 0.046017967 0.22927937 0.48205087 -0.09473885 -0.25021288 -0.4702976 -0.34404248
0.060539477 -0.37524724 0.041590482 0.3047515 0.30180657 0.26041433 -0.41464257 -0.0065681324
0.31027353 -0.19838692 -0.49936482 0.27624014 -0.01675148 -0.13014126 0.14212781 -0.12788486
-0.09003726 0.33385 -0.0726164 0.22415565 0.38659483 0.066754565 -0.30944547 0.118260466
0.29144526 0.024277737 -0.156065 0.04177793 -0.3401073 0.3155282 -0.44805348 0.07484499
-0.14178908 -0.4124506 0.20414361 -0.93825537 -0.31566724 0.19595094 0.36203173 -0.19488032
-0.08311828 0.14723277 -0.43660378 -0.2213795 0.06657941 -0.408049 0.29973608 0.34726727
0.026470944 -0.3775889 -0.04542119 -0.2052861 -1.7436569 -0.29535353 0.06757185 0.23003522
0.243646 -0.0643977 0.29771084 -0.12583643 0.4417917 -0.19093552 -0.18944909 0.32272688
-0.06315132 -0.11607236 0.32081527 -0.23400156 0.40070504 -0.1603687 0.29553336 -0.30680066
0.24148804 -0.3213476 0.43867362 0.066456735 -0.3345462 -0.0017443789 -0.79668975 0.36200505
0.1877438 0.04253374 -0.14306858 -0.15397142 0.1615458 -0.054937255 -0.34544235 -0.16090222
0.15772572 -1.6131096 0.4069001 0.10099997 0.25536662 -0.104644135 -0.3591049 -0.076174535
0.22506002 -0.5537434 -0.31101814 0.22558507 -0.13137172 -0.005875332 -0.29757398 -0.11347547
0.14593184 0.90516454 -0.407171 0.15500037 0.12261786 0.09158018 -0.33985955 0.20276561
-0.25099948 -0.9251994 -0.069301285 0.1175122 -0.36592272 -0.02460843 0.03352061 -0.101416126
0.32844123 0.22339222 0.22261283 -0.2734315 0.42243207 0.3630834 -0.2959891 0.34188256
-0.11866131 -0.2531255 -0.69082886 0.3375664 0.25592026 -0.26907012 0.09366466 -0.07556719
-0.19592185 -0.3153861 0.38173607 -0.020363664 -0.37706462 0.112671286 -0.19302404 0.004847725
-0.06942947 -0.25260118 0.23985517 -0.12606412 0.27224842 -0.23139149 0.0387721 -0.1372086
-0.10267508 -0.29235697 0.12868151 0.34152776 -0.03881121 0.06020817 0.23534815 -0.09342765
-0.20260318 -0.067868605 -0.10734764 -0.28750798 -0.21563461 -2.0440803 -0.27191737 -0.19196749
-0.2532569 -0.30102423 0.030533817 -0.25623202 0.18767901 -0.4432082 0.21947676 0.25085548
0.1370352 -0.021824665 -0.38203245 0.14266597 0.21619333 -0.35979325 -0.087183386 0.18757088
0.35972932 -0.38229787 0.28305122 0.0042298147 -0.23207648 0.39942366 -0.33187598 0.06705409
0.26950377 -0.37783512 -0.18130612 -0.24622446 -0.31359336 -0.41840574 -0.25793335 -0.054217834
-0.4267062 -0.3813625 0.14042823 -0.48628357 0.11125082 -0.23915756 0.45650682 0.24249156
0.15809536 0.122283295 0.048665106 0.39737222 -0.34396067 -0.16395934 0.2714063 -0.20686156
-0.12089866 0.13013124 -0.09869814 -0.100534536 0.05144454 0.020619212 0.34553865 -0.30615422

fc.1.weight f4 [4, 1000]
00000000: 72c0 a5be d102 d73d 5465 63bc acb8 8d3c
00000010: 5929 f13c 9e35 cc3c 998a a43c ae45 913c
00000020: 5cb7 03bd 1406 d3bb 5be6 0b3a 577a 4a3d
00000030: 52c0 d83a fce6 0abd 785b 37bd 951d 1f3d
00000040: 68be 843c deb8 89bc 19e4 8abc e106 ab3c
00000050: b646 413c ce8f 52bd 7c30 9e3c bef0 193d
00000060: 389f 253d ea38 c9bc ec68 aebc edfb c1ba
00000070: 24f7 de3c 1642 8cbc e032 8fbc e58f abbc
00000080: 52d2 dd3c 6d07 2abd 5c8b 803a 0405 a83a
00000090: 9a1e 573c 0733 c73c 0ff3 d8bb ba61 d4bc
000000a0: a0d7 b0bc 6002 b03a f017 99bc d545 d5bb
000000b0: 4f1d 243b 80c4 68bc 4e45 8f3c 1fd6 55bd
000000c0: 1201 2bbb 3d82 0abc f500 a73c 0641 d73c
000000d0: c0a3 f7bb 2097 6e3c e1b2 9dbc 30b1 e93c
000000e0: 0352 513c 3c52 adbb 4972 b13d e8d6 ad3b
000000f0: 83f9 b13c 0fbd 81bc ac22 363c 64cf f0bc
00000100: 1f48 89bc fb96 33be 48b9 efbc f9ac b53e
00000110: 3dba 9f3c 80ef 93bc eb2a 083d fed2 b9bb
00000120: 982c bebb ac9d e73b bdd3 35bd 2aed 47bc
00000130: 4c39 423c 9a0f 01bd 73e6 e7bc afa5 963c
00000140: 6566 38bc 658a 9abc 73b0 cdbb 4d44 843c
00000150: 9da6 513f 7968 663c eff9 b6bc 831a 413d
00000160: 150d cbbc c215 3e3c f59f cc3b a105 d4bc
00000170: 412c 4d39 3fce a9bb fa75 6c3c 7b73 28bd
00000180: b655 14bc 2239 abbc 7dca 17bd e608 d3bc
00000190: 9810 6e3d d0e1 37bd 9cac f4bc 2de0 a13c
000001a0: 5d9a 6b3c 37d6 dd3b 1c2c 0c3d 8b5f f2bc
000001b0: b00c 743c 639a b93c 808a aa3e fdc8 ef3c
000001c0: c922 c3bb d7c3 103d 050d c4bc 7068 443d
000001d0: c0b5 8d3d f400 a93c e467 4e3c 0fe9 593d
000001e0: ecec b83c de77 69bf 7b30 79be 3254 073d
000001f0: ecd2 303c 8ef4 11ba 059c b3bc baff 0abd
00000200: 425a 2bbc 1b6c c3bc ad01 0d3d 5760 e83c
00000210: 3fa4 933c 86d7 fb3b 7bb2 e23c 489e 423d
00000220: 0056 cbbc a453 a4be b4f0 11bd 79d8 333d
00000230: 0fb5 e53c 3fc0 7bbc 861b a03c a89c e83c
00000240: 8ebe 073d 7f53 1d3e 90f2 37bc ab13 84bc
00000250: 4c27 f13c 86e7 dc3c 11ff 9c3c 3b1a 0ebd
00000260: 2ca4 163d 0c04 aa3c 4791 67bc 240e 04bd
00000270: 507c ccbc 9ce1 e6bb cc6f 92bd 7979 803b
00000280: 2edb dbbc 34ac 963c 5c7b ea3c 28b7 e73b
00000290: 3bbb 1ebc bb1b 8abb b61c 4b3d 4587 f83c
000002a0: 9917 9a3c 0500 ce3a 4e74 1cbc 647f 2cbd
000002b0: c887 07bd 45b4 6dbd 8f1f d7bc 5d13 e5bc
000002c0: f3fa ddbc f3e5 e03d 77d1 6bbd ec15 273d
000002d0: 0009 16bc 55ab 4e3d e598 88bd 7c16 133c
000002e0: b2a0 4dbc 3655 643b d95b 87bc f9e2 f5bc
000002f0: b848 f33c ba04 a7bc 2140 903c 905e 64bb
00000300: 9c38 093d 87ae 4c3c d527 a1bc bf58 99bc
00000310: 67e2 b33c 811e b23d f600 973c 5ddc e5bb
00000320: fca3 b1bd 4627 efbc 1965 813a 3457 d5bc
00000330: 951d 093d 994a c3bd 1104 5cbc b1eb 0b3d
00000340: 81d8 dfbc 2871 abba aad0 f9bc efe0 19bd
00000350: ee76 023d 0fd3 bf3c c26e 02bc 8337 a83d
00000360: 023c 033d 3e66 c2bc a176 2c3d 0da3 3cbd
00000370: 30c9 1f3c cf99 803c af2d b4bd e78b 95bc
00000380: bed2 f9bc 95a4 edbb f45d 19bc 37a9 193b
00000390: cb25 bdbc f2c7 9abc ca40 06bd ff63 d0bc
000003a0: a718 92bc a616 40bb 056b aa3c c360 203d
000003b0: eda2 013d c6b7 41bc 5036 fabb 0977 66bd
000003c0: 8b7d f03c e942 83bc 091b ef3c 4196 223d
000003d0: b499 6dbd 1fc6 a83c 0f49 6c3c b4ab 93bc
000003e0: bd71 aabc c64e 503d 3242 f93a 9246 203d
000003f0: 6835 343c fa11 90bc 6962 8fbc 4b8f 613c
-0.32373387 0.10498584 -0.013879139 0.017299972 0.029438661 0.02492791 0.02008562 0.017733421
-0.032157287 -0.0064399336 0.0005336755 0.04943308 0.0016536808 -0.03391169 -0.044764966 0.03884657
0.016204074 -0.016811784 -0.016954469 0.020877304 0.011796644 -0.051406674 0.019310229 0.037583105
0.040435046 -0.024563272 -0.021290265 -0.0014799811 0.027217455 -0.017121356 -0.017480314 -0.020942638
0.027077828 -0.041510988 0.0009807157 0.0012818878 0.013129855 0.024316324 -0.0066207717 -0.025925506
-0.021587193 0.0013428442 -0.018688172 -0.006508569 0.0025041883 -0.0142070055 0.017489102 -0.052206155
-0.0026093167 -0.008453903 0.020386199 0.026276123 -0.0075573623 0.014562398 -0.019250335 0.028526872
0.012775901 -0.005289344 0.08664376 0.00530516 0.021725422 -0.01583722 0.011116665 -0.029395767
-0.016758023 -0.17538063 -0.029263154 0.3548353 0.019497985 -0.018058538 0.033244055 -0.005670904
-0.005803656 0.0070683565 -0.044391382 -0.01220254 0.011854481 -0.03150902 -0.028308129 0.018389551
-0.0112548815 -0.01886482 -0.006277138 0.01614585 0.81894857 0.014062994 -0.022335974 0.047144424
-0.024786511 0.011601867 0.0062446543 -0.02588159 0.0001956681 -0.005182057 0.014432425 -0.041125756
-0.009053638 -0.020901266 -0.037058342 -0.025761079 0.058121294 -0.044893086 -0.029867463 0.019760216
0.014380065 0.006769921 0.034221753 -0.029586574 0.014895603 0.022656625 0.33308792 0.029270643
-0.0059550744 0.035343017 -0.02393199 0.04795116 0.06919432 0.020630337 0.012598012 0.053200778
0.02257391 -0.9119853 -0.243349 0.03303928 0.010792475 -0.00055677525 -0.021924982 -0.033935286
-0.010458531 -0.02385526 0.034425426 0.02836625 0.018022655 0.0076856045 0.027672997 0.04751423
-0.024821281 -0.32095063 -0.035629943 0.043907616 0.028040437 -0.015365659 0.019544374 0.028395012
0.03314071 0.15363882 -0.011227265 -0.01612266 0.029437684 0.026965868 0.019164594 -0.034692984
0.03677766 0.020753883 -0.014133758 -0.032240048 -0.02496162 -0.0070459377 -0.0715023 0.0039207307
-0.026837911 0.01839266 0.028623275 0.0070713945 -0.009688194 -0.0042147315 0.049587928 0.030337939
0.01881008 0.0015716559 -0.009549214 -0.042113677 -0.033088475 -0.058033247 -0.026260165 -0.027963335
-0.027097201 0.10981359 -0.057572808 0.04079239 -0.009157419 0.050456364 -0.06669787 0.008977529
-0.01255052 0.0034840829 -0.016523289 -0.030015456 0.029697761 -0.020387996 0.017608704 -0.0034846403
0.033501253 0.012492782 -0.019672314 -0.018719075 0.021958543 0.086972244 0.018433075 -0.0070147947
-0.08673856 -0.029193532 0.0009872048 -0.026042558 0.033475477 -0.09535713 -0.013428704 0.03416032
-0.027324917 -0.0013079988 -0.030495007 -0.03756803 0.0318517 0.02341607 -0.007960977 0.08213713
0.03203965 -0.023730393 0.04210532 -0.046053935 0.009752557 0.015698342 -0.08797776 -0.018255187
-0.030495998 -0.0072522857 -0.009360779 0.0023446807 -0.02308931 -0.01889417 -0.03277663 -0.025438307
-0.01783402 -0.0029310375 0.020802984 0.03915478 0.03164952 -0.0118236 -0.007635869 -0.056265865
0.029356739 -0.016023116 0.029187696 0.039694075 -0.05800791 0.020602284 0.014421715 -0.01802621
-0.020806188 0.050856374 0.001901692 0.0391298 0.010999061 -0.017586697 -0.01750298 0.013767074

fc.1.bias f4 [4]
00000000: 7ee2 8f3c 018c 0fbd 901c 393b 4c7d ea3c
0.017564055 -0.035045628 0.0028245784 0.0286242
