model/unicycle-FC5-50-rk4-extra/epoch_200.pth (torch, 36169 bytes, 10 tensors)

fc.0.weight f4 [50, 6]
00000000: c885 13be e2fa 853e 442b 5dbc dcd7 aebd
00000010: 88c9 b93e 0592 f83b eccc 4a3e 9385 c2be
00000020: 2790 f6be e3fe 2ebe 99bd 7cbe 151b 643e
00000030: e3c2 61be 44f8 323d d5eb 3cbe 297e c4bd
00000040: 9697 083f f205 b43e 9c4e bb3e ab57 833e
00000050: db52 12bd 7305 8b3e b371 3dbe 4490 7cbe
00000060: cb8c 663e 5691 36bd 570b 7e3e 4de5 c03e
00000070: abd0 61be 37d5 f13e 023c d43d db7d 173e
00000080: a473 2e3f c334 cfbe c279 1e3e 750d 94be
00000090: fef8 35be 2312 8e3e bd56 19be 754c cc3c
000000a0: 7fae bdbe 2733 e1be 7fd0 34be 5bdc 113d
000000b0: d70b d4bd bbc7 83be 8d3d dcbe f263 05be
000000c0: d422 913e 77c0 a8be 866f fcbe a851 2c3f
000000d0: cbae e73d 15d1 16bf 9787 abbe 9928 68be
000000e0: 9961 473e 52d8 803f ed59 cebb bcb9 4c3e
000000f0: 5341 873e d2f1 b3be 3251 853e a90d ecbc
00000100: 5b85 4a3e 7deb eb3d 15a4 0fbe 58b7 af3d
00000110: 7b4b b83e 03b5 aabe 0f60 edbd 1a00 8e3e
00000120: 07a4 9d3d d777 b4bd 8cec 11bf e9d1 0f3e
00000130: 9c65 a1be 08ab 793e 13e2 66be 6a3d 4ebe
00000140: ec13 38bf e811 cc3e 1392 54be eb7c b93e
00000150: f32e 513e 22de 99be 577c 553e 6fc2 2e3e
00000160: 2955 8fbe f39d 96be d2dc 763e 548f a3be
00000170: afd1 233e 73a1 58bd c196 803e 2dad ebbe
00000180: 44d6 163e fb6a 8abd 5e9a 2ebf 34b0 3d3e
00000190: 43f4 b23d 3c6e bcbe 432d 5b3e 9ac7 15bd
000001a0: 02e5 653e 410c 913d a9a6 02bf 79b2 aebe
000001b0: d934 3b3e d833 323e 1f1f 04bf 5f12 16bf
000001c0: f1c8 a83e 436b 49be 1872 613e bc1d 3d3d
000001d0: 2f7f 813e 1278 1f3f 9ef5 7abe b50e 013f
000001e0: cf7c 92be 54e8 a1be e326 9bbe d0aa 5fbe
000001f0: c32c 943e 6349 a9be 9386 e43d c838 98bc
00000200: b26d 123f 76d5 473f 7f03 6f3e 0fd1 81bd
00000210: 5d31 373e 3069 8dbe 0f06 173e 2bae bdbc
00000220: 7be4 c73e 4ab1 e53e 76a4 36be 03d8 4b3e
00000230: f148 f3be 1862 a1be ab8a 843e 55a8 8d3e
00000240: 85dc 4fbe e6a2 b8be 6c03 893c 91e0 77bf
00000250: 94b4 46be 649b 03be f492 02b9 e796 1e3d
00000260: 72ca 32bf ea37 293f e307 67bd 6600 4fbc
00000270: 66ac 78be e0eb 593e ea52 fc3e 0934 55be
00000280: 985e e93e a24b babe 449f 383e 9796 a3bd
00000290: efc7 87be 03dd e23e 0789 b13e 9ea1 f13d
000002a0: 80fc 94be a550 92be 0bc3 283e b588 84be
000002b0: bfdc 6e3e a912 ca3e 6b4d 90be 3332 c5bd
000002c0: 4cd4 b13e 10e5 0dbf c9a8 6f3d 8503 d7be
000002d0: 0aee 31be 9394 a73c 96e1 aabe 88d7 00bf
000002e0: 68ac 4f3e 334f e4be c454 51be 6529 66be
000002f0: 354d 0e3e 639d fa3e a02a ecbe d78f 3abe
00000300: 30e0 923e c842 f33d 90ce 053f d12f edbe
00000310: 3e00 4e3e 91fe a6be 5e5b 27be ecdd 343e
00000320: c7ac 513e 8872 8bbe eae8 e0bd 5f6e 033f
00000330: 1ac3 54be dd63 0cbe 567f 5abd 273a 673e
00000340: 823e abbe 15af 00bf f70a f6bd e894 a23d
00000350: f3a4 9e3e b5a6 f93e 1d12 b8be 9890 9e3d
00000360: 01d3 febd 2b6b 243d e979 abbe 88e1 16bf
00000370: 9598 74be 56d3 c13d 74f1 fa3d f963 b5bc
00000380: c012 083f e6a2 863f be51 7fbd 46d5 9fbc
00000390: bfeb be3d da86 a1be 04da cbbe 5f50 fb3d
000003a0: 8158 2d3d 8bde 69bd 1f3a 35be 1493 5e3e
000003b0: 944c cb3e 7e06 243f 3dfa a63e b3a7 933e
000003c0: e29c f53b 0789 a7bc 31b9 f8be 7dba 423f
000003d0: 1735 8abd 8f5c fc3d cdef 803e 4a8a 67be
000003e0: ce86 d5be 588f 803e 87e9 d7be b875 af3e
000003f0: 0b87 953d 5f25 6d3e 7a7d 9f3e 41fa 13bf
-0.14406502 0.2616797 -0.013499085 -0.08537266 0.3628657 0.0075857663 0.19804734 -0.37992534
-0.48156855 -0.17089419 -0.24681701 0.22275956 -0.22047 0.043693796 -0.18449338 -0.09594376
0.533563 0.35160786 0.36583412 0.25652823 -0.03572355 0.27152595 -0.18500404 -0.24664408
0.22514646 -0.044572197 0.24809013 0.37674943 -0.22052257 0.47232983 0.10363008 0.14794104
0.68145204 -0.40469941 0.15476134 -0.28916517 -0.17770764 0.27748212 -0.14974494 0.024938801
-0.37047192 -0.4398434 -0.1765766 0.035610538 -0.10353821 -0.2573832 -0.4301571 -0.13026407
0.28346884 -0.3295934 -0.49303836 0.673121 0.11312636 -0.58912784 -0.33501884 -0.22671737
0.19470824 1.0066016 -0.006297341 0.19992727 0.26417026 -0.35145432 0.2603851 -0.028815107
0.19777434 0.11519525 -0.14027436 0.08579892 0.35995087 -0.33341226 -0.11590587 0.27734452
0.07697301 -0.0881192 -0.57001567 0.14044918 -0.31522834 0.2438165 -0.22547178 -0.20140615
-0.719054 0.3985741 -0.20758848 0.36228117 0.20428066 -0.30052286 0.20848213 0.17066358
-0.2799466 -0.2941738 0.24107674 -0.31945288 0.15997957 -0.052888345 0.25115016 -0.4603056
0.14730173 -0.06758686 -0.68204296 0.18524247 0.087379955 -0.36802852 0.21403985 -0.036567308
0.22450641 0.07082415 -0.51035553 -0.3412054 0.18281879 0.1740259 -0.5160999 -0.5862178
0.32965806 -0.19669823 0.2201618 0.046170935 0.25292346 0.6229259 -0.24507758 0.50413066
-0.28610846 -0.31622565 -0.30303106 -0.21842504 0.289404 -0.33063802 0.111584805 -0.018581763
0.5719863 0.7806009 0.23341177 -0.06338703 0.17889924 -0.27619314 0.14748405 -0.023154339
0.39041504 0.44861823 -0.17836174 0.1990662 -0.47516587 -0.31520152 0.25887045 0.2766749
-0.20298965 -0.36061782 0.016725264 -0.96827036 -0.19404823 -0.12852246 -0.0001245251 0.03871813
-0.6984016 0.66100943 -0.056404006 -0.012634372 -0.24284515 0.21281385 0.49282008 -0.20820631
0.45579982 -0.36385828 0.18029505 -0.07987707 -0.26519725 0.44309244 0.34674856 0.11798404
-0.29098892 -0.28577152 0.16480653 -0.2588555 0.23326395 0.39467362 -0.28184065 -0.09628715
0.34732282 -0.55427647 0.058510575 -0.41994873 -0.17375961 0.020456588 -0.33375233 -0.50328875
0.20280612 -0.44591674 -0.20442492 -0.22476728 0.1389664 0.48948202 -0.4612627 -0.18218933
0.28686666 0.11877972 0.52268314 -0.46325544 0.2011728 -0.32616094 -0.16343448 0.17662781
0.20476066 -0.27235818 -0.10981925 0.5134029 -0.2077755 -0.1370997 -0.053344093 0.22580777
-0.33446127 -0.50267154 -0.1201381 0.07938558 0.3098522 0.4876 -0.3595132 0.07742423
-0.124425896 0.040141266 -0.33491448 -0.58937883 -0.2388633 0.09464137 0.12253085 -0.022142397
0.5315361 1.0518463 -0.062333815 -0.019510876 0.09322309 -0.31548196 -0.3981477 0.12271189
0.042320732 -0.057097 -0.17697953 0.21735793 0.39706862 0.64072406 0.32612792 0.28838882
0.0074955085 -0.020451082 -0.4857879 0.7606581 -0.06748407 0.12322342 0.25182953 -0.22611347
-0.4170441 0.25109363 -0.42170355 0.342695 0.07301148 0.23158787 0.3115042 -0.5780373

fc.0.bias f4 [50]
00000000: b15e 293e 9400 d4be a3a8 54be 4c4c 783e
00000010: 6417 8f3f 6d80 f73c 3cbd 693e 408b 903e
00000020: 60d4 cebe 3545 393c 9456 3dbe c5bb 95be
00000030: 1688 003f 9b25 ea3e 6a2b d23e f091 f7be
00000040: 000e 21be 5e5e b03e 59d6 1b3f 8b98 66bd
00000050: fa07 83be 064a e5bd 21ef 4cbe 433f 8b3b
00000060: 2ca2 1dbf 259b b13e 077f 203e 1500 893b
00000070: 896e 753e 855c 033f db26 a3be c723 b13c
00000080: f49f 823e f3aa 143f 99eb 6fbd 2799 273f
00000090: 12d1 1cbf 1290 f3be 0b63 c13e cb64 3d3e
000000a0: 422c 91be d4bb f7bd 1bb5 46be 1e97 e73e
000000b0: 7b1d e63d 60c3 623f fc0d 113f a61b b93e
000000c0: 4a97 163e 727e 5d3e
0.16540028 -0.4140669 -0.20767455 0.24247855 1.1179013 0.030212605 0.22826093 0.2823124
-0.40396404 0.011308004 -0.18490058 -0.2924482 0.5020765 0.45731816 0.41048747 -0.4835353
-0.15727997 0.34446996 0.60873944 -0.05629782 -0.25592023 -0.111957595 -0.20013095 0.0042494847
-0.6157558 0.34688678 0.15673457 0.004180918 0.23967947 0.5131305 -0.31865582 0.021623505
0.2551266 0.5807335 -0.058574293 0.65468067 -0.61256516 -0.47570854 0.37770876 0.1849548
-0.2835408 -0.12096372 -0.19405024 0.4523248 0.11236092 0.8857937 0.56661963 0.36153907
0.1470615 0.21630266

fc.1.weight f4 [50, 50]
00000000: dfac 323d eb70 f03c cc12 333d 470c 133e
00000010: 6311 51bd 1505 b9bd fe24 233e 33d4 7c3d
00000020: d648 0fbd 2f11 353e b614 86bd c1ba 19bc
00000030: 083a 2abd 9b85 bf3b 05b4 b2bd 39c5 16bd
00000040: 5172 8a3d 1439 c33d 28b7 e93d 5e6b 873d
00000050: 89eb d6b9 3327 7b3c 788b 1fbd b47b 1d3d
00000060: 9b13 32bd e9b8 3c3e fd69 333c d8d1 243e
00000070: 7b14 383d 0769 1abd 16c9 a13b 95db dd3d
00000080: 09ba cb3d 8821 8dbb ac52 f13d 1fe1 843e
00000090: da80 f5bc 597d 743e a54c 0e3e 0c07 583e
000000a0: 76e9 543e cad4 aabd 8b88 57bd 858a aa3c
000000b0: 2a25 d93c bb90 0a3e f9ca 183e 4b19 f73c
000000c0: 3ed9 ccbd fc83 e8bb 3e97 1cbe bc2b 9f3d
000000d0: b061 29bd 88a8 c33d 5926 023e 59c1 8abb
000000e0: 0a50 3b3d 2bef 83bb d858 b4bd c40e 823d
000000f0: f61d e4bd 766f fc3c 3a90 3e3e 1db8 d23d
00000100: f5d3 633d 00d6 0dbd d307 8fbd e886 223c
00000110: ecce 08bb 91dd 213d 723c 2e3e 7866 343c
00000120: 37af 0c3e d7d1 373d 02cb aa3d 2856 4cbd
00000130: 991a d5bd 04eb 4b3d 0c11 81bd ac41 8c3d
00000140: fc75 b03d 027a d73d c2aa 933b ecbc 773d
00000150: 3bc2 0abe 0247 4f3d 7163 c23d 3c4e da3c
00000160: 5a19 9ebd 2afc ae3c 756d f43d 21a9 733c
00000170: 7f71 bd3d 4d9d 923d 0256 1bbd 50db 333e
00000180: afe5 383e e40e 49bd 374e 343d 36d0 abbd
00000190: 8284 95bd c604 cbbd 964e f93d 5c5a 7bbb
000001a0: 6f74 c0bd 0897 5b3e 0680 253e adfc 3d3c
000001b0: 9010 833d e043 5abd 2aff fc3b dea8 52bd
000001c0: 89cf 053e 9aee 8bbc a165 223c 68f3 223e
000001d0: 8629 64ba 4b9e b93d e4b6 68bd 6660 973c
000001e0: fb77 93bc a491 bf3d 4a6b de3d 4172 99bd
000001f0: 1058 033e c7d5 c2bc 5a29 683e 5491 98bd
00000200: 42af c8bd 8fdd 703e dcdb 0c3e 040d 163e
00000210: eea2 1f3e 1bd7 bcbd bc54 58bd 138b bf3d
00000220: cced a23d 08b1 a0bd 7030 d7bd d4b0 07bd
00000230: de4a 39bc 1cdf 2abd b291 54bd 3951 933d
00000240: 36cf 0cbd ef97 2fbd 668a 8a3d ba36 753d
00000250: db4b 0f3d 82b8 9a3d b5a2 ff3c a210 cfbd
00000260: 77dc c83d effc 313c 2ee4 9c3d 2146 bd3d
00000270: 0e2b 0d3d bd81 f73d e100 623d 82f0 ec3d
00000280: 138c 8bbd bfd4 90bd 9b42 92bd 75d9 9ebd
00000290: c60c 09be c82e c43d 169e b83d e19a 943d
000002a0: c900 fe3d 9d09 17bd 476b e93d c16e 293d
000002b0: f0a3 813d 603d 23bd 5dfb 9c3d aa43 e83d
000002c0: ed83 113e 834b ea3d 1730 473e c774 8bbd
000002d0: 05ab 623e 69b4 13be add2 273e d269 2dbe
000002e0: f049 94bd 45ce 5d3d b031 44bc 7f0a 5c3d
000002f0: e1a4 1e3e 248d f63d 4e61 d43d ea01 523b
00000300: 2646 0bbd 4f0d 5a3d d18d 913d 7250 1abd
00000310: 2ef3 c4bd d0ad 2d3c c43b 533d 43fd d53d
00000320: 6153 b23d 05d8 c5bd fcf7 0a3e 350c 103e
00000330: 34e4 1c3e a339 8abd b715 0f3e 7d43 273d
00000340: 8160 3f3c 14c9 f43d 7968 5abd dafc e9bc
00000350: 33e3 f33d 773c 703d bc8f d83c 15e8 123e
00000360: 9ad0 b6bd 7c0f c3bd c634 083e f6db 6b3d
00000370: 035e 69bd dcbc 633e 17c6 f0bb 2ff0 823c
00000380: 8245 83bd 0f42 d83e 044d 26bd 6ee6 043e
00000390: 84f1 4ebd 6247 ec3d fe50 49bd 9504 943d
000003a0: 66a7 53be abe3 d73d 09f7 e2bc a606 ac3d
000003b0: d409 103d 15a8 303e 0c90 a1bd dbc0 193e
000003c0: e2c0 a63e ca1e 433e 83f0 c73c 271d 073e
000003d0: 7d70 14be 214f 8b3d e68c 393e a937 f5bd
000003e0: bf95 b53c f239 a7bd 7a14 b83d 780d 9cbc
000003f0: f84c 243e ea69 c83d feb7 f1bc 47c5 9fbd
0.043621894 0.029350718 0.043719098 0.14360152 -0.051041972 -0.090341724 0.1593208 0.061725806
-0.03498157 0.17682336 -0.06546919 -0.0093829045 -0.04155925 0.0058447844 -0.08725742 -0.03680918
0.067600854 0.09532371 0.114118874 0.066122755 -0.00040992748 0.01532917 -0.038951367 0.03844805
-0.04347573 0.18429913 0.010950563 0.16095674 0.044941407 -0.037697818 0.0049373014 0.108328976
0.09947593 -0.0043069758 0.117833465 0.25953004 -0.029968668 0.23875941 0.13896425 0.21096438
0.20792183 -0.083413675 -0.052620452 0.020818004 0.026506979 0.13531773 0.14921178 0.030163428
-0.10002373 -0.007095812 -0.1529207 0.077720135 -0.041352928 0.09553629 0.12709941 -0.0042344746
0.045730628 -0.004026314 -0.08806008 0.063504726 -0.11138527 0.030814867 0.18609706 0.10289023
0.05562206 -0.034627914 -0.06983914 0.0099198595 -0.0020875288 0.039517943 0.17015246 0.011010759
0.13738714 0.044877853 0.08339502 -0.049886853 -0.10405464 0.049784675 -0.063020796 0.068484634
0.08616254 0.10521318 0.00450644 0.060482904 -0.13550656 0.050604828 0.09491623 0.026648633
-0.07719679 0.021360476 0.1193494 0.014871866 0.09250163 0.07158909 -0.03792382 0.1756413
0.18056367 -0.049086466 0.044019904 -0.083893225 -0.073006645 -0.0991302 0.12173192 -0.003835342
-0.09397208 0.21444333 0.16162118 0.011595887 0.063996434 -0.053287387 0.0077208476 -0.051430576
0.1306745 -0.017081548 0.0099119255 0.15913165 -0.0008703697 0.09063395 -0.056815043 0.018478584
-0.018001547 0.093539506 0.108603075 -0.07492495 0.12826562 -0.023783578 0.22672024 -0.07449594
-0.09799053 0.23522018 0.13755745 0.14653403 0.15589496 -0.092207156 -0.052815184 0.09352698
0.079555124 -0.07846266 -0.105072856 -0.03312762 -0.011309354 -0.04171668 -0.05189676 0.07193226
-0.0343773 -0.042869505 0.06764679 0.059866644 0.03498445 0.07554723 0.031205514 -0.10110594
0.09807675 0.010863527 0.07660709 0.09241892 0.03446489 0.120852925 0.05517662 0.11569311
-0.068138264 -0.07071828 -0.0714161 -0.077563204 -0.13383779 0.09579235 0.090145275 0.07256103
0.124024935 -0.036874402 0.11397415 0.04136539 0.06330097 -0.039853454 0.07665131 0.11341031
0.14210482 0.11440184 0.19451939 -0.06809383 0.22135551 -0.1442429 0.1638896 -0.16934898
-0.07240665 0.054151792 -0.011974737 0.053720947 0.15492584 0.12038639 0.10370122 0.0032044598
-0.034002446 0.05323535 0.071071275 -0.037674375 -0.09616695 0.010600522 0.05157067 0.104486965
0.087073095 -0.09660343 0.13571161 0.14067157 0.15321428 -0.067492746 0.13973127 0.040835846
0.011680723 0.11952415 -0.05332229 -0.028562952 0.11908569 0.058651414 0.026435725 0.14346345
-0.08926506 -0.09524438 0.13301381 0.057582818 -0.056974422 0.22240013 -0.007347833 0.01598367
-0.06409742 0.422379 -0.04060079 0.12978527 -0.050523296 0.11537053 -0.049149506 0.072274365
-0.20669326 0.10541471 -0.027705686 0.083997056 0.035165623 0.17251618 -0.07888803 0.15014975
0.32569033 0.19054714 0.024406677 0.13194714 -0.14496036 0.06802202 0.18120155 -0.11973507
0.022166131 -0.08165349 0.089882806 -0.019049391 0.16044986 0.097858265 -0.02950668 -0.078012995

fc.1.bias f4 [50]
00000000: bf06 4d3e 5997 8f3e 23e6 8d3d 772b 253e
00000010: daf7 b33d d599 61bd 50f9 483e a717 ea3e
00000020: 4599 86bd cc09 403e e0b4 b23e 4021 993d
00000030: f02d 253e a1f8 c93d 987d d53b c78d fd3e
00000040: 5a7a ae3e e294 b53e ff5c 0a3b b96d 053d
00000050: 7007 ce3d 7a6c 473e 8f46 7a3e 26ff b83d
00000060: 14d7 a7be 48c3 b23d 23a6 a83d 3ec9 073e
00000070: 5891 c13e d5bf f93d 93d0 793e a6f3 233e
00000080: f9f6 073d f2c5 efbb 4352 04bf 8cee a33d
00000090: 470f cd3e 50aa 1e3d f5a3 adbd 2e6d 443e
000000a0: 02a2 383e 2117 0bbd 7d4b 233e 0645 5a3e
000000b0: 1e58 de3d eab9 24bf c387 0e3e 2198 1cbd
000000c0: 0d62 1a3e 2342 2a3e
0.20022105 0.28045157 0.06928661 0.16129862 0.08787508 -0.055078346 0.19626355 0.4572117
-0.065722026 0.18753737 0.34903622 0.07477045 0.16130805 0.09861875 0.006515216 0.4952223
0.34077722 0.3546515 0.002111256 0.032575343 0.10060012 0.19474974 0.24440978 0.09033041
-0.3278128 0.08728653 0.08234813 0.13260362 0.378062 0.12194792 0.24395971 0.16010913
0.033194516 -0.007317298 -0.5168802 0.080044836 0.40050718 0.03873664 -0.08478538 0.19182274
0.18030551 -0.033957604 0.15946765 0.21315393 0.10856651 -0.6434618 0.13918976 -0.03823102
0.15076466 0.16626792

fc.2.weight f4 [50, 50]
00000000: 2c02 383c d272 f93c e358 303a 99e2 c0bd
00000010: 8dd7 80bc 360f 263e 8314 313d ec6d 0dbd
00000020: 2b91 9b3d 42dc 99bd 1747 43bd f1ce 193e
00000030: e9db 463d 72ad 963d 4586 5d3e 6508 973d
00000040: 00d7 3ebe 91dc d43c c202 ddbb 5c5b 5cbd
00000050: 152f a93b 8378 9ebd 8a31 c8bc c340 c13d
00000060: 32bf b53e daf1 22bd 199b 72bd 00e9 b1bb
00000070: 48d4 49be 4f9a 54bd 1ad0 1dbc c8f5 15be
00000080: b4d4 5dbe 29b5 f63d 7bb5 02be 3a5e 623d
00000090: 1c7c c03d c489 80bd 074b b23d 14ab c2bd
000000a0: 2aab 68be 0da2 3cbd 3eb7 e6bc f7c1 883e
000000b0: 81e8 083e d839 6e3d dc0d b63b 1a8a b53d
000000c0: 2acb d83c 74d7 6dbd 1afc 15bd 3ace d53d
000000d0: 23be 16bb 35bb a2bd 4935 1e3d 5948 45bd
000000e0: 8dd5 033e 06b4 df3d 0268 123e eaab 3f3d
000000f0: 3c94 093e f582 6bbc ebc9 05bd a63c 90bc
00000100: eb90 9f3d 49d4 323e 6d20 c93d aca5 81bc
00000110: 86c1 3fbe c9f7 663d 2dfa b83d 5879 0b3e
00000120: 6943 2bbe 1e05 2dbd cd79 febd 8f07 f63c
00000130: cd39 7a3d e8bc f43c f2f4 c13d 5fdf be3b
00000140: e849 203e 8e83 01be fb8b 95bd ecf0 85bd
00000150: b7db 933c 49eb aebd b1ce e7bd 7a2a 8d3c
00000160: deea 1d3e ca95 0b3e 036d 2abd b447 493d
00000170: 81bf 4c3d 958f b23d 3300 f63d 6df0 6e3d
00000180: 497b 20be 76bf 70bc 2012 983d 3d89 debd
00000190: 1588 293d 5ce2 d2bc 6543 0f3e 6a31 e9bc
000001a0: 057e 993c 6e8c febc 5d62 523c 598e 3fbd
000001b0: ac35 e43d 3520 debc ade7 323d 7c5a 2f3e
000001c0: 8578 163e c859 733d 7573 713d 4890 30bd
000001d0: f505 413d 2819 883d b166 96be 5c7e dc3e
000001e0: 65f1 aa3d 1183 dc3d c47b 98be 5756 10be
000001f0: df26 90bc d051 71bd 7c10 1c3e 05dd 2abd
00000200: aa47 443d a658 953c bd85 0abd 2444 1abe
00000210: cc14 103e 7c04 9bbc 16ae b13d 511b bbbd
00000220: 9634 5cbc b18d 2fbd 4636 033e 9b3c 333e
00000230: 0c4d 323d 2595 d6bc 7f89 afbd c319 633d
00000240: 8f14 64bd c616 1e3e 8a5c 803c 6a47 19bd
00000250: d737 03be ee10 d23d 93b4 34bd 9550 51bd
00000260: b84d 483d cadf 073e d6bf 31bc 426d 003e
00000270: 81ba fa3d fb73 f03d eacc 0cbd 24ed 233e
00000280: b7bf bc3c 9da8 79bd 3150 203e 732f 0c3c
00000290: 1690 893c 5577 233e 10b2 123d 5542 0d3e
000002a0: 5fc4 d43d eafc 91be 2a19 2c3e 5f16 ab3c
000002b0: 719f a4bd 6995 233e c3ec 373d 9177 81bd
000002c0: efec 403e 5c47 7fbd 1103 d2bc 32d9 1c3e
000002d0: 7bd6 5b3e c9d0 cdbb 91a1 c3bd 71c9 5ebc
000002e0: cd65 42bd e77f a7bd a8ac bf3e bc9d c53b
000002f0: 9fd5 c7bd bee8 bfbb 2bce 103e cdbe 1abd
00000300: e77e 633d ad6e c3bd 0ee3 2d3e 5e1e 4bbd
00000310: 6f0c 5a3d 4361 0f3e 86aa 513e aaeb 893d
00000320: 4c7a 32bd 350c 1b3e fea0 db3c 5bce ee3c
00000330: bb1a 67bd e640 6c3e 4812 07be 4bf4 473d
00000340: 0a95 c53d 1ce2 003e 15f6 1a3e 9cce 05be
00000350: 45f4 55be 74b0 d33c ccbb c8bd 05f8 d9bd
00000360: 20e3 1e3e 5c75 28be 9b7f 7bbd 495a 183d
00000370: 2e7f 6dbb 35bc 15bd b725 e4bc e1da b2bc
00000380: 21b2 8dbe 983b be3d 482f 103d c5bc 863d
00000390: 3465 353e 973d ba3d 123a cb3c 7269 2c3e
000003a0: 0554 1abd 24bb 21be 9a5e 193e b495 efbd
000003b0: db39 3d3c f98a 53bd 2bd8 f73d 9c91 3a3d
000003c0: b3d9 023c 8094 b63c 287e 3a3e bfd5 afbd
000003d0: 5a43 87bc 8d5f 0fbe 8450 fdbd e5de b83c
000003e0: 9080 843d e1c6 da3d 0685 a83d 2b0e dbbc
000003f0: 8d04 a1bd 6f3c 963d 9f4e 18be 9ce4 e3bd
0.011230987 0.030450258 0.00067271123 -0.0941822 -0.015727783 0.1621674 0.043232452 -0.034528658
0.07596048 -0.07512714 -0.04767522 0.15020348 0.048549566 0.07357301 0.21633251 0.07374648
-0.18636703 0.02598408 -0.0067447135 -0.053798065 0.0051630833 -0.077378295 -0.024437685 0.094361804
0.35497433 -0.03978143 -0.059229944 -0.005429387 -0.19709885 -0.051904973 -0.009632135 -0.1464454
-0.21663171 0.12046272 -0.12764542 0.055265643 0.09398672 -0.06276277 0.087057166 -0.09505287
-0.22721544 -0.04605298 -0.028163549 0.26710483 0.13369943 0.058160633 0.0055558514 0.088642314
0.026464064 -0.0580668 -0.036617376 0.10439725 -0.0023001514 -0.07945863 0.038625035 -0.0481647
0.12874432 0.109230086 0.14297488 0.04679481 0.13435453 -0.014374484 -0.032663267 -0.017607044
0.07791313 0.17463793 0.09820638 -0.015826069 -0.18726167 0.05638865 0.09032092 0.13620508
-0.16724934 -0.04224121 -0.124255754 0.030032901 0.06109028 0.029875234 0.09470548 0.0058249678
0.15653193 -0.1264784 -0.0730209 -0.06540093 0.018049104 -0.08540971 -0.1131872 0.017232168
0.15421626 0.13631359 -0.041607868 0.049140647 0.04998732 0.08718792 0.12011757 0.058334757
-0.1567203 -0.014694085 0.07425332 -0.1086602 0.041389544 -0.025742702 0.13990553 -0.028465945
0.018736849 -0.031072821 0.012840834 -0.046766613 0.111430496 -0.027114967 0.043677974 0.17124361
0.14694412 0.059411794 0.058948 -0.043106347 0.04712482 0.06645423 -0.29375222 0.43065155
0.083468236 0.107671864 -0.29781926 -0.14095436 -0.01759666 -0.058915913 0.15240663 -0.041714687
0.047919907 0.018230747 -0.03381895 -0.15065056 0.14070433 -0.018923037 0.086757824 -0.091360696
-0.013440272 -0.042859737 0.12813672 0.17503588 0.04353051 -0.026194165 -0.08571147 0.05544449
-0.05568367 0.15438375 0.015669126 -0.03742162 -0.1281427 0.10257135 -0.04411752 -0.05110224
0.048902243 0.13268963 -0.01084896 0.12541679 0.12242604 0.117408715 -0.03437511 0.1600843
0.023040636 -0.060951818 0.1565559 0.008556235 0.016792338 0.1596349 0.035814345 0.13794835
0.10389017 -0.2851327 0.16806474 0.02088469 -0.080382235 0.15974964 0.044903528 -0.063216336
0.18840383 -0.062323913 -0.025636228 0.15317228 0.21468537 -0.0062809926 -0.09552301 -0.013597832
-0.047460366 -0.08178692 0.37436414 0.0060307663 -0.09757542 -0.0058566025 0.14141147 -0.037779618
0.055540945 -0.09542594 0.16981146 -0.049589507 0.053234514 0.14001946 0.20475206 0.067344025
-0.043573663 0.15141375 0.026810165 0.029151132 -0.056421977 0.23071632 -0.13190567 0.04881696
0.096475676 0.12586254 0.15132935 -0.13067096 -0.20893963 0.025840975 -0.098014444 -0.10643009
0.15516329 -0.16451019 -0.06140099 0.037195478 -0.0036239135 -0.03655644 -0.027850015 -0.021832885
-0.27674964 0.0928871 0.03520134 0.06578974 0.17714387 0.090937786 0.024807964 0.16837099
-0.037677784 -0.15794045 0.14977494 -0.116984755 0.011549438 -0.051646207 0.12101778 0.04554902
0.007986474 0.022287607 0.18212187 -0.08585691 -0.016511608 -0.14001293 -0.12368873 0.022567222
0.06469834 0.106824644 0.08228497 -0.026740154 -0.07862196 0.073357455 -0.14873742 -0.11127588

fc.2.bias f4 [50]
00000000: b6c4 89be f87e aa3d 3be3 cb3d 834d 4a3e
00000010: eb3f 6a3e 77ec e3bd ccd8 813b 76d7 ac3d
00000020: 3719 e8bd b815 c5bc 86fa 18be 5d78 42bd
00000030: c44a 473d 0a03 6ebc 5e3b 873c 14c5 3e3d
00000040: 4df8 c33c ec9f d5be 415c 9b3e bf76 a6ba
00000050: e370 863c ad66 ae3d 486a 053e 84aa 9fbd
00000060: 5f8f d13d 37c0 39bd 9263 e83d 279c f53d
00000070: 0d01 673e db28 103e b52a 1cbf 1250 cfbb
00000080: 127c 57bd fe28 01be ee2d 1cbe 5363 d03a
00000090: ce04 f03d d697 b63d 527b cc3d 9fa3 33bf
000000a0: aadd 5a3e 64a4 103e d305 b2be 7af8 d03d
000000b0: e2c0 4c3c 560d ef3d 2ac1 e23c be37 913e
000000c0: 9627 9e3d e30e ffbe
-0.2690789 0.083249986 0.0995545 0.19756131 0.22875945 -0.111290865 0.003962612 0.084395334
-0.11332934 -0.024058208 -0.14939317 -0.04747807 0.048655286 -0.014527092 0.0165078 0.046574667
0.02392211 -0.41723573 0.30343822 -0.0012700184 0.01641125 0.085156776 0.13028824 -0.07796195
0.10232424 -0.045349326 0.113471165 0.11992674 0.22558995 0.14078085 -0.61002666 -0.006326684
-0.052608557 -0.12613294 -0.15251896 0.0015898742 0.117196664 0.08915679 0.09984459 -0.7017154
0.2137362 0.1412521 -0.3477007 0.10203643 0.012497159 0.116724655 0.027679998 0.2836284
0.07722394 -0.49816045

fc.3.weight f4 [50, 50]
00000000: 59d3 81be 0aa7 dcbc e21e 303d 7e28 11bd
00000010: 0ee1 d53c c7ad ca3d 39af 823d fdea bf3a
00000020: c3ef 173e c84a 31bc e0b7 4a3d a029 ec3d
00000030: 8ee4 3cbe 96eb f83d 8f5e 0c3e 066f 00bd
00000040: d073 bbbc c7d3 5cbc c10d 543e 6d59 023e
00000050: c1f0 5cbc 9d09 633d 35a4 a8bd 9b94 a4bc
00000060: b35f 023d 3ab6 b33c 339b 963d 1edf 34bc
00000070: c5b2 063a 610a 1fbe 75c8 4bbe 4ca3 d8b7
00000080: b96b b2bc 1857 a8bd 93da 193e 2397 cf3d
00000090: 11ba 25be 6250 193e 05cf 5fbc 523a b83e
000000a0: 898e 12bd 9433 20bd a85f 1a3e 7b74 c93d
000000b0: a426 71bd 132d 01be ab41 753d 8645 f6bd
000000c0: a2a7 973d 2675 04bf be54 4c3d bce4 943d
000000d0: f59e a43b a2a7 8e3d c823 46bd b1ae a8bd
000000e0: 62d4 07be dd40 11bd c636 0cbe 8b1c d8bd
000000f0: 052a dd3d 5ab2 3fbd d13f a93d 56de 8bbc
00000100: bc9d d0bd 9ed7 b93d 93f2 033e 2edc c8bd
00000110: 527a dbbc 0770 72bc 73ec 823d 14bf 133d
00000120: c93e 84bc 3d69 55bd 290c 18be 776b b73c
00000130: 738f 42bc 8f0a 083c 46f2 63bd e963 b13d
00000140: b86c ac3d 2e28 01be f374 8a3b bec9 263d
00000150: d755 edbd 8da0 09be 2b9c e4bb bd97 a4bc
00000160: 6e10 0abe effa 2abd 5ed6 61bd 2798 a1bc
00000170: 881f 883d 3104 a13d f583 02bc 0515 8b3d
00000180: e553 003e 3735 38bd 603b 8b3d 4955 45bd
00000190: 220f d8bd 0c61 863c f833 63bd 50c6 cbbc
000001a0: cab9 30bd 6efc 193c cfa4 b6bc a7bc 213d
000001b0: d561 b03d 256b f53d 55af 3e3e 43d5 e23d
000001c0: 4135 0c3e 34fb 9b3d 6de5 adbd 2b9c c93d
000001d0: 364e e33d f590 57bd 3d26 173e 7639 8a3c
000001e0: dbd0 f3bd 937f 23be 016c 8bb9 a496 1c3e
000001f0: 1792 85bd 12c9 4cbc 518e 133e c756 d33c
00000200: f906 f4bd 6ede 3f3d 99af ebbe 16c9 ae3d
00000210: 27d4 1dbd 0b82 1dbd de58 e7bd 9389 af3c
00000220: cd73 b1bc ee9d 553d 2c94 84bd f7fc 803e
00000230: 5791 f33d ac3f 23be 3100 b93d ea62 3dbe
00000240: 6c2d cf3d 7e66 bc3c bc99 adbd fc26 0c3c
00000250: 3037 9cbd 5987 f7be 304f 4ebe 3231 18be
00000260: be45 e9bd 828b d73b a007 983d 2e47 17bd
00000270: bb86 1b3e 4c3d ccbd 1b39 25bc 233c 9e3d
00000280: 085e f53d 8edc d43d 6221 95bd fbb1 9d3d
00000290: 16b8 0dbe 5851 5c3d a92c b73c e384 6f3e
000002a0: 00eb 813e c35d 9a3d e11b 8b3d 1a91 66be
000002b0: 2a8f 363b 32c8 c5bc 1d8b 673d 39e8 803d
000002c0: af0a 93bd 0463 213d 8166 8e3d 3e11 2e3e
000002d0: 2dcf fabc d76f d33d f7df 373e 9ce9 003e
000002e0: fc72 373d c144 173d 840f 5abc 576e 863d
000002f0: df36 34be 0457 903c d447 a63d 2b21 3e3d
00000300: c00c 92bd 267d 3f3d b03b 0cbe 06dd 133e
00000310: b13e 04bd c1f9 a0bc 939e b2bd 54d3 dbbe
00000320: 1c60 cebe ed91 053e dc92 443e e7c8 e23c
00000330: 1eff ae3d 9e20 393d d5c6 3dbd a214 c93c
00000340: 02df 36bc 74c9 313c 3a5f f73c 8a08 aabd
00000350: f5c7 2bbd 64f3 ef3d 5082 f8bd 424d 333e
00000360: 1f94 8e3b 8004 f53e ba3c c23d 975f a3bb
00000370: ae5f 913d 653c 8abd f3e7 d03d cf1d 04bd
00000380: 7809 9abd edab ba3d a99f 6bbd 6c58 0ebd
00000390: 9325 0a3e 1c4d 93bd ae44 483e 61f6 823d
000003a0: f3ca a4bd c5c0 9c3d 555d 313d 4e85 223e
000003b0: dfb3 4e3e e065 cb3d 95ae 60bd 89a7 88bd
000003c0: 7979 be3d bbfe c43d dc70 b53d b612 0fbe
000003d0: 3abd 1d3e c64b 44bd a3d1 88b9 80e9 2ebc
000003e0: fed1 18bd 64a1 2fbe 254c bfbe 2c7e a0bd
000003f0: e5ee 0cbc 3c8b 1f3e 8ddb 33bb 7a15 173d
-0.25356558 -0.02693512 0.042998202 -0.035439007 0.026108291 0.09896427 0.06381077 0.0014642176
0.14837556 -0.010821052 0.049491763 0.11531377 -0.18446562 0.121543095 0.13707946 -0.03135588
-0.022882372 -0.013478226 0.20708372 0.12729426 -0.013485135 0.05542909 -0.08234445 -0.020090392
0.031829547 0.021937478 0.07353821 -0.011039523 0.0005138333 -0.15531303 -0.19900687 -2.5825248e-05
-0.021779882 -0.08219737 0.15024786 0.10136249 -0.1618426 0.1497207 -0.013660197 0.35981995
-0.035780463 -0.03911169 0.15075552 0.0983667 -0.05887474 -0.1261485 0.05987708 -0.12024979
0.0740502 -0.51741254 0.049885504 0.0727019 0.005023832 0.06965567 -0.048373967 -0.08236445
-0.13264611 -0.03546225 -0.1369277 -0.10552319 0.1079903 -0.04680095 0.08264125 -0.017073791
-0.101863354 0.09074329 0.12885503 -0.09807621 -0.026791725 -0.014797217 0.06392755 0.0360709
-0.01614322 -0.052102316 -0.14848389 0.02239011 -0.011875021 0.008303299 -0.05565097 0.086616345
0.08419174 -0.12612984 0.004225367 0.04071974 -0.11588638 -0.13440152 -0.0069766245 -0.020091886
-0.1348283 -0.041743215 -0.055136077 -0.019725872 0.06646639 0.078621276 -0.007966031 0.067911185
0.12532003 -0.044972625 0.06798434 -0.048177037 -0.10549761 0.016403697 -0.055469483 -0.024874836
-0.043145932 0.009398563 -0.022295384 0.039486554 0.0861241 0.11983327 0.18621571 0.11075833
0.1369219 0.076162726 -0.08491025 0.0984424 0.11098902 -0.052628476 0.1476068 0.016873103
-0.119050704 -0.15966634 -0.00026592615 0.1529184 -0.06522005 -0.012499111 0.14409758 0.025798215
-0.119153924 0.046842985 -0.46032408 0.08534448 -0.038532402 -0.038454097 -0.11296247 0.021427905
-0.021661663 0.052152567 -0.06473574 0.25192997 0.11892956 -0.15942258 0.0903324 -0.18494764
0.101160854 0.02299809 -0.08476588 0.0085542165 -0.07627714 -0.4834545 -0.20147395 -0.14862517
-0.113902554 0.00657791 0.07423329 -0.036933117 0.15188114 -0.09972629 -0.010084416 0.07726314
0.11980826 0.1039363 -0.07281758 0.07699963 -0.13839754 0.053788513 0.022360163 0.23390536
0.25374603 0.07537415 0.06792427 -0.2251629 0.0027856329 -0.024143312 0.056529153 0.06294293
-0.07179772 0.03940107 0.06953145 0.16998765 -0.030616367 0.10324066 0.1795653 0.12589115
0.044787392 0.036930803 -0.013309363 0.065640144 -0.17599057 0.017619617 0.08119169 0.04641835
-0.07131338 0.04675021 -0.13694644 0.14439783 -0.03228635 -0.019650342 -0.08721652 -0.42934668
-0.403077 0.13043948 0.19196647 0.027683688 0.085447535 0.04519712 -0.0463322 0.024545971
-0.011161568 0.010851253 0.030196775 -0.0830241 -0.04193874 0.11716345 -0.1213423 0.1750994
0.0043511535 0.47854996 0.09484239 -0.0049857604 0.070983276 -0.067498006 0.10200491 -0.03225499
-0.07521337 0.091148235 -0.05752531 -0.034752294 0.13490896 -0.07192442 0.19557449 0.06394649
-0.08046522 0.07653955 0.0433019 0.15871164 0.20185803 0.099315405 -0.054853994 -0.0667258
0.09300513 0.096188985 0.08859417 -0.13971981 0.15404215 -0.047923826 -0.00026096133 -0.010675788
-0.03730964 -0.1715141 -0.3736278 -0.078365654 -0.008601879 0.15580457 -0.0027444095 0.036885716

fc.3.bias f4 [50]
00000000: 287d bc3d 04e6 2cbd 6a20 66bd 9a35 4cbd
00000010: dd76 42be 12bb aebc 03b7 a3bd 2568 edbc
00000020: f341 ab3e 20d3 803e f517 613b edce f0bd
00000030: ed5c 03be ae21 70bc b336 87be 2a10 9a3c
00000040: e6a0 8abd e11b 77bd 5f5a dbbd 91df 8f3d
00000050: 8fb9 5e3e 1df3 ef3d 94a7 44bd a454 ae3c
00000060: aadc 3c3d 2edd 14be 6d93 c93d 6065 363e
00000070: c3de 213e 0d9f 45be 39b9 07bc b933 5f3d
00000080: aadf ed3d fee1 cf3d 3184 753e 9a94 6abd
00000090: 1a94 593e 416c 223e bf8f 84bd 9e14 483e
000000a0: 5463 493e 9c4a c83c 58fa 673e c1de 173e
000000b0: 2555 c83d a559 f3bc 7956 dbbd 5bad 13be
000000c0: a11d 11bd 2073 dd3d
0.09203559 -0.042211547 -0.056183256 -0.049855806 -0.18990655 -0.021329436 -0.07993891 -0.028980324
0.33448753 0.25161076 0.0034346555 -0.11758218 -0.12828417 -0.014656467 -0.2640892 0.018806536
-0.0676897 -0.06032932 -0.10710596 0.07025064 0.21750472 0.11716292 -0.048011377 0.021280594
0.04610888 -0.14537498 0.09842572 0.17812109 0.15807633 -0.19298954 -0.008283907 0.054492686
0.11614926 0.101505265 0.23976208 -0.057270624 0.21247903 0.15861608 -0.0647273 0.19539115
0.19666797 0.024449639 0.22654092 0.14831068 0.09781865 -0.029705832 -0.10709853 -0.14421599
-0.035428647 0.10812974

fc.4.weight f4 [4, 50]
00000000: c0c0 1c3e deae b33d 0f52 113e 926a 123e
00000010: 464b de3d bf97 093e d94b 213e 1e52 f5bc
00000020: 9029 f0bd cb73 25be 377b b7bd 8b83 123e
00000030: d9b8 11be bf4e 2c3d 3082 053f 2cf1 12be
00000040: 3e22 f73d 78e8 e3bd 1d0e 293e fb49 19bd
00000050: 1544 e3be 6294 53bc 7f75 f5bd c09e 07be
00000060: 4ef1 3cbd 36db adbd 6a3d 243e b3f1 7c3e
00000070: 3be9 41bd c74e a33d 0911 523c 919e d2bd
00000080: eb93 0f3d 33e8 fe3e 9b87 a3bd 2eb6 803d
00000090: 1d63 eebd ff58 8bbd 67a3 833d bcad f6bd
000000a0: e5dd f5bd d91f 92bd 105b d23e bfee fbbd
000000b0: 41f7 49bd af0b e73d 872c 8cbd f423 ac3d
000000c0: 7b28 1b3e e6a2 8fbd e9e7 783d 1295 be3d
000000d0: 6033 913d c918 49bd a4ef 38be 5c7e 7cbc
000000e0: 4ead 06bb 12e0 e6bc c811 9f3e 1c02 993d
000000f0: 9cb0 633d 9b4a ccbc 499f 0f3d 0988 0ebe
00000100: ce2e 6e3e 43b5 bbbd 3c25 b93d bc9a a9bd
00000110: fcb5 d13d 4eef 62bd caed 39bd 8cf8 05bd
00000120: 5075 9a3d c14f e43d 8415 4e3d b265 e33d
00000130: aacf b63d d636 84bd 2efb 323d 30da 26bd
00000140: 4e77 753d 0c1b b43d a618 d4bd c6d4 55bd
00000150: 9059 2bbd 6337 cb3d 707f 0f3e 101f b43d
00000160: dec1 da3d b910 1b3e 4960 32be d916 5ebe
00000170: 2183 bbbe 53b6 12be 2f2f a1bd 761a e03d
00000180: af02 3cbc 1243 edbd 7254 cd3c 45a9 343c
00000190: 0cd9 0ebe 3689 f5bd 1894 2f3d 9c6a fa3d
000001a0: e83d 08be 92a6 0c3e 7053 79bc 1981 a93d
000001b0: 61ae 8fbc 4a5b d53d f707 09be 1897 aabd
000001c0: ca75 d83c edf6 ac3d c80e 24bd d1bc 27be
000001d0: 80e1 12be 61e3 d03d cc87 033a c51d 8f3d
000001e0: 49f5 063d da7c 103e 967b 4a3d 10cd e9bd
000001f0: bbcf 853d 6904 cebd 23d7 c13d 3629 ac3d
00000200: cbd1 a83d 36d6 d03d 7508 85bd 472f fabd
00000210: 7b0e 2dbe 7415 8dbd 142f c33d d3d4 afbd
00000220: 7e06 083e 02c7 303e e532 f5bd 04ed 27be
00000230: 8e1d 383e 5e21 233b 46ef 26bc 54c3 1bbe
00000240: 56e3 0abe 6a32 153e 7a1d 38bd 1b52 a3bd
00000250: b959 1d3d eb80 f5bd b43d c5bd 8d64 37bd
00000260: bf0a 153e bdcd c73d 9350 913d 75ee 003a
00000270: e414 d63d 93f1 8e3d 8e77 89bc 1fed 803d
00000280: 0c97 4dbe 2c78 fa3d e9dc cf3d 5429 97bd
00000290: 62e6 13bb 7684 b23d b6c6 19be 1a08 73bd
000002a0: d0f4 c7bd 9b20 b03d 8605 483d f544 cbbd
000002b0: eede 09bc 0c2f 2e3c 1a9f 38be a7ba bebc
000002c0: d685 b73c cfea 6fbd 380e 0a3e 0e64 b83c
000002d0: 5cee 8abd ec4d 0fbe b30a 94bd 5a61 04bd
000002e0: 9d80 65be 4c37 983d c9b5 23be 3a0e e73d
000002f0: 3fea 03bc 7674 4b3e d344 613c 2221 75bc
00000300: 0a5d c13c c910 133e 91a8 1dbe 61e6 1abe
00000310: bfa2 ac3d 961a 713d 9faf 023e e463 f13d
0.15307903 0.08773588 0.14191459 0.14298466 0.10854201 0.13436793 0.1575159 -0.029946383
-0.117266774 -0.16157453 -0.08959048 0.14307992 -0.1423067 0.042067286 0.52151775 -0.14349812
0.12067078 -0.11128324 0.1650929 -0.03742407 -0.4438788 -0.012913795 -0.11985301 -0.13244152
-0.046128564 -0.08489077 0.16039053 0.24701576 -0.047341567 0.0797401 0.012821444 -0.102841504
0.035053175 0.4978653 -0.07984849 0.06284748 -0.11639998 -0.06804084 0.06427651 -0.12044856
-0.12005214 -0.07134981 0.410851 -0.123013966 -0.049308065 0.11281525 -0.068444304 0.08405295
0.15152161 -0.07013492 0.06076804 0.09305777 0.07089877 -0.049095903 -0.18060166 -0.015410986
-0.0020550075 -0.028183017 0.31068254 0.074711055 0.05558835 -0.024937918 0.035064016 -0.13919081
0.23260042 -0.09165432 0.09040305 -0.08281466 0.10239789 -0.055404 -0.04539279 -0.032707736
0.07541907 0.11148024 0.050313488 0.11103381 0.089263275 -0.064557716 0.043696575 -0.040735424
0.05992823 0.08794221 -0.10356264 -0.05220487 -0.04183346 0.099226736 0.14013457 0.08794987
0.106815085 0.15143098 -0.17419542 -0.21688403 -0.3662348 -0.14327364 -0.07870328 0.10942547
-0.011475249 -0.11585058 0.02506468 0.011026685 -0.13949984 -0.119890615 0.042865843 0.122273654
-0.13304865 0.13735417 -0.015217647 0.082765765 -0.017539205 0.10417803 -0.13381945 -0.083296
0.026423354 0.08445535 -0.04005316 -0.16380621 -0.14343834 0.10199619 0.0005017489 0.069881
0.032948766 0.14110127 0.049434267 -0.11416066 0.06533762 -0.10059435 0.09464862 0.08406298
0.0824314 0.101971075 -0.06495754 -0.12216049 -0.16900055 -0.068888575 0.09530464 -0.08585515
0.13283727 0.17263415 -0.11972598 -0.16399008 0.17980024 0.0024891715 -0.010188883 -0.1521123
-0.13563284 0.14570013 -0.044949986 -0.07974645 0.038415644 -0.1198748 -0.096309096 -0.044773627
0.1455488 0.09756038 0.070954464 0.00049183454 0.10453203 0.069796704 -0.01678064 0.06295227
-0.20077151 0.12229952 0.10149557 -0.073809296 -0.0022567739 0.08716671 -0.15017208 -0.059333898
-0.09763491 0.08599969 0.048833393 -0.09925262 -0.008414967 0.010631334 -0.18029442 -0.023282362
0.022402685 -0.05857354 0.13481987 0.022508647 -0.06783745 -0.13994569 -0.07228603 -0.032319404
-0.22412343 0.07432422 -0.15987314 0.112820104 -0.008051454 0.19868645 0.013749319 -0.014961513
0.023603935 0.14361872 -0.15396334 -0.15126945 0.08429479 0.058863245 0.12762307 0.11786631

fc.4.bias f4 [4]
00000000: 7ad6 a5be 2e26 ed3d 013a 1a3c 9d58 40bd
-0.32390195 0.11579548 0.009413243 -0.04695951
